ResidualLoss/CNN-l2-freeze-knn/beta-8.pt (torch, 27135 bytes, 10 tensors)

conv1.0.weight f4 [8, 3, 3, 3]
0	0x3cdd0f9f	0.026984988
1	0xbe0170bd	-0.12640662
2	0x3deca93d	0.11555717
3	0x3e3116e1	0.17293884
4	0xbed50bfd	-0.4161071
5	0x3e80c1dd	0.25147906
6	0x3d9f81d8	0.077884376
7	0xbe3dfc65	-0.18553312
8	0x3d81fda2	0.06347205
9	0x3ea0a168	0.31373143
10	0xbf02d52a	-0.5110651
11	0x3e3d21ce	0.18469927
12	0x3e457cf7	0.19285952
13	0xbe983658	-0.2972896
14	0x3e85a781	0.26104358
15	0x3a7846c2	0.0009470993
16	0xbea02429	-0.31277588
17	0x3e4d86c6	0.20070943
18	0x3d82539e	0.06363605
19	0xbe7549c7	-0.23953925
20	0x3e1b9660	0.15194082
21	0x3e6b6987	0.22989474
22	0xbef27eed	-0.47362462
23	0x3e87f08f	0.2655072
24	0xbc78ace9	-0.015177944
25	0xbdbdd689	-0.09269435
26	0x3dcd0a57	0.10011738
27	0x3dc7c6d3	0.097547196
28	0x3daa46ef	0.08314311
29	0xbea05934	-0.31318057
30	0x3d7b2d30	0.06132239
31	0xbf1ad77d	-0.6048506
32	0xbea46228	-0.32106137
33	0x3da066c6	0.078321025
34	0xbdb98e7b	-0.09060379
35	0x3d9b755f	0.07590746
36	0xbe2f72f4	-0.17133695
37	0xbd280011	-0.04101569
38	0x3d913555	0.070902504
39	0x3e222e69	0.15838017
40	0x3da639ca	0.08116491
41	0x3e83aa0e	0.2571568
42	0xbeaed03d	-0.34143248
43	0x3eaf339c	0.34219062
44	0xbea42bfb	-0.32064804
45	0x3d8e5f0e	0.06951724
46	0x3e8ffa1b	0.28120503
47	0x3e13b2c5	0.14423664
48	0x3cc0cbe9	0.023534732
49	0x3dc8b835	0.0980076
50	0x3e3b841b	0.18312113
51	0xbd10a288	-0.035311252
52	0x3dec1812	0.115280285
53	0x3d3ac9b5	0.04560252
54	0x3eb406c8	0.35161424
55	0xbde2da7e	-0.1107683
56	0xbc65d71d	-0.014028338
57	0x3d6dfc93	0.0581022
58	0x3ed1a008	0.40942407
59	0x3e81c9a5	0.25349155
60	0xbec94b29	-0.39315155
61	0xbe21dc2c	-0.15806645
62	0xbed33d65	-0.41257778
63	0xbbf3deaf	-0.0074423174
64	0xbd50573b	-0.05086444
65	0x3d519730	0.051169574
66	0xbde0d482	-0.10978033
67	0x3e122dc4	0.1427527
68	0x3ea7cf8d	0.32775536
69	0x3da99f1f	0.08282303
70	0xbe98d153	-0.29847202
71	0xbdef0e3c	-0.11672637
72	0xbcd15373	-0.025552487
73	0xbde99458	-0.114052474
74	0xbe7118fe	-0.2354469
75	0x3e1b295d	0.15152498
76	0x3e883279	0.26601008
77	0x3db16785	0.08662323
78	0xbd92c6c0	-0.07166815
79	0xbd2ce99d	-0.04221498
80	0xbcfb24b5	-0.030657152
81	0xbe56a2fe	-0.20960614
82	0x3e3f3bbf	0.18675135
83	0x3e261028	0.162171
84	0x3d4f16ed	0.050558973
85	0x3e0d13a3	0.13777022
86	0x3e8f93d4	0.2804247
87	0xbe934547	-0.28763792
88	0xbc98b78e	-0.018642213
89	0x3e5cef80	0.21575737
90	0x3ed3944c	0.4132408
91	0xbe2dacfe	-0.16960523
92	0x3ddd588d	0.10807905
93	0xbd81f4ef	-0.063455455
94	0xbe6f6a38	-0.23380363
95	0xbed64d99	-0.41856077
96	0x3e4b192f	0.19833826
97	0xbe36d064	-0.17852932
98	0xbe92a422	-0.28640848
99	0x3d52d0c1	0.051468614
100	0xbd1d24e4	-0.03836526
101	0xbe6eabbd	-0.233077
102	0xbd70fc65	-0.058834452
103	0xbe1c74a0	-0.15278864
104	0xbd63308f	-0.05546623
105	0x3cf3b8ce	0.029751208
106	0x3e911035	0.28332677
107	0x3e04f0d6	0.12982497
108	0x3e713a3b	0.2355737
109	0x3dcdfcdc	0.10057995
110	0xbe81ac57	-0.25326797
111	0x3e2b8cfe	0.16753003
112	0x3ec88db7	0.3917062
113	0x3d1925a7	0.037389424
114	0xbdbdc369	-0.09265787
115	0x3db1d1b9	0.086825795
116	0x3ea26b6b	0.31722578
117	0xbe767828	-0.24069273
118	0x3d7d3b2b	0.061824005
119	0xbe52334e	-0.20527384
120	0xbe3d7e87	-0.18505298
121	0x3ea49f17	0.32152626
122	0xbd8d968c	-0.0691348
123	0xbe56b223	-0.20966391
124	0xbc9efb5b	-0.019406965
125	0xbe8fc325	-0.2807857
126	0x3d7b77ac	0.061393425
127	0x3ee0ff53	0.43944797
128	0xbeb24a95	-0.34822527
129	0xbdb9a286	-0.09064202
130	0x3ea0daed	0.31417027
131	0x3d6280c1	0.05529857
132	0xbe885c48	-0.26632905
133	0x3e7c2bd8	0.246261
134	0x3e713508	0.23555386
135	0x3ddabf7a	0.106810525
136	0xbeaa53f2	-0.3326717
137	0x3e710ef2	0.23540857
138	0x3dd25aa8	0.102711976
139	0x3e33720a	0.17523971
140	0xbea4b381	-0.321682
141	0xbda71ae0	-0.08159423
142	0x3da1be9a	0.078976825
143	0x3d8dc736	0.06922762
144	0x3c505072	0.012714492
145	0xbeb3f7b1	-0.3514991
146	0x3e602a8b	0.21891229
147	0x3dac362b	0.08408769
148	0x3eaf67ab	0.3425878
149	0xbe89ec7e	-0.26938242
150	0xbeabe9d4	-0.33576834
151	0x3e3c8095	0.18408425
152	0x3d989b83	0.074515365
153	0x3eacbfee	0.3374018
154	0xbee601ad	-0.44923154
155	0x3e4c0460	0.19923544
156	0xbd8f1f7e	-0.069884285
157	0x3e89d220	0.26918125
158	0xbed99ec3	-0.42503938
159	0x3bfbb6cc	0.007681703
160	0x3cc1a3a4	0.0236376
161	0x3cc42e00	0.023947716
162	0xbe10f3ce	-0.14155504
163	0x3df181d6	0.11792342
164	0x3eb49ad4	0.35274374
165	0x3e418c2b	0.18901126
166	0x3eff67d0	0.4988389
167	0xbe814b98	-0.25252986
168	0x3e8a3611	0.26994374
169	0xbe608151	-0.2192433
170	0xbe9d529c	-0.30727088
171	0xbe3e4aae	-0.18583176
172	0x3e010e1c	0.12603039
173	0x3d103e9a	0.03521595
174	0xbdffa72c	-0.124830574
175	0x3eea9db2	0.45823437
176	0xbf043e9c	-0.51658034
177	0xbd25edca	-0.040509976
178	0xbeba0f89	-0.36339977
179	0x3e295db2	0.16539648
180	0xbee37545	-0.44425407
181	0x3cb68530	0.022280306
182	0x3e88300e	0.26599163
183	0x3cafb85a	0.02145021
184	0x3f166ccf	0.5875978
185	0xbe4fc5f9	-0.20290364
186	0x3e550d0b	0.20805757
187	0xbca98c9a	-0.020696927
188	0xbdaabae6	-0.08336429
189	0x3e89f4df	0.26944634
190	0xbe44c21e	-0.19214675
191	0xbdb8b2d6	-0.09018485
192	0x3e2026bc	0.15639776
193	0x3e1b87be	0.151885
194	0xbe1877f9	-0.14889516
195	0x3c6ef9ce	0.014585925
196	0xbd3d43bb	-0.04620717
197	0xbdd6b956	-0.10484569
198	0x3e8f4247	0.27980253
199	0xbd9a131a	-0.075231746
200	0xbe2d10b9	-0.1690091
201	0x3e08fb64	0.13377148
202	0x3e36705d	0.178163
203	0xbe2c3f84	-0.16821104
204	0x3cb1dc82	0.021711592
205	0xbe859989	-0.260937
206	0xbd6f86a6	-0.05847802
207	0x3e027025	0.12738092
208	0x3e19f875	0.15036185
209	0xbeaef172	-0.34168583
210	0x3eab6d32	0.33481747
211	0xbda8ffad	-0.08251891
212	0xbe9794cc	-0.2960571
213	0xbaec502f	-0.0018029268
214	0x3e7ce0c2	0.24695113
215	0xbda5fe8c	-0.081051916

conv1.0.bias f4 [8]
0	0xbaac952a	-0.0013167013
1	0x3f222f96	0.6335386
2	0xbc0a594d	-0.0084441425
3	0x3f7c0ebd	0.9845999
4	0x3f6dbc20	0.9286518
5	0x3daf5914	0.08561912
6	0x3ec0007a	0.37500364
7	0xbce411d0	-0.027840525

conv2.0.weight f4 [8, 8, 3, 3]
0	0xbe5fdde1	-0.21861984
1	0xbe7cbcea	-0.2468144
2	0xbe42cf71	-0.19024445
3	0xbeacd54f	-0.33756492
4	0xbeb0f75a	-0.34563714
5	0xbe7c944f	-0.2466595
6	0xbe445f26	-0.19176921
7	0xbec917fb	-0.39276108
8	0x3dcd2a7d	0.100178696
9	0xbdd93b45	-0.10607008
10	0x3d39dfc4	0.045379415
11	0x3de48078	0.11157316
12	0x3dc94593	0.09827723
13	0xbe2dec76	-0.16984734
14	0xbca4f058	-0.020134136
15	0x3e904d58	0.2818401
16	0x3c586eb4	0.013209987
17	0xbe1401cc	-0.1445381
18	0x3c52fbae	0.012877388
19	0xbe7c50ef	-0.24640249
20	0x3ec2b9de	0.3803243
21	0x3d33bc90	0.043881
22	0xbd86f8fb	-0.06590458
23	0x3e752435	0.23939593
24	0x3e6c195c	0.23056549
25	0xbdc6201b	-0.096740924
26	0x3e216b69	0.1576363
27	0x3e38ff93	0.18066244
28	0xbe9f69bb	-0.31135353
29	0x3e3ceda0	0.18450022
30	0x3dff47ab	0.124648415
31	0x3dc46676	0.095898554
32	0xbe98282a	-0.29718143
33	0xbc9fc305	-0.019502172
34	0xbd97c74b	-0.07411059
35	0xbd222ea0	-0.039595246
36	0xbe59abab	-0.21256892
37	0x3e4f8732	0.20266417
38	0x3eb78c87	0.358494
39	0x3eaa8315	0.33303133
40	0x3d77b3d9	0.06047425
41	0x3ccb7958	0.024838135
42	0x3e20a245	0.15686901
43	0x3d859709	0.06522948
44	0xbdb8699d	-0.09004519
45	0x3e0c0325	0.13673075
46	0x3ea4fd5a	0.32224542
47	0x3dc03047	0.09384208
48	0x3eaf7c74	0.34274638
49	0x3ed36082	0.41284567
50	0x3ddc0687	0.107434325
51	0x3e3d53e9	0.1848904
52	0x3edd5f89	0.4323695
53	0x3f1b62a6	0.606974
54	0xbdb0ed02	-0.08638956
55	0xbe03b548	-0.12862122
56	0xbe2aba06	-0.16672525
57	0xbe6ec7f6	-0.23318467
58	0xbe4f4129	-0.202397
59	0xbd8c8763	-0.068617605
60	0xbebf5bc3	-0.37374696
61	0xbe334bd0	-0.17509389
62	0xbe012715	-0.12612565
63	0x3db24cc7	0.0870605
64	0x3d9508a4	0.07277039
65	0xbe63e014	-0.22253448
66	0xbd92dedf	-0.071714155
67	0xbc79bd87	-0.015242941
68	0xbdf668a8	-0.1203168
69	0x3e600ec6	0.21880636
70	0xbe1024e0	-0.14076567
71	0x3c673bb1	0.014113353
72	0xbc999857	-0.0187494
73	0xbda6e668	-0.08149415
74	0xbd197647	-0.037466314
75	0xbd435e3c	-0.04769729
76	0xbbc5e153	-0.0060388236
77	0xbbd6a108	-0.006549958
78	0xbd473b23	-0.04864038
79	0x3d333831	0.04375476
80	0x3d5c2c4a	0.053753175
81	0xbd471dac	-0.04861228
82	0x3daa9e5c	0.08330986
83	0xbf02b665	-0.5105956
84	0xbd8bf136	-0.06833117
85	0x3efd798e	0.495068
86	0xbd27e60f	-0.040990885
87	0x3ee5c27d	0.44874945
88	0x3e812523	0.25223646
89	0x3d6cc536	0.057805263
90	0x3e227619	0.15865363
91	0x3e8f83b7	0.28030178
92	0x3e18c520	0.14918947
93	0x3d2194c3	0.03944851
94	0x3e883819	0.266053
95	0x3e6064ce	0.21913454
96	0xbdad789d	-0.08470271
97	0xbd68e0ed	-0.05685513
98	0x3eb3e43e	0.35135072
99	0x3ec2da6e	0.38057274
100	0x3e2d7e0a	0.16942611
101	0x3d41dd59	0.047330234
102	0x3e53e54f	0.20692943
103	0x3ee0038d	0.4375271
104	0xbe105253	-0.14093904
105	0x3c876f5d	0.016532594
106	0x3ee8dc13	0.45480403
107	0xbdaf1e95	-0.08550755
108	0xbdec4578	-0.115366876
109	0xbd93e0f7	-0.07220643
110	0xbcf3de6c	-0.029769145
111	0xbe74de23	-0.23912863
112	0xbd8bedc2	-0.06832458
113	0x3e4bfbb8	0.19920242
114	0x3d8a9447	0.06766563
115	0xb8879d9b	-6.466658e-05
116	0xbd64c60c	-0.055852935
117	0xbdd377ac	-0.1032556
118	0xbea63d3a	-0.32468587
119	0xbe2d6928	-0.16934645
120	0xbe9e8394	-0.3095976
121	0xbdba05cb	-0.09083136
122	0xbd5ef7d1	-0.054435555
123	0xbf0363d7	-0.5132422
124	0xbe99ec06	-0.30062884
125	0xbdb3033a	-0.0874085
126	0x3e04e3bb	0.12977497
127	0xbe2f2c56	-0.17106757
128	0xbe362406	-0.1778718
129	0x3ba11176	0.0049154116
130	0x3cccc196	0.024994653
131	0xbe308a30	-0.17240214
132	0x3d0ff30f	0.035143908
133	0x3d84bf90	0.0648185
134	0x3da9e815	0.08296219
135	0x3da34b0a	0.07973297
136	0xbd53a351	-0.051669423
137	0x3d9a5d99	0.075373836
138	0xbcafd8cc	-0.021465681
139	0x3c1143cb	0.008866261
140	0xbb1b1238	-0.0023661982
141	0xbcffa4ad	-0.031206453
142	0xbd03f35c	-0.032214507
143	0x3d8da284	0.06915763
144	0xbe4d7308	-0.20063412
145	0xbf0ed775	-0.5579751
146	0x3d1eccc4	0.0387695
147	0xbf1e14e5	-0.6175063
148	0xbfa5949b	-1.2935976
149	0xbe1e93c3	-0.15486054
150	0x3da3b71f	0.07993912
151	0xbebd76c3	-0.3700467
152	0x3d3d65b5	0.046239574
153	0x3d9dfd5e	0.077143416
154	0xbd366dd9	-0.044538353
155	0x3df465aa	0.119334534
156	0xbc50f1d2	-0.012752967
157	0xbe1b9133	-0.15192108
158	0x3c73ea9d	0.014887479
159	0xbe37db0c	-0.17954654
160	0xbd8205d5	-0.063487686
161	0x3e357785	0.17721374
162	0x3de65867	0.1124733
163	0x3dfb294d	0.12263737
164	0x3e926eda	0.28600198
165	0x3ebb7e87	0.3661997
166	0x3ed8892a	0.42292148
167	0x3e265073	0.16241626
168	0x3dedac7c	0.116051644
169	0x3d8e0031	0.0693363
170	0x3db059e2	0.08610894
171	0x3e4e47d2	0.20144585
172	0x3e171e51	0.14757659
173	0x3db049b2	0.08607806
174	0x3e6782c2	0.22608474
175	0x3dfdc2c0	0.12390661
176	0x3e300b06	0.17191705
177	0xbe4213a2	-0.18952802
178	0xbd9468cb	-0.0724655
179	0xbdbaefdf	-0.09127783
180	0x3d6efc7b	0.058346253
181	0xbd5c6ad4	-0.053812817
182	0xbbb09688	-0.0053890385
183	0x3da4209d	0.08014033
184	0xbeac3356	-0.33632916
185	0xbd885363	-0.0665653
186	0x3e2a1396	0.16609034
187	0xbdd1f0c3	-0.10251
188	0x3e4e9386	0.20173463
189	0x3cfb5da9	0.03068431
190	0xbe5aecf2	-0.2137945
191	0xbe2bc56d	-0.1677453
192	0xbebf1b23	-0.3732539
193	0xbf2a7499	-0.66584164
194	0xbdfaf874	-0.1225442
195	0xbdd59313	-0.10428443
196	0x3e35873d	0.1772737
197	0x3d2355ea	0.039876856
198	0x3d2ed5b6	0.04268428
199	0xbe585e53	-0.21129732
200	0xbd7002e0	-0.05859649
201	0x3d3d90f4	0.046280816
202	0xbe65d4c3	-0.22444443
203	0xbdc208a3	-0.094743036
204	0x3c359d9d	0.011084941
205	0xbd864555	-0.06556193
206	0x3e5cbad5	0.21555646
207	0xbcf1a3f1	-0.029497119
208	0xbe2c3acc	-0.16819304
209	0x3d78e112	0.06076152
210	0x3c293290	0.010326996
211	0xbf262501	-0.64900213
212	0xbe037f11	-0.1284144
213	0x3c89f928	0.01684244
214	0xbe570343	-0.20997338
215	0x3dbbe0fb	0.09173771
216	0x3e1cad57	0.15300499
217	0x3b195e17	0.002340203
218	0x3acb71c6	0.0015521578
219	0xbd1332a8	-0.03593698
220	0x3e7092e1	0.2349353
221	0x3e92354f	0.28556296
222	0x3e572562	0.21010354
223	0x3ea0a661	0.31376937
224	0x3e8932b5	0.267965
225	0xbe965472	-0.29361302
226	0xbd837180	-0.06418133
227	0xbdb8aa77	-0.090168886
228	0xbd09e6e4	-0.03366746
229	0x3e6c51a2	0.23078015
230	0xbdbc213c	-0.091860265
231	0xbe5e0867	-0.21682893
232	0xbdd476e9	-0.10374243
233	0x3e32266d	0.17397471
234	0x3d524d9c	0.051343545
235	0x3e5c2ec9	0.21502222
236	0x3ec81338	0.39077163
237	0x3e5891dc	0.21149391
238	0xbdad1c58	-0.08452672
239	0x3eb1b30b	0.3470691
240	0x3e101930	0.14072108
241	0x3df35a0f	0.11882412
242	0x3df1d35d	0.118078925
243	0x3f059aba	0.5218922
244	0x3f329f02	0.69773877
245	0x3e162080	0.14660835
246	0x3e7e68e1	0.24844696
247	0x3e9bffca	0.3046859
248	0x3dbaf947	0.09129577
249	0xbba43420	-0.0050110966
250	0x3e0a3a98	0.13498914
251	0x3e40e9ce	0.1883919
252	0xbd1aa429	-0.03775421
253	0xbe1f8ec9	-0.15581812
254	0x3df00d34	0.11721268
255	0xbe0ec800	-0.13943481

conv2.0.bias f4 [8]
0	0x3d3fdafa	0.04683969
1	0xbf18dd6e	-0.59712875
2	0x3f67890a	0.9044348
3	0x3dc32c9f	0.09529995
4	0x3ef30b5e	0.4746961
5	0xbf695fb0	-0.9116163
6	0x3ef8273d	0.48467436
7	0xbf1bc870	-0.6085272

conv3.0.weight f4 [8, 8, 3, 3]
0	0x3dda1851	0.10649169
1	0xbe4bc647	-0.19899856
2	0xbe90a73a	-0.28252584
3	0x3ee1c5da	0.4409626
4	0xbe806d34	-0.25083315
5	0x3e036b3f	0.1283388
6	0xbea2f4a9	-0.31827286
7	0x3eef29ea	0.46711665
8	0x3e618396	0.22022852
9	0xbedf7cc6	-0.43649882
10	0x3e540f70	0.20709014
11	0xbe27dcb5	-0.16392787
12	0x3e2be9bf	0.16788386
13	0x3e0e1fce	0.1387932
14	0xbac1e538	-0.0014793044
15	0xbd5f7564	-0.05455531
16	0xbe984412	-0.29739434
17	0xbe62e5a3	-0.22157912
18	0x3d9c8a91	0.07643617
19	0xbeea5389	-0.45766857
20	0x3e2a0901	0.16604997
21	0x3e33cc0a	0.17558303
22	0x3dbc60e0	0.09198165
23	0xbe935e23	-0.28782758
24	0x3f018125	0.50587684
25	0x3ef20af0	0.4727397
26	0x3e9ed75d	0.31023684
27	0xbdc0f0e2	-0.09420945
28	0xbda7c50c	-0.081918806
29	0xbdcdc179	-0.100466676
30	0xbe831df4	-0.2560879
31	0xbe22279d	-0.15835424
32	0x3e58d11d	0.2117352
33	0xbd9a760e	-0.075420484
34	0x3e355d5f	0.177114
35	0x3c6003ee	0.013672812
36	0xbd8ce939	-0.06880421
37	0xbe3f6220	-0.18689775
38	0xbc952527	-0.018206192
39	0x3de00e1a	0.1094019
40	0x3e58de8c	0.21178645
41	0x3e35556f	0.17708372
42	0x3ecfe3f8	0.40603614
43	0x3e7fa367	0.24964677
44	0x3df70dc8	0.120631754
45	0x3ea4166f	0.32048365
46	0xbdab1af3	-0.083547495
47	0x3de3753f	0.11106347
48	0x3dc8b0fe	0.097993836
49	0xbe04486e	-0.12918255
50	0x3e5bd77f	0.21468924
51	0xbd51c117	-0.051209535
52	0x3cfc0fa1	0.030769171
53	0xbd2b8caa	-0.041882195
54	0xbe69c934	-0.22830659
55	0xbca799b8	-0.020459041
56	0x3d26d438	0.04072973
57	0x3d4cac4a	0.049968995
58	0xbe9ae276	-0.302509
59	0xbc936bbe	-0.017995711
60	0x3e48319b	0.19550173
61	0x3dd47040	0.103729725
62	0xbd18a8b0	-0.037270248
63	0x3d27a2f1	0.040926877
64	0x3e76dab7	0.2410687
65	0x3e83c697	0.2573745
66	0x3d3ba783	0.04581405
67	0xbd1e2ed4	-0.038618878
68	0x3e84b07a	0.2591589
69	0x3cf92d50	0.030417114
70	0x3e3f6aab	0.18693034
71	0x3e6eb607	0.23311625
72	0x3df99d78	0.12188238
73	0x3de59757	0.112105064
74	0x3d6d4dd6	0.05793556
75	0xbd03b89d	-0.032158483
76	0xbe20d08d	-0.15704556
77	0x3ccf0777	0.025272114
78	0x3e12bb2f	0.14329217
79	0x3d9ed3c1	0.077552326
80	0x3e4fb424	0.20283562
81	0x3e3a242c	0.18177861
82	0xbed715ca	-0.4200881
83	0xbe814eb9	-0.25255373
84	0xbe088bbc	-0.13334554
85	0xbe2fa636	-0.17153248
86	0xbe8f1de6	-0.27952498
87	0xbd8d5b0d	-0.06902132
88	0xbdd8be57	-0.105831794
89	0xbeb870b5	-0.3602349
90	0xbd515e2d	-0.051115204
91	0xbe8fd3c3	-0.2809125
92	0xbed3a08a	-0.4133342
93	0x3dc649bc	0.096820325
94	0xbe0dcf7e	-0.13848683
95	0xbeb370d6	-0.35047024
96	0xbd100848	-0.035164148
97	0xbe00dde9	-0.12584652
98	0xbef5fb39	-0.4804323
99	0xb9b8f52d	-0.00035277885
100	0xba968b2c	-0.0011485568
101	0x3e25343a	0.16133204
102	0x3ccbe6e1	0.024890365
103	0x3d4f639c	0.050632104
104	0x3df058a8	0.1173566
105	0x3abf823c	0.0014610956
106	0x3e19dd9e	0.15025946
107	0x3e89489b	0.26813206
108	0x3cc572e7	0.024102641
109	0xbe88ea72	-0.26741368
110	0xbd06e12a	-0.032929577
111	0xbd778be8	-0.06043616
112	0xbdaaad47	-0.08333831
113	0x3d2edcfd	0.04269122
114	0xbe19a8fc	-0.15005869
115	0xbacb1dfd	-0.0015496608
116	0x3d6aef83	0.057357322
117	0xbd340fa6	-0.043960236
118	0x3c486051	0.012229995
119	0x3de7e3e3	0.11322763
120	0x3de04507	0.10950666
121	0xbe8cb36b	-0.27480635
122	0x3df1d8f0	0.11808956
123	0x3e193f88	0.14965641
124	0x3e0efb98	0.13963163
125	0xbd339bcc	-0.04384975
126	0x3df2dc07	0.11858373
127	0x3ed6ff21	0.41991523
128	0x3dc0b51b	0.09409543
129	0xbca5e172	-0.020249102
130	0x3e68e0f9	0.2274207
131	0xbda8df4a	-0.08245714
132	0x3d77b548	0.060475618
133	0x3dace488	0.084420264
134	0x3e350728	0.17678511
135	0xbdfac21f	-0.12244057
136	0xbde9d986	-0.114184424
137	0xbe1221fc	-0.14270777
138	0x3c8e95b7	0.017405374
139	0xbe9af6b6	-0.3026635
140	0xbc403fb2	-0.011733936
141	0x3e1d226b	0.1534516
142	0xbd329516	-0.04359921
143	0x3e97b94b	0.29633555
144	0xbd82e6c8	-0.06391674
145	0x3e248bc7	0.16068946
146	0xbe6d3baf	-0.23167299
147	0xbe3139fe	-0.17307279
148	0xbc921df0	-0.017836541
149	0x3ea73a97	0.32661888
150	0x3dc8b451	0.098000176
151	0xbe437e16	-0.19091067
152	0xbe36039b	-0.17774813
153	0x3eb80ecf	0.35948798
154	0x3ec96087	0.39331457
155	0x3e4ad543	0.19807915
156	0x3e5c4996	0.21512446
157	0x3e9d8586	0.30765933
158	0x3e5a42ea	0.21314588
159	0xbd71ed5b	-0.05906425
160	0x3d4f83e7	0.0506629
161	0x3e34efcf	0.17669605
162	0xbe9642c0	-0.293478
163	0xbdf069de	-0.117389426
164	0xbe511144	-0.20416743
165	0xbeaff4ce	-0.3436646
166	0xbee38b1f	-0.44442078
167	0xbe55f83a	-0.20895472
168	0xbe3fc0a8	-0.18725836
169	0xbecf55a2	-0.4049502
170	0xbeeff27a	-0.46864682
171	0xbcbe2bf7	-0.023214323
172	0xbe13ffd1	-0.14453055
173	0x3dadf666	0.084942624
174	0x3d10787e	0.03527116
175	0xbe006743	-0.12539391
176	0xbd1de5fb	-0.038549405
177	0x3e12092e	0.14261314
178	0x3e6ef6d9	0.23336352
179	0x3e6dc80f	0.23220848
180	0xbe39dd42	-0.1815081
181	0x3cabcbcf	0.020971207
182	0xbbf5204a	-0.007480656
183	0xbd34c57a	-0.04413364
184	0xbd821523	-0.06351688
185	0x3e926b9b	0.2859772
186	0xbd1b5b96	-0.03792914
187	0x3d96cad1	0.07362903
188	0x3e3c22a5	0.18372591
189	0xba435bab	-0.0007452319
190	0x3e2c47ee	0.16824314
191	0xbd33ae95	-0.043867666
192	0xbea622b5	-0.32448354
193	0x3dbc9027	0.092071824
194	0xbdbf790f	-0.09349262
195	0xbc1094b9	-0.008824521
196	0x3e9cd95d	0.30634585
197	0x3eb709e0	0.35749722
198	0xbe181148	-0.14850342
199	0xbec62522	-0.38700205
200	0xbeb05f43	-0.3444768
201	0xbbf8a98f	-0.0075885723
202	0xbe750000	-0.23925781
203	0xbe917d61	-0.2841597
204	0xbdee8997	-0.11647337
205	0x3e063261	0.13105156
206	0x3dbea50e	0.093088254
207	0x3e91ed9b	0.2850159
208	0xbc7e17be	-0.01550859
209	0x3e58a139	0.21155252
210	0x3d35936f	0.044330057
211	0x3e9fcfba	0.3121317
212	0x3e41e812	0.18936184
213	0xbe64cf38	-0.22344673
214	0x3e3d240f	0.18470787
215	0xbe2c6daa	-0.16838709
216	0xbe743cc0	-0.238513
217	0x3dd7fda2	0.105464235
218	0x3dae1420	0.08499932
219	0x3d028288	0.031862766
220	0x3cd8ec72	0.026479933
221	0x3ec60f99	0.38683775
222	0x3e7c95b3	0.2466648
223	0x3e95a7b5	0.29229513
224	0x3eb3bc21	0.35104468
225	0x3e642808	0.22280896
226	0x3eb3c84e	0.35113758
227	0x3cff4812	0.031162295
228	0xbcc850e2	-0.02445263
229	0x3eec47cc	0.46148527
230	0x3dfb0660	0.12257075
231	0xbc7800ff	-0.015136956
232	0x3ea096f0	0.31365156
233	0x3ddd55f1	0.10807408
234	0xbdcc56c4	-0.09977487
235	0xbe840b16	-0.25789708
236	0xbdae704f	-0.08517515
237	0x3d95b084	0.07309058
238	0xbdafc1b0	-0.08581865
239	0xbdefe51b	-0.1171362
240	0xbc02c395	-0.007981201
241	0x3e12a365	0.14320143
242	0xbdb00a7a	-0.08595748
243	0xbe4e9517	-0.20174061
244	0xbda317cc	-0.07963523
245	0xbe034241	-0.12818243
246	0xbd9df3ed	-0.07712541
247	0xbeae7fbb	-0.34081826
248	0x3e1622c0	0.14661694
249	0xbd578fc0	-0.052627325
250	0xbe1fb311	-0.15595652
251	0x3ea1d39e	0.31606764
252	0xbe216c7c	-0.1576404
253	0x3e11b93d	0.14230819
254	0x3d90ad2e	0.070642814
255	0x3cf7d4f1	0.030252906

conv3.0.bias f4 [8]
0	0xbf9164b7	-1.1358861
1	0x3fc3ad76	1.5287311
2	0x3dc2233d	0.094793774
3	0xbf0b1848	-0.54333925
4	0xbfb4e1b5	-1.413138
5	0xbf82c592	-1.0216544
6	0xbe5207c0	-0.20510769
7	0xbbf9be94	-0.0076215956

dense1.0.weight f4 [32, 128]
0	0xbd300127	-0.04296985
1	0x3e4d9921	0.20077945
2	0xbd4a9213	-0.049455713
3	0x3d8f7239	0.07004208
4	0xbce3d0d1	-0.027809532
5	0xbd5124bf	-0.051060434
6	0xbd70d1d4	-0.058793858
7	0xbdcdee4e	-0.10055219
8	0x3e825868	0.25458074
9	0x3e34148c	0.17585963
10	0xbe94b6be	-0.2904567
11	0x3d7e802d	0.062133957
12	0xbe4fe9c8	-0.20304024
13	0x3c71b979	0.014753693
14	0xbd9676d1	-0.07346881
15	0xbc19acb2	-0.009379553
16	0xbe8c458a	-0.27396804
17	0xbda35b08	-0.07976347
18	0x3e7a3b28	0.24436629
19	0x3cd9d0c6	0.026588809
20	0x3dff3251	0.12460769
21	0xbe2ff0d9	-0.1718172
22	0xbe45cd58	-0.19316614
23	0x3e07734b	0.13227575
24	0x3eade40a	0.33963042
25	0xbdb42610	-0.08796322
26	0x3e4dadb1	0.2008579
27	0xbde57f14	-0.11205879
28	0xbd7b98e3	-0.0614251
29	0x3d517d7d	0.051145066
30	0xbd86932c	-0.065710396
31	0xbddc021c	-0.1074259
32	0xbdffacfa	-0.124841645
33	0x3e48a852	0.19595459
34	0xbdf97248	-0.121800005
35	0xbd85ab6e	-0.06526838
36	0x3e6915c7	0.22762214
37	0x3e6c03ea	0.23048368
38	0xbe2975ed	-0.16548891
39	0xbc6e2654	-0.014535505
40	0x3d509e05	0.05093195
41	0x3d8e2721	0.06941057
42	0xbe8fe418	-0.2810371
43	0x3e70defa	0.23522559
44	0x3d0f6d4b	0.03501634
45	0x3d201153	0.03907902
46	0xbde4421d	-0.111454226
47	0xbcc9177c	-0.024547331
48	0xbd497934	-0.049187854
49	0x3dd4fffe	0.10400389
50	0xbe5c4068	-0.21508944
51	0x39223105	0.00015467785
52	0xbe6ff42d	-0.2343299
53	0x3e2c073c	0.16799635
54	0xbe0f86e6	-0.14016303
55	0x3d2cd372	0.042193837
56	0xbe0dd322	-0.13850072
57	0x3db2d177	0.087313585
58	0x3d8dc143	0.06921627
59	0xbd872687	-0.065991454
60	0x3e2de205	0.16980751
61	0xbe0d90da	-0.13824788
62	0xbd07c700	-0.033148766
63	0xbe1288af	-0.14309953
64	0x3b2b7228	0.0026160572
65	0x3e60276e	0.21890041
66	0xbe16bc98	-0.1472038
67	0x3e496fed	0.19671603
68	0x3e573b33	0.21018676
69	0x3d96274f	0.07331716
70	0xbe61f64f	-0.22066616
71	0x3d90c026	0.070678994
72	0xbe1255ac	-0.14290494
73	0x3da0019c	0.07812807
74	0xbd67cc19	-0.056591127
75	0x3e868799	0.26275328
76	0xbe268c8d	-0.16264553
77	0xbe30f742	-0.17281821
78	0xbd40cd64	-0.047070876
79	0x3cf969e1	0.030445995
80	0x3e1aaeb0	0.151057
81	0x3e151da3	0.14562087
82	0xbc439e78	-0.011939637
83	0xbd28acdd	-0.04118048
84	0x3cd2df96	0.02574138
85	0x3e278f0c	0.16363162
86	0xbe6dbc24	-0.23216301
87	0x3c154c93	0.009112495
88	0x3d9a0b16	0.07521646
89	0xbd99d378	-0.075110376
90	0xbd39e96a	-0.045388617
91	0xbb3a2cb2	-0.0028407988
92	0x3e1acf07	0.15118037
93	0x3e0ebb40	0.13938618
94	0x3dc929cb	0.098224245
95	0xbc943889	-0.018093364
96	0xbcc970cc	-0.024589919
97	0x3d94a1d5	0.072574295
98	0x3c29f2e5	0.010372852
99	0xbdfda968	-0.12385827
100	0xbe5a7817	-0.21334873
101	0x3e04d7e7	0.12972985
102	0xbe1b4ffa	-0.15167227
103	0x3db381be	0.08764981
104	0x3d0465cb	0.03232364
105	0x3de2fa73	0.11082926
106	0x3b301d40	0.0026872903
107	0x3e677124	0.22601753
108	0x3e191623	0.1494985
109	0xbe6844f7	-0.22682558
110	0xbde6f5f0	-0.112773776
111	0xbc0cb431	-0.008587883
112	0xbe0667aa	-0.13125482
113	0xbe60f4a9	-0.2196833
114	0x3d983006	0.07431035
115	0x3e80f13b	0.25184044
116	0x3d29043b	0.0412638
117	0x3ebc1ec3	0.3674222
118	0xbe3e7c4b	-0.18602102
119	0xbdfbdaaa	-0.12297566
120	0x3df2122d	0.11819873
121	0x3ded7781	0.11595059
122	0x3e110434	0.1416176
123	0xbe6a21e8	-0.22864497
124	0x3c98b031	0.018638702
125	0x3da9d0a1	0.08291746
126	0xbdfdd308	-0.12393767
127	0xbdb743c5	-0.08948473
128	0xbe0d58fb	-0.13803475
129	0x3e057b4c	0.13035315
130	0x3d96ef97	0.07369917
131	0xbdbcaf39	-0.092131086
132	0xbd81b267	-0.06332856
133	0xbde84b74	-0.113425165
134	0x3db0e84d	0.08638058
135	0x3e081897	0.1329063
136	0x3e9b5382	0.3033715
137	0xbdc7e529	-0.09760506
138	0xbe1df8c4	-0.15426928
139	0x3d9943e1	0.0748365
140	0x3ca45bc7	0.020063294
141	0x3d252b8c	0.040324733
142	0x3b67af49	0.003535228
143	0x3c8f6667	0.017504884
144	0xbc8471a0	-0.016167462
145	0x3dee6bd2	0.11641659
146	0x3da81184	0.08206466
147	0xbe0b8570	-0.13625121
148	0xbcb628b9	-0.022236215
149	0xbe06b774	-0.1315592
150	0xbe34b6e2	-0.1764789
151	0x3c07e4c9	0.008294293
152	0xbd593e04	-0.05303766
153	0xbe3996d5	-0.18123944
154	0xbe0fe20c	-0.14051074
155	0xbc279a89	-0.010229715
156	0x3d26cafa	0.040720917
157	0xbe2fc7c7	-0.17166053
158	0xbde5b252	-0.112156525
159	0x3d122b92	0.035686083
160	0x3d8830f1	0.0664996
161	0x3e0b1478	0.13582027
162	0xbd90f55f	-0.07078051
163	0x3df269e0	0.118366
164	0xbd500b6c	-0.050792143
165	0x3e5b8e9d	0.21441121
166	0x3d9c5a7d	0.07634447
167	0xbe2970e8	-0.16546977
168	0x3d8d99aa	0.06914075
169	0xbe0ac2a4	-0.13550812
170	0x3ce49e01	0.027907373
171	0x3d0f5de7	0.03500166
172	0xbdc63e89	-0.096798964
173	0x3d8773e3	0.066139005
174	0x3cd5ca6a	0.026097495
175	0xbe84aadb	-0.25911602
176	0x3d8b99b1	0.06816424
177	0xbdce303f	-0.10067796
178	0xbd65d135	-0.05610772
179	0xbea6bb39	-0.32564715
180	0x3e20eabb	0.15714543
181	0xbdbc20b0	-0.09185922
182	0xbd8aae90	-0.067715764
183	0xbcccc617	-0.0249968
184	0xbe889992	-0.26679665
185	0xbcfc8c40	-0.030828595
186	0x3cee3812	0.02907947
187	0x3da0ac93	0.07845416
188	0xbe19302a	-0.1495978
189	0x3e58291e	0.21109435
190	0x3e46ec9b	0.19426195
191	0x3e328515	0.1743358
192	0x3e2cf761	0.16891243
193	0xbdb51fca	-0.08843954
194	0xbccd7c76	-0.025083762
195	0xbc9d0b15	-0.019170323
196	0x3d9b75e0	0.07590842
197	0xbd1a9138	-0.037736148
198	0x3d96134a	0.07327898
199	0x3d15e496	0.03659495
200	0x3e054fa8	0.13018668
201	0x3d3fe5cc	0.04685001
202	0x3eb3dbf3	0.35128745
203	0x3e4ce79f	0.20010231
204	0x3d096e8e	0.0335527
205	0x3e418e21	0.18901874
206	0x3e985cc6	0.2975828
207	0xbddf6b09	-0.10909087
208	0x3e0c0491	0.13673617
209	0xbdd614c6	-0.10453181
210	0x3e37e75e	0.17959353
211	0x3e23d147	0.15997802
212	0xbdcb5ae6	-0.09929447
213	0x3d8b7dae	0.06811081
214	0x3e616a4d	0.22013207
215	0x3d83560d	0.06412897
216	0x3e1b4368	0.15162432
217	0x3e82b3c4	0.25527775
218	0x3f03d62a	0.51498663
219	0x3d9ebdde	0.07751058
220	0xbe2f26d6	-0.17104658
221	0x3ce56733	0.02800331
222	0xbeb15835	-0.3463761
223	0xbe1c00ef	-0.15234731
224	0xbd8e2ded	-0.069423534
225	0xbe199846	-0.14999494
226	0xbeaf2c44	-0.3421346
227	0x3df07041	0.11740161
228	0xbe900082	-0.28125387
229	0xbe5c38f5	-0.21506102
230	0xbe7077e6	-0.23483238
231	0xbdabb81c	-0.083847255
232	0xbdc8df45	-0.0980821
233	0xbde43eb5	-0.11144773
234	0xbcb90b1d	-0.022588307
235	0xbe94d6fd	-0.29070273
236	0xbd1daa78	-0.03849265
237	0x3db0d7dc	0.08634922
238	0xbe0555fb	-0.1302108
239	0xbc8ba677	-0.01704715
240	0xbd18a0f0	-0.037262857
241	0x3daa6b04	0.08321193
242	0xbd2bac6f	-0.041912492
243	0xbe400aac	-0.18754071
244	0x3e151d57	0.14561974
245	0xbe9c1589	-0.3048518
246	0x3e18bf6c	0.14916772
247	0x3dd03a9b	0.10167428
248	0x3d6b1324	0.0573913
249	0x3e92bc9d	0.28659526
250	0x3d1a9f67	0.037749674
251	0x3c65cf49	0.014026471
252	0xbd447a32	-0.047968097
253	0x3e605d6b	0.21910636
254	0xbe033fb0	-0.12817264
255	0x3e8bfb89	0.27340344

dense1.0.bias f4 [32]
0	0xbef4cfff	-0.47814938
1	0x3fd8e7b2	1.6945708
2	0x3fc3db18	1.5301237
3	0x400483a0	2.0705338
4	0x3e3934a1	0.18086483
5	0xbe6c194e	-0.23056528
6	0x3f3baa00	0.73306274
7	0x3f208956	0.6270956
8	0x3f85c887	1.0451821
9	0xbf35ae31	-0.7096892
10	0xb969b7db	-0.00022289103
11	0xbe3bbcbf	-0.1833372
12	0x3f29e01c	0.6635759
13	0xbe5e159a	-0.21687928
14	0xbf9433b2	-1.1578276
15	0x3f1cedf1	0.6130057
16	0xbdcb30e2	-0.09921433
17	0x3f6f5936	0.934955
18	0xbdf9d253	-0.12198319
19	0xbf74ad9b	-0.955774
20	0x3fe94530	1.8224239
21	0x3f825b02	1.0184023
22	0xbf142227	-0.5786461
23	0x3f6325c2	0.8872949
24	0x3f4b8721	0.79503065
25	0xbee05e42	-0.43821913
26	0xbfcbbb4d	-1.5916535
27	0x3fc291df	1.5200766
28	0xbff24e4f	-1.8930148
29	0xbd4c33f7	-0.049854245
30	0xbdad9122	-0.084749475
31	0xbf891247	-1.0708703

dense2.weight f4 [10, 32]
0	0xbd177918	-0.03698072
1	0xbd1ab426	-0.03776946
2	0x3e900c4c	0.28134382
3	0xbf535445	-0.8255046
4	0x3ecb7ff3	0.39746055
5	0x3e0dbc87	0.13841449
6	0xbec324f6	-0.38114136
7	0xbe7c6120	-0.24646425
8	0x3e717bd5	0.23582394
9	0xbe0eec44	-0.13957316
10	0x3b9f0030	0.0048523173
11	0xbce91e10	-0.028456718
12	0x3e76f8c3	0.24118333
13	0xbe9ddfad	-0.30834714
14	0x3e9dd351	0.30825284
15	0x3e73300d	0.23748799
16	0xbe1915fe	-0.14949796
17	0xbe869d9e	-0.26292127
18	0x3ef5d050	0.48010492
19	0xbee1b848	-0.44085908
20	0x3d07ed2a	0.03318516
21	0x3e9d880f	0.30767867
22	0x3e4e6381	0.20155145
23	0x3e88d979	0.26728418
24	0xbf1a216a	-0.60207236
25	0x3e841d13	0.25803432
26	0xbf197885	-0.59949523
27	0xbe4d1f31	-0.2003143
28	0x3e8b0d03	0.27158365
29	0xbde669b2	-0.112506285
30	0xbdbbc59c	-0.0916855
31	0x3ec671b0	0.38758612
32	0xbe570498	-0.20997846
33	0x3ea2dd9f	0.31809708
34	0xbeb9ea04	-0.36311352
35	0x3f19f481	0.6013871
36	0x3e871bca	0.2638839
37	0xbefd3de1	-0.49461272
38	0xbe698b1e	-0.22806975
39	0xbd9e14ca	-0.07718809
40	0xbf3cf797	-0.7381529
41	0x3f1056df	0.56382555
42	0xba6d7a8f	-0.0009059095
43	0x3eb365dd	0.35038653
44	0xbf1dcdb8	-0.61642027
45	0x3e4df839	0.2011422
46	0x3f96e303	1.1788028
47	0x3ec9e819	0.3943489
48	0x3cc3214e	0.023819592
49	0xbf1a5690	-0.60288334
50	0xbdbc11b0	-0.09183061
51	0x3e430c66	0.19047698
52	0xbf494411	-0.78619486
53	0xbf222603	-0.6333925
54	0xbe567b1f	-0.20945404
55	0xbf09bdb5	-0.53805095
56	0xbdb00ff5	-0.085967936
57	0x3ece3762	0.4027663
58	0xbe6b8763	-0.23000865
59	0x3e3e079a	0.18557587
60	0x3e98da48	0.29854035
61	0x3ea47cc5	0.32126442
62	0x3ebfce7a	0.37462217
63	0xbe0d3173	-0.13788395
64	0x3f4c62e1	0.7983838
65	0x3de99571	0.11405457
66	0x3e8ec0dd	0.27881518
67	0x3e322a30	0.17398906
68	0x3da58039	0.08081097
69	0x3f3106dd	0.691511
70	0xbebd1f85	-0.3693811
71	0x3dbed2a3	0.093175195
72	0x3e5ead18	0.21745718
73	0xbeed8244	-0.46388447
74	0xbb0f34f3	-0.0021851629
75	0x3b7f8558	0.0038989391
76	0x3d06c03a	0.032898165
77	0xbed4b6d7	-0.41545746
78	0xbca4ab31	-0.020101162
79	0x3dad757b	0.08469673
80	0xbf35ad8e	-0.7096795
81	0x3eab3a83	0.33443078
82	0x3dac489b	0.08412286
83	0xbee51b99	-0.44747618
84	0x3eaaf090	0.3338666
85	0xbce07006	-0.027397167
86	0x3dc00013	0.09375014
87	0xbe3571ec	-0.17719239
88	0x3d927dc1	0.07152892
89	0x3df32f29	0.118742295
90	0x3db0e447	0.086372904
91	0xbe7aef30	-0.24505305
92	0x3d4e95b6	0.050435744
93	0x3f05d2b4	0.5227463
94	0x3eae10aa	0.3399709
95	0xbea605f7	-0.32426426
96	0x3c3cb158	0.011516891
97	0xbf024fd0	-0.50903034
98	0x3caa8ed1	0.020820053
99	0x3d47f37f	0.0488162
100	0xbe10bfff	-0.1413574
101	0xbd1d6f70	-0.038436353
102	0x3e922edb	0.28551373
103	0xbd3791ec	-0.044816896
104	0xbdb00472	-0.08594598
105	0xbe9c9796	-0.305844
106	0x3b0e6851	0.0021729658
107	0xbef8078d	-0.4844326
108	0xbe3b6136	-0.18298802
109	0x3e840e76	0.25792283
110	0xbe22662a	-0.15859285
111	0xbdc2e817	-0.09516924
112	0x3d24c649	0.040228162
113	0x3e600ff8	0.21881092
114	0xbdd1dfc6	-0.102477595
115	0x3e0e0267	0.13868104
116	0xbd907dc4	-0.07055238
117	0xbd20cb57	-0.03925642
118	0x3a95f3b5	0.0011440428
119	0x3e80f220	0.25184727
120	0xbeb8d177	-0.3609731
121	0xbda172ee	-0.07883249
122	0x3c842bf2	0.016134236
123	0xbe9428cc	-0.28937376
124	0x3e5e8a50	0.2173245
125	0x3d067d50	0.03283435
126	0xbeae0e32	-0.33995205
127	0x3cc5cf9a	0.024146844
128	0xbe3552d6	-0.1770738
129	0xbe8eea09	-0.2791293
130	0xbe02f9ad	-0.12790556
131	0x3e12a84e	0.14322016
132	0xbeaf228a	-0.3420604
133	0xbee71082	-0.45129782
134	0x3e9924a2	0.2991076
135	0x3eb219d4	0.3478533
136	0x3e4781b7	0.19483076
137	0xbed08d44	-0.40732777
138	0xbb078090	-0.0020675994
139	0xbeeb67c7	-0.45977613
140	0x3e27757d	0.16353412
141	0xbe79a240	-0.243783
142	0x3bf9929a	0.007616353
143	0xbf0ba900	-0.5455475
144	0x3e770703	0.24123769
145	0x3dd08855	0.10182253
146	0xbe60ecb5	-0.21965297
147	0xbccf0f2e	-0.025275793
148	0x3eb65a86	0.3561594
149	0x3d769e71	0.060209695
150	0x3e3ca0f9	0.18420781
151	0xbe674fc7	-0.22589026
152	0x3db44f81	0.08804227
153	0xbe5aeec8	-0.2138015
154	0xbeed7a8a	-0.46382552
155	0x3ee19b1c	0.44063652
156	0xbefa2a98	-0.4886062
157	0xbf709ca7	-0.9398903
158	0x3e7af568	0.24507678
159	0x3ec565d6	0.38554257
160	0x3d621282	0.05519343
161	0xbf0365ca	-0.5132719
162	0xbdb9340c	-0.0904313
163	0xbe38e8fd	-0.18057628
164	0x3e5ec719	0.21755637
165	0xbbe84101	-0.007087827
166	0x3e04ed7d	0.1298122
167	0x3d05f03b	0.032699805
168	0xbc37c6db	-0.011216844
169	0xbec37cbc	-0.38181102
170	0x3b5d7568	0.0033791903
171	0xbf1a485a	-0.6026665
172	0xbd66aacf	-0.05631524
173	0xbd5613e0	-0.052265048
174	0xbe698aed	-0.22806902
175	0x3e13673b	0.14394848
176	0x3e21e178	0.15808666
177	0x3ea00278	0.31251884
178	0xbe8e3bd5	-0.27780023
179	0x3d0bca91	0.03412873
180	0x3d0e2249	0.034700666
181	0x3e703a14	0.23459655
182	0x3cfe7983	0.0310638
183	0x3dff1606	0.124553725
184	0xbede2a4c	-0.43391645
185	0xbf0c2729	-0.54747254
186	0x3dfc82bd	0.12329624
187	0xbe866fd5	-0.26257196
188	0x3e49cdd8	0.1970743
189	0x3e44ca46	0.19217786
190	0xbee67e4c	-0.45018232
191	0x3c6f986d	0.0146237435
192	0xbf047809	-0.5174566
193	0xbdc83a38	-0.09776729
194	0x3e89422f	0.26808307
195	0x3d87ea4a	0.06636484
196	0xbe78a434	-0.24281389
197	0xbe51dd58	-0.20494592
198	0x3e872eb5	0.26402822
199	0x3e5bb9ce	0.21457598
200	0xbcb80c23	-0.022466725
201	0xbe8fede2	-0.28111178
202	0x3afb7968	0.0019185962
203	0x3eb1a910	0.34699297
204	0x3f04690a	0.51722777
205	0x3e022396	0.12708887
206	0xbe8bcff6	-0.273071
207	0x3e7d9e7b	0.24767487
208	0xbe2cc9b6	-0.16873822
209	0xbd3e541c	-0.04646693
210	0x3f0488e9	0.5177141
211	0x3e9f6be1	0.31136993
212	0x3cf00777	0.029300435
213	0xbe96233b	-0.29323754
214	0xbf17aae2	-0.5924512
215	0x3d06734e	0.032824807
216	0xbec56287	-0.38551733
217	0xbd5192a2	-0.05116523
218	0x3e116da4	0.14201981
219	0xbf3befd1	-0.73412806
220	0xbf135ddc	-0.57565093
221	0xbcffe91d	-0.031239087
222	0x3de3a347	0.11115127
223	0xbefad49e	-0.4899034
224	0xbe4392bf	-0.19098948
225	0xbf01df7f	-0.5073165
226	0xbf052243	-0.52005404
227	0xbeba6b5c	-0.36410034
228	0xbea0560b	-0.31315646
229	0xbe4a6482	-0.19764903
230	0xbef73513	-0.4828268
231	0xbdbe9cb6	-0.09307234
232	0x3e08bb79	0.13352765
233	0xbf0336d7	-0.51255554
234	0xbb97ff85	-0.0046386146
235	0xbecff555	-0.4061686
236	0xbe91ccd0	-0.28476572
237	0xbec67929	-0.38764313
238	0xbd4650f4	-0.048417047
239	0xbee27562	-0.4423018
240	0xbe3dabf6	-0.18522629
241	0x3d06112a	0.032731213
242	0xbf0ca56f	-0.5493993
243	0x3e5cf310	0.21577096
244	0x3e80fe42	0.25193983
245	0x3f5c63c7	0.8608975
246	0x3edadc9a	0.4274643
247	0xbe66ce83	-0.22539715
248	0x3edd97ee	0.43279976
249	0x3dfd8721	0.123792894
250	0x3edd993b	0.43280968
251	0x3e5562f8	0.20838535
252	0x3e8894f0	0.2667613
253	0xbea4aadb	-0.32161602
254	0xbe219aeb	-0.15781753
255	0xbc0b2b07	-0.008494145

dense2.bias f4 [10]
0	0x3efb61e3	0.4909812
1	0xbf845286	-1.0337684
2	0x3f3fa874	0.74866414
3	0xbe974177	-0.29542133
4	0x3feb296d	1.8372017
5	0xbf88ca93	-1.0686821
6	0x3e9fc7f2	0.31207234
7	0xbf917c9e	-1.1366155
8	0x3f3163ec	0.69293094
9	0xbf4ecd3e	-0.80781925
