ResidualLoss/CNN-l2-freeze-knn/k-1-p-3.pt (torch, 27135 bytes, 10 tensors)

conv1.0.weight f4 [8, 3, 3, 3]
000000 e6 e2 ce 3c 42 0c 01 be 3c 22 e4 3d 9c 83 32 3e
       0.025254678 -0.12602332 0.11139342 0.17433017
000010 f5 cc cf be 9f 13 81 3e 06 bc 9c 3d d9 8a 3f be
       -0.40586057 0.25210282 0.0765305 -0.1870531
000020 21 18 73 3d 33 df 9e 3e 67 67 00 bf 76 30 3d 3e
       0.059349183 0.31029662 -0.5015778 0.18475518
000030 22 93 38 3e 87 fd 94 be 07 3a 80 3e 18 b6 f8 39
       0.18024877 -0.29099676 0.2504427 0.00047437917
000040 cb 76 9c be 48 34 4f 3e 4e 00 84 3d f8 73 76 be
       -0.30559382 0.20234787 0.064453706 -0.24067676
000050 f4 8d 1e 3e 93 4b 69 3e 73 77 ef be bc e3 86 3e
       0.15483838 0.22782736 -0.4677082 0.26345623
000060 25 a6 54 bc c4 26 c2 bd 9d 28 ca 3d d4 d3 c0 3d
       -0.012979065 -0.0948005 0.098710276 0.09415403
000070 b6 d9 aa 3d 12 20 94 be d5 c9 82 3d e7 45 15 bf
       0.08342306 -0.28930718 0.06386153 -0.5830979
000080 09 c8 a1 be aa 7a 92 3d ee bd c9 bd 61 e4 92 3d
       -0.31597927 0.071523026 -0.09850679 0.07172466
000090 f4 25 34 be ae 72 65 bd b3 85 8f 3d 19 20 19 3e
       -0.17592603 -0.05601757 0.07007923 0.1495365
0000a0 10 8c b3 3d fc 58 81 3e 24 a3 ac be ed a5 b0 3e
       0.08766949 0.25263202 -0.33718216 0.3450159
0000b0 81 ff 9c be 99 d9 ae 3d b8 7e 8f 3e 8e 20 08 3e
       -0.30663684 0.08537597 0.28026366 0.13293669
0000c0 0e f2 59 3c c2 30 ba 3d 26 c8 31 3e c5 70 9d bc
       0.013302339 0.09091331 0.17361507 -0.019218812
0000d0 8b 3d d9 3d 2f db 48 3d 29 95 b5 3e 1f 94 ea bd
       0.106074415 0.049037155 0.35465363 -0.11454033
0000e0 70 f1 92 bc 83 6b 60 3d 9e 01 cd 3e c2 8c 7a 3e
       -0.017937392 0.05479003 0.40040296 0.24467757
0000f0 1e 1a c8 be 21 38 11 be 4a 5d d2 be 3e d1 1a bc
       -0.39082426 -0.14181568 -0.410868 -0.009449301
000100 4e cb 3f bd 3f fd 50 3d 82 7b e2 bd e3 db 11 3e
       -0.046824746 0.051022764 -0.110587135 0.14244036
000110 ff ed a7 3e b2 a0 a1 3d b7 45 96 be b0 18 f0 bd
       0.32798764 0.07891978 -0.29350063 -0.11723459
000120 90 3a 1c bd 65 2e d0 bd e0 b6 6e be 9d e0 13 3e
       -0.038141787 -0.10165099 -0.23311949 0.14441152
000130 9e a3 82 3e fd 50 aa 3d 6c 46 6b bd 75 88 1f bd
       0.25515455 0.083162285 -0.057440206 -0.038948495
000140 f5 34 ff bc 01 3f 59 be 6c 25 33 3e 58 aa 18 3e
       -0.031153182 -0.2121544 0.17494744 0.14908731
000150 52 59 69 3d 87 93 06 3e 2c fb 8e 3e 96 0e 8a be
       0.056969948 0.13142215 0.27926004 -0.26964253
000160 95 2a 81 bc 37 6f 57 3e 7d 07 d2 3e 6a a7 2e be
       -0.015767375 0.21038519 0.41021338 -0.17056051
000170 60 49 d9 3d 08 c1 78 bd 01 00 66 be e4 c3 ca be
       0.10609698 -0.060730964 -0.22460939 -0.39602578
000180 64 67 3f 3e 21 ad 37 be ad 62 8d be 00 82 29 3d
       0.18691784 -0.17937137 -0.27614346 0.041383743
000190 f6 ab e4 bc 8f 98 67 be 09 ab 63 bd 64 8f 11 be
       -0.027914029 -0.2261679 -0.055583034 -0.14214855
0001a0 2f d1 52 bd 84 b0 b2 3c 1c ee 8f 3e 1c 76 e7 3d
       -0.051469024 0.021812685 0.2811135 0.113018245
0001b0 01 ad 73 3e d6 4f b8 3d 20 29 7d be 1b 20 27 3e
       0.23796465 0.089996025 -0.24722719 0.16320841
0001c0 4d 30 c3 3e 80 d3 2e 3d 54 76 c3 bd a5 9c ad 3d
       0.38122788 0.04268217 -0.09544054 0.08477143
0001d0 98 11 a2 3e 03 f4 66 be 04 69 78 3d 47 f8 42 be
       0.31654048 -0.2255402 0.060647026 -0.19040023
0001e0 7f 87 33 be 12 70 9a 3e 83 34 9b bd dc 9f 42 be
       -0.17532156 0.30163628 -0.07578375 -0.19006294
0001f0 20 b5 09 bd e7 6a 90 be 40 5e 4a 3d c5 3c db 3e
       -0.03362 -0.2820656 0.04940629 0.428198
000200 cb 45 b3 be 05 8e ad bd ed c8 9d 3e a7 a9 87 3d
       -0.35014185 -0.08474354 0.30817357 0.066241555
000210 6f ec 81 be c8 cf 74 3e 6b ea 70 3e ef f8 ca 3d
       -0.25375697 0.23907387 0.23526923 0.099107616
000220 60 bc a8 be 72 7e 73 3e 58 fa ce 3d 8f b9 2f 3e
       -0.3295622 0.23778704 0.10106343 0.17160629
000230 66 41 a1 be 77 76 9b bd dd a5 90 3d 8a bb 89 3d
       -0.31495208 -0.07590955 0.07062886 0.06725223
000240 b5 d1 8d 3c 40 8d b2 be 00 8d 58 3e e2 e2 af 3d
       0.01731191 -0.3487339 0.21147537 0.08588196
000250 7e d5 af 3e f1 a4 88 be 00 49 a9 be 0c e6 38 3e
       0.3434257 -0.2668834 -0.33063507 0.18056506
000260 cf 17 9e 3d cf 8f aa 3e 2e 55 e5 be 88 d6 4f 3e
       0.07719385 0.33312842 -0.4479155 0.20296681
000270 a6 f1 9c bd a1 03 89 3e 71 db d6 be 95 5b 2e 3c
       -0.07663278 0.2676058 -0.41964296 0.010641952
000280 6a 69 b2 3c 0e 96 d0 3c 41 df 0a be c5 cb e3 3d
       0.021778781 0.025462177 -0.13561727 0.1112285
000290 38 ab b0 3e 11 98 49 3e ca ed f7 3e db dc 7d be
       0.3450563 0.19686915 0.48423606 -0.24791281
0002a0 0a e5 87 3e e4 02 60 be 3c 75 98 be 2d 86 3c be
       0.2654193 -0.21876103 -0.29776943 -0.18410559
0002b0 e1 2b 08 3e d9 3e 32 3d c5 60 05 be 57 b6 e6 3e
       0.13297988 0.043516967 -0.13025196 0.4506099
0002c0 9a 01 04 bf de 4a 35 bd 6e f5 b8 be 39 f9 2b 3e
       -0.51564944 -0.044260852 -0.36124748 0.1679429
0002d0 52 d4 de be d5 61 2c 3c f3 ab 81 3e 08 78 b8 3c
       -0.43521363 0.010521372 0.253265 0.022518173
0002e0 08 f1 14 3f ee ed 45 be c9 79 55 3e 4a c7 6f bc
       0.58180285 -0.19329044 0.20847239 -0.014634917
0002f0 93 1f b3 bd c6 e4 8a 3e 30 c1 4c be 89 72 ba bd
       -0.08746257 0.27127665 -0.1999557 -0.09103877
000300 56 91 21 3e 62 7c 16 3e 49 29 12 be c8 d9 a2 3c
       0.15778098 0.14695886 -0.14273562 0.019879237
000310 b0 87 5e bd 0b fa cb bd d3 6f 8b 3e 45 54 8a bd
       -0.05432862 -0.09959801 0.27233753 -0.067543544
000320 e6 28 25 be 7f cb f0 3d e3 85 34 3e 4a 05 2a be
       -0.16128883 0.11757564 0.17629199 -0.1660358
000330 80 92 da 3c ab b4 83 be 6d d9 55 bd d7 73 f4 3d
       0.026681185 -0.25723776 -0.052209307 0.11936157
000340 2e d9 1e 3e f2 90 a9 be 16 ac a6 3e 54 72 b1 bd
       0.15512535 -0.33118397 0.32553166 -0.086643845
000350 1c fd 93 be c1 09 ab ba e1 0a 76 3e 42 f0 a1 bd
       -0.28904045 -0.0013049172 0.24027587 -0.07907154

conv1.0.bias f4 [8]
000000 2d b1 c1 3a 40 23 20 3f a8 a4 38 bc 84 0d 82 3f
       0.0014777534 0.6255379 -0.011269726 1.0160375
000010 9d 0b 6b 3f fc 26 b0 3d 82 40 be 3e c8 1a ca bc
       0.91814595 0.08601186 0.3715859 -0.024670973

conv2.0.weight f4 [8, 8, 3, 3]
000000 f8 cc 58 be 36 df 7b be 8a 97 3d be 34 9b a1 be
       -0.2117194 -0.24596867 -0.18514839 -0.31563723
000010 94 b8 a3 be ff f5 71 be 4d 25 34 be 60 f1 c1 be
       -0.3197676 -0.23628996 -0.17592354 -0.37879467
000020 cd 46 c3 3d 25 b9 df bd 1a ac 51 3d 42 2d e2 3d
       0.095349886 -0.109239854 0.05118952 0.110437885
000030 cd 58 b3 3d fd be 35 be 95 1f 8b bc 4c d7 8e 3e
       0.08757172 -0.17748637 -0.016982833 0.27898633
000040 5b 2b 6e 3c d1 42 15 be 98 fa d7 3c 0e b6 81 be
       0.014536704 -0.1457627 0.02636461 -0.2533421
000050 6b 73 be 3e 63 3a c1 3c de 42 60 bd d8 dd 69 3e
       0.37197432 0.023587411 -0.05475127 0.22838533
000060 4d 86 6b 3e d3 4a cc bd 17 62 1f 3e e4 59 30 3e
       0.2300045 -0.09975209 0.15564762 0.1722179
000070 2a 28 9d be 45 57 40 3e 54 8a 09 3e 11 d4 d3 3d
       -0.30694705 0.1878329 0.13431674 0.10343183
000080 ae 4f 9a be 13 29 89 bc 6b 2c a4 bd c8 e5 19 bd
       -0.30138916 -0.016743219 -0.080162846 -0.037572652
000090 4a 97 54 be 8f 0b 4f 3e 82 08 b8 3e be 63 ac 3e
       -0.20760837 0.20219253 0.3594399 0.33669847
0000a0 df ff 54 3d 76 0e ac 3c dd 37 28 3e 7b d1 87 3d
       0.05200183 0.02100299 0.1642756 0.06631752
0000b0 b9 5f c6 bd c6 96 01 3e 1d d5 a0 3e 4e c4 d4 3d
       -0.096862264 0.12655172 0.31412593 0.10389005
0000c0 cd 47 a8 3e 55 9a cc 3e f0 e8 de 3d b0 e2 3b 3e
       0.3286728 0.39961496 0.10884273 0.18348193
0000d0 bd 63 d3 3e 26 b2 17 3f 21 5d c9 bd 31 95 f3 bd
       0.41287032 0.5925621 -0.09832216 -0.118936904
0000e0 a9 bc 29 be d5 5c 63 be de ad 51 be 40 fe 88 bd
       -0.16575874 -0.22203381 -0.20476481 -0.06689119
0000f0 25 e3 bf be d4 2e 33 be cc 33 09 be 42 0a bc 3d
       -0.37477985 -0.17498332 -0.13398665 0.09181644
000100 a5 a4 96 3d 2c 72 6f be 0a df 95 bd dc a0 5c bc
       0.07355622 -0.23383397 -0.07317932 -0.013466086
000110 20 6c d1 bd 64 b6 52 3e 1b 41 0d be a6 9a ab 3b
       -0.10225701 0.20577389 -0.13794367 0.0052369414
000120 ec 29 c7 bc 1d 3d b6 bd c4 a9 2e bd 34 6a 1b bd
       -0.024311982 -0.08898375 -0.04264237 -0.03794308
000130 94 d4 29 bc f0 f4 fc 3b 85 72 50 bd 26 bd 56 3d
       -0.010365624 0.0077196285 -0.050890464 0.05242648
000140 03 d7 24 3d 75 95 42 bd df e8 96 3d cf 26 fe be
       0.040244114 -0.047505815 0.073686354 -0.49638984
000150 3f 18 ab bd 29 2e fb 3e 19 ea 8d bc c1 01 e0 3e
       -0.08354234 0.49058655 -0.01732354 0.43751338
000160 1e 29 6c 3e ef 69 51 3d 71 0c 20 3e 7d ca 8b 3e
       0.2306256 0.051126417 0.15629746 0.27302924
000170 ff ea 15 3e 6f c7 28 3d 1e 71 85 3e 71 26 55 3e
       0.14640425 0.04120582 0.26062864 0.20815445
000180 84 72 b5 bd 06 a0 5e bd b7 44 b6 3e 95 c2 c1 3e
       -0.08859733 -0.05435183 0.355993 0.37843767
000190 49 8e 27 3e d9 e4 39 3d 64 ca 40 3e 54 93 dd 3e
       0.16362871 0.04538426 0.18827206 0.43276465
0001a0 c7 44 fa bd 71 06 38 3c c5 21 ea 3e 58 4f 9f bd
       -0.122201495 0.0112320045 0.4572889 -0.077788055
0001b0 80 22 d3 bd e3 eb 9e bd 09 a7 cb bc 6a 3f 71 be
       -0.10309315 -0.077598356 -0.024859922 -0.23559347
0001c0 2b 6b 8c bd 55 09 46 3e e9 6f 77 3d 28 d3 a1 ba
       -0.06856378 0.19339497 0.06040946 -0.0012346255
0001d0 09 0d 91 bd f7 4d e4 bd 48 dd 99 be 41 be 1c be
       -0.070825644 -0.11147683 -0.30051637 -0.15306951
0001e0 f8 e8 a7 be f2 f7 b2 bd a9 f2 3d bd 2d 1a 03 bf
       -0.3279493 -0.08738698 -0.046373997 -0.51211816
0001f0 a6 ea 91 be 2b d4 a9 bd 03 c2 e8 3d 58 f6 1d be
       -0.28499335 -0.08292421 0.1136513 -0.15426004
000200 2f ca 2e be 2f 66 48 3b 89 75 a0 3c 62 e2 30 be
       -0.17069314 0.0030578484 0.019587295 -0.17273858
000210 19 f0 27 3d fb 90 81 3d 80 da aa 3d 09 b7 b5 3d
       0.04100046 0.06326481 0.08342457 0.08872802
000220 68 69 60 bd 12 5c 6e 3d 72 50 57 bc 44 85 09 3c
       -0.054788023 0.058193274 -0.013141738 0.008393589
000230 14 80 05 3b 94 00 0d bd 73 85 32 bd 65 7f 75 3d
       0.002037053 -0.03442438 -0.0435843 0.059935946
000240 57 f9 43 be a2 df 0b bf 4b 77 04 3d 25 be 17 bf
       -0.19138084 -0.5463811 0.03234033 -0.5927451
000250 de ec 9d bf f5 1e 1f be 00 95 a1 3d a5 3e b6 be
       -1.2337911 -0.15539153 0.078897476 -0.3559467
000260 04 a8 2e 3d 5f f9 a3 3d 30 45 57 bd 83 21 f5 3d
       0.0426407 0.08006548 -0.052556217 0.119692825
000270 d7 77 c4 bb 67 6b 17 be 71 95 43 3c fd 79 32 be
       -0.0059957313 -0.14787064 0.011937485 -0.17429347
000280 40 89 8b bd a4 15 24 3e d2 a3 d2 3d 39 ed 08 3e
       -0.06813288 0.1602388 0.102851525 0.13371743
000290 16 70 8a 3e e0 36 b5 3e 74 7c d2 3e 4e d6 1c 3e
       0.2703864 0.3539343 0.41110575 0.15316126
0002a0 fc b0 e6 3d 93 0f a3 3d ab b0 bb 3d 83 20 42 3e
       0.11264226 0.07961955 0.09164556 0.18957715
0002b0 1f cc 18 3e 34 3a a5 3d b2 d6 66 3e c2 6b 08 3e
       0.14921616 0.08067742 0.22542837 0.13322356
0002c0 e8 39 30 3e 11 82 49 be 93 61 a4 bd d4 e6 d6 bd
       0.1720959 -0.19678523 -0.08026423 -0.10493246
0002d0 b2 9b 70 3d 09 c7 57 bd 25 da 4c bc 95 0d a7 3d
       0.058742233 -0.05268005 -0.012503182 0.081568874
0002e0 2e a1 aa be 5f 44 56 bd 8e d4 1b 3e bb 31 c3 bd
       -0.33326095 -0.052311298 0.15217802 -0.0953097
0002f0 70 71 41 3e c6 ac b8 3c 56 e2 51 be 4f 2c 2c be
       0.18890929 0.022543322 -0.20496497 -0.16813777
000300 de 66 c3 be 3c 6e 28 bf 0e ee df bd aa 52 cd bd
       -0.3816442 -0.65793204 -0.10934077 -0.100255325
000310 e8 01 2c 3e c7 9f 21 3d 2f ee 43 3d fb c1 4f be
       0.16797602 0.039459016 0.04783457 -0.20288841
000320 c8 da 69 bd 72 0c 40 3d b1 a9 4f be ba bb c6 bd
       -0.05709341 0.04688687 -0.20279576 -0.09703775
000330 6d 08 c2 ba ad ff 96 bd 57 85 5e 3e 0f 02 aa bc
       -0.0014803536 -0.07372985 0.21730553 -0.020752935
000340 37 03 32 be da dc 6a 3d e3 49 72 bb 24 5f 24 bf
       -0.17384039 0.057339527 -0.003697031 -0.64207673
000350 f0 01 08 be 09 e0 e3 3c 84 a1 44 be 19 92 b3 3d
       -0.13281989 0.02781679 -0.19202238 0.087681
000360 c4 4c 1a 3e ef da 41 3c 0c 26 5f 3c 3b d1 40 bd
       0.15068346 0.011831983 0.013619911 -0.047074538
000370 77 e9 64 3e a1 13 89 3e 9b 83 49 3e df 25 94 3e
       0.22354685 0.26772788 0.1967911 0.28935143
000380 ab c9 82 3e 41 5b 9d be ff f4 a3 bd 9e 19 bb bd
       0.25544485 -0.30733684 -0.08005714 -0.091357455
000390 bb fe 08 bd b6 85 69 3e a0 54 b1 bd 25 b9 45 be
       -0.033446055 0.22804913 -0.08658719 -0.19308908
0003a0 13 98 db bd 48 c8 25 3e 66 e8 64 3d f5 35 54 3e
       -0.10722365 0.16189682 0.055885695 0.20723708
0003b0 fb 0e c2 3e a9 7b 3a 3e 4d 73 b6 bd 3a 9a aa 3e
       0.37902054 0.18211235 -0.08908711 0.3332079
0003c0 d2 35 07 3e d4 39 ca 3d 53 15 e2 3d 41 45 fb 3e
       0.13204125 0.09874311 0.110392235 0.49076274
0003d0 7e d5 2f 3f 1d 28 0b 3e a3 1c 87 3e 58 37 85 3e
       0.6868514 0.13589521 0.26389036 0.26018786
0003e0 85 3e ab 3d 8f d1 65 bc 4f 07 fc 3d 67 a6 56 3e
       0.08361534 -0.014027013 0.123060815 0.20961915
0003f0 58 37 29 bd 06 46 1e be 50 95 c9 3d 5b 95 0c be
       -0.041312546 -0.154564 0.09842932 -0.1372885

conv2.0.bias f4 [8]
000000 dc a8 50 3d 5d 99 15 bf 5d e4 65 3f 4c 59 c2 3d
       0.050942287 -0.5843714 0.8980158 0.09489688
000010 ad b3 01 3f 36 7d 60 bf 71 7a f7 3e 98 c8 10 bf
       0.5066479 -0.87691057 0.48335603 -0.5655608

conv3.0.weight f4 [8, 8, 3, 3]
000000 76 4b f7 3d 4c 64 44 be 1b da 82 be c4 fe e3 3e
       0.1207494 -0.19178885 -0.25557026 0.44530308
000010 5c 2d 86 be dd 66 00 3e 08 b5 a2 be 17 02 ec 3e
       -0.2620648 0.12539239 -0.3177874 0.46095344
000020 3b 72 57 3e f9 7e d3 be f9 d8 60 3e 37 cf 3c be
       0.21039669 -0.4130781 0.21957768 -0.18438421
000030 98 21 3b 3e b1 4b 01 3e 11 1e 0b 3a 59 10 81 bd
       0.18274534 0.1262653 0.00053069094 -0.06301946
000040 48 c3 8e be 42 96 58 be d0 38 b7 3d 7f 6d ed be
       -0.27883363 -0.21151069 0.08946383 -0.463726
000050 06 cb 43 3e db 68 28 3e 83 99 ca 3d 41 64 90 be
       0.19120416 0.16446249 0.09892561 -0.28201488
000060 f3 5a fc 3e 13 48 e9 3e c7 dc 91 3e 8c f7 c2 bd
       0.4928814 0.455628 0.28488752 -0.09519872
000070 31 f3 9c bd 31 1a ee bd 2f f2 7e be 1c 2d 25 be
       -0.076635726 -0.11626089 -0.24897073 -0.16130489
000080 90 e6 5c 3e be c3 88 bd 51 d1 39 3e 19 6c ff 3b
       0.21572328 -0.0667796 0.18146254 0.0077948687
000090 e1 e7 7e bd 6e 02 37 be 48 77 bc bc 94 30 e3 3d
       -0.062232856 -0.1787202 -0.023006096 0.1109325
0000a0 05 1f 5c 3e 19 6f 2a 3e 85 47 ce 3e 0b cc 6d 3e
       0.21496208 0.16643943 0.4028894 0.23222367
0000b0 95 ee ea 3d b6 cd 9c 3e 3a 81 c1 bd f3 64 dc 3d
       0.11471287 0.30625695 -0.09448476 0.10761442
0000c0 10 1b c8 3d 92 af 08 be 99 5b 61 3e 65 f2 42 bd
       0.09770787 -0.13348225 0.22007598 -0.047594447
0000d0 96 99 d0 3c 19 21 f7 bc 5c 47 5f be d9 1b 68 bc
       0.02546386 -0.03016715 -0.21804565 -0.014166796
0000e0 57 b8 10 3d 5a 97 4f 3d 95 91 99 be 18 00 9e bc
       0.03533205 0.05068145 -0.29993883 -0.019287154
0000f0 83 d3 41 3e c7 b0 b7 3d 3d 1b 2e bd 97 92 ae 3c
       0.18928342 0.089692645 -0.042506445 0.021310134
000100 60 1a 7a 3e 90 c6 7f 3e 01 01 3f 3d d0 65 2f bd
       0.24424124 0.2497809 0.046631817 -0.042821705
000110 10 6f 85 3e 7d 10 01 3d 36 41 45 3e f0 87 62 3e
       0.26061296 0.031509865 0.19263157 0.22122169
000120 96 07 d2 3d df 83 cc 3d fb e7 3f 3d 12 bf 01 bd
       0.10255353 0.0998609 0.046852093 -0.03167636
000130 ef e8 2a be 03 14 24 3d ab 3c ff 3d 84 dd a6 3d
       -0.1669042 0.040058147 0.12462743 0.081477195
000140 19 05 52 3e c3 5f 29 3e 66 95 ce be 94 9b 70 be
       0.20509757 0.16540436 -0.40348357 -0.23496848
000150 3e 46 09 be 63 13 14 be 8c 6e 88 be 80 8f 62 bd
       -0.13405702 -0.1446052 -0.2664684 -0.055312634
000160 53 4e f4 bd 9f 53 bb be 22 af 7e bd 87 09 97 be
       -0.11929002 -0.36587235 -0.06217874 -0.29499456
000170 9b 75 d2 be 95 8f bf 3d ac be 02 be ff 2a a7 be
       -0.4110535 0.09353558 -0.12768048 -0.3264999
000180 69 fc ec bc 84 28 e2 bd dd 6c e7 be 58 49 d7 3b
       -0.028928952 -0.11042884 -0.45200244 0.0065700226
000190 4d ee 54 3b 08 de 1d 3e c9 13 85 3c 73 74 50 3d
       0.003249067 0.1541673 0.016244786 0.050892305
0001a0 4a ca e3 3d a9 4f ff 3b 2c 88 12 3e 6c 0e 8b 3e
       0.11122568 0.0077914787 0.14309758 0.2715944
0001b0 8c a7 c1 3c 80 3b 84 be dc 5c f7 bc f7 c9 8e bd
       0.023639463 -0.25826645 -0.030195646 -0.069721155
0001c0 28 9b 85 bd 83 3d 38 3d 34 42 10 be 9b 02 b2 ba
       -0.06523734 0.044980537 -0.14087754 -0.0013581099
0001d0 6b cf 32 3d 07 2f 14 bd 78 fb 7f 3c 85 6c d4 3d
       0.04365484 -0.03617766 0.01562392 0.10372261
0001e0 2f d3 d8 3d 81 5c 8f be 16 f5 e5 3d f3 08 10 3e
       0.10587155 -0.28000262 0.11228387 0.14065914
0001f0 2e 32 0c 3e 8a 37 3d bd ef e8 ee 3d 7e 0d cd 3e
       0.13691017 -0.046195544 0.11665522 0.40049356
000200 2e e6 cd 3d a3 92 05 bd 14 82 5d 3e ee 03 ad bd
       0.10053669 -0.032610547 0.21631652 -0.08448015
000210 6c ce 6f 3d 6a 4f ab 3d f1 aa 2f 3e 08 bc 00 be
       0.05854647 0.083647564 0.17155053 -0.12571728
000220 6b 7c da bd 92 04 11 be 65 63 ba 3c ad 3a 99 be
       -0.10668262 -0.141619 0.022752473 -0.2992758
000230 01 c4 9a bc 9c 01 1f 3e 64 f6 24 bd 46 c8 94 3e
       -0.01889229 0.15527958 -0.04027404 0.29059047
000240 d5 4b 65 bd 83 cb 2f 3e 1d 0d 7a be 9c 9e 2f be
       -0.055980522 0.17167477 -0.24419065 -0.17150348
000250 7e fd 51 bc 36 32 ac 3e 4e 36 cb 3d c7 d0 50 be
       -0.012816785 0.33632058 0.09922467 -0.20392142
000260 98 e8 3a be 19 47 b6 3e 5b 9f c1 3e a7 8f 52 3e
       -0.1825279 0.35601118 0.3781689 0.20562612
000270 7e aa 3a 3e 67 b3 93 3e 7c 90 63 3e b0 34 01 bd
       0.182291 0.2884781 0.22223085 -0.031544387
000280 42 1a 0c 3d 78 fa 38 3e 7d f7 8d be d0 17 d6 bd
       0.03420473 0.18064296 -0.2772788 -0.104537606
000290 7f 67 44 be 61 17 a3 be 54 f8 de be a1 f3 4f be
       -0.19180106 -0.31853774 -0.43548834 -0.20307781
0002a0 de 9a 3d be bc d4 bf be 69 5a f9 be 8e 27 f7 bc
       -0.18516108 -0.3746699 -0.4870179 -0.030170228
0002b0 5e a5 0b be 1f 0c a9 3d 44 ac 2a 3d 0d b5 00 be
       -0.13637301 0.08254265 0.04166819 -0.12569065
0002c0 1b 12 6b bd 8a f8 13 3e 9f d5 78 3e 18 3a 64 3e
       -0.057390314 0.14450279 0.2430024 0.22287786
0002d0 92 31 3e be 9c a6 2b 3d ff ef 1f bc 75 b9 30 bd
       -0.18573597 0.041906938 -0.009761809 -0.043145616
0002e0 b6 86 89 bd 4c e2 86 3e 44 76 e5 bc 9d 05 99 3d
       -0.06715147 0.26344526 -0.028010495 0.07471774
0002f0 44 32 3e 3e 99 30 96 3a e9 dd 26 3e 2f 0b 52 bd
       0.18573862 0.0011458575 0.1629559 -0.051280197
000300 4c d5 9f be fd e0 ae 3d a9 35 df bd 16 08 f9 3b
       -0.3121742 0.08539007 -0.10898907 0.007599841
000310 db 4d 9f 3e c9 76 be 3e b8 ae 28 be b4 4e c4 be
       0.31114087 0.372 -0.164729 -0.38341296
000320 c2 e8 b7 be 7a 69 d4 b8 a5 d8 7c be 5b 3b 86 be
       -0.35919768 -0.00010128594 -0.24692018 -0.2621716
000330 1a fd dc bd be da 0d 3e 20 13 af 3d be 0a 8f 3e
       -0.10790463 0.13852975 0.0854857 0.27937883
000340 21 90 cd bc c1 dd 52 3e ed 6d 91 3d 9c 6a a2 3e
       -0.02509314 0.20592405 0.07101045 0.31721961
000350 9d 9b 50 3e aa 8b 71 be 66 55 28 3e 85 99 30 be
       0.20371862 -0.23588434 0.16438827 -0.17246063
000360 7d 09 6a be 1c c2 d1 3d e7 2b b1 3d 37 a3 a9 3c
       -0.22855182 0.102421016 0.08650952 0.02070771
000370 b0 69 18 3d 8e 12 bd 3e 93 b6 6e 3e 2b a2 8d 3e
       0.037210166 0.3692822 0.23311834 0.27662787
000380 ae f1 a6 3e 01 7e 5d 3e ce f5 a9 3e 3b d1 18 3b
       0.32606262 0.21630098 0.33195347 0.002331807
000390 f1 3a 28 bd 2a 1e e3 3e fb df ce 3d c1 7f 22 bc
       -0.041071836 0.4435895 0.10101315 -0.009918154
0003a0 f7 fd 9a 3e d3 ae a7 3d 72 2c b8 bd e6 ac 86 be
       0.30271885 0.08187642 -0.08992852 -0.26303786
0003b0 0a 2a 96 bd 92 88 89 3d 16 b0 8f bd 6b e7 e6 bd
       -0.07332237 0.06715502 -0.070160076 -0.11274608
0003c0 d2 c9 b1 bc 24 1a 09 3e 77 a2 93 bd aa b8 4f be
       -0.02170268 0.13388878 -0.07208722 -0.20285287
0003d0 0c 17 a4 bd 22 4d f2 bd 0d a8 a8 bd cf 8c ad be
       -0.08012208 -0.11831118 -0.08235178 -0.3389649
0003e0 db 96 1d 3e 84 ac 53 bd 41 cf 26 be 69 47 99 3e
       0.15389578 -0.051678196 -0.16289999 0.29937294
0003f0 d7 c4 1e be 08 7e 03 3e 4e a5 c3 3d a9 5e c0 3c
       -0.15504776 0.12841046 0.09553014 0.023482637

conv3.0.bias f4 [8]
000000 ce fa 85 bf 49 78 c1 3f b6 7e a6 3d 52 2c 03 bf
       -1.0467165 1.5114833 0.08129637 -0.512395
000010 84 2b ad bf df 40 7b bf 67 25 0c be 72 9d 4a bc
       -1.3528905 -0.9814586 -0.13686143 -0.012366639

dense1.0.weight f4 [32, 128]
000000 27 01 30 bd 21 99 4d 3e 13 92 4a bd 39 72 8f 3d
       -0.04296985 0.20077945 -0.049455713 0.07004208
000010 d1 d0 e3 bc bf 24 51 bd d4 d1 70 bd 4e ee cd bd
       -0.027809532 -0.051060434 -0.058793858 -0.10055219
000020 68 58 82 3e 8c 14 34 3e be b6 94 be 2d 80 7e 3d
       0.25458074 0.17585963 -0.2904567 0.062133957
000030 c8 e9 4f be 79 b9 71 3c d1 76 96 bd b2 ac 19 bc
       -0.20304024 0.014753693 -0.07346881 -0.009379553
000040 8a 45 8c be 08 5b a3 bd 28 3b 7a 3e c6 d0 d9 3c
       -0.27396804 -0.07976347 0.24436629 0.026588809
000050 51 32 ff 3d d9 f0 2f be 58 cd 45 be 4b 73 07 3e
       0.12460769 -0.1718172 -0.19316614 0.13227575
000060 0a e4 ad 3e 10 26 b4 bd b1 ad 4d 3e 14 7f e5 bd
       0.33963042 -0.08796322 0.2008579 -0.11205879
000070 e3 98 7b bd 7d 7d 51 3d 2c 93 86 bd 1c 02 dc bd
       -0.0614251 0.051145066 -0.065710396 -0.1074259
000080 fa ac ff bd 52 a8 48 3e 48 72 f9 bd 6e ab 85 bd
       -0.124841645 0.19595459 -0.121800005 -0.06526838
000090 c7 15 69 3e ea 03 6c 3e ed 75 29 be 54 26 6e bc
       0.22762214 0.23048368 -0.16548891 -0.014535505
0000a0 05 9e 50 3d 21 27 8e 3d 18 e4 8f be fa de 70 3e
       0.05093195 0.06941057 -0.2810371 0.23522559
0000b0 4b 6d 0f 3d 53 11 20 3d 1d 42 e4 bd 7c 17 c9 bc
       0.03501634 0.03907902 -0.111454226 -0.024547331
0000c0 34 79 49 bd fe ff d4 3d 68 40 5c be 05 31 22 39
       -0.049187854 0.10400389 -0.21508944 0.00015467785
0000d0 2d f4 6f be 3c 07 2c 3e e6 86 0f be 72 d3 2c 3d
       -0.2343299 0.16799635 -0.14016303 0.042193837
0000e0 22 d3 0d be 77 d1 b2 3d 43 c1 8d 3d 87 26 87 bd
       -0.13850072 0.087313585 0.06921627 -0.065991454
0000f0 05 e2 2d 3e da 90 0d be 00 c7 07 bd af 88 12 be
       0.16980751 -0.13824788 -0.033148766 -0.14309953
000100 28 72 2b 3b 6e 27 60 3e 98 bc 16 be ed 6f 49 3e
       0.0026160572 0.21890041 -0.1472038 0.19671603
000110 33 3b 57 3e 4f 27 96 3d 4f f6 61 be 26 c0 90 3d
       0.21018676 0.07331716 -0.22066616 0.070678994
000120 ac 55 12 be 9c 01 a0 3d 19 cc 67 bd 99 87 86 3e
       -0.14290494 0.07812807 -0.056591127 0.26275328
000130 8d 8c 26 be 42 f7 30 be 64 cd 40 bd e1 69 f9 3c
       -0.16264553 -0.17281821 -0.047070876 0.030445995
000140 b0 ae 1a 3e a3 1d 15 3e 78 9e 43 bc dd ac 28 bd
       0.151057 0.14562087 -0.011939637 -0.04118048
000150 96 df d2 3c 0c 8f 27 3e 24 bc 6d be 93 4c 15 3c
       0.02574138 0.16363162 -0.23216301 0.009112495
000160 16 0b 9a 3d 78 d3 99 bd 6a e9 39 bd b2 2c 3a bb
       0.07521646 -0.075110376 -0.045388617 -0.0028407988
000170 07 cf 1a 3e 40 bb 0e 3e cb 29 c9 3d 89 38 94 bc
       0.15118037 0.13938618 0.098224245 -0.018093364
000180 cc 70 c9 bc d5 a1 94 3d e5 f2 29 3c 68 a9 fd bd
       -0.024589919 0.072574295 0.010372852 -0.12385827
000190 17 78 5a be e7 d7 04 3e fa 4f 1b be be 81 b3 3d
       -0.21334873 0.12972985 -0.15167227 0.08764981
0001a0 cb 65 04 3d 73 fa e2 3d 40 1d 30 3b 24 71 67 3e
       0.03232364 0.11082926 0.0026872903 0.22601753
0001b0 23 16 19 3e f7 44 68 be f0 f5 e6 bd 31 b4 0c bc
       0.1494985 -0.22682558 -0.112773776 -0.008587883
0001c0 aa 67 06 be a9 f4 60 be 06 30 98 3d 3b f1 80 3e
       -0.13125482 -0.2196833 0.07431035 0.25184044
0001d0 3b 04 29 3d c3 1e bc 3e 4b 7c 3e be aa da fb bd
       0.0412638 0.3674222 -0.18602102 -0.12297566
0001e0 2d 12 f2 3d 81 77 ed 3d 34 04 11 3e e8 21 6a be
       0.11819873 0.11595059 0.1416176 -0.22864497
0001f0 31 b0 98 3c a1 d0 a9 3d 08 d3 fd bd c5 43 b7 bd
       0.018638702 0.08291746 -0.12393767 -0.08948473
000200 fb 58 0d be 4c 7b 05 3e 97 ef 96 3d 39 af bc bd
       -0.13803475 0.13035315 0.07369917 -0.092131086
000210 67 b2 81 bd 74 4b e8 bd 4d e8 b0 3d 97 18 08 3e
       -0.06332856 -0.113425165 0.08638058 0.1329063
000220 82 53 9b 3e 29 e5 c7 bd c4 f8 1d be e1 43 99 3d
       0.3033715 -0.09760506 -0.15426928 0.0748365
000230 c7 5b a4 3c 8c 2b 25 3d 49 af 67 3b 67 66 8f 3c
       0.020063294 0.040324733 0.003535228 0.017504884
000240 a0 71 84 bc d2 6b ee 3d 84 11 a8 3d 70 85 0b be
       -0.016167462 0.11641659 0.08206466 -0.13625121
000250 b9 28 b6 bc 74 b7 06 be e2 b6 34 be c9 e4 07 3c
       -0.022236215 -0.1315592 -0.1764789 0.008294293
000260 04 3e 59 bd d5 96 39 be 0c e2 0f be 89 9a 27 bc
       -0.05303766 -0.18123944 -0.14051074 -0.010229715
000270 fa ca 26 3d c7 c7 2f be 52 b2 e5 bd 92 2b 12 3d
       0.040720917 -0.17166053 -0.112156525 0.035686083
000280 f1 30 88 3d 78 14 0b 3e 5f f5 90 bd e0 69 f2 3d
       0.0664996 0.13582027 -0.07078051 0.118366
000290 6c 0b 50 bd 9d 8e 5b 3e 7d 5a 9c 3d e8 70 29 be
       -0.050792143 0.21441121 0.07634447 -0.16546977
0002a0 aa 99 8d 3d a4 c2 0a be 01 9e e4 3c e7 5d 0f 3d
       0.06914075 -0.13550812 0.027907373 0.03500166
0002b0 89 3e c6 bd e3 73 87 3d 6a ca d5 3c db aa 84 be
       -0.096798964 0.066139005 0.026097495 -0.25911602
0002c0 b1 99 8b 3d 3f 30 ce bd 35 d1 65 bd 39 bb a6 be
       0.06816424 -0.10067796 -0.05610772 -0.32564715
0002d0 bb ea 20 3e b0 20 bc bd 90 ae 8a bd 17 c6 cc bc
       0.15714543 -0.09185922 -0.067715764 -0.0249968
0002e0 92 99 88 be 40 8c fc bc 12 38 ee 3c 93 ac a0 3d
       -0.26679665 -0.030828595 0.02907947 0.07845416
0002f0 2a 30 19 be 1e 29 58 3e 9b ec 46 3e 15 85 32 3e
       -0.1495978 0.21109435 0.19426195 0.1743358
000300 61 f7 2c 3e ca 1f b5 bd 76 7c cd bc 15 0b 9d bc
       0.16891243 -0.08843954 -0.025083762 -0.019170323
000310 e0 75 9b 3d 38 91 1a bd 4a 13 96 3d 96 e4 15 3d
       0.07590842 -0.037736148 0.07327898 0.03659495
000320 a8 4f 05 3e cc e5 3f 3d f3 db b3 3e 9f e7 4c 3e
       0.13018668 0.04685001 0.35128745 0.20010231
000330 8e 6e 09 3d 21 8e 41 3e c6 5c 98 3e 09 6b df bd
       0.0335527 0.18901874 0.2975828 -0.10909087
000340 91 04 0c 3e c6 14 d6 bd 5e e7 37 3e 47 d1 23 3e
       0.13673617 -0.10453181 0.17959353 0.15997802
000350 e6 5a cb bd ae 7d 8b 3d 4d 6a 61 3e 0d 56 83 3d
       -0.09929447 0.06811081 0.22013207 0.06412897
000360 68 43 1b 3e c4 b3 82 3e 2a d6 03 3f de bd 9e 3d
       0.15162432 0.25527775 0.51498663 0.07751058
000370 d6 26 2f be 33 67 e5 3c 35 58 b1 be ef 00 1c be
       -0.17104658 0.02800331 -0.3463761 -0.15234731
000380 ed 2d 8e bd 46 98 19 be 44 2c af be 41 70 f0 3d
       -0.069423534 -0.14999494 -0.3421346 0.11740161
000390 82 00 90 be f5 38 5c be e6 77 70 be 1c b8 ab bd
       -0.28125387 -0.21506102 -0.23483238 -0.083847255
0003a0 45 df c8 bd b5 3e e4 bd 1d 0b b9 bc fd d6 94 be
       -0.0980821 -0.11144773 -0.022588307 -0.29070273
0003b0 78 aa 1d bd dc d7 b0 3d fb 55 05 be 77 a6 8b bc
       -0.03849265 0.08634922 -0.1302108 -0.01704715
0003c0 f0 a0 18 bd 04 6b aa 3d 6f ac 2b bd ac 0a 40 be
       -0.037262857 0.08321193 -0.041912492 -0.18754071
0003d0 57 1d 15 3e 89 15 9c be 6c bf 18 3e 9b 3a d0 3d
       0.14561974 -0.3048518 0.14916772 0.10167428
0003e0 24 13 6b 3d 9d bc 92 3e 67 9f 1a 3d 49 cf 65 3c
       0.0573913 0.28659526 0.037749674 0.014026471
0003f0 32 7a 44 bd 6b 5d 60 3e b0 3f 03 be 89 fb 8b 3e
       -0.047968097 0.21910636 -0.12817264 0.27340344

dense1.0.bias f4 [32]
000000 ff cf f4 be b2 e7 d8 3f 18 db c3 3f a0 83 04 40
       -0.47814938 1.6945708 1.5301237 2.0705338
000010 a1 34 39 3e 4e 19 6c be 00 aa 3b 3f 56 89 20 3f
       0.18086483 -0.23056528 0.73306274 0.6270956
000020 87 c8 85 3f 31 ae 35 bf db b7 69 b9 bf bc 3b be
       1.0451821 -0.7096892 -0.00022289103 -0.1833372
000030 1c e0 29 3f 9a 15 5e be b2 33 94 bf f1 ed 1c 3f
       0.6635759 -0.21687928 -1.1578276 0.6130057
000040 e2 30 cb bd 36 59 6f 3f 53 d2 f9 bd 9b ad 74 bf
       -0.09921433 0.934955 -0.12198319 -0.955774
000050 30 45 e9 3f 02 5b 82 3f 27 22 14 bf c2 25 63 3f
       1.8224239 1.0184023 -0.5786461 0.8872949
000060 21 87 4b 3f 42 5e e0 be 4d bb cb bf df 91 c2 3f
       0.79503065 -0.43821913 -1.5916535 1.5200766
000070 4f 4e f2 bf f7 33 4c bd 22 91 ad bd 47 12 89 bf
       -1.8930148 -0.049854245 -0.084749475 -1.0708703

dense2.weight f4 [10, 32]
000000 18 79 17 bd 26 b4 1a bd 4c 0c 90 3e 45 54 53 bf
       -0.03698072 -0.03776946 0.28134382 -0.8255046
000010 f3 7f cb 3e 87 bc 0d 3e f6 24 c3 be 20 61 7c be
       0.39746055 0.13841449 -0.38114136 -0.24646425
000020 d5 7b 71 3e 44 ec 0e be 30 00 9f 3b 10 1e e9 bc
       0.23582394 -0.13957316 0.0048523173 -0.028456718
000030 c3 f8 76 3e ad df 9d be 51 d3 9d 3e 0d 30 73 3e
       0.24118333 -0.30834714 0.30825284 0.23748799
000040 fe 15 19 be 9e 9d 86 be 50 d0 f5 3e 48 b8 e1 be
       -0.14949796 -0.26292127 0.48010492 -0.44085908
000050 2a ed 07 3d 0f 88 9d 3e 81 63 4e 3e 79 d9 88 3e
       0.03318516 0.30767867 0.20155145 0.26728418
000060 6a 21 1a bf 13 1d 84 3e 85 78 19 bf 31 1f 4d be
       -0.60207236 0.25803432 -0.59949523 -0.2003143
000070 03 0d 8b 3e b2 69 e6 bd 9c c5 bb bd b0 71 c6 3e
       0.27158365 -0.112506285 -0.0916855 0.38758612
000080 98 04 57 be 9f dd a2 3e 04 ea b9 be 81 f4 19 3f
       -0.20997846 0.31809708 -0.36311352 0.6013871
000090 ca 1b 87 3e e1 3d fd be 1e 8b 69 be ca 14 9e bd
       0.2638839 -0.49461272 -0.22806975 -0.07718809
0000a0 97 f7 3c bf df 56 10 3f 8f 7a 6d ba dd 65 b3 3e
       -0.7381529 0.56382555 -0.0009059095 0.35038653
0000b0 b8 cd 1d bf 39 f8 4d 3e 03 e3 96 3f 19 e8 c9 3e
       -0.61642027 0.2011422 1.1788028 0.3943489
0000c0 4e 21 c3 3c 90 56 1a bf b0 11 bc bd 66 0c 43 3e
       0.023819592 -0.60288334 -0.09183061 0.19047698
0000d0 11 44 49 bf 03 26 22 bf 1f 7b 56 be b5 bd 09 bf
       -0.78619486 -0.6333925 -0.20945404 -0.53805095
0000e0 f5 0f b0 bd 62 37 ce 3e 63 87 6b be 9a 07 3e 3e
       -0.085967936 0.4027663 -0.23000865 0.18557587
0000f0 48 da 98 3e c5 7c a4 3e 7a ce bf 3e 73 31 0d be
       0.29854035 0.32126442 0.37462217 -0.13788395
000100 e1 62 4c 3f 71 95 e9 3d dd c0 8e 3e 30 2a 32 3e
       0.7983838 0.11405457 0.27881518 0.17398906
000110 39 80 a5 3d dd 06 31 3f 85 1f bd be a3 d2 be 3d
       0.08081097 0.691511 -0.3693811 0.093175195
000120 18 ad 5e 3e 44 82 ed be f3 34 0f bb 58 85 7f 3b
       0.21745718 -0.46388447 -0.0021851629 0.0038989391
000130 3a c0 06 3d d7 b6 d4 be 31 ab a4 bc 7b 75 ad 3d
       0.032898165 -0.41545746 -0.020101162 0.08469673
000140 8e ad 35 bf 83 3a ab 3e 9b 48 ac 3d 99 1b e5 be
       -0.7096795 0.33443078 0.08412286 -0.44747618
000150 90 f0 aa 3e 06 70 e0 bc 13 00 c0 3d ec 71 35 be
       0.3338666 -0.027397167 0.09375014 -0.17719239
000160 c1 7d 92 3d 29 2f f3 3d 47 e4 b0 3d 30 ef 7a be
       0.07152892 0.118742295 0.086372904 -0.24505305
000170 b6 95 4e 3d b4 d2 05 3f aa 10 ae 3e f7 05 a6 be
       0.050435744 0.5227463 0.3399709 -0.32426426
000180 58 b1 3c 3c d0 4f 02 bf d1 8e aa 3c 7f f3 47 3d
       0.011516891 -0.50903034 0.020820053 0.0488162
000190 ff bf 10 be 70 6f 1d bd db 2e 92 3e ec 91 37 bd
       -0.1413574 -0.038436353 0.28551373 -0.044816896
0001a0 72 04 b0 bd 96 97 9c be 51 68 0e 3b 8d 07 f8 be
       -0.08594598 -0.305844 0.0021729658 -0.4844326
0001b0 36 61 3b be 76 0e 84 3e 2a 66 22 be 17 e8 c2 bd
       -0.18298802 0.25792283 -0.15859285 -0.09516924
0001c0 49 c6 24 3d f8 0f 60 3e c6 df d1 bd 67 02 0e 3e
       0.040228162 0.21881092 -0.102477595 0.13868104
0001d0 c4 7d 90 bd 57 cb 20 bd b5 f3 95 3a 20 f2 80 3e
       -0.07055238 -0.03925642 0.0011440428 0.25184727
0001e0 77 d1 b8 be ee 72 a1 bd f2 2b 84 3c cc 28 94 be
       -0.3609731 -0.07883249 0.016134236 -0.28937376
0001f0 50 8a 5e 3e 50 7d 06 3d 32 0e ae be 9a cf c5 3c
       0.2173245 0.03283435 -0.33995205 0.024146844
000200 d6 52 35 be 09 ea 8e be ad f9 02 be 4e a8 12 3e
       -0.1770738 -0.2791293 -0.12790556 0.14322016
000210 8a 22 af be 82 10 e7 be a2 24 99 3e d4 19 b2 3e
       -0.3420604 -0.45129782 0.2991076 0.3478533
000220 b7 81 47 3e 44 8d d0 be 90 80 07 bb c7 67 eb be
       0.19483076 -0.40732777 -0.0020675994 -0.45977613
000230 7d 75 27 3e 40 a2 79 be 9a 92 f9 3b 00 a9 0b bf
       0.16353412 -0.243783 0.007616353 -0.5455475
000240 03 07 77 3e 55 88 d0 3d b5 ec 60 be 2e 0f cf bc
       0.24123769 0.10182253 -0.21965297 -0.025275793
000250 86 5a b6 3e 71 9e 76 3d f9 a0 3c 3e c7 4f 67 be
       0.3561594 0.060209695 0.18420781 -0.22589026
000260 81 4f b4 3d c8 ee 5a be 8a 7a ed be 1c 9b e1 3e
       0.08804227 -0.2138015 -0.46382552 0.44063652
000270 98 2a fa be a7 9c 70 bf 68 f5 7a 3e d6 65 c5 3e
       -0.4886062 -0.9398903 0.24507678 0.38554257
000280 82 12 62 3d ca 65 03 bf 0c 34 b9 bd fd e8 38 be
       0.05519343 -0.5132719 -0.0904313 -0.18057628
000290 19 c7 5e 3e 01 41 e8 bb 7d ed 04 3e 3b f0 05 3d
       0.21755637 -0.007087827 0.1298122 0.032699805
0002a0 db c6 37 bc bc 7c c3 be 68 75 5d 3b 5a 48 1a bf
       -0.011216844 -0.38181102 0.0033791903 -0.6026665
0002b0 cf aa 66 bd e0 13 56 bd ed 8a 69 be 3b 67 13 3e
       -0.05631524 -0.052265048 -0.22806902 0.14394848
0002c0 78 e1 21 3e 78 02 a0 3e d5 3b 8e be 91 ca 0b 3d
       0.15808666 0.31251884 -0.27780023 0.03412873
0002d0 49 22 0e 3d 14 3a 70 3e 83 79 fe 3c 06 16 ff 3d
       0.034700666 0.23459655 0.0310638 0.124553725
0002e0 4c 2a de be 29 27 0c bf bd 82 fc 3d d5 6f 86 be
       -0.43391645 -0.54747254 0.12329624 -0.26257196
0002f0 d8 cd 49 3e 46 ca 44 3e 4c 7e e6 be 6d 98 6f 3c
       0.1970743 0.19217786 -0.45018232 0.0146237435
000300 09 78 04 bf 38 3a c8 bd 2f 42 89 3e 4a ea 87 3d
       -0.5174566 -0.09776729 0.26808307 0.06636484
000310 34 a4 78 be 58 dd 51 be b5 2e 87 3e ce b9 5b 3e
       -0.24281389 -0.20494592 0.26402822 0.21457598
000320 23 0c b8 bc e2 ed 8f be 68 79 fb 3a 10 a9 b1 3e
       -0.022466725 -0.28111178 0.0019185962 0.34699297
000330 0a 69 04 3f 96 23 02 3e f6 cf 8b be 7b 9e 7d 3e
       0.51722777 0.12708887 -0.273071 0.24767487
000340 b6 c9 2c be 1c 54 3e bd e9 88 04 3f e1 6b 9f 3e
       -0.16873822 -0.04646693 0.5177141 0.31136993
000350 77 07 f0 3c 3b 23 96 be e2 aa 17 bf 4e 73 06 3d
       0.029300435 -0.29323754 -0.5924512 0.032824807
000360 87 62 c5 be a2 92 51 bd a4 6d 11 3e d1 ef 3b bf
       -0.38551733 -0.05116523 0.14201981 -0.73412806
000370 dc 5d 13 bf 1d e9 ff bc 47 a3 e3 3d 9e d4 fa be
       -0.57565093 -0.031239087 0.11115127 -0.4899034
000380 bf 92 43 be 7f df 01 bf 43 22 05 bf 5c 6b ba be
       -0.19098948 -0.5073165 -0.52005404 -0.36410034
000390 0b 56 a0 be 82 64 4a be 13 35 f7 be b6 9c be bd
       -0.31315646 -0.19764903 -0.4828268 -0.09307234
0003a0 79 bb 08 3e d7 36 03 bf 85 ff 97 bb 55 f5 cf be
       0.13352765 -0.51255554 -0.0046386146 -0.4061686
0003b0 d0 cc 91 be 29 79 c6 be f4 50 46 bd 62 75 e2 be
       -0.28476572 -0.38764313 -0.048417047 -0.4423018
0003c0 f6 ab 3d be 2a 11 06 3d 6f a5 0c bf 10 f3 5c 3e
       -0.18522629 0.032731213 -0.5493993 0.21577096
0003d0 42 fe 80 3e c7 63 5c 3f 9a dc da 3e 83 ce 66 be
       0.25193983 0.8608975 0.4274643 -0.22539715
0003e0 ee 97 dd 3e 21 87 fd 3d 3b 99 dd 3e f8 62 55 3e
       0.43279976 0.123792894 0.43280968 0.20838535
0003f0 f0 94 88 3e db aa a4 be eb 9a 21 be 07 2b 0b bc
       0.2667613 -0.32161602 -0.15781753 -0.008494145

dense2.bias f4 [10]
000000 e3 61 fb 3e 86 52 84 bf 74 a8 3f 3f 77 41 97 be
       0.4909812 -1.0337684 0.74866414 -0.29542133
000010 6d 29 eb 3f 93 ca 88 bf f2 c7 9f 3e 9e 7c 91 bf
       1.8372017 -1.0686821 0.31207234 -1.1366155
000020 ec 63 31 3f 3e cd 4e bf
       0.69293094 -0.80781925
