ResidualLoss/CNN-l2-freeze-prob/beta-8.pt (torch, 27135 bytes, 10 tensors)

conv1.0.weight f4 [8, 3, 3, 3]
00000000: 2f42 103d 483c f6bd 9033 e83d f6d3 3b3e
00000010: bcec e1be 4c5f 823e 54dd af3d 52ff 47be
00000020: da39 8a3d c986 a13e f9a8 05bf 998a 353e
00000030: 3ef0 653e f16c 9dbe 4373 8e3e 7ca8 30bc
00000040: 02f3 a4be cc8f 4b3e f2a9 6c3d d126 76be
00000050: edeb 203e d767 6c3e 7005 f9be 8737 8c3e
00000060: 0deb 7ebc 5005 b2bd 3fa8 d53d e16d c53d
00000070: f62f d63d 4479 b0be d69f 9a3d ed47 22bf
00000080: e10d abbe 0296 043d 5d56 bcbd 7c8f 843d
00000090: 6d94 33be 9b18 d1bc e9a2 993d deb8 333e
000000a0: 1f1c 853d 2b13 863e df81 a8be 67d2 b63e
000000b0: bb8b b4be a380 713d 4250 9b3e 8554 213e
000000c0: 9089 d73c a5f8 a53d 3c6d 583e 10a7 4abd
000000d0: ebac 0d3e 169d 983d c69d c43e b1b7 edbd
000000e0: d70f 69ba ddc9 963d 6cba d63e 40c1 903e
000000f0: 2984 e2be 16d8 34be 2368 dcbe 19f8 3e3c
00000100: 68a5 69bd 4761 3e3d 28ec e3bd 7590 033e
00000110: b6b9 a03e 2805 ac3d f1ef 98be 67d2 efbd
00000120: fe8c 29bd a954 fbbd 2f25 67be 85ca 113e
00000130: 171f 943e 284c aa3d f2c2 9bbd 1ed8 d0bc
00000140: 29dc f0bc edbf 5bbe 8da4 5d3e 18c6 513e
00000150: fca1 353d 0850 093e 3039 923e 9adc 93be
00000160: d95c 25bd f9f1 653e 8233 da3e d9c7 1cbe
00000170: 6d1a cd3d 76bf 80bd 580b 80be 8b51 eebe
00000180: b498 4f3e 87a3 33be 3ee6 9abe 97a8 443d
00000190: c678 14bd 2858 87be 3e9e 61bd 91c1 21be
000001a0: 51f1 97bd 6c6b 133d fd09 953e 6aec 2d3e
000001b0: f25c 763e 9719 e53d 2264 73be ab18 1e3e
000001c0: a44a cf3e fbbe af3c 9b8b 8dbd 4bd1 b33d
000001d0: 9cd7 a13e ae8e 89be 9264 453d cffc 4cbe
000001e0: c836 54be 6c15 b53e 3cf6 97bd 55b8 6bbe
000001f0: 476d 0dbc 571d 9fbe 4536 c03d 43b9 e73e
00000200: 91d7 c8be e6c4 c9bd ac5b b53e 2666 143d
00000210: a402 9abe e55b 903e d4a7 8c3e 1f90 de3d
00000220: 6484 adbe c78e 743e 0888 f43d a01d 413e
00000230: 0415 b1be b5e6 a6bd e8d6 993d b72c 8a3d
00000240: 53fd c3bb edfe b7be fbd3 743e 890a 993d
00000250: e9c7 b43e f76a 8abe 75f1 afbe 209c 403e
00000260: 139f b03d d6c7 b33e 30f1 ebbe f94e 4a3e
00000270: 3f0e 8cbd 27b4 8d3e ae80 dabe 1c8d 393c
00000280: fd75 4b3c e336 da3c c7d1 1bbe 0dd1 0c3e
00000290: 5cf2 b53e 9d1d 4f3e 855a 093f 5d17 83be
000002a0: cdab 8a3e 8cd9 6dbe dd75 a1be d042 42be
000002b0: 9c7d 083e 73f2 e13c 9254 01be 5dad ef3e
000002c0: 31c9 09bf d819 38bd 4050 c7be 210d 293e
000002d0: f032 ebbe bcbf ab3c e578 893e fd74 d53c
000002e0: 53dd 1b3f d82a 58be f218 603e 3e31 88bc
000002f0: f42d 79bd addd 8a3e 402c 4cbe 2072 d7bd
00000300: 15b2 2c3e bc76 243e 5b44 30be ae4a 903c
00000310: 48ce 28bd 39c6 e3bd 7e8d 953e fc8f a0bd
00000320: 2e4b 2fbe 3a5c 1f3e ffa7 433e 62b7 35be
00000330: fcc5 a73c 2ff8 8ebe 3b33 a7bd 2d20 293e
00000340: d106 153e 5acd b5be b145 a53e 5c78 93bd
00000350: 57fa a5be bab2 623b c86a 853e bbb4 acbd
0.035219368 -0.120232165 0.1133796 0.18342575 -0.44125926 0.2546333 0.08587137 -0.1953099
0.067493156 0.31548145 -0.52210957 0.17728652 0.22454926 -0.30747178 0.27822313 -0.010782357
-0.3221665 0.19879073 0.05777926 -0.24038245 0.15714999 0.23086487 -0.4863696 0.27386114
-0.01555897 -0.086924195 0.10432481 0.09640098 0.104583666 -0.34467518 0.075500175 -0.63391
-0.33409026 0.03236962 -0.0919616 0.0647268 -0.17537089 -0.025524428 0.07501776 0.1755099
0.06499504 0.261865 -0.32911584 0.357074 -0.35262856 0.05896057 0.3033467 0.15754898
0.026310712 0.08104066 0.2113542 -0.04947573 0.13835494 0.07451837 0.38401622 -0.11607302
-0.0008890605 0.07362721 0.41939104 0.28272438 -0.44241455 -0.17660555 -0.430482 0.011655831
-0.05704251 0.04647949 -0.111290276 0.12848075 0.31391686 0.08399421 -0.2987056 -0.11710053
-0.041394226 -0.12272007 -0.22572778 0.14237411 0.2892997 0.08315307 -0.07605542 -0.025493678
-0.029401856 -0.21459933 0.21644802 0.20485723 0.044343933 0.13409436 0.28559256 -0.28879243
-0.04037175 0.22455586 0.42617422 -0.15310611 0.10014806 -0.06286518 -0.25008655 -0.46546587
0.20273095 -0.1754285 -0.30253786 0.048012342 -0.03624799 -0.26434445 -0.055082552 -0.15796496
-0.07419074 0.035991117 0.29109183 0.16984716 0.24058893 0.111865215 -0.23768666 0.15439098
0.40486634 0.021453371 -0.06911393 0.08780154 0.3160981 -0.26866668 0.048191614 -0.20018314
-0.20724022 0.35367906 -0.07420012 -0.23019536 -0.008632011 -0.31077072 0.09385351 0.4525853
-0.39226964 -0.098520085 0.35421503 0.03623023 -0.3008014 0.2819511 0.27471793 0.10867333
-0.3389007 0.2388259 0.119400084 0.18858957 -0.34586346 -0.081494726 0.07511693 0.0674681
-0.0059811263 -0.3593668 0.23908989 0.074727125 0.3530877 -0.27034733 -0.34363905 0.18809557
0.08624091 0.351134 -0.4608245 0.19756688 -0.06838655 0.27676508 -0.426763 0.011325147
0.012418267 0.0266375 -0.15216742 0.13751622 0.35536468 0.2022614 0.53653747 -0.25603762
0.270842 -0.23227519 -0.31535235 -0.189708 0.13329166 0.02758143 -0.12629917 0.46811953
-0.5382262 -0.04494652 -0.38928413 0.16508915 -0.459373 0.02096545 0.26850048 0.02605676
0.6088459 -0.21110094 0.21884516 -0.016625043 -0.06083484 0.2712225 -0.19938755 -0.105198145
0.16864808 0.16060919 -0.17213576 0.017613735 -0.04121235 -0.11121792 0.29209512 -0.07839963
-0.17118523 0.15562525 0.19107054 -0.17745736 0.020480148 -0.27923724 -0.08164068 0.1651618
0.14553382 -0.35508233 0.32279733 -0.07200691 -0.32417557 0.0034591393 0.2605803 -0.08432909

conv1.0.bias f4 [8]
00000000: 378f e63b f6de 2e3f 8d68 11bc 6b12 7f3f
00000010: a59a 743f a578 b03d 3c2a c53e c5a9 e6bc
0.0070361155 0.6830896 -0.0088750245 0.9963748 0.9554847 0.08616761 0.38508785 -0.028157124

conv2.0.weight f4 [8, 8, 3, 3]
00000000: 5e8c 83be b0a5 8dbe 6409 52be b77f a1be
00000010: 2693 b2be a3c1 80be b770 80be 46b7 dbbe
00000020: c0bd d83d 5d8b cfbd 12e5 dcba f4bb 073e
00000030: fe30 dc3d 5ec0 26be eba3 d6bc 28dd 933e
00000040: 5051 753c b98e 23be e205 3e3d 554c 87be
00000050: 540e cc3e 112f 7e3d 2b21 c4bd 3c44 7a3e
00000060: f786 8e3e 7e1e 29be bd9a 2d3e 931c 323e
00000070: 1f7b 9fbe 193e 383e cd2b b83d 87dd b73d
00000080: f9cc 95be 18aa b1b9 9d30 8bbd b211 0fbd
00000090: fe52 66be 40c8 633e 69ae bf3e 9173 ab3e
000000a0: 7f4b a03d f829 1f3d 0d79 313e 8e1e a93d
000000b0: de0c adbd 8b9f 283e 1231 9e3e 35f7 ca3d
000000c0: 093e bf3e ece3 c73e 8143 153e bda9 293e
000000d0: 653f d33e 96a0 2c3f a5fc bcbd 8011 0dbe
000000e0: f18e 25be 857b 7abe b621 70be 2f39 a3bd
000000f0: a28d c7be 6ca5 27be 532e 15be fcf4 e53d
00000100: b1d2 b23d da57 69be 95ea dabd 8f34 c5bb
00000110: 1bbc 04be dcf4 7a3e f630 09be bcdd ed3c
00000120: 8ac0 94bc be48 57bd 0c77 47bc e674 3dbd
00000130: c5a1 00bc c251 87bc fb54 42bd 93ae 303d
00000140: 8481 7b3d a5dd 53bd 193c af3d 2ce1 02bf
00000150: faa9 19bd 9083 0a3f 0f0f 6ebd f91d de3e
00000160: 4547 863e ee58 f53c b29d 2e3e 68ca 9f3e
00000170: 7def f33d d1b0 103d 440a 893e 94d2 553e
00000180: 80b5 b1bd c7ff 78bd 2dbd ba3e 0ead d33e
00000190: 4056 2b3e 436d 4a3d 79ef 533e 5eac fd3e
000001a0: 772b 39be 4e2f a73c cde0 f13e 375c c6bd
000001b0: c376 04be 988d acbd adc1 02bc 1265 83be
000001c0: 8904 96bd 65d8 683e 3669 8f3d f7ac da3c
000001d0: 713f 88bd e76f b7bd 65bd c9be e9b1 51be
000001e0: 71d5 89be 846f bebd eab6 02bd adcf 07bf
000001f0: 6bd4 9cbe 81d7 19be 54fc ff3d 51f9 3ebe
00000200: 2c6b 54be 5945 cc39 2de1 ac3c 47a2 3abe
00000210: 6eb2 253d 6a49 f93c 7739 ca3d 3ac3 b53d
00000220: c503 32bd 2d3b b43d 8089 51bd 9794 ff3b
00000230: 4fd1 ab3c 0cc6 5dbd 61de edbc ed1c 983d
00000240: cc49 40be 62d6 0cbf 755e e13c dea2 2dbf
00000250: 37b0 acbf 2846 1fbe 05a9 a03d 2b1e cbbe
00000260: f0e0 8b3d 7c8f 6e3d c61e 0abd b9fc 283e
00000270: 8af0 9bbc 75aa 13be a2f4 14bb 25e8 33be
00000280: 8e8f 8ebd 49ef 393e 4210 fe3d 7b0b 6d3d
00000290: dc06 a13e 11b0 be3e 133a f83e 9c58 183e
000002a0: 6b74 e03d cdb3 613d 48f8 f63d c6c9 563e
000002b0: 02fc 223e 482c ab3d 9e7e 4c3e 2530 de3d
000002c0: f133 233e 8cdb 40be ffe6 68bd b74f 75bd
000002d0: e580 4f3d 6d43 06bd ab17 4ebc e150 cc3d
000002e0: 88e3 b3be 05e7 a2bd da53 3e3e 6b18 c3bd
000002f0: 5c5b 583e c315 4b3a a387 6bbe c392 09be
00000300: 3bd4 b3be a26f 40bf e23b 09be 69bf f0bd
00000310: 0cf2 283e 2919 da3c f6f9 2d3d 0a0d 60be
00000320: 99b1 62bd a53c b93c 3b9b 82be e816 cdbd
00000330: 07b5 263d 8e8c ccbd ef0d 5c3e 9742 d0bc
00000340: 5eb5 21be 397d 813d 234f f53c 7e8b 20bf
00000350: 8399 05be 69f7 393c 2b85 75be 42d5 ea3d
00000360: 12ac 2d3e 388f c83c 94a9 bbbc 91c2 e73c
00000370: 68ca 8d3e 4537 a93e bf79 213e 0870 993e
00000380: b23d 9d3e cf10 97be 2c20 033c ffc6 51bd
00000390: 0f40 75bd 7387 893e c5fa 22be ad0f 85be
000003a0: 8f0e 4fbd 838f 0e3e 3679 1e3d 3dde 2f3e
000003b0: fe18 ec3e e638 773e 5f28 d3bd 69d0 b13e
000003c0: 5d49 263e 085e 163e 49d5 263e c4cc 0a3f
000003d0: 595a 413f 4672 1b3e 3993 873e 05e7 ba3e
000003e0: d953 e93d 10c2 5c3c d4ec ee3d 6bbf 063e
000003f0: 5e54 99bc f28c 0dbe bcc8 e03d 3590 25be
-0.2569303 -0.27665472 -0.20511395 -0.3154275 -0.3487789 -0.25147733 -0.25085995 -0.42913264
0.10583067 -0.10134003 -0.0016852936 0.13255292 0.10751532 -0.1628432 -0.026201209 0.28879666
0.014973 -0.15972413 0.04639233 -0.26425424 0.39854681 0.062056605 -0.09576639 0.24440092
0.27837345 -0.16515538 0.16953559 0.17393713 -0.3114862 0.17992438 0.08992729 0.089778
-0.29257944 -0.000338868 -0.067963816 -0.034928985 -0.22492597 0.22244358 0.37437752 0.33486608
0.078269 0.038858384 0.17331333 0.08257781 -0.0844972 0.16467111 0.30896813 0.09910432
0.37352017 0.39041078 0.14576532 0.16568656 0.41259304 0.67432535 -0.092278756 -0.13776207
-0.16167809 -0.24461181 -0.2345036 -0.07969891 -0.38975245 -0.16371697 -0.14568453 0.11228368
0.087315924 -0.22787419 -0.10689274 -0.0060182284 -0.12962382 0.24507469 -0.13397583 0.029036395
-0.018158216 -0.052559607 -0.012174379 -0.04625406 -0.007851069 -0.016518477 -0.047444325 0.043135237
0.061402813 -0.05172505 0.085563846 -0.51124835 -0.037515618 0.54107 -0.05811983 0.43382242
0.2622625 0.029949632 0.17052343 0.3120911 0.11910913 0.035324875 0.26765645 0.2088111
-0.086771965 -0.060790803 0.36472455 0.41342968 0.1673212 0.049420606 0.2069682 0.49545568
-0.18082987 0.020408299 0.47241822 -0.09685557 -0.12935929 -0.08425444 -0.007980746 -0.25663048
-0.07325084 0.22738798 0.07002489 0.026693804 -0.066527255 -0.089568906 -0.3940231 -0.20478024
-0.26920655 -0.09298614 -0.03191272 -0.53051263 -0.30630812 -0.15023614 0.124993 -0.18649794
-0.20744008 0.0003896158 0.021103466 -0.18225966 0.040453367 0.030430514 0.09874242 0.08875127
-0.043460626 0.088003494 -0.05115652 0.0077996957 0.02097383 -0.05414395 -0.029036703 0.07427392
-0.18778151 -0.5501462 0.027510861 -0.6782664 -1.3491277 -0.15554106 0.07844738 -0.39671454
0.06830013 0.058242306 -0.033720754 0.16502656 -0.019035596 -0.14420493 -0.002272882 -0.17569025
-0.06960975 0.18157686 0.12405445 0.057872277 0.31450546 0.37243703 0.48481807 0.14877552
0.10959705 0.055103112 0.12059075 0.20975408 0.15916446 0.08358055 0.19970176 0.108490266
0.15937783 -0.1883375 -0.05686092 -0.059890475 0.050660033 -0.032779146 -0.012578885 0.09976364
-0.3513453 -0.0795422 0.18586674 -0.09526142 0.21128601 0.0007747078 -0.2300096 -0.13434891
-0.35122856 -0.7517034 -0.1340175 -0.117552586 0.16498584 0.026623325 0.04247471 -0.21879974
-0.05534515 0.022611925 -0.25509056 -0.10014135 0.040699985 -0.09987746 0.2148969 -0.025422378
-0.15791842 0.063227125 0.029944962 -0.6271285 -0.13046841 0.011350491 -0.23976581 0.11466457
0.16960171 0.024482355 -0.02290801 0.028291019 0.27693486 0.3304998 0.15769099 0.29968286
0.30711132 -0.2950501 0.008003276 -0.051215168 -0.059875544 0.26861152 -0.15915973 -0.25988522
-0.050550994 0.13921933 0.038689815 0.17174621 0.46112818 0.24142799 -0.103104346 0.34729317
0.16238923 0.14684308 0.162923 0.542187 0.75528485 0.1518031 0.2647951 0.3650438
0.11392946 0.0134740025 0.11666265 0.13158958 -0.018716987 -0.13823298 0.10975787 -0.16168292

conv2.0.bias f4 [8]
00000000: 8f6c 963c 900e 28bf 00c6 773f 3afc 2d3e
00000010: cf5c df3e 14cf 87bf ddae fa3e f21a 26bf
0.018362312 -0.6564722 0.967865 0.16990748 0.43625495 -1.061007 0.48961535 -0.64884865

conv3.0.weight f4 [8, 8, 3, 3]
00000000: 03db 9f3d 263e 15be aaca b0be 2e6b 053f
00000010: 6436 84be 5371 df3d 2f6d d4be 6da4 013f
00000020: 0010 8e3e d24b f7be 78b3 283e 881b fbbd
00000030: bfb3 463e ac3f 3a3e 0f83 aebc 10f6 a2bd
00000040: d5ff 6abe 4d3f 75be 4352 013d b8bb ecbe
00000050: 29ff 263e 2806 123e 8cf9 353e 9046 90be
00000060: 2bfe 133f 437e fa3e 01e8 b53e a428 c8bd
00000070: 00a6 57bd fe6b cbbd b2d0 95be 12dc 36be
00000080: 7df4 6e3e d878 bebd 0c2e 323e a1f9 09bc
00000090: 21dc 91bd df27 46be 8594 c13b c08d aa3d
000000a0: 9788 6a3e e4b1 5c3e f188 ed3e a010 6f3e
000000b0: 3d73 fb3d f7e1 a83e 1aea 7dbd 48df 083e
000000c0: f21e c13d 1e77 e3bd 6b1c 613e 4e74 29bd
000000d0: 14c9 a43c 71b5 a6bd 6960 94be 055b 0ebd
000000e0: fc42 973d fc03 493d 69c4 a5be 4f90 a0bc
000000f0: 6b48 443e 5314 833d 370b a3bc 2da6 683d
00000100: cb9a 803e b755 713e b50f 473d 73bb 00bd
00000110: a899 8e3e 686b 823c 33ce 4f3e 1b61 803e
00000120: bfb3 3d3e f546 b13d 6205 db3d a297 3abd
00000130: 33b4 35be c5d3 143d 8ea9 4a3e 513c c63d
00000140: 86fa 393e e4fa 4b3e 1f98 03bf 16f8 93be
00000150: 1cbd 16be 6e31 3ebe 0f73 b2be ae66 9fbd
00000160: 35b5 9fbd 5c8c bbbe 2ab5 4fbd 85e0 9abe
00000170: 292d f8be cdc1 b73d 5685 1fbe bc3d b8be
00000180: 83ab 39bd 0beb 3cbe 3fc4 09bf a0e4 4a3c
00000190: 5ab8 113d b878 343e b2ba fd3c c685 683d
000001a0: da02 db3d 9f9e 18bc f87b 313e 79d4 8c3e
000001b0: 0d96 033d b60c 9ebe 0c67 27bd f1d3 35bd
000001c0: 0954 d4bd d8b8 6f3d 2b02 49be d6b0 9abc
000001d0: 367d ad3d d8a9 c7bc ef5a 503c 93c0 fb3d
000001e0: fc64 f03d 530d a1be d5d0 e83d 8692 263e
000001f0: faaf 0f3e 615a 9dbc 87d6 023e e5d7 e03e
00000200: c3c7 fb3d 699d b03b 67f4 813e 31f3 c8bd
00000210: 2bc5 6e3d ba3c e13d d623 1d3e c601 1abe
00000220: 3c51 09be 7f0b 29be 8dfa 0abc 6411 a4be
00000230: 74b2 83bc bb92 ed3d 0460 83bc 8519 a53e
00000240: 8d03 26be 79f1 233e e210 62be 357b 18be
00000250: a651 93bc ece0 b63e 44c8 803d d1cf 72be
00000260: 5229 48be 3b3a 983e 31e0 c63e e857 823e
00000270: 7207 903e 5684 a93e 4c2e 8a3e 74bc d9bd
00000280: 12f0 063d a102 193e 363a 89be 20c4 acbd
00000290: 6fb8 99be 87b4 d6be c466 f0be 9da1 32be
000002a0: 730c 7fbe 35a8 c2be 8db9 d7be 32c5 ccbb
000002b0: d042 0fbe 8ee1 9d3d ceec 203c ea1d 04be
000002c0: 3ebb 04bd 473a 063e 2c41 733e bc2f 653e
000002d0: ff0e 35be 4928 ff3b b53c ad3c 88e8 a6bb
000002e0: cde8 c2bd 80b7 9f3e 9daf b5bd 1db7 593d
000002f0: 371e 2c3e 823b d9bb 9ea9 253e 9e54 afbc
00000300: e546 b5be 4569 093e e533 b9bd 016f 03bc
00000310: cab3 b23e b94a b13e a5c1 12be ffad dbbe
00000320: 73a1 b8be 481d 803c 2122 77be 400c 99be
00000330: a913 26be 9bc0 ec3d 5ee9 963d 7a57 8b3e
00000340: 7809 c43c 4aae 673e 2edc b83c 8af3 b93e
00000350: 573a 2d3e d7d7 41be f0cd 6c3e f1ec 22be
00000360: 2ba9 6dbe 7373 303e 8c25 ad3d c030 493d
00000370: 73c6 0f3d 311d cf3e b86a 873e cbf3 ba3e
00000380: e775 bb3e 1c30 8f3e 9442 c03e 8489 9f3c
00000390: 6c5c 11bd b2ef 0a3f 2d5d 3c3e 90c3 7bbc
000003a0: c171 b63e 6221 093e 6d40 e5bd 29ec 9abe
000003b0: d56d b5bd 5855 003e 8bf1 fcbd ae5a 20be
000003c0: 72fd 343d 5589 433e 5e88 16be b913 51be
000003d0: 389e d7bd a35c 02be 64df 82bd ffa8 c4be
000003e0: 4e42 113e f727 90bd 1aac 24be 034c aa3e
000003f0: 0656 40be d311 213e fe8a aa3d af7f 493d
0.07805445 -0.14574489 -0.3452962 0.5211667 -0.25822747 0.10910287 -0.4148955 0.5064152
0.27746582 -0.48300034 0.16474712 -0.122611105 0.19404505 0.18188351 -0.021302728 -0.07957089
-0.22949155 -0.23949929 0.03157259 -0.46236968 0.16308273 0.14260161 0.17770976 -0.28178835
0.57809705 0.48924455 0.35528567 -0.097733766 -0.052648544 -0.09932707 -0.29260784 -0.17857388
0.23335452 -0.09300393 0.17400378 -0.008421333 -0.071220644 -0.19351147 0.0059075975 0.08327818
0.22903667 0.21552235 0.4639354 0.23346186 0.12277839 0.32984897 -0.061990835 0.13366425
0.094297305 -0.11106704 0.21983497 -0.041370682 0.020115413 -0.08140076 -0.28979805 -0.03475477
0.07385823 0.049076065 -0.32376412 -0.019600062 0.1916825 0.06400361 -0.019902809 0.056799103
0.25118098 0.23567854 0.048598964 -0.031428766 0.27851605 0.015920356 0.20293503 0.25074086
0.18525599 0.08656112 0.10694386 -0.045554765 -0.17744522 0.03633477 0.19791242 0.09679473
0.18161973 0.19919926 -0.51403993 -0.28900212 -0.14720577 -0.18573543 -0.34853408 -0.077832565
-0.077982344 -0.36630523 -0.05070988 -0.3024942 -0.48471954 0.089725114 -0.15578207 -0.359846
-0.045329582 -0.18449037 -0.5381507 0.01238361 0.035576202 0.17624176 0.030972812 0.0567682
0.10693903 -0.009315162 0.17332447 0.27505854 0.03212552 -0.30869073 -0.040869758 -0.044391576
-0.10367591 0.05852589 -0.19629733 -0.01888315 0.08471148 -0.02437298 0.012716993 0.1229259
0.11738011 -0.31455478 0.113679565 0.16266832 0.14031973 -0.019208135 0.12777148 0.43914714
0.12293961 0.0053898585 0.25381777 -0.0981201 0.058293503 0.10997911 0.15345702 -0.15039739
-0.13409895 -0.16508292 -0.0084825875 -0.32044518 -0.016076304 0.11600252 -0.016036995 0.32246032
-0.16212292 0.16010083 -0.22076753 -0.1489075 -0.017983269 0.35718477 0.06288198 -0.23712088
-0.19547012 0.29731926 0.3884292 0.25457692 0.2813068 0.33108777 0.26988447 -0.10631648
0.032943793 0.14942409 -0.26802224 -0.084358454 -0.30023524 -0.41934606 -0.46953404 -0.17444463
-0.24907093 -0.38018957 -0.42133752 -0.0062490935 -0.1399033 0.07709037 0.009822084 -0.12902036
-0.03240513 0.13108169 0.2375533 0.2238149 -0.17681502 0.007786785 0.021147111 -0.005093638
-0.095170595 0.31194687 -0.08871386 0.053153146 0.16808401 -0.0066294083 0.16177985 -0.021402653
-0.3540565 0.13419063 -0.09043101 -0.008022071 0.34902793 0.3462732 -0.14331682 -0.42906186
-0.36060676 0.015638962 -0.24134113 -0.29892159 -0.16218437 0.11560174 0.0736873 0.27215177
0.023930296 0.2262508 0.022565927 0.36318618 0.16916786 -0.18929993 0.23125434 -0.15910698
-0.23209064 0.1723154 0.08454427 0.049118757 0.035101365 0.4045196 0.26448607 0.36514124
0.3661339 0.27966392 0.37550795 0.019474752 -0.03548853 0.54271996 0.18394919 -0.01536645
0.35633662 0.13391641 -0.11193929 -0.302583 -0.088588394 0.12532556 -0.12350758 -0.15659592
0.044187017 0.19095357 -0.14700457 -0.2041768 -0.10528225 -0.1273065 -0.06390265 -0.38410184
0.1418545 -0.07038873 -0.16081277 0.33261117 -0.18782815 0.15729456 0.08327292 0.049194034

conv3.0.bias f4 [8]
00000000: 5fbd a7bf 60fa de3f cbea f73d 255c 1dbf
00000010: a9c2 d8bf 02cf 90bf 8177 86be d322 ec3b
-1.3104666 1.7420158 0.1210533 -0.61468726 -1.6934406 -1.1313174 -0.2626305 0.0072063

dense1.0.weight f4 [32, 128]
00000000: 2701 30bd 2199 4d3e 1392 4abd 3972 8f3d
00000010: d1d0 e3bc bf24 51bd d4d1 70bd 4eee cdbd
00000020: 6858 823e 8c14 343e beb6 94be 2d80 7e3d
00000030: c8e9 4fbe 79b9 713c d176 96bd b2ac 19bc
00000040: 8a45 8cbe 085b a3bd 283b 7a3e c6d0 d93c
00000050: 5132 ff3d d9f0 2fbe 58cd 45be 4b73 073e
00000060: 0ae4 ad3e 1026 b4bd b1ad 4d3e 147f e5bd
00000070: e398 7bbd 7d7d 513d 2c93 86bd 1c02 dcbd
00000080: faac ffbd 52a8 483e 4872 f9bd 6eab 85bd
00000090: c715 693e ea03 6c3e ed75 29be 5426 6ebc
000000a0: 059e 503d 2127 8e3d 18e4 8fbe fade 703e
000000b0: 4b6d 0f3d 5311 203d 1d42 e4bd 7c17 c9bc
000000c0: 3479 49bd feff d43d 6840 5cbe 0531 2239
000000d0: 2df4 6fbe 3c07 2c3e e686 0fbe 72d3 2c3d
000000e0: 22d3 0dbe 77d1 b23d 43c1 8d3d 8726 87bd
000000f0: 05e2 2d3e da90 0dbe 00c7 07bd af88 12be
00000100: 2872 2b3b 6e27 603e 98bc 16be ed6f 493e
00000110: 333b 573e 4f27 963d 4ff6 61be 26c0 903d
00000120: ac55 12be 9c01 a03d 19cc 67bd 9987 863e
00000130: 8d8c 26be 42f7 30be 64cd 40bd e169 f93c
00000140: b0ae 1a3e a31d 153e 789e 43bc ddac 28bd
00000150: 96df d23c 0c8f 273e 24bc 6dbe 934c 153c
00000160: 160b 9a3d 78d3 99bd 6ae9 39bd b22c 3abb
00000170: 07cf 1a3e 40bb 0e3e cb29 c93d 8938 94bc
00000180: cc70 c9bc d5a1 943d e5f2 293c 68a9 fdbd
00000190: 1778 5abe e7d7 043e fa4f 1bbe be81 b33d
000001a0: cb65 043d 73fa e23d 401d 303b 2471 673e
000001b0: 2316 193e f744 68be f0f5 e6bd 31b4 0cbc
000001c0: aa67 06be a9f4 60be 0630 983d 3bf1 803e
000001d0: 3b04 293d c31e bc3e 4b7c 3ebe aada fbbd
000001e0: 2d12 f23d 8177 ed3d 3404 113e e821 6abe
000001f0: 31b0 983c a1d0 a93d 08d3 fdbd c543 b7bd
00000200: fb58 0dbe 4c7b 053e 97ef 963d 39af bcbd
00000210: 67b2 81bd 744b e8bd 4de8 b03d 9718 083e
00000220: 8253 9b3e 29e5 c7bd c4f8 1dbe e143 993d
00000230: c75b a43c 8c2b 253d 49af 673b 6766 8f3c
00000240: a071 84bc d26b ee3d 8411 a83d 7085 0bbe
00000250: b928 b6bc 74b7 06be e2b6 34be c9e4 073c
00000260: 043e 59bd d596 39be 0ce2 0fbe 899a 27bc
00000270: faca 263d c7c7 2fbe 52b2 e5bd 922b 123d
00000280: f130 883d 7814 0b3e 5ff5 90bd e069 f23d
00000290: 6c0b 50bd 9d8e 5b3e 7d5a 9c3d e870 29be
000002a0: aa99 8d3d a4c2 0abe 019e e43c e75d 0f3d
000002b0: 893e c6bd e373 873d 6aca d53c dbaa 84be
000002c0: b199 8b3d 3f30 cebd 35d1 65bd 39bb a6be
000002d0: bbea 203e b020 bcbd 90ae 8abd 17c6 ccbc
000002e0: 9299 88be 408c fcbc 1238 ee3c 93ac a03d
000002f0: 2a30 19be 1e29 583e 9bec 463e 1585 323e
00000300: 61f7 2c3e ca1f b5bd 767c cdbc 150b 9dbc
00000310: e075 9b3d 3891 1abd 4a13 963d 96e4 153d
00000320: a84f 053e cce5 3f3d f3db b33e 9fe7 4c3e
00000330: 8e6e 093d 218e 413e c65c 983e 096b dfbd
00000340: 9104 0c3e c614 d6bd 5ee7 373e 47d1 233e
00000350: e65a cbbd ae7d 8b3d 4d6a 613e 0d56 833d
00000360: 6843 1b3e c4b3 823e 2ad6 033f debd 9e3d
00000370: d626 2fbe 3367 e53c 3558 b1be ef00 1cbe
00000380: ed2d 8ebd 4698 19be 442c afbe 4170 f03d
00000390: 8200 90be f538 5cbe e677 70be 1cb8 abbd
000003a0: 45df c8bd b53e e4bd 1d0b b9bc fdd6 94be
000003b0: 78aa 1dbd dcd7 b03d fb55 05be 77a6 8bbc
000003c0: f0a0 18bd 046b aa3d 6fac 2bbd ac0a 40be
000003d0: 571d 153e 8915 9cbe 6cbf 183e 9b3a d03d
000003e0: 2413 6b3d 9dbc 923e 679f 1a3d 49cf 653c
000003f0: 327a 44bd 6b5d 603e b03f 03be 89fb 8b3e
-0.04296985 0.20077945 -0.049455713 0.07004208 -0.027809532 -0.051060434 -0.058793858 -0.10055219
0.25458074 0.17585963 -0.2904567 0.062133957 -0.20304024 0.014753693 -0.07346881 -0.009379553
-0.27396804 -0.07976347 0.24436629 0.026588809 0.12460769 -0.1718172 -0.19316614 0.13227575
0.33963042 -0.08796322 0.2008579 -0.11205879 -0.0614251 0.051145066 -0.065710396 -0.1074259
-0.124841645 0.19595459 -0.121800005 -0.06526838 0.22762214 0.23048368 -0.16548891 -0.014535505
0.05093195 0.06941057 -0.2810371 0.23522559 0.03501634 0.03907902 -0.111454226 -0.024547331
-0.049187854 0.10400389 -0.21508944 0.00015467785 -0.2343299 0.16799635 -0.14016303 0.042193837
-0.13850072 0.087313585 0.06921627 -0.065991454 0.16980751 -0.13824788 -0.033148766 -0.14309953
0.0026160572 0.21890041 -0.1472038 0.19671603 0.21018676 0.07331716 -0.22066616 0.070678994
-0.14290494 0.07812807 -0.056591127 0.26275328 -0.16264553 -0.17281821 -0.047070876 0.030445995
0.151057 0.14562087 -0.011939637 -0.04118048 0.02574138 0.16363162 -0.23216301 0.009112495
0.07521646 -0.075110376 -0.045388617 -0.0028407988 0.15118037 0.13938618 0.098224245 -0.018093364
-0.024589919 0.072574295 0.010372852 -0.12385827 -0.21334873 0.12972985 -0.15167227 0.08764981
0.03232364 0.11082926 0.0026872903 0.22601753 0.1494985 -0.22682558 -0.112773776 -0.008587883
-0.13125482 -0.2196833 0.07431035 0.25184044 0.0412638 0.3674222 -0.18602102 -0.12297566
0.11819873 0.11595059 0.1416176 -0.22864497 0.018638702 0.08291746 -0.12393767 -0.08948473
-0.13803475 0.13035315 0.07369917 -0.092131086 -0.06332856 -0.113425165 0.08638058 0.1329063
0.3033715 -0.09760506 -0.15426928 0.0748365 0.020063294 0.040324733 0.003535228 0.017504884
-0.016167462 0.11641659 0.08206466 -0.13625121 -0.022236215 -0.1315592 -0.1764789 0.008294293
-0.05303766 -0.18123944 -0.14051074 -0.010229715 0.040720917 -0.17166053 -0.112156525 0.035686083
0.0664996 0.13582027 -0.07078051 0.118366 -0.050792143 0.21441121 0.07634447 -0.16546977
0.06914075 -0.13550812 0.027907373 0.03500166 -0.096798964 0.066139005 0.026097495 -0.25911602
0.06816424 -0.10067796 -0.05610772 -0.32564715 0.15714543 -0.09185922 -0.067715764 -0.0249968
-0.26679665 -0.030828595 0.02907947 0.07845416 -0.1495978 0.21109435 0.19426195 0.1743358
0.16891243 -0.08843954 -0.025083762 -0.019170323 0.07590842 -0.037736148 0.07327898 0.03659495
0.13018668 0.04685001 0.35128745 0.20010231 0.0335527 0.18901874 0.2975828 -0.10909087
0.13673617 -0.10453181 0.17959353 0.15997802 -0.09929447 0.06811081 0.22013207 0.06412897
0.15162432 0.25527775 0.51498663 0.07751058 -0.17104658 0.02800331 -0.3463761 -0.15234731
-0.069423534 -0.14999494 -0.3421346 0.11740161 -0.28125387 -0.21506102 -0.23483238 -0.083847255
-0.0980821 -0.11144773 -0.022588307 -0.29070273 -0.03849265 0.08634922 -0.1302108 -0.01704715
-0.037262857 0.08321193 -0.041912492 -0.18754071 0.14561974 -0.3048518 0.14916772 0.10167428
0.0573913 0.28659526 0.037749674 0.014026471 -0.047968097 0.21910636 -0.12817264 0.27340344

dense1.0.bias f4 [32]
00000000: ffcf f4be b2e7 d83f 18db c33f a083 0440
00000010: a134 393e 4e19 6cbe 00aa 3b3f 5689 203f
00000020: 87c8 853f 31ae 35bf dbb7 69b9 bfbc 3bbe
00000030: 1ce0 293f 9a15 5ebe b233 94bf f1ed 1c3f
00000040: e230 cbbd 3659 6f3f 53d2 f9bd 9bad 74bf
00000050: 3045 e93f 025b 823f 2722 14bf c225 633f
00000060: 2187 4b3f 425e e0be 4dbb cbbf df91 c23f
00000070: 4f4e f2bf f733 4cbd 2291 adbd 4712 89bf
-0.47814938 1.6945708 1.5301237 2.0705338 0.18086483 -0.23056528 0.73306274 0.6270956
1.0451821 -0.7096892 -0.00022289103 -0.1833372 0.6635759 -0.21687928 -1.1578276 0.6130057
-0.09921433 0.934955 -0.12198319 -0.955774 1.8224239 1.0184023 -0.5786461 0.8872949
0.79503065 -0.43821913 -1.5916535 1.5200766 -1.8930148 -0.049854245 -0.084749475 -1.0708703

dense2.weight f4 [10, 32]
00000000: 1879 17bd 26b4 1abd 4c0c 903e 4554 53bf
00000010: f37f cb3e 87bc 0d3e f624 c3be 2061 7cbe
00000020: d57b 713e 44ec 0ebe 3000 9f3b 101e e9bc
00000030: c3f8 763e addf 9dbe 51d3 9d3e 0d30 733e
00000040: fe15 19be 9e9d 86be 50d0 f53e 48b8 e1be
00000050: 2aed 073d 0f88 9d3e 8163 4e3e 79d9 883e
00000060: 6a21 1abf 131d 843e 8578 19bf 311f 4dbe
00000070: 030d 8b3e b269 e6bd 9cc5 bbbd b071 c63e
00000080: 9804 57be 9fdd a23e 04ea b9be 81f4 193f
00000090: ca1b 873e e13d fdbe 1e8b 69be ca14 9ebd
000000a0: 97f7 3cbf df56 103f 8f7a 6dba dd65 b33e
000000b0: b8cd 1dbf 39f8 4d3e 03e3 963f 19e8 c93e
000000c0: 4e21 c33c 9056 1abf b011 bcbd 660c 433e
000000d0: 1144 49bf 0326 22bf 1f7b 56be b5bd 09bf
000000e0: f50f b0bd 6237 ce3e 6387 6bbe 9a07 3e3e
000000f0: 48da 983e c57c a43e 7ace bf3e 7331 0dbe
00000100: e162 4c3f 7195 e93d ddc0 8e3e 302a 323e
00000110: 3980 a53d dd06 313f 851f bdbe a3d2 be3d
00000120: 18ad 5e3e 4482 edbe f334 0fbb 5885 7f3b
00000130: 3ac0 063d d7b6 d4be 31ab a4bc 7b75 ad3d
00000140: 8ead 35bf 833a ab3e 9b48 ac3d 991b e5be
00000150: 90f0 aa3e 0670 e0bc 1300 c03d ec71 35be
00000160: c17d 923d 292f f33d 47e4 b03d 30ef 7abe
00000170: b695 4e3d b4d2 053f aa10 ae3e f705 a6be
00000180: 58b1 3c3c d04f 02bf d18e aa3c 7ff3 473d
00000190: ffbf 10be 706f 1dbd db2e 923e ec91 37bd
000001a0: 7204 b0bd 9697 9cbe 5168 0e3b 8d07 f8be
000001b0: 3661 3bbe 760e 843e 2a66 22be 17e8 c2bd
000001c0: 49c6 243d f80f 603e c6df d1bd 6702 0e3e
000001d0: c47d 90bd 57cb 20bd b5f3 953a 20f2 803e
000001e0: 77d1 b8be ee72 a1bd f22b 843c cc28 94be
000001f0: 508a 5e3e 507d 063d 320e aebe 9acf c53c
00000200: d652 35be 09ea 8ebe adf9 02be 4ea8 123e
00000210: 8a22 afbe 8210 e7be a224 993e d419 b23e
00000220: b781 473e 448d d0be 9080 07bb c767 ebbe
00000230: 7d75 273e 40a2 79be 9a92 f93b 00a9 0bbf
00000240: 0307 773e 5588 d03d b5ec 60be 2e0f cfbc
00000250: 865a b63e 719e 763d f9a0 3c3e c74f 67be
00000260: 814f b43d c8ee 5abe 8a7a edbe 1c9b e13e
00000270: 982a fabe a79c 70bf 68f5 7a3e d665 c53e
00000280: 8212 623d ca65 03bf 0c34 b9bd fde8 38be
00000290: 19c7 5e3e 0141 e8bb 7ded 043e 3bf0 053d
000002a0: dbc6 37bc bc7c c3be 6875 5d3b 5a48 1abf
000002b0: cfaa 66bd e013 56bd ed8a 69be 3b67 133e
000002c0: 78e1 213e 7802 a03e d53b 8ebe 91ca 0b3d
000002d0: 4922 0e3d 143a 703e 8379 fe3c 0616 ff3d
000002e0: 4c2a debe 2927 0cbf bd82 fc3d d56f 86be
000002f0: d8cd 493e 46ca 443e 4c7e e6be 6d98 6f3c
00000300: 0978 04bf 383a c8bd 2f42 893e 4aea 873d
00000310: 34a4 78be 58dd 51be b52e 873e ceb9 5b3e
00000320: 230c b8bc e2ed 8fbe 6879 fb3a 10a9 b13e
00000330: 0a69 043f 9623 023e f6cf 8bbe 7b9e 7d3e
00000340: b6c9 2cbe 1c54 3ebd e988 043f e16b 9f3e
00000350: 7707 f03c 3b23 96be e2aa 17bf 4e73 063d
00000360: 8762 c5be a292 51bd a46d 113e d1ef 3bbf
00000370: dc5d 13bf 1de9 ffbc 47a3 e33d 9ed4 fabe
00000380: bf92 43be 7fdf 01bf 4322 05bf 5c6b babe
00000390: 0b56 a0be 8264 4abe 1335 f7be b69c bebd
000003a0: 79bb 083e d736 03bf 85ff 97bb 55f5 cfbe
000003b0: d0cc 91be 2979 c6be f450 46bd 6275 e2be
000003c0: f6ab 3dbe 2a11 063d 6fa5 0cbf 10f3 5c3e
000003d0: 42fe 803e c763 5c3f 9adc da3e 83ce 66be
000003e0: ee97 dd3e 2187 fd3d 3b99 dd3e f862 553e
000003f0: f094 883e dbaa a4be eb9a 21be 072b 0bbc
-0.03698072 -0.03776946 0.28134382 -0.8255046 0.39746055 0.13841449 -0.38114136 -0.24646425
0.23582394 -0.13957316 0.0048523173 -0.028456718 0.24118333 -0.30834714 0.30825284 0.23748799
-0.14949796 -0.26292127 0.48010492 -0.44085908 0.03318516 0.30767867 0.20155145 0.26728418
-0.60207236 0.25803432 -0.59949523 -0.2003143 0.27158365 -0.112506285 -0.0916855 0.38758612
-0.20997846 0.31809708 -0.36311352 0.6013871 0.2638839 -0.49461272 -0.22806975 -0.07718809
-0.7381529 0.56382555 -0.0009059095 0.35038653 -0.61642027 0.2011422 1.1788028 0.3943489
0.023819592 -0.60288334 -0.09183061 0.19047698 -0.78619486 -0.6333925 -0.20945404 -0.53805095
-0.085967936 0.4027663 -0.23000865 0.18557587 0.29854035 0.32126442 0.37462217 -0.13788395
0.7983838 0.11405457 0.27881518 0.17398906 0.08081097 0.691511 -0.3693811 0.093175195
0.21745718 -0.46388447 -0.0021851629 0.0038989391 0.032898165 -0.41545746 -0.020101162 0.08469673
-0.7096795 0.33443078 0.08412286 -0.44747618 0.3338666 -0.027397167 0.09375014 -0.17719239
0.07152892 0.118742295 0.086372904 -0.24505305 0.050435744 0.5227463 0.3399709 -0.32426426
0.011516891 -0.50903034 0.020820053 0.0488162 -0.1413574 -0.038436353 0.28551373 -0.044816896
-0.08594598 -0.305844 0.0021729658 -0.4844326 -0.18298802 0.25792283 -0.15859285 -0.09516924
0.040228162 0.21881092 -0.102477595 0.13868104 -0.07055238 -0.03925642 0.0011440428 0.25184727
-0.3609731 -0.07883249 0.016134236 -0.28937376 0.2173245 0.03283435 -0.33995205 0.024146844
-0.1770738 -0.2791293 -0.12790556 0.14322016 -0.3420604 -0.45129782 0.2991076 0.3478533
0.19483076 -0.40732777 -0.0020675994 -0.45977613 0.16353412 -0.243783 0.007616353 -0.5455475
0.24123769 0.10182253 -0.21965297 -0.025275793 0.3561594 0.060209695 0.18420781 -0.22589026
0.08804227 -0.2138015 -0.46382552 0.44063652 -0.4886062 -0.9398903 0.24507678 0.38554257
0.05519343 -0.5132719 -0.0904313 -0.18057628 0.21755637 -0.007087827 0.1298122 0.032699805
-0.011216844 -0.38181102 0.0033791903 -0.6026665 -0.05631524 -0.052265048 -0.22806902 0.14394848
0.15808666 0.31251884 -0.27780023 0.03412873 0.034700666 0.23459655 0.0310638 0.124553725
-0.43391645 -0.54747254 0.12329624 -0.26257196 0.1970743 0.19217786 -0.45018232 0.0146237435
-0.5174566 -0.09776729 0.26808307 0.06636484 -0.24281389 -0.20494592 0.26402822 0.21457598
-0.022466725 -0.28111178 0.0019185962 0.34699297 0.51722777 0.12708887 -0.273071 0.24767487
-0.16873822 -0.04646693 0.5177141 0.31136993 0.029300435 -0.29323754 -0.5924512 0.032824807
-0.38551733 -0.05116523 0.14201981 -0.73412806 -0.57565093 -0.031239087 0.11115127 -0.4899034
-0.19098948 -0.5073165 -0.52005404 -0.36410034 -0.31315646 -0.19764903 -0.4828268 -0.09307234
0.13352765 -0.51255554 -0.0046386146 -0.4061686 -0.28476572 -0.38764313 -0.048417047 -0.4423018
-0.18522629 0.032731213 -0.5493993 0.21577096 0.25193983 0.8608975 0.4274643 -0.22539715
0.43279976 0.123792894 0.43280968 0.20838535 0.2667613 -0.32161602 -0.15781753 -0.008494145

dense2.bias f4 [10]
00000000: e361 fb3e 8652 84bf 74a8 3f3f 7741 97be
00000010: 6d29 eb3f 93ca 88bf f2c7 9f3e 9e7c 91bf
00000020: ec63 313f 3ecd 4ebf
0.4909812 -1.0337684 0.74866414 -0.29542133 1.8372017 -1.0686821 0.31207234 -1.1366155
0.69293094 -0.80781925
