ResidualLoss/CNN-Train/CIFAR_11_6/back_epoch-140.pt (torch, 58431 bytes, 10 tensors)

conv1.0.weight f4 [16, 3, 3, 3]
00000000: 86bc 81bc 7ea6 53bc 779f dcbc 0cf2 b3bc
00000010: d08c 5fbd 783f 52bd b2a2 1dbd 7894 6dbd
00000020: 9d74 62bc e04a 2fbe e8ac 0dbe 3573 0ebe
00000030: 135a 1fbe b677 24be be2f 17be d228 17be
00000040: 275e 1bbe 7f48 cdbd 320a 42bd 71cf 0ebd
00000050: 1244 fcbc 70a4 7fbd cc42 98bd f6f0 6abd
00000060: 33f8 b2bd 905b c4bd 418b 32bd ccb3 903d
00000070: d3fb 5b3e 6ba1 7f3e c7a9 643e 1f39 603e
00000080: 413f bd3d 6b18 053e 7954 ce3c fbef 3ebd
00000090: 5e0d b53d c446 693e 4d5b 813e 56d8 3b3e
000000a0: 36ae 423e 0043 943d 1656 4d3d cdd2 86bc
000000b0: 70ee 92bd 5e68 8cbe 051d 33be 0155 15be
000000c0: 765a 47be 297a 68be 1500 a5be 7713 90be
000000d0: ec8d c4be 3110 cebe 256b 72be 9280 afbe
000000e0: afd0 b33d ddee d7be 057d 66bd 1d83 e63e
000000f0: 4001 0abe aed6 813e 9ef6 243e 8547 0dbe
00000100: 2d4e 63be 2ef1 5c3e 5f92 afbe 3f3d b93c
00000110: 8051 073f 922b 80bd 5321 9f3e 7fcb 693e
00000120: 8289 9bbe 8aaf b5be 143a 353d dd4f eebe
00000130: 0e20 d6bd 0926 ab3e ef4a 0fbe ae01 5b3e
00000140: cc36 d43d 4df0 8abe d34a ec3d a2c5 ca3e
00000150: 3ffb dabe c5a8 203d 4f80 f03e e413 78be
00000160: 208f 093d afd7 893e 374e d0be bd51 f13c
00000170: b86d bd3e 4021 0fbf 5967 9fbd 0b25 cd3e
00000180: 0021 c6be 22c3 06be 66e6 0c3e 5fc8 a8be
00000190: bbc7 043e 7ed0 d63e 3bb8 ecbe e939 443d
000001a0: fc71 e93e f094 8dbe 5419 903b caf5 513e
000001b0: 37c6 5d3d 22e5 c83a 9d84 23bd 0e82 8f3c
000001c0: ef29 5fbd 37bc a6bd f34b e5bc 1e1d a5bd
000001d0: ea92 8abd 697f ccbd 659d e5bd 6d48 08be
000001e0: 7a45 cabd 8332 07be 2892 14be ac1e f2bd
000001f0: b72b 13be c721 f6bd a55d 9d3c 1182 86bb
00000200: 0183 b8bc 9f45 dcbb f396 2dbd 474f 5bbd
00000210: 204e 5ebd c31e b8bd 50fd 82bd aab3 7fbe
00000220: c28f a3be 471f 38be bf96 09bd 2a12 e2bd
00000230: 1d18 4fbd 7755 cd3e 248a 043f 32f2 e93e
00000240: 7df6 89be 3c82 9cbe ea88 4bbe 8f78 febd
00000250: bf08 25be 5659 09be ce08 4b3e 7f83 a63e
00000260: 62fa 843e c750 19be 1b97 54be 76e2 0cbe
00000270: dd18 17bd 821b b9bd c174 98bd 0594 3e3e
00000280: b27e 8f3e 8075 663e 6adf bdbd 32c3 acbd
00000290: 04fa 22be e6b1 87be 9b85 b6be 5ec1 d8be
000002a0: 7093 91be b4ee b2be d9c6 a8be 0e14 563e
000002b0: 4cad 813e 5aa0 3c3e 14c7 253e 9ffd d43d
000002c0: 2d20 883c 1412 0f3e dda5 b63d 43cc 8e3d
000002d0: b8de f23d c369 363e 8eab f53d c7a1 1c3e
000002e0: 13e8 ef3d a84c f53c 9ed6 1e3e abe7 f33d
000002f0: 062b a23d 0e77 413e 1e6e 913e 49c9 9a3e
00000300: 450c 423e f8f5 b63e a7f9 af3e 4d93 cc3d
00000310: d041 9a3e f20a 933e 1c6b 22be ce39 7abd
00000320: 1eae a23d 75c8 64be 36ca a8bd eab4 d93c
00000330: 480e 50be 13b2 80bd 38fa 433d 4de7 a5be
00000340: fb3a 9abe faf2 50be 6ace cdbe 6427 b4be
00000350: c8be 94be c236 aabe 772c 8abe dad0 62be
00000360: 4637 643e 37d9 213e ab6c 3c3c 7c7b 3c3e
00000370: fe9a a83d f895 16bd 8c5f 0b3d d146 c8bc
00000380: bfb8 86bd e812 ccbd 1f02 e0bd 8d07 3dbe
00000390: 3e87 aebd 1dbb 10be 35f3 4fbe c364 0bbe
000003a0: a44f 25be 50cb 24be 31a6 9a3d f79c 903d
000003b0: d316 bd3c 161e 8b3d 921e 113d 09db c93a
000003c0: 69d0 8abc 8f8e b5bc 1565 6d3b 350c 9fbe
000003d0: 3f5f e0bc 448a 963d dee0 91bd 4b10 8dbe
000003e0: c958 a1bd ef12 573e 085e 80bd 771c 6abe
000003f0: f1b1 66bd 442e 6b3e cb25 ba3e 9735 f73d
-0.015836965 -0.012918113 -0.026931508 -0.021966003 -0.05457765 -0.05133006 -0.038485236 -0.05800292
-0.013821748 -0.17118406 -0.1383549 -0.13911135 -0.15561704 -0.16061291 -0.14764306 -0.14761665
-0.15172635 -0.10023593 -0.047373004 -0.0348658 -0.030794177 -0.06241268 -0.074346155 -0.057358705
-0.087387465 -0.09587777 -0.043589834 0.070655435 0.21482782 0.2496392 0.2233039 0.2189679
0.0924058 0.12997596 0.025186764 -0.046615582 0.0884044 0.22780901 0.2526497 0.18344244
0.19011769 0.07239342 0.050130926 -0.01645794 -0.071743846 -0.27423376 -0.17491539 -0.14583208
-0.19468102 -0.2270285 -0.32226625 -0.2813985 -0.38389528 -0.40246728 -0.23673685 -0.3427778
0.087800376 -0.42174426 -0.05627157 0.45021906 -0.1347704 0.253591 0.16109702 -0.13796814
-0.2219779 0.21576378 -0.3429136 0.022612212 0.52858734 -0.062583104 0.31080112 0.22831534
-0.30378348 -0.35485488 0.04424484 -0.46545306 -0.10455333 0.33427456 -0.13993429 0.2138736
0.10362014 -0.2713646 0.11537709 0.39603907 -0.4276981 0.03922345 0.46972892 -0.24226338
0.03358376 0.26922366 -0.40684673 0.029457921 0.3699777 -0.5591011 -0.07783384 0.40067324
-0.38697052 -0.13160375 0.13759765 -0.3296537 0.12966816 0.41955942 -0.46234307 0.04790679
0.45594776 -0.27652693 0.0043975506 0.20503917 0.05414411 0.0015327076 -0.03992139 0.01751807
-0.05448335 -0.08141368 -0.027990317 -0.08062194 -0.06766303 -0.09985239 -0.11211661 -0.13308878
-0.09876533 -0.13202862 -0.14508879 -0.118222564 -0.14372145 -0.12018161 0.019209692 -0.0041048606
-0.022523405 -0.0067221667 -0.042380285 -0.0535424 -0.054273725 -0.08990242 -0.06395972 -0.2497088
-0.31945616 -0.17980681 -0.03359103 -0.11038621 -0.050560106 0.40104267 0.51773286 0.45692593
-0.26945868 -0.3056811 -0.19876447 -0.124253385 -0.16116618 -0.13412985 0.19827577 0.325222
0.25972277 -0.1497222 -0.20760767 -0.13758263 -0.036888946 -0.0903845 -0.07444144 0.18611152
0.28026348 0.2250576 -0.092711285 -0.08435668 -0.15915686 -0.26502913 -0.35648808 -0.42335027
-0.28432798 -0.3494774 -0.3296421 0.20906088 0.25327528 0.18420544 0.16189224 0.10399937
0.016616905 0.1397174 0.08918355 0.069725536 0.118588865 0.17813782 0.11995612 0.15296088
0.117141865 0.02994378 0.15511557 0.119094215 0.07918362 0.18893072 0.28404325 0.30231693
0.18949993 0.35734534 0.34370157 0.09989033 0.30128336 0.28719288 -0.15861171 -0.061090283
0.079433665 -0.22342093 -0.08241694 0.026575524 -0.20317948 -0.06283965 0.04784605 -0.3240303
-0.30123124 -0.20405188 -0.40196544 -0.35186303 -0.29051805 -0.33244902 -0.2698705 -0.22149983
0.2228671 0.15805517 0.011500518 0.1840648 0.082326874 -0.036764115 0.034026667 -0.02444783
-0.06578206 -0.099645436 -0.109379046 -0.18459912 -0.08521889 -0.14133878 -0.2030762 -0.13612656
-0.16143662 -0.16093183 0.0755123 0.07061189 0.023082172 0.06792848 0.035429545 0.001540036
-0.01694508 -0.022162704 0.003622358 -0.31064 -0.027389167 0.07350591 -0.07122968 -0.27551493
-0.078782625 0.21003316 -0.06267935 -0.22862421 -0.056322042 0.22966868 0.3635696 0.12070768

conv1.0.bias f4 [16]
00000000: c666 6d3e 10b1 503f 1967 e33e 8996 4d3d
00000010: c9b8 2a3e bf88 a13e 3f5b cc3e 1f9f 32be
00000020: 598c 44be 9a61 e33e b37e 773e 5e5a 653e
00000030: f901 d13e 9f39 55be 2bdc 0d3f 2060 0b3f
0.23183736 0.81520176 0.44414595 0.05019239 0.16672052 0.3154964 0.39913365 -0.17443512
-0.19194163 0.44410402 0.24169426 0.22397754 0.40821818 -0.20822762 0.55414075 0.5444355

conv2.0.weight f4 [16, 16, 3, 3]
00000000: 99b0 2f3e 3dcc e43d c292 1ebe 43eb 20bc
00000010: 1c53 5a3d 46ce 52be a53f d93d 27e0 7b3d
00000020: e008 52be 26c5 3fbd 4a0b 1d3d 5359 cfbd
00000030: b01e f03a 1be6 7e3c 26a0 aebd 1c8c d43c
00000040: 2e8a 04bd c29e 57bc cba4 b33d 0dbe 063c
00000050: cb55 b23d 331f 113e 59d5 073e 50a3 ac3e
00000060: 3f55 873d 1619 4f3e b750 383d 7775 57be
00000070: bf5d 49be 0bdf 16be f272 23bc ce43 c2bd
00000080: 813d 863d 41ff de3c 0a1d 803d 18f8 debd
00000090: a944 333e 6e65 a13d 2d17 11be 05f5 f0bb
000000a0: 10df 4f3d 3d66 50be edfb de3d 097b 6f3d
000000b0: 1ef4 46be 374e 363d 016e b9bc 5329 3fbd
000000c0: b3c5 363c f8b8 31bd efb2 21bd 9618 6bbd
000000d0: 949d f63c c856 67bd c1bc 1ebe 2c46 babd
000000e0: a8a1 a73d c0cf b6bd a3d7 d03c c05d 1b3e
000000f0: 28ac 8fb7 dbaa ad3d 95e5 0c3e a8a3 64bb
00000100: 7517 00bd 2000 10bd 2603 8d3c 67b0 43bd
00000110: 81af af3d a690 88bd cb2a 42bd 40b5 70bd
00000120: 9e5a 133e a3c4 9e3d 46d5 9abd 2a5e 91bb
00000130: 7ee4 783d 90da 12be 90b6 d23c f221 59bd
00000140: ab04 23be feb4 133e d262 293d a1fe 4fbe
00000150: a08a cd3d dd5c de3c c5a2 5bbe 5515 ca3d
00000160: 0a67 0e3d dba9 58be 4429 233e 9a6f 903d
00000170: 9781 cc3d 94c3 f83d dd3b a83d 365f 9a3e
00000180: e2cb b33c 6635 243e 4d64 ba3d ac16 813c
00000190: fae1 b73d ea16 973d c22d ad3d 9359 bb3d
000001a0: c7d1 c53c bb5e 6cbd 4b89 aebd 8721 ee3a
000001b0: e63b bc3d c950 263d 8763 25be 1b86 343c
000001c0: fff5 ccba ec4c 52be 209e 613d 610f a0bc
000001d0: a789 99be 8bbe a9bd 272f 7fbd 953d 2e3d
000001e0: c5cf cabc 41bd 1cbd 6553 77bd f777 913d
000001f0: a015 f93c bf30 8a3d 8324 293d b712 4b3d
00000200: b847 153e 158f e13d e99b 233d 6622 ad3d
00000210: 5261 10bc 14ef 7dbd 592f bf3c 40ae a23c
00000220: 3950 3e3d d579 d73d 1a3b c13d 9784 173d
00000230: dad7 573d 5b8b b2bb 67e4 39bd 0921 1d3c
00000240: e739 11bd 3f54 833d 73d0 3fbd 9fcf 973d
00000250: cf1c 6bbc 91e3 0b3d 6dd6 7ebd 27e4 f8bd
00000260: 9cf8 c6bd e9c2 603d e149 a23c b6f1 fd3c
00000270: 0a23 bf3d f89d 7cbc 5c52 ce3d 35a1 143d
00000280: 108e 3cbd 5141 94bd 9682 4dbe 366e 63bd
00000290: 960a 053c 8e22 203e 5075 cf3d dddc 22bd
000002a0: f641 423d b9e4 d0bd d0ef 87be 281c 15be
000002b0: 6407 313c 05da 043e 9517 813e 345b 3e3e
000002c0: a004 743d 1940 0c3e 89c0 c83d 0bf5 9cbd
000002d0: 5291 dfbc 9c4e 713d f4b1 66bd 130e b53d
000002e0: c884 f0bc 3095 323d 2798 9cbd fb40 1bbe
000002f0: c015 c0bd ab94 883d 6505 c23d 0d9c 823d
00000300: 3676 ba3b b34b f13d c18e e53d ed2c 0c3d
00000310: dab3 8cbd 5953 093e 2f02 b53d ead3 ba3d
00000320: 7972 cf3d 9908 063e be22 173e f6c6 4a3e
00000330: 94ca e3bd cfdf 70bc af7e afbc 396c 31bc
00000340: 589f c43d 5e13 da3d f957 243e c432 ee3d
00000350: 2ee4 1a3d c0aa e13d c68b d5bc a8c7 a1bd
00000360: af2c 93bd a569 fe3c 5a27 a4bd 5c34 3b3d
00000370: 7454 a6bd 89d4 893d d338 05be 6b6e 31be
00000380: 2e61 fbbd 64ca 133d 471c cf3c 64c9 c4bd
00000390: 0322 203d 7109 02be df17 e33c 5225 78bd
000003a0: b55a 3abe 69f0 73be 6001 39be b2d3 4dbd
000003b0: 13cc 52bc 1802 a13d 8420 ec3d b80a 80bc
000003c0: 4523 ec3c ef43 0cbe a7f4 5fbe c180 113e
000003d0: 3ae1 353c 7d45 62bc 1569 8abd 1ac9 383e
000003e0: 58fe 953d ee17 0fbd c697 1e3e c288 473e
000003f0: feaf a4bd b610 d1bb 5b86 e4bd 17dc 613d
0.1715721 0.11171768 -0.15485671 -0.009821716 0.053301916 -0.205865 0.10607842 0.061493065
-0.20511198 -0.046818875 0.038340844 -0.10124459 0.0018319692 0.015557791 -0.0852664 0.025945716
-0.03235834 -0.013160409 0.08771666 0.008224023 0.0870777 0.14172058 0.1326498 0.33718348
0.06608056 0.20224413 0.04499885 -0.21040903 -0.19664668 -0.14733522 -0.009976136 -0.09485589
0.065547 0.027221324 0.06255539 -0.10887164 0.1750666 0.07880674 -0.14168997 -0.0073534274
0.05074984 -0.20351501 0.10887895 0.058466945 -0.19429061 0.044508185 -0.022635462 -0.04667027
0.011155534 -0.04338929 -0.039477285 -0.057396494 0.030104436 -0.056479245 -0.15501691 -0.090954155
0.0818513 -0.08926344 0.025493449 0.15172482 -1.7127095e-05 0.08479854 0.13759454 -0.0034887586
-0.03127237 -0.03515637 0.017213415 -0.047775652 0.085783966 -0.066682145 -0.04740409 -0.058766603
0.14390036 0.07752349 -0.0756021 -0.004436274 0.060764782 -0.14341187 0.025721818 -0.05301089
-0.1591975 0.14424512 0.041354008 -0.20311977 0.10036206 0.02714389 -0.2144881 0.0986735
0.034766234 -0.21158545 0.1593371 0.07052536 0.09985655 0.121466786 0.08214543 0.30150765
0.021947805 0.16035995 0.09101162 0.015757881 0.089786485 0.073774174 0.08455993 0.09147944
0.024147881 -0.05770753 -0.0852228 0.0018167951 0.09191112 0.040604386 -0.16151248 0.011018301
-0.0015637277 -0.20537156 0.05508244 -0.019538583 -0.29987833 -0.08288296 -0.062300827 0.042539198
-0.024757275 -0.038266424 -0.060382266 0.071029596 0.03040582 0.06747579 0.041294586 0.049578395
0.1457814 0.11013619 0.03994361 0.084538266 -0.0088122655 -0.06199558 0.023338007 0.01985848
0.046463225 0.105212845 0.09435101 0.036991682 0.052696086 -0.0054487414 -0.045383837 0.009590396
-0.03545561 0.06412553 -0.046829652 0.074126475 -0.01435013 0.03415257 -0.06221621 -0.121528916
-0.09715387 0.05487338 0.019810619 0.030999046 0.09332855 -0.015418522 0.100743026 0.03628655
-0.04603392 -0.072390206 -0.20069346 -0.055525027 0.0081202 0.15638182 0.101297975 -0.039761413
0.047426187 -0.101998754 -0.2655015 -0.14561522 0.010804985 0.12973793 0.25213304 0.18589479
0.059574723 0.13696326 0.09802348 -0.07663926 -0.027290974 0.05891286 -0.056322053 0.08840575
-0.02936019 0.043599308 -0.07646208 -0.15161507 -0.093791485 0.06668981 0.09473685 0.063774206
0.0056903614 0.117820166 0.11208869 0.034222532 -0.068702415 0.13410701 0.08838307 0.09122451
0.10129256 0.13089217 0.14759347 0.1980246 -0.11122623 -0.014701798 -0.021422712 -0.010829025
0.09600705 0.10648225 0.16049184 0.116307765 0.037815265 0.11018896 -0.026067626 -0.078994095
-0.07186257 0.031056235 -0.08015318 0.04570423 -0.08121577 0.06729991 -0.13009958 -0.17327277
-0.12274395 0.036081687 0.025282038 -0.09608725 0.039094936 -0.12698914 0.027721344 -0.060582466
-0.18198664 -0.23822178 -0.18066931 -0.050250717 -0.012866038 0.078617275 0.11529639 -0.015630111
0.028825412 -0.1369779 -0.21870671 0.14209272 0.0111010615 -0.013810513 -0.06758324 0.18045464
0.07323903 -0.03493493 0.15487584 0.19485763 -0.0804138 -0.006380166 -0.11158439 0.055141535

conv2.0.bias f4 [16]
00000000: 5ed3 803e 31b2 973e 9019 013c 0bdb 07be
00000010: 2c43 58be ee74 97be bce8 103f 4f97 a13e
00000020: 966c f1be b7ff 9c3e b626 7bbb 48ac 953e
00000030: 80c3 44bd 078b 12b8 5ca4 d2bc 8a7b 453e
0.2516126 0.29628137 0.00787963 -0.13267152 -0.21119374 -0.29581398 0.56605124 0.31560752
-0.47153157 0.30663845 -0.0038322634 0.29233003 -0.048038006 -3.4938592e-05 -0.025713138 0.19285408

conv3.0.weight f4 [16, 16, 3, 3]
00000000: c784 19be 84af 49be 9da1 823e 5032 47be
00000010: da40 21be acb3 0f3e 5a6e 3e3e 47b3 84be
00000020: ec3e aa3d d7b8 4c3d e753 6c3d 0140 f73d
00000030: b616 7e3c 9f97 643e bb66 803e 774c 283d
00000040: c070 c33d 6628 8d3e e40d b9bd 12d4 a4bd
00000050: 85d4 79bd cde2 aebd 43e0 49bd 1df9 193e
00000060: 5f8e ffbc 950f 9fbd a060 2f3e a944 0abe
00000070: d1ef a93d 7dc7 633d 67ab 49bd 19e5 a43d
00000080: 159f 19bd 66b0 f7bc 76d0 ddbb 8b97 193e
00000090: 0d8a f8bd 69b4 62bd 8b71 07be fcc4 4abd
000000a0: 259d d6bd 6118 84bc 9f1c 593d b6ad 1bbe
000000b0: 622e 3a3c d589 3e3d 040f cc3d 0ceb 8a3d
000000c0: 7cdb eb3d 841e 9cbd 3815 203e dd60 933a
000000d0: ed7c 7b3d 524c 61bd bf22 c73e 1d99 623d
000000e0: 21aa 12bc 73ad 853d 2ddd 703e 7748 013d
000000f0: 4252 c13d 9566 8abc 0e96 613e a633 ff3b
00000100: cc5b f4bd 37a0 593d 1d98 243e 7d63 a73d
00000110: 4607 c63d 5a30 b4bc c9d6 db3d a7ca 93bd
00000120: 2feb 14bd 1aec a5bc eedd 91be de05 e1bd
00000130: 7b93 0abe c90f 193e 2b1c 8bbd 9677 bc3d
00000140: c69a f4bd 4e8f 5ebe fe2d d0be 17f8 a93d
00000150: 2a6d 1d3d 2377 8cbe dca6 a4bd 6ba5 d53d
00000160: c3f6 2abe b558 883d 1b29 44bd 9b53 14bb
00000170: c2cb b13d 039c 563d 72c1 00be 6d93 e03d
00000180: 24c7 fd3b 86fd 84bd 37af 513d 3837 ff3c
00000190: 7059 f33d 10d3 03bd 42fa 01be f609 1c3e
000001a0: 8da4 c0bd d182 f33d 8ebe 04be a992 f3bd
000001b0: caca d0bd 44e6 2abe 6730 acbd ff9e 2cbe
000001c0: b458 f7bd cfd6 9f3d 3acc e0bd c58e a2bd
000001d0: 9222 143e 4011 953c e147 1c3d 4f34 6f3d
000001e0: e212 303e 0a95 9e3d b45f 5ebd 6ee5 0c3c
000001f0: 5f16 32bd e7d7 cc3d 140d b4bd f897 6e3d
00000200: 180f afbd 931d 1dbc ea98 a23c 25d1 21ba
00000210: a31c f53d aab1 d03d e5e9 623e 8590 ba3d
00000220: e430 dabc f260 e9bd bc4a 08bd 8612 b6be
00000230: 4db6 70be bd62 ca3d 01f6 37be 7b9a 1dbe
00000240: 8bf3 bf3d f243 1c3e 7f35 173d 68a9 c2bd
00000250: 631d 753d bc02 b03d 3b12 dabc 1746 7e3b
00000260: d4ca c03d 6649 f73c 32cf 81bd 43e6 4abd
00000270: eade 8ebc 1f5e f93c 1a93 453c 6ae9 4c3e
00000280: 585b 133d b545 bf3d c426 af3b af54 c23d
00000290: 653b 053e 77fb 2f3e b801 d93d 5978 ef3d
000002a0: e26c b43d 9bc8 1dbd 569f 6c3c 77f6 003e
000002b0: ee2c 463c fceb 333d 6043 84bd f693 a53c
000002c0: 31b4 a23d f742 703d 7ac0 06be 3798 37be
000002d0: 385f 0b3e 6519 f53d b4ea 5f3d 4222 883d
000002e0: 5a00 0b3e 4a6c 10bd 62a0 243e d242 3c3d
000002f0: f03e 78bd bc19 98bc 0550 10bd 11c2 8ebc
00000300: 3515 8dbd 7060 8dbd 04b3 0ebb 688d 993d
00000310: 8a67 2abd 7764 c8bc 6d1f 853d e45d f43d
00000320: 93c3 7d3e 41d4 bf3d 89c3 f7bb dcbb 0dbe
00000330: 0388 983c c1d4 373d 53be e33d b69e 97bd
00000340: 996e 23be 032d 3fbd cfa2 12bd fa35 cfbd
00000350: aec3 27be 67f4 2cbd 8f69 6ebe 84c7 103e
00000360: 9678 ff3b fc83 dc3d fca8 893e b9ea 253d
00000370: 5c53 a73d 6583 133e 90b8 063e aaa2 8a3c
00000380: 1e7e aa3e 5b75 543e 3b1b a53c d884 8abd
00000390: 261a d03c 6c98 84be 5c2f 7bbe e9de 8c3d
000003a0: 3ce2 51be a5ee 80be d32c db3d 2f9e 913c
000003b0: 62d5 5f3d 2630 3d3e 183a 583e 8212 ff3d
000003c0: 223a 5f3e eead d73d 53c0 ec3d 6d4a 39bd
000003d0: e195 cc3d 036f 88bd 236f 453c e6ba d3bd
000003e0: 882c fbbc 32af e43c 22dc b53d 5893 73bd
000003f0: 0260 12be 8021 61be d95a eebd bfec 04be
-0.14992057 -0.1969586 0.25513926 -0.19452786 -0.15747395 0.14033383 0.18596783 -0.25918028
0.08312783 0.049980965 0.057697203 0.12072755 0.015508344 0.22323464 0.25078377 0.041088548
0.0954299 0.27569884 -0.090358526 -0.08048262 -0.06099369 -0.085393526 -0.04928614 0.15036435
-0.031195818 -0.07766644 0.17126703 -0.13502754 0.082976945 0.05561017 -0.049235728 0.080515094
-0.037505228 -0.03023548 -0.0067692352 0.14999215 -0.12135706 -0.055347834 -0.13226907 -0.049504265
-0.10479192 -0.016124906 0.05300581 -0.15202984 0.011363598 0.046518166 0.099638015 0.06783113
0.11516473 -0.07623008 0.15633094 0.0011244077 0.061398435 -0.055004425 0.38893697 0.0553218
-0.008951695 0.065272234 0.23521872 0.03156325 0.094395176 -0.016894618 0.22029898 0.0077881394
-0.11931571 0.05313131 0.16073652 0.08173273 0.09669356 -0.021995712 0.107343264 -0.07216387
-0.0363571 -0.020254184 -0.2848963 -0.10987447 -0.13532822 0.14947428 -0.06792482 0.09202497
-0.11943583 -0.21734354 -0.4066009 0.082992725 0.038434185 -0.27434644 -0.080396384 0.104319416
-0.16695695 0.066575445 -0.047890764 -0.002263284 0.08681442 0.052394878 -0.12573794 0.10965619
0.0077446867 -0.06493668 0.05119249 0.03115426 0.11882293 -0.032183707 -0.12693122 0.15238175
-0.094063856 0.118901856 -0.12963316 -0.118932076 -0.10194929 -0.16689402 -0.084076695 -0.16857527
-0.12077466 0.07804643 -0.10976453 -0.079373874 0.14466313 0.018196702 0.038154487 0.058399495
0.17194703 0.07743271 -0.05429049 0.008599622 -0.043478366 0.100021176 -0.08791557 0.058250397
-0.08547801 -0.009589571 0.019848306 -0.00061728276 0.11968353 0.10190137 0.22159536 0.09109596
-0.026634641 -0.11395444 -0.033274397 -0.35561007 -0.23507042 0.09882114 -0.17964937 -0.15390961
0.09372624 0.15260294 0.036916252 -0.09504968 0.05984248 0.085942715 -0.026620021 0.00387991
0.094136864 0.030186366 -0.063383475 -0.049536 -0.017440278 0.030440388 0.0120589975 0.20010915
0.035975784 0.093394674 0.0053451974 0.09488808 0.13010938 0.1718577 0.10596031 0.11692876
0.0880983 -0.03852139 0.0144422855 0.12594019 0.012095673 0.043926224 -0.06458163 0.020212155
0.07944525 0.058657613 -0.13159361 -0.17929159 0.13610542 0.11967734 0.05466719 0.06647159
0.13574353 -0.035259522 0.16076806 0.045962162 -0.060606897 -0.018566959 -0.035232563 -0.017426522
-0.068888105 -0.069031596 -0.0021774182 0.07497674 -0.04160265 -0.024461968 0.065001346 0.11931971
0.24781637 0.09366656 -0.0075611514 -0.13841194 0.018619543 0.044880632 0.11120286 -0.074033186
-0.15960158 -0.046673786 -0.035799798 -0.10117717 -0.1638324 -0.042225268 -0.23282455 0.14138609
0.0077963574 0.107673615 0.26886737 0.040507052 0.081701964 0.14405592 0.13156343 0.016923267
0.33299345 0.20747893 0.020154586 -0.06763619 0.025403094 -0.2589754 -0.24529785 0.06878454
-0.20496458 -0.2518207 0.10701909 0.017775623 0.054646857 0.18475398 0.21115911 0.12454702
0.2179952 0.10531221 0.115601204 -0.045236994 0.09989525 -0.06661799 0.012050423 -0.103383824
-0.030660883 0.02791557 0.088798776 -0.05946669 -0.14294437 -0.21985435 -0.116384216 -0.12980936

conv3.0.bias f4 [16]
00000000: 3b4f ae3e d245 71be c231 973e dbc8 debe
00000010: 7d48 7cbd fd3b dfbd 96b3 52bd deaf 8bbe
00000020: 0766 d73c 8ea8 8e3e d446 ef3e 3fc2 0e3f
00000030: c30f 9dbe 7fc6 e93e 207b 663d 997f b6bd
0.34044823 -0.2356179 0.2953015 -0.43512616 -0.061592568 -0.10900114 -0.051440798 -0.27282614
0.026293768 0.27862972 0.46733725 0.55765146 -0.30676088 0.45659253 0.056269765 -0.08911056

dense.0.weight f4 [32, 256]
00000000: 3f4a e03b bfec abbd 8f06 72bd 8ba0 9bbd
00000010: 6de4 ec3d fbfc a33d e131 c93d 76a4 57bd
00000020: 2291 fc3c 5ddf 1c3d afe9 023d 2523 4cbd
00000030: b41e 86bd 9ab6 36bd 89a3 fe3c 75ce e03d
00000040: 20e0 923b 97c9 bcba 50e4 0cbd ec03 923d
00000050: 8d6d b9bc 1c87 5fbd 0c39 bcbd 3c1a 223d
00000060: 0615 eabd 0adb 07bd d67d 05bd 3bea 1abb
00000070: 8a7f b53b e146 44bd c5a3 17bd 6325 a93c
00000080: f220 b43c 0509 2f3e a936 5c3d 45b1 023d
00000090: 2a56 b33d e606 983d 780b 73bd 31c2 a03b
000000a0: eef2 703d 62f2 5a3d 868b ca3d ee23 b9bc
000000b0: 1db6 cc3d 61a2 a33d efae 3d3e 4e39 00bc
000000c0: 5280 4b3d d042 183d 1ac9 e73b d09a 50bd
000000d0: 235a d93c a3cf 6c3c 96f0 e9bc b937 84bd
000000e0: 7fe8 6fbc a57e 4d3d 9821 9e3d 96ab 92bd
000000f0: c6ef 153b 3682 033d b593 b33c c50a a43c
00000100: cf75 5c3d de0c 603d ea7b 343d b72f 45bc
00000110: c142 a1bc 7c4e abbd c166 10bc d93b 11bd
00000120: c569 6a3d cf5c c9bd a78d e93c d66c 59bd
00000130: 8028 bfbc 647d 69bd a586 123d 30ee e93c
00000140: 2cbe 3abd 3ab0 58bd fe40 0ebd bd63 dc3c
00000150: 83f8 f2bb ddd3 8bbc 3c05 e5bc e8c4 913d
00000160: d532 5d3d 91e7 313d 85d1 20bc 2fba 113c
00000170: 3267 153c 7e94 6d3c b329 95bc ea3f 2d3d
00000180: 83f4 943d 25cc 433c 139d 57bb 720f 8dbc
00000190: e9c3 f93d d839 a13d 3fe7 953d f0bb 983d
000001a0: a43c 273c d4b0 333d 6787 793d 25f9 2d3d
000001b0: 8792 e3bc f795 14bd 87fc d4bc ad3f 2c3c
000001c0: 0089 68bd b332 5e3d 0d8e 323d cd99 c03c
000001d0: 2827 bfbb b925 f43b 4ff6 d93c 2ba9 373c
000001e0: 05cc 4cbd 6d19 863c 9c86 743d 3995 9ebb
000001f0: 32ea 00bd 2c70 6e3c d856 8c3c 5eb2 d7bc
00000200: 0697 b1bd a960 69bd 3c9d 96b9 8139 963c
00000210: afb8 2d3b 5931 573d dc2a 0a3d 685c bdbc
00000220: 942b 9f3d c094 643d 3111 b3bc 467e 35bc
00000230: 7cb0 883d 6c98 ab3d f525 b2bc 2a0f 093d
00000240: 0525 80bb 0a4a f73b 207f 763c 7231 16bd
00000250: 5f92 23bd aa98 7f3d 02c5 493d 1198 6dbd
00000260: 26c3 debc 5bf8 283d daf5 cf3d 3b09 5a3c
00000270: e531 9cbd 4592 1abb 3419 123d 4335 05bd
00000280: fc1e 963d 2db3 8ebc 8b14 473d 90b7 3c3d
00000290: e00e e23a 1691 5a3d c0dc 723d eb34 7cbc
000002a0: 3b23 083c 46f2 0a3d 2369 9a3d 7e6a f73c
000002b0: 210a 223c 6bc8 bb3b 9015 963b 1317 a3bb
000002c0: c473 7cbc cba6 5c3d 5147 223d 842a 583d
000002d0: f4cc 1c3d c3f5 c5bc 5c6e ff3c 7ce2 c93d
000002e0: 00a5 f2bc 0f28 fbbc 8f64 6dbc 99d9 533d
000002f0: ead2 c23d b574 9a3d 7911 f23c 7b54 86bc
00000300: 3904 bbbd 6d5e 09bd ec26 533d 1685 a1b9
00000310: 3f46 f03b c962 f43d 490b 0a3e 2b27 0c3e
00000320: 9215 ec3c 68f5 e63c 9cb0 123d 2e68 6ebc
00000330: b773 843b 98d4 5cbc 1515 1fbd 7571 9dbd
00000340: 114a 123c 2797 cf3c 2a52 283d 7031 e03d
00000350: d7fb 433c 457e bb3c 1e94 a6bc e516 bc3d
00000360: d945 bd3d 3292 93bd 77e8 7fbc eba8 e0b8
00000370: eac4 263e b57c 0a3c 631e 63bd 0172 0c3d
00000380: 3681 5f3b b5dd 45bd 886b 46bc b97d 053c
00000390: 27dc 0cbd a3a5 d53b 21a4 263d 554a 333d
000003a0: 33ad acbd cf75 cb3c 6312 b8bb c407 a5bc
000003b0: cdf3 06be 9af4 a5bd 824b eabd c1f5 c1bc
000003c0: 6def 22bc 2d1c cb3b cda0 7dbd 35ff 11bd
000003d0: 2f4a 62bd ac23 81bc ba21 f1bb e02e 153c
000003e0: 7bbb b5bd c499 2dbc 904c f83b 08b4 263a
000003f0: 6563 c6bc 3204 4dbd 9816 48bc fe39 2fbd
0.0068447883 -0.08394765 -0.059088286 -0.075989805 0.11567006 0.080072366 0.09823967 -0.052647077
0.030830923 0.038298953 0.03196114 -0.049838204 -0.06548825 -0.044607736 0.031083839 0.109768786
0.004482284 -0.001440334 -0.034397423 0.07129654 -0.022635246 -0.05457221 -0.09190568 0.0395758
-0.11429791 -0.033167876 -0.03259071 -0.0023638147 0.0055388855 -0.047919158 -0.037021417 0.02064771
0.021988366 0.17093284 0.053763065 0.03190734 0.08756669 0.07423191 -0.05933711 0.004905962
0.058825426 0.05345381 0.09889893 -0.02260014 0.09995673 0.07989956 0.18523763 -0.0078261625
0.049682923 0.037173092 0.0070735337 -0.05092889 0.026532238 0.014453801 -0.028557103 -0.06455941
-0.014642834 0.050169606 0.07721251 -0.07161634 0.0022878512 0.0321066 0.021921018 0.020024667
0.05382329 0.05469977 0.044063486 -0.012035302 -0.019685151 -0.08364579 -0.008813561 -0.035457466
0.057229776 -0.09832155 0.028509928 -0.05308231 -0.023334742 -0.057004347 0.03577294 0.02855596
-0.04559152 -0.052902438 -0.03472995 0.026903028 -0.007414879 -0.017068798 -0.027956598 0.07117635
0.054003555 0.04343373 -0.009815578 0.008894487 0.009118842 0.014500735 -0.01820836 0.04229728
0.072731994 0.011950527 -0.003290002 -0.017219279 0.1219557 0.07872361 0.07319497 0.07457721
0.010207329 0.04386981 0.060920145 0.04247393 -0.02777983 -0.03627583 -0.02599932 0.010513228
-0.05677128 0.05424757 0.0435925 0.023510838 -0.005833525 0.007450786 0.026606707 0.011209766
-0.049999256 0.016369546 0.059698686 -0.004839566 -0.031473346 0.014553111 0.017131254 -0.02633017
-0.086713836 -0.056976948 -0.00028727378 0.018337967 0.0026507785 0.052537296 0.03373228 -0.023115352
0.07771984 0.05580592 -0.021858783 -0.011077469 0.06674287 0.083786815 -0.021746615 0.033461727
-0.003910663 0.007546668 0.015044957 -0.03666825 -0.039934512 0.06240145 0.049260147 -0.05800635
-0.027192663 0.041252475 0.10154314 0.013307865 -0.07626704 -0.0023585719 0.035668567 -0.032521497
0.073301286 -0.017419422 0.048603576 0.046073496 0.0017246865 0.05336102 0.059292555 -0.015393476
0.008309181 0.033922456 0.075395845 0.030202147 0.00989011 0.005730679 0.004580207 -0.004977116
-0.01540846 0.053870004 0.039618794 0.05277492 0.038281396 -0.02416504 0.031180553 0.098576516
-0.029619694 -0.03065875 -0.014489307 0.05172119 0.09512885 0.07541791 0.029549347 -0.016397705
-0.09131665 -0.033537317 0.05155079 -0.0003080747 0.0073325927 0.11932904 0.13480867 0.13686816
0.02881888 0.02819319 0.03581296 -0.014551206 0.0040421146 -0.013478421 -0.038838465 -0.07687656
0.008928792 0.02534063 0.041093983 0.109469295 0.011961899 0.022887358 -0.0203343 0.09184054
0.09241838 -0.07205619 -0.015619389 -0.00010712616 0.16286054 0.008452584 -0.0554489 0.03428841
0.0034104115 -0.04830714 -0.012110598 0.00814765 -0.03438964 0.0065199896 0.04068387 0.04377206
-0.08431473 0.024836449 -0.0056174262 -0.020145305 -0.1317894 -0.08103295 -0.11440183 -0.023676755
-0.009944779 0.006198427 -0.06192093 -0.035643775 -0.05524653 -0.01576408 -0.007358757 0.009105414
-0.0887365 -0.010595743 0.0075774863 0.0006359224 -0.024217317 -0.05005283 -0.012212418 -0.042779915

dense.0.bias f4 [32]
00000000: aba3 8c3d db65 cb3b 19cb e4b9 e373 5f3e
00000010: 6def db3e 378a ea3b 9fcb d53b 0bbb 943e
00000020: 5d2e 66bd 3662 1f3f b721 7d3e 12a1 8d3d
00000030: 050f 2d3e e2e9 8cbd 6359 123e 6528 d13c
00000040: d28f 5fbd 3815 3abe e047 f5be f5e7 adbb
00000050: f72a e7bd d98a 86b9 6795 24bd 1182 343e
00000060: 6c79 1fbe e3b5 a7bb d3bf 243e 3396 0e3d
00000070: e970 78bb 0d42 4bbc 03a9 483d 58d5 e5bc
0.06867155 0.0062072105 -0.00043638868 0.21821551 0.42956105 0.00715759 0.0065245177 0.29048952
-0.05619656 0.62259233 0.24719892 0.06915487 0.16900261 -0.06880547 0.14291911 0.025531957
-0.054580517 -0.18172157 -0.479064 -0.0053071924 -0.11287492 -0.0002566192 -0.040181544 0.17627741
-0.15573663 -0.005118118 0.160888 0.03481121 -0.0037909097 -0.012405884 0.048989307 -0.028055832

dense.2.weight f4 [10, 32]
00000000: d94a d73e a108 b1bc 100b f03e c591 8fbe
00000010: c210 79be ade7 ffbc 1cc5 703e 5c4c febd
00000020: ca80 e0be ff5f 013e ccc5 27bd 4dfe 963c
00000030: 8944 2b3b 6307 6c3d 6f9a 963d 1380 4ebf
00000040: adcc cfbe e46d 06be 3d32 0cbc 72f8 babc
00000050: 8911 4c3e a8c7 8b3b ec61 fd3c ae75 913e
00000060: e2e5 363d 345f 7f3c b5eb c63d 1fed 93bd
00000070: 42e5 3e3f aab0 3fbc 681a 8cbe 1eab 8c3e
00000080: 495a d03d f790 c5be af19 2cbe 573c f6bd
00000090: f040 85bd 3a86 083e a794 8ebd 8b4a 183d
000000a0: f911 1cbe 10f2 02be 0f1f d23d edfa ed3d
000000b0: f84f d5bd 842b 1e3d 945a a4be 2c3e aa3e
000000c0: 83c2 21be 1b9b 203e dc5e de3e d358 36bd
000000d0: b26a 7fbe 6d6b 0c3a 5b40 a0be a5cf 9cbe
000000e0: 6043 2c3e 8658 46be bc81 dcbd 2b37 32be
000000f0: e780 15be 5493 163d 9436 13be 1930 d8be
00000100: f3c2 713e 30bf 213d ddd9 05be f1ea 0fbe
00000110: 1327 553e 59ef 053e 7e52 d9bd 6d73 18be
00000120: 4a9f c63e e4a7 cfbc 9065 5abe 2419 743d
00000130: 491c c23c bce3 0d3e c6c9 723e eceb 813e
00000140: 2f53 4f3e cd80 7e3d 8223 08be b64f 66bd
00000150: 29a8 1bbf 23d9 623a 8e11 41be f6bf 4abe
00000160: 66fb f83e 0411 793e 84b8 0dbe a55f 82bd
00000170: 9a1b f83e e216 c1bd 5db4 09bf d63b f93e
00000180: cddf 37bc 60e5 d13e d619 0a3e cbe4 35bd
00000190: 02d5 f5bc cbe3 ccbd 9d49 9ebe 4163 283d
000001a0: aeab 0cbf 07fc 813c 558e 833d 1e12 41bd
000001b0: ce47 7d3e b9ce 1cbf 8fe8 19bd fcb4 a7bd
000001c0: ddf3 6f3f 8a2d 83bd f20e f6ba 87b2 68bd
000001d0: 9f3f 8f3e 13e8 673b acee c83d a4e5 073c
000001e0: d8bc 07be 6bc1 d23e 3de9 d1bc b387 963d
000001f0: 0fcf c7be 12c2 17bd 4779 aebe 2d34 81bf
00000200: e8dc 203e 6f18 04bf 84ce 09bf af48 89bd
00000210: 4411 6c3e 9e47 31be bb71 3cbe 82bf 443e
00000220: ea14 03bf 62fc 223d 88ba f4be 252e 5e3d
00000230: a646 153c c3f9 8cbe 333a 21be b914 363e
00000240: 0c2f eebe 92de b6bd 8ed7 0fbe dc74 643e
00000250: 669d 9ebe ae7b dc3a 50af 18bd 1dd3 ecbd
00000260: 1794 6dbf 13b6 11bf 88e0 9a3d 1e00 4a3d
00000270: 751c 09bf 2ab7 973d 0aa4 f43d 6d7e 833e
00000280: bac4 8fbd d5da 04bf 113a eebe cd87 a2be
00000290: 2867 0cbc ca11 56be c54c 01be ce2b 36bd
000002a0: 1df3 5d3d cba8 eabb 5c3e 4fbe 6329 893d
000002b0: eef8 863e 9ec7 1b3f 6a61 e0bc faf0 f93e
000002c0: 599e 2ebe 8375 c73d e125 96bd 045e 02bd
000002d0: 5e08 ae3e 38f9 0139 1111 a33e dd68 83be
000002e0: 359f c63e 9d7e 33bf 004f 7c3e 3723 b2bd
000002f0: 0dac 5abe 598a 21be 2259 18bc 3c38 03bf
00000300: 96d0 00be b7cc abbe 5b58 0e3d cb81 8f3e
00000310: c6aa ec3d cc19 893d 61c7 673d 2cfc 64bd
00000320: 2b37 003f 155d c2bd ba1f 01bf a09d 523c
00000330: e06f 16be 4389 1ebf a8b6 423d 433c 2bbf
00000340: 976d 7ebe 10c1 aa3d ed70 e43b b556 82bd
00000350: c132 a23d 8e8d 52bb 4993 283e d1d6 00bf
00000360: 0dc9 b53d 8ee2 dc3e 8fa2 8cbc 979d 003f
00000370: a4d4 c23e 09b1 db3d 4f7a 49bc 5d40 2f3e
00000380: e06b cc3c 6946 293f cb7f c5be 45a4 e1b9
00000390: 8ab9 2cbe 34a0 f6bd 071b 1cbe 0340 6bbd
000003a0: 0a7a 5c3e a21d 9fbd 1bd1 d0be cb57 64be
000003b0: 560c 843d 8b19 df3d d6c0 6dbc 92b5 3cbf
000003c0: 43b3 3dbd 0d97 653d 20b7 0fbe f996 e23e
000003d0: 7393 a03d 894e 9ebb e724 00be d097 d2be
000003e0: c08b 20bf b258 dcbe 5622 5ebe cb9a 30be
000003f0: 3451 f8be 3905 fb3d ed46 d13d 7c41 bcbe
0.42049292 -0.02161056 0.4688344 -0.280409 -0.24322799 -0.031238401 0.23512691 -0.12416908
-0.43848258 0.12634276 -0.04096012 0.018431807 0.002613338 0.057624232 0.073536746 -0.80664176
-0.40585843 -0.13127857 -0.0085569 -0.022823546 0.19928564 0.0042657442 0.030930482 0.28410095
0.044652827 0.015586663 0.09712926 -0.07222962 0.7456857 -0.011699835 -0.27363896 0.27474302
0.101734705 -0.38587162 -0.16806673 -0.12023228 -0.065065265 0.13332453 -0.06961947 0.037180465
-0.15241231 -0.12787652 0.1025983 0.11620126 -0.104156435 0.03861572 -0.32100356 0.33250558
-0.15796857 0.15684168 0.43431747 -0.044518303 -0.24943045 0.0005356584 -0.312991 -0.3062717
0.16822577 -0.19369707 -0.10766932 -0.17403857 -0.14599954 0.036761597 -0.14376289 -0.42224196
0.23609523 0.03948897 -0.1307139 -0.14054467 0.20815687 0.13079585 -0.10611437 -0.14887781
0.38793403 -0.025348611 -0.21327806 0.05959429 0.023695128 0.13856405 0.23709783 0.25375307
0.20246576 0.062134553 -0.13294795 -0.056228362 -0.6080347 0.0008653572 -0.18854353 -0.1979979
0.48629302 0.24322897 -0.13839918 -0.06365899 0.48458558 -0.09428193 -0.5379084 0.48678464
-0.011222792 0.40995312 0.13486418 -0.044407647 -0.030008797 -0.100043856 -0.30915537 0.04111028
-0.5494946 0.015867246 0.06423632 -0.04713642 0.24734423 -0.61252934 -0.0375753 -0.08188817
0.9373148 -0.0640517 -0.0018772765 -0.056810882 0.27978227 0.003538613 0.09811148 0.008294497
-0.13255632 0.4116319 -0.025623912 0.07350101 -0.3902516 -0.037050314 -0.34076902 -1.0094048
0.15709269 -0.5159978 -0.5383074 -0.067033164 0.23053461 -0.17312476 -0.1840276 0.1921368
-0.5120379 0.039791472 -0.47798562 0.054243226 0.009111082 -0.27534303 -0.15744857 0.17781343
-0.4652027 -0.08929171 -0.14047071 0.22310203 -0.3097946 0.0016821527 -0.037276566 -0.11563704
-0.9280409 -0.5691845 0.07562357 0.049316518 -0.53559047 0.07407983 0.119453505 0.25682393
-0.070199445 -0.5189641 -0.46528676 -0.31744233 -0.008569516 -0.20905223 -0.12626942 -0.04447537
0.05418693 -0.007161235 -0.20238632 0.06697347 0.26361793 0.60851467 -0.0273902 0.48816663
-0.17052592 0.097392105 -0.073314436 -0.03182794 0.3399076 0.0001239524 0.31848958 -0.25665942
0.3879334 -0.7011507 0.24639511 -0.08698123 -0.21354695 -0.15775432 -0.009298595 -0.5125768
-0.12579569 -0.33554623 0.03475223 0.28028712 0.1155601 0.066943735 0.056586627 -0.055904552
0.5008418 -0.0949041 -0.50439036 0.012854964 -0.14691114 -0.61928195 0.047537476 -0.6688883
-0.24846493 0.08337605 0.0069714696 -0.06364194 0.07919837 -0.003212783 0.16462435 -0.50327784
0.08876238 0.43141598 -0.017167358 0.50240463 0.38052857 0.10727126 -0.012297227 0.17114396
0.024953783 0.6612306 -0.3857406 -0.00043037735 -0.16867653 -0.12042275 -0.15244685 -0.057434093
0.21530929 -0.07769324 -0.40784535 -0.22299115 0.064476654 0.10893544 -0.014511308 -0.73714554
-0.046313535 0.056052256 -0.140347 0.44255808 0.07840624 -0.0048311395 -0.12514077 -0.4113145
-0.6271324 -0.4303642 -0.21692786 -0.17246549 -0.48499453 0.122568555 0.10218606 -0.3676871

dense.2.bias f4 [10]
00000000: 1e01 51bf 43f8 88bf 3833 363d d5f8 4a3f
00000010: 5c12 3b3f 36c8 d03d 712b 523f 3114 d73d
00000020: 2335 09bf 1794 94be
-0.8164233 -1.0700763 0.04448244 0.7928594 0.7307489 0.10194437 0.82097536 0.10501898
-0.53596705 -0.29019234
