ResidualLoss/CNN-Train/CIFAR_11_6/back_epoch-207.pt (torch, 58431 bytes, 10 tensors)

conv1.0.weight f4 [16, 3, 3, 3]
00000000: d74c ebbd 8132 d0bd 21a7 b13d d8ce 7dbe
00000010: 36b4 52bf d582 55bc c8b4 2d3e 98ad 15bf
00000020: 7f3b 65be 0267 1f3e d72d b0be 2fce e5bd
00000030: cf6d 06bd 9e8b 4ebf 246a d4bd 5f9b b83d
00000040: c1fc 0fbf 489c 43be d5a4 4ebe 4b69 44be
00000050: a300 1e3e 85b2 87bd a9ae 2abf 96b1 ed3c
00000060: 77e5 9f3e 56bf 6bbe 4656 c8bd 8ae7 0f3f
00000070: 5c1c 453e fcfd a6be f0cd 403f d4f0 983b
00000080: d63d 26be d6b4 cb3e ff95 063f 862a 1dbf
00000090: d4da e43d b133 c6be 6379 dbbe f4a9 263f
000000a0: 53ae fcbe cc98 20bf 45e1 053f 0ff8 47be
000000b0: d7fa 63bf 0ed7 363f cdfc a43d 9045 0abf
000000c0: 9795 613f c8e2 8cbe 4d5b 2dbf 947e 5c3f
000000d0: a763 6b3d f6eb 5fbf 9910 21be 0e51 743f
000000e0: 52f1 973f b5a4 28bf 8fe4 96be 2659 933f
000000f0: 940f a1be 7810 6bbf e11d 41be 7962 64bf
00000100: f3e4 583d b713 143f a20f 5cbf 0be1 82bf
00000110: 770c ff3d 398d 90be 9030 81bf 26d8 7ebf
00000120: c03f acbe dc95 723e 543f 943f 1e0e 39bf
00000130: 89b4 47bf 6d0b 273f 8f3f debe e287 82bf
00000140: beb4 40bf e41b b1be 7b6a 5fbf 2e09 19be
00000150: 71d9 06bf 224c 0bbf d565 6b3e 6c0a d93e
00000160: f883 a73e 64b7 603f 242d 6a3e 2b31 eabe
00000170: b39e 613e fde6 b8be 5fa7 e1be ec4c 1e3e
00000180: 292f 613e 8343 963e e14f 4a3f d2af 303e
00000190: 4da2 a5be a4b9 5b3e 05a4 e0be 6a0f 13bf
000001a0: c67b 9d3e 5eaa 07bb a017 6a3c e0c2 063f
000001b0: 8997 fbbe 55f4 6abe bfe7 ecbe f894 febe
000001c0: fd42 1cbe 7713 7dbe d9ad 21bf 8664 b1be
000001d0: d7c4 26bf 1b8c d9be 9e58 8f3d 8b17 26be
000001e0: a030 313e bd8b 473e 45f6 423e 5ee1 34be
000001f0: 9b87 873e b1b5 b5be d334 b03e 38b9 b43e
00000200: e31b 83be 7b72 333f 3b25 3c3f 326a ae3e
00000210: c8f5 cc3e cad4 053f e55d 673e 1892 12bf
00000220: 4910 8abf 95cd 33bf cbb6 16be cbae ddbe
00000230: 1b06 34bf 741e a53f 0be9 813f 8a1d ec3d
00000240: 508e a0be 1852 4cbf e79c e9be 3ab0 e3bd
00000250: cd74 d1be 7848 2fbf dd46 643f 1396 633f
00000260: da36 f1bc a3c1 14bd bf6a babe ad84 afbd
00000270: 577a a53e c4d9 febd 4455 cdbe 49b2 4c3f
00000280: a0f4 313f d734 b9bd 2bdc d13e d8b5 053f
00000290: 7779 263f 7a50 bebd bf6b 153f ef98 5c3f
000002a0: f622 a93d 1266 1a3f d0ec 8d3f a2b7 79bc
000002b0: 9ea2 c53e 83cd f63e 9143 36bf f618 c2bd
000002c0: 1f95 a33e f11d 21bf 001c afbe fd15 743e
000002d0: ff6f 893e ac39 583e 875c 323e 437c 86be
000002e0: c28d babe 3d48 84be ad35 b4bd 7a18 6cbe
000002f0: 1c1b b5bd 1be7 c5be 6321 3a3e dc00 ed3e
00000300: 1ce7 9c3d cc23 393f 8b62 5b3f 104f 4cbd
00000310: 68fe 2b3f 7a14 523f ff52 e2be b1a6 063d
00000320: b34c ac3e c8ae 45be 615e c63e 1fca 4c3f
00000330: fc4c 4fbe fecf fb3e d11a 663f e369 d43e
00000340: a9e3 333f 2531 433f 8292 763e 757e 783f
00000350: ecd9 353f 1ecb 3f3e bbad 483f fb48 453f
00000360: 7a91 ddbe 3707 acbe 90a1 11be a790 e8be
00000370: 69e9 7fbe 66a8 a8be f4f4 e2be 9c9a aebe
00000380: 2120 5bbe 68cd 8fbd 4426 303e 65ed 5f3b
00000390: f69e 88be 042c 113f 8af1 8c3e 1ab7 0dbf
000003a0: 0829 95bd f9b3 743e 201e 233f d296 393f
000003b0: af01 d33e f652 cc3e fae2 5a3f 61b3 0a3f
000003c0: 432f 61be 3690 e63e 7ab8 6b3e 7a72 1f3f
000003d0: 4a35 b73e e8f4 353f e680 8e3f 47ae 883f
000003e0: 2a4a a43e 3960 f33e 58dd 713e 8bfa 3dbf
000003f0: 0019 d63e c7e8 913e 5c82 3f3f 2943 4d3f
-0.114892654 -0.10165883 0.086744554 -0.24785936 -0.8230623 -0.013031681 0.16963494 -0.5846801
-0.22385977 0.15566638 -0.34409973 -0.11220967 -0.032819565 -0.8068179 -0.10371807 0.0901401
-0.56245047 -0.19102585 -0.20180066 -0.19180791 0.1542993 -0.06625847 -0.6667276 0.029015344
0.31229755 -0.23022208 -0.0978208 0.56212676 0.192491 -0.3261565 0.75314236 0.004667381
-0.16234526 0.39786404 0.52572626 -0.6139301 0.11174551 -0.38711312 -0.42866048 0.6510308
-0.4935175 -0.6273315 0.5229686 -0.1952822 -0.89054626 0.714219 0.080560304 -0.54012394
0.8811888 -0.2751677 -0.6771744 0.8613064 0.057468083 -0.8746942 -0.15728988 0.9543618
1.187052 -0.65876323 -0.2947125 1.1511581 -0.31457198 -0.91822004 -0.18859054 -0.8921276
0.052952718 0.5784258 -0.85961354 -1.0224928 0.12453549 -0.28232744 -1.0092945 -0.99548566
-0.33642387 0.2368998 1.1581826 -0.72287166 -0.7800985 0.6525181 -0.43407866 -1.0197718
-0.7527579 -0.3459159 -0.8727185 -0.14944908 -0.5267554 -0.54413044 0.22988065 0.42390764
0.32717872 0.8777983 0.22868782 -0.45740637 0.22033195 -0.3611373 -0.44073007 0.15459031
0.21990646 0.29348382 0.79028136 0.1725457 -0.32350388 0.21457535 -0.43875137 -0.57445395
0.30758494 -0.0020700912 0.014287859 0.52641106 -0.4913905 -0.22944768 -0.46270558 -0.4972303
-0.15259929 -0.24714456 -0.63155895 -0.34647006 -0.65144104 -0.42489704 0.06999324 -0.16219918
0.17303705 0.194869 0.19039257 -0.17664096 0.26470646 -0.35490182 0.34415302 0.3529756
-0.25607213 0.7009656 0.7349431 0.34065396 0.40031266 0.52277815 0.22594412 -0.5725417
-1.078622 -0.7023557 -0.14718167 -0.4329742 -0.70321816 1.2899919 1.0149244 0.11529072
-0.31358576 -0.79812765 -0.4562752 -0.11117597 -0.40909424 -0.68469954 0.8917063 0.8890087
-0.0294451 -0.03631748 -0.36409566 -0.08570228 0.323199 -0.12443879 -0.40104115 0.7995954
0.69513893 -0.090432815 0.40988287 0.52230597 0.6502909 -0.092926934 0.5836753 0.8617086
0.082586214 0.60311997 1.1087894 -0.015241535 0.3860063 0.48203668 -0.7119685 -0.09477417
0.31949708 -0.6293631 -0.3420105 0.23836513 0.2684326 0.2111575 0.17418109 -0.2626668
-0.36436278 -0.25836363 -0.087993 -0.23056212 -0.08843061 -0.38652882 0.18176799 0.46289718
0.07661268 0.72320247 0.8569724 -0.049880087 0.6718507 0.82062495 -0.44203946 0.032873813
0.33652267 -0.19304955 0.3874388 0.7999591 -0.20244211 0.49182123 0.8988467 0.41487035
0.70269257 0.76246864 0.24079326 0.9706796 0.7103565 0.18729827 0.7839009 0.77064484
-0.43275052 -0.33599254 -0.14221787 -0.4542286 -0.24991383 -0.32940978 -0.4432751 -0.34102333
-0.21398975 -0.070216 0.17202097 0.0034168598 -0.26683778 0.5670779 0.2752803 -0.55357516
-0.07283217 0.23896779 0.6371784 0.7249576 0.41212222 0.39907044 0.8550259 0.5417996
-0.21990685 0.450319 0.23019591 0.6228405 0.35782844 0.7107682 1.1133087 1.0678185
0.32087833 0.4753435 0.23619592 -0.74210423 0.41815948 0.28497908 0.7480829 0.80180603

conv1.0.bias f4 [16]
00000000: 9097 363f 1841 843e 6e44 cc3d 8a25 b23e
00000010: 474c 823f 09b8 d1be 1e77 4ebe c988 4b3f
00000020: dfbd bbbc 0477 603e c968 64bf 490c 8c3f
00000030: b9bb 6d3f 2103 83bd 52d5 a43f 32e6 adbe
0.71325016 0.25830913 0.099739894 0.34794265 1.0179528 -0.4096072 -0.20162627 0.7950559
-0.022917686 0.21920401 -0.8922239 1.0941249 0.9286457 -0.06397081 1.28776 -0.33964688

conv2.0.weight f4 [16, 16, 3, 3]
00000000: 29c3 2cbf 7d05 3abe dafd c9bd 9530 6ebe
00000010: b0ec dd3c d389 8abe 86a4 84bc 9215 3f3e
00000020: c59d 9b3e ec05 673e 6503 aabe d505 863d
00000030: 4a1e ea3e e5e5 703e c697 183d 86ba de3e
00000040: eb2f a6be 43eb c0bd d827 04be 23ab 3abf
00000050: 6c1d f5bd e980 be3d 5bb3 0c3e 85ed 64be
00000060: c005 33bc 0772 8e3d b9ac ac3e 4385 acbc
00000070: b8dd 773e 37d0 853d 52ff 403d c45a f13d
00000080: 8eee be3b cc7d a13d 43e6 083f 76cf 81be
00000090: 5e09 b3be aaba a0be 949f 40be 972a 8ebe
000000a0: 58f6 c2be 259a e83d 7ee7 1cbf 0675 1bbf
000000b0: 090f b8be f53d 3fbd 0766 6b3d fda8 9cbd
000000c0: 4cc0 373c 9cc1 34bd f0dd 33be ef82 56bf
000000d0: de7c 7cbe cb3c 7abe d469 ecbd 5591 0f3b
000000e0: 3041 3d3e c5f9 10be 5f62 acbd 8799 2cbd
000000f0: 976f 5e3c e50c bdbd 5f6b 2ebe b390 973d
00000100: a31a 8f3d 2a61 473e ba7d e5bd e6b1 c4bd
00000110: 616d 273e 4c40 1e3d bd44 873d 269d f8bd
00000120: 95c7 96be 29fd ec3d 121f 313e 5257 f0bd
00000130: 00f9 e7bc 53c0 773e 8cae eebd 31a6 92bc
00000140: 0c67 ec3d 53b1 1e3e 225d d33c 425d 193d
00000150: 4a95 083c d054 61be 16e0 10bb 7009 3b3e
00000160: 5f95 c2bc c344 cc3d a401 45be 1b4b 003f
00000170: f013 8f3e 9469 833e f560 473e 7246 babc
00000180: 122c 1abe 907e d83c c670 343d a9b2 953e
00000190: 0f15 ab3e 0681 283e 9cd0 363d 539f 93bd
000001a0: 387d 303e 9f49 07bc 76c0 73bd b9c8 233e
000001b0: 6e75 2c3f d75a dc3e 46a1 123c 1aff 56b9
000001c0: ef20 903d b2c3 debd 7b7a 093e 5f77 763e
000001d0: 46eb 233c 1dfb 12bf 6c01 77be db7c 7b3e
000001e0: b9ca 44bf 0b4c 8ebe 5369 d6be 73e8 3ebf
000001f0: d792 0dbf 938e 2cbf 2073 b53e b4d3 53be
00000200: 52fd a73c 6a7f 963e 1acc 76bd e453 463e
00000210: e99f a33e 48aa 86bd c4fa e1bb e447 8fbe
00000220: 26de 85be 8f0f 623e b680 12be 766b e3be
00000230: dc78 87be b980 84be a8b8 4bbd 7a40 b63e
00000240: d343 853d 03df ab3d 7c4b 043e 6c7a 1a3d
00000250: 9261 a93d 6f5e dcbc 80ac b43c e0b2 4a3e
00000260: 93dc 893e 2c0f ea3e 44f4 dc3c c5b6 e83e
00000270: df06 513e 9e25 043e f9de 043f 6de7 123e
00000280: 02c7 dfbd 3fb3 4e3f 4c11 5cbe b122 d83d
00000290: 592e b53e 7c79 edbd c315 4a3e 8f55 34be
000002a0: 6d66 593d 5047 25bc 4d8a 273e 24b5 ef3d
000002b0: 2c9c 873e d45c 36bd d439 da3d bb6d b83e
000002c0: 43e6 03be 5d16 573e 3a4b 953d 2d56 063e
000002d0: ccae f93c 1528 b2be b2c6 a33d fece 15be
000002e0: 4f1c eabe a2b6 0fbf 12e6 83be f1b5 63be
000002f0: 8e76 21bf c885 1dbc 7efe b8be 64ed 373e
00000300: 30d4 08be b97c a8bb 003b ac3e c706 3f3e
00000310: 8015 adbc 153b 993e 20ca adbe b41b a53d
00000320: ab7e 75be 38ee f4bc e4da 903d 2d1e 2c3e
00000330: 47b2 aabe e71b aa3d 216d 86be 2a3e 77bd
00000340: f0ce e83d 6548 623c 3271 a43d 0458 f93d
00000350: 1b40 6ebe 7cd4 f7bc 6e44 e33d 21d1 b7bc
00000360: 6723 853e cb99 14be 214f a23e 47cc a33e
00000370: db50 dfbd b300 9ebc 7bbd 8e3e 5f77 423e
00000380: 536b 1abf d1d0 5fbe 686a 8abd fbaa 02bd
00000390: 0d18 9cbd 724f f83d 2c3b d9bd 8f79 92bd
000003a0: a646 0c3e 23f5 913c 113a 7c3e eddf 0c3e
000003b0: 0127 2abe 74c4 0a3e 1ca7 353d da1d 6dbd
000003c0: 20ee 32be 5c83 aebc eda1 85bd ec89 4bbe
000003d0: 6af9 613e 86bf 2f3d 5f05 2d3d 9bc3 7f3d
000003e0: 80ce aebd b0b0 d0bb cf0e aebc b6a2 583d
000003f0: 5a24 a53e f76c 003e a1fa b83e 1e4a b23e
-0.6748529 -0.18166156 -0.098628715 -0.2326072 0.0270904 -0.27058277 -0.016191732 0.18660572
0.30393806 0.22560853 -0.33205715 0.06544081 0.45726234 0.23525198 0.037254117 0.4350168
-0.32458434 -0.094198726 -0.12905824 -0.72917384 -0.119685024 0.093019314 0.13740294 -0.22356232
-0.010926664 0.06955343 0.33725527 -0.021059638 0.24205673 0.065338545 0.047118492 0.1178489
0.005826778 0.07885322 0.5347635 -0.25353593 -0.34968084 -0.31392413 -0.18810874 -0.27766868
-0.3807857 0.11357526 -0.6129073 -0.6072544 -0.3594897 -0.046689946 0.057470348 -0.076494195
0.011215281 -0.044129953 -0.17565131 -0.8379354 -0.24657008 -0.24437253 -0.115436226 0.0021906693
0.18481898 -0.1415778 -0.084172 -0.042138603 0.01357641 -0.09230975 -0.17033146 0.07400646
0.069875024 0.19470659 -0.11205621 -0.09604244 0.16350318 0.038635537 0.06604908 -0.12139349
-0.29449144 0.11571724 0.17297009 -0.11735405 -0.028316975 0.2419446 -0.11654386 -0.017901512
0.11543092 0.15497331 0.025801245 0.037442453 0.008336375 -0.2200501 -0.0022106222 0.18265319
-0.023752866 0.09974053 -0.19238907 0.501146 0.279449 0.25666487 0.1947058 -0.022738669
-0.15055874 0.026427537 0.04405286 0.2923787 0.33414504 0.16455469 0.04463254 -0.07208123
0.17235267 -0.008257299 -0.059509717 0.15994538 0.67366683 0.43038055 0.008949583 -0.00020503663
0.070375316 -0.1087717 0.13425629 0.24068974 0.010004824 -0.5741442 -0.24121636 0.24559347
-0.7687183 -0.2779239 -0.4187723 -0.7457344 -0.55302185 -0.6740505 0.35439396 -0.20686227
0.020506535 0.29394084 -0.06025324 0.19367939 0.3195794 -0.06575447 -0.0068963487 -0.27984536
-0.26146048 0.22076248 -0.14306912 -0.44417924 -0.26459396 -0.25879458 -0.04973665 0.35596067
0.06507077 0.083921455 0.1291942 0.037714407 0.08270563 -0.026900498 0.02205491 0.19794798
0.26926097 0.457147 0.026971944 0.45451942 0.20412777 0.12904975 0.5190273 0.14346094
-0.109266296 0.8074226 -0.21490973 0.10553492 0.35386923 -0.11595437 0.19734864 -0.17610763
0.053076196 -0.010087803 0.16361351 0.11704472 0.26486337 -0.04452212 0.10655561 0.36021218
-0.12880807 0.21004625 0.07289739 0.13118811 0.030478857 -0.34796205 0.079968825 -0.14629743
-0.45724723 -0.5613805 -0.25761467 -0.22237374 -0.63071525 -0.0096144155 -0.36131662 0.17961651
-0.13362193 -0.005141821 0.33638763 0.18654929 -0.021128416 0.2992789 -0.33943272 0.080619246
-0.23974101 -0.029898748 0.07073 0.16808386 -0.3333914 0.08306103 -0.26255134 -0.06036202
0.11367595 0.0138112055 0.08029403 0.12174991 -0.23266642 -0.030252688 0.11097036 -0.022438588
0.26003572 -0.14511792 0.31700996 0.3199179 -0.10904094 -0.019287443 0.27878937 0.18990849
-0.60320014 -0.21857001 -0.06758577 -0.03190134 -0.07621775 0.12124528 -0.10606989 -0.07152092
0.13698825 0.017817086 0.24631526 0.13757296 -0.16616441 0.13551503 0.04434882 -0.057889797
-0.1747365 -0.021302871 -0.065250255 -0.19876832 0.220678 0.04290726 0.04224145 0.062442403
-0.085354805 -0.006368719 -0.021247296 0.05288955 0.32254297 0.12541567 0.36128715 0.34822172

conv2.0.bias f4 [16]
00000000: c5e6 d53e c912 47be f92c 853e 0186 a83e
00000010: 8a57 a33e 9a06 363f 831f 10bb 998a c33e
00000020: 635a 76be ec81 cdbe 7a31 0dbe 89f4 653c
00000030: 2dc6 7a3e c039 d7bd 3f1d 433e 4de1 dfbe
0.41777626 -0.1944076 0.26010874 0.32914737 0.31902725 0.71103823 -0.0021991439 0.3819168
-0.24057917 -0.40138185 -0.13788405 0.0140353525 0.2448966 -0.10509062 0.19054125 -0.43726578

conv3.0.weight f4 [16, 16, 3, 3]
00000000: c362 29bd 2b4e 0dbe 89cc 49be 07fb 53bc
00000010: d2e0 5b3e 17aa a13d 1503 943d 2d0f 613d
00000020: 1c39 e53d e825 2fbe 474b a23d 61bb 2cbd
00000030: 9869 10be 97fd 8f3d b5d8 8ebe cae5 123d
00000040: 9978 10bd 21b8 193d 70ea 1d3e 05bd 6e3e
00000050: 39b3 183d d793 21bd 44d7 e43d 767e 253d
00000060: 7288 f83d 16bf edbc c700 2fbe a257 b2bd
00000070: 80c9 473e 428f a9bd d6d0 1fbe 7572 0f3b
00000080: 0070 4fbd a0bd 373e c19c df3c c3a5 3e3e
00000090: d30f 553d 11fa 803d 25c4 19bd a435 26be
000000a0: 7888 6e3c 51b3 a13d 6398 39be a6e0 743e
000000b0: 265f 3b3e 50eb 4f3e 9695 21be 9f9d 013e
000000c0: 09d0 cabd 8411 7fbe b969 82be 4447 18bd
000000d0: 722b 62bd 37d5 663e d9b1 79be 7f06 2f3e
000000e0: 9099 633e 4cf0 79bb 54b0 043e c2ab 213b
000000f0: 12ab 943c e1cf a3bd 5529 d13c e1bf 6f3d
00000100: 8b82 203e fb42 113e b0c9 15be 6386 3c3e
00000110: 3792 9fbe 3f94 b03d 7cf0 863e 6472 6c3e
00000120: da2d b0bd 7671 8fbe bc33 bfbd 6415 043e
00000130: 725c a4bd e670 863d 0ef3 89bd 080d 03bc
00000140: acd3 69be 9c96 973c 5a9c d63c f5c5 f2bd
00000150: 4d7c 1fbe 5f44 a1bd 87e2 d3bc 58e4 8ebe
00000160: 7cc4 683e b8f5 95bc 249a 633e dbd8 a8bd
00000170: 41ec 743e 966d 0fbd 24a9 d9bd 8378 9f3d
00000180: a7a7 4c3c ab82 cebd 9961 e4bc c3d0 b4bd
00000190: 3fdc 703c 0642 5abd e5ce 4b3d dc6b e7bd
000001a0: 4e82 d43d e48e 8f3b f40b 64be fd6b 8dbd
000001b0: 6c49 5d3d 56cf 0c3e 60c2 e9bd 52ef 60be
000001c0: 07d6 573e 9860 df3e 9761 663e 7993 bdbd
000001d0: 65c3 463e e02f d63c 5b58 8cbd 8dde 13bc
000001e0: 409f 00be 5f6f 253e 728b 0d3e 967b ecbd
000001f0: 32c2 e43d 8675 f53b c5e6 6e3d 26e6 4ebe
00000200: 7841 04be a9d4 a2bd 354a 85be 84c3 97bc
00000210: 53ec 9d3c 119e 943d 104a abbc 1d47 023e
00000220: 81af 97bd 1524 cb3e c99f 883e 8db8 463e
00000230: ae05 b53e 022d c33c 1d3e 5f3c 577c b5bc
00000240: bd57 b0bd cff9 fa3c 4736 e13e e64b a53e
00000250: 93da 2abe 3312 643e fae0 8cbd 1fd5 29bd
00000260: 53e3 89be 9819 403e 0c90 e23b a3c6 003d
00000270: 1f9e adbe 42a6 5bbb 781e 99be 9a29 a2bd
00000280: 6a53 483d 305c 90bd 36b6 ff3d 7a3d ba3c
00000290: 4aca 083e 4ddb abbb dd77 5d3e 52f0 103d
000002a0: 1ee8 dd3d bfea 883e 5c0d 313c 5b6b 4b3d
000002b0: 0b7d 053e 632a ccba 0ae3 bbbd de1e 673d
000002c0: 5ef8 efbd f12e c73b f499 c13c 679e a03c
000002d0: 2be5 023e 927c ee3c eb13 f83d 615a e53c
000002e0: 962d 71be fe10 373d e7fe 3abe 4dbd 34be
000002f0: ac82 273c 3fa1 0f3e bcfc babd 116c 5a3c
00000300: 2321 093e 3cc6 8e3d a9d9 6c3e bf16 cbbc
00000310: 5c6d 363e 388a 293e ee8b 6e3e ad01 c53e
00000320: f0ca 2dbd 7c60 8c3d ea33 453e 0a5e ac3e
00000330: 1231 c13e 3427 9d3d 310d 923d a925 273e
00000340: bc09 583e 4283 433d 5b60 0c3e 77eb 763d
00000350: 19df 14be 0411 563e e588 a1bc 3935 223e
00000360: bdb0 183c f090 463e 4b95 23be 8fd8 d83d
00000370: 75bb 92bd ff93 99bd caca 77bd 777c c93c
00000380: 8e78 ac3e 34b1 2fbe bc67 383e eca9 a83e
00000390: bb24 c8bd 5c50 8bbe 126b 35be 773c 14be
000003a0: 2adc 123d 1cc5 43bd a44b 37be dd1e 1abe
000003b0: e820 9e3c 32e4 24be 2c4e 5cbe 4219 b6be
000003c0: 1bc5 1cbd e97f 73be 32d0 1fbe ed39 8f3e
000003d0: 222f 00be 78b9 34bd 1705 fcbd adc1 b4bd
000003e0: db4e 80bc f63a 7bbe f18e 22bd 0fd5 da3d
000003f0: 925f 773e 4d11 56be 2dff 503e bf0d b23d
-0.041353952 -0.1379935 -0.1970693 -0.012938268 0.21472481 0.0789377 0.0722715 0.054946113
0.111925334 -0.17104304 0.07924514 -0.042170886 -0.14102781 0.0703079 -0.2789971 0.035863675
-0.03527126 0.037529115 0.15421462 0.23314293 0.037280295 -0.03944763 0.11173871 0.040403806
0.121354 -0.029021781 -0.1709014 -0.08708121 0.1951046 -0.082792774 -0.15607008 0.002188829
-0.05064392 0.1794343 0.027296426 0.1861792 0.052017044 0.062976964 -0.037540574 -0.162314
0.014558904 0.0789553 -0.18124537 0.23913822 0.18298015 0.20304608 -0.15779719 0.12657784
-0.09902961 -0.24909025 -0.25471285 -0.03717734 -0.055217214 0.22542273 -0.2438425 0.17092322
0.22226548 -0.0038137613 0.12957889 0.0024669026 0.018147979 -0.07998634 0.025532404 0.0585326
0.15674798 0.14185707 -0.14627719 0.1841064 -0.3116624 0.08622026 0.2635535 0.23090512
-0.086024955 -0.2801625 -0.093360394 0.12898785 -0.08025445 0.065645024 -0.06735812 -0.007998712
-0.22834653 0.018504433 0.026197601 -0.118541636 -0.1557476 -0.07874369 -0.025864853 -0.27908587
0.22731203 -0.018305644 0.22226769 -0.08244487 0.23918249 -0.03501662 -0.10627964 0.07786658
0.012491143 -0.10083517 -0.02787857 -0.08828881 0.014700948 -0.05328562 0.049757857 -0.112998694
0.10376416 0.0043810476 -0.22270185 -0.06905363 0.0540251 0.13750967 -0.11414027 -0.21966293
0.21077739 0.43628383 0.22498165 -0.09256644 0.19410475 0.026145875 -0.0685279 -0.009025228
-0.12560749 0.16155766 0.13822725 -0.1154701 0.11169852 0.0074908165 0.058325548 -0.20204982
-0.129156 -0.07950718 -0.26033178 -0.018525846 0.019277727 0.07256711 -0.02090934 0.1272244
-0.074065216 0.39675966 0.26684406 0.19406338 0.35355896 0.023825172 0.013625649 -0.022154016
-0.08610485 0.030636696 0.43986723 0.32284468 -0.16684942 0.22272567 -0.068788484 -0.041463014
-0.26931247 0.18759763 0.0069141444 0.031439435 -0.339097 -0.0033515845 -0.29906058 -0.07918091
0.048907675 -0.07048833 0.12485926 0.022734392 0.13358417 -0.0052446485 0.21627755 0.035385437
0.108352885 0.26741597 0.010806408 0.04966293 0.13035981 -0.0015576597 -0.09174164 0.05642592
-0.11717294 0.006078594 0.02363298 0.019606782 0.12782733 0.029112134 0.12113174 0.027997198
-0.23552546 0.04469394 -0.182613 -0.17650338 0.010224026 0.14026354 -0.091302365 0.013331429
0.13391547 0.06971404 0.23129906 -0.02479112 0.17815155 0.16556633 0.23295566 0.3847784
-0.042429864 0.068543404 0.19258085 0.33665496 0.3773275 0.07673493 0.07131422 0.1632296
0.21097463 0.0477326 0.13708632 0.06028315 -0.1453823 0.20904928 -0.019718597 0.15840615
0.009319481 0.19391227 -0.1597492 0.1058818 -0.07164661 -0.07498931 -0.06049613 0.024595482
0.33685726 -0.17157441 0.18008322 0.3294214 -0.09772631 -0.27209747 -0.17716625 -0.1447619
0.035854496 -0.0477954 -0.17899948 -0.15050836 0.0193028 -0.16102675 -0.21514195 -0.35566145
-0.038273912 -0.23779263 -0.15606764 0.2797388 -0.1251798 -0.04412219 -0.12305658 -0.08826003
-0.015662601 -0.2453421 -0.0396871 0.10685169 0.24157551 -0.20905037 0.20409842 0.08694028

conv3.0.bias f4 [16]
00000000: 8017 0fbe 2dda 9e3d 1947 083d a2ef 603e
00000010: 5900 28bd 9cd3 a8bd e12a 9ebe e087 70be
00000020: 0e99 11bf c0c8 1b3c b4b3 8cbd 2aac 373f
00000030: cf45 1dbf 271e ef3e 9f20 8c3e b116 fd3e
-0.13973808 0.077564575 0.03327093 0.21966413 -0.041015957 -0.08243486 -0.3089209 -0.23489332
-0.5687417 0.009508312 -0.06870213 0.71747077 -0.61434644 0.46702692 0.27368638 0.49431375

dense.0.weight f4 [32, 256]
00000000: 8073 21bc 59b6 243d b612 8abc 3365 80bc
00000010: d951 a5bc 1061 0d3d cebc 55bd e292 f8bc
00000020: da6d 27bd a611 2bbd a74b 823b 6481 54bb
00000030: cf09 e43c 8a63 18bd c9bd 3f3b 25e9 c83c
00000040: 6546 b1bb 83f4 d43d a5e0 ad3a ab79 a23d
00000050: 200c 313c 40b8 29bd 4392 05bc 45a4 033e
00000060: c6d1 a6ba 8145 043d 6d45 893d 3760 0e3e
00000070: fa27 5fbc 2542 36bc cd3e 133e 5c18 073e
00000080: 76cb 073d cbe0 cd3d 076e 3a3d e639 80bd
00000090: 4832 c4bc f037 763d 3642 28bd d3e7 7abd
000000a0: dad4 11bd 2373 3d3d 2c3c 193c 9fe3 47bd
000000b0: 5eb2 273d b12d a13d 1ce6 463d 02bb efbc
000000c0: 83e0 243c a8f8 4c3c f7fd 9fbd b733 7ebc
000000d0: c5b1 3abb 2b0d 65bd 3635 81bd 26c9 443c
000000e0: 6903 bcbd 5614 ccbd fd16 47bc 9289 3ebd
000000f0: 1bc0 a4bd 0256 07bc 6319 94bd d311 52bd
00000100: 3922 1c3d aa3e c23c 9506 123b cefa 7e3d
00000110: a256 fabc 9195 6e3d 9281 ce3d 7522 303d
00000120: 4a27 933b 6dd8 5d3d e663 583d 5443 88bb
00000130: a92b 9ebd 6ab2 2fbc a744 cfbb dd1a 7fbd
00000140: 0c3b 603d 9e6d c9bc a838 303a 52ca b53c
00000150: e5e9 af3d 3a25 b5bc 8e24 91bc 4629 bb3c
00000160: 15a1 6b3b 7f76 e63c 7715 b13d 03f4 8b3d
00000170: 03da c53d 1924 833d 300e 10bd 57be 2f3d
00000180: 825b 46bc 6d49 54bd c3a6 363d 003c 7e3d
00000190: 9289 073d d911 22bd e4b2 d7bc e003 433d
000001a0: 2635 8b3d c245 4b3d e7ed 8b3b f327 8ebb
000001b0: 43ec de3d b28a ea3d fcd5 783d 2e3b ff3c
000001c0: d1b3 2e3d 6ff7 d33c 3db8 303d 2e1f 47bc
000001d0: 807e 2e3d cf40 85b9 5c4c 483b 253f f4bc
000001e0: 5ad3 8d3d 8e56 f63c fd56 9b3c b15b 1bbd
000001f0: 9f2c ba3c 0665 a1bc 3228 25bd 914b 20bd
00000200: 4d01 41bd 2d8b 863d 5057 17bd d573 bd3b
00000210: bc81 4e3d 1f17 fa3c 863c 53bc 68bd 8fbb
00000220: 6dc1 f53c ed54 46bd a93f ebbb 7500 f73c
00000230: 02aa aaba df20 03bc 33f2 3dbd 69e0 723d
00000240: 8423 e5bc 417c c53d ab24 073e f36b e43d
00000250: 750e 333d 0285 7b3c 1006 313d d99c 6a3d
00000260: a60e a83c 874c 943d 9d22 b03d d73b 223c
00000270: 9bf4 133d 6187 243d d70c 82bd 80b6 6c3d
00000280: 34d4 ccbc f4f9 58bc a50e c63c f2a8 643c
00000290: 54be 14bc ef66 213c dfcd e73c fa2b 293b
000002a0: 0645 31bd 4c7a 3f3d 2269 9f3d ec73 2f3d
000002b0: 26a1 513d e811 8a3d 42c0 d43d 330b ee3c
000002c0: 2682 7abd 6e1e e13c d362 0ebd 79a8 5bbd
000002d0: a575 b1bb 0c17 b9bb 7c38 7ebc 8f26 293c
000002e0: 8d05 e9bd 717a 8d3c b40c 003e 4f1e 03be
000002f0: 34d2 433c 4042 b43d aca7 d73d d393 43bd
00000300: e470 d13b 98ca 4a3d b7d2 b03d 91ea 133c
00000310: cf5e d53c 189d a3bd fa92 163c 94da 513d
00000320: 1073 4e3d da0e e23c 05c7 91bc 5ac3 d2bc
00000330: 7066 27bd b652 2f3d feb1 503b 678a c53c
00000340: 33ba d43b 8bbe 493d 49ef 453d 5b5b 48bc
00000350: b284 573c f2c5 8dbd dd78 eebb 2ca2 13bd
00000360: 886c 573b 76fc 2c3d a46d 37bd 6f2f 17bc
00000370: be5b d93c 358c 00be cd5c 12be f9b6 e43c
00000380: dea5 8dbd c84b a13c 1643 01bd 7df3 41bd
00000390: 5d53 cebb 05ef 04bc 16c1 6dbc 26d6 83bc
000003a0: 979a 903d 8015 21bd f8de d0bd 11e2 3cbd
000003b0: 8e2a 0ebd 650c 26bd b0ed c9bd 196e c2bb
000003c0: 2800 dabc 8365 9b3d f0f4 8b3d f954 59bd
000003d0: e3a5 01bd 9321 05bd 89f3 eabc 096f c1bd
000003e0: b053 a9bd c629 5bbd 57a5 37be 4ce0 c1bd
000003f0: 607c b8bd 5cdc 90bd ad9f 57bd 690a fbbc
-0.0098541975 0.040212963 -0.016854625 -0.015673256 -0.02018063 0.034516394 -0.05218201 -0.030343477
-0.040876247 -0.041764878 0.0039763036 -0.0032425756 0.027836708 -0.037204303 0.0029257408 0.024525234
-0.005410003 0.103981994 0.0013265802 0.079333626 0.0108061135 -0.04143548 -0.008152547 0.12855633
-0.0012727312 0.032292847 0.06702695 0.1390389 -0.013620371 -0.0111241685 0.14379425 0.13192886
0.03315302 0.100526415 0.045515087 -0.06261043 -0.023949757 0.06011194 -0.04107877 -0.06125624
-0.03560338 0.04625238 0.009352725 -0.04880106 0.04094159 0.07870043 0.048559293 -0.029263977
0.010063293 0.012510456 -0.07812112 -0.0155152595 -0.0028487307 -0.05592076 -0.06308977 0.012010848
-0.09180338 -0.09964816 -0.012151477 -0.046517916 -0.08044454 -0.008260252 -0.07231405 -0.05128653
0.038118575 0.023711521 0.0022281755 0.062250905 -0.030558888 0.058248106 0.10083307 0.04300161
0.0044907676 0.054161478 0.052829646 -0.0041584168 -0.07723171 -0.01072369 -0.0063253227 -0.06228148
0.05474381 -0.024588402 0.00067223096 0.0221912 0.08589534 -0.022112478 -0.017717626 0.02284683
0.0035954167 0.028132675 0.08646672 0.06833651 0.09660723 0.064033695 -0.03516978 0.04290613
-0.012106778 -0.051827837 0.04459263 0.06206894 0.03309018 -0.039567802 -0.026330419 0.047611117
0.06797247 0.049627073 0.0042703035 -0.0043382584 0.10884907 0.11452235 0.060750946 0.031156149
0.042651955 0.025874821 0.043144453 -0.01215343 0.04260111 -0.00025416023 0.0030563092 -0.029815266
0.06925078 0.03007057 0.018962378 -0.03792924 0.022726355 -0.019701492 -0.040321536 -0.039134566
-0.04712038 0.065695144 -0.036948502 0.0057816305 0.050416693 0.030528603 -0.012892848 -0.0043865927
0.02999946 -0.048420835 -0.0071792197 0.030151585 -0.0013020637 -0.008003443 -0.046373557 0.059296045
-0.027971037 0.0964284 0.13197581 0.11153402 0.04371496 0.015351536 0.043218672 0.057278488
0.020514797 0.07241159 0.08600352 0.009901962 0.036121946 0.04016817 -0.06350105 0.057791233
-0.02500353 -0.013243187 0.024176905 0.013956295 -0.009078581 0.009851201 0.02829641 0.0025813566
-0.043278717 0.04674749 0.07783724 0.04283516 0.051179074 0.067416966 0.10388233 0.029058075
-0.061159275 0.02748033 -0.034762215 -0.053627465 -0.0054156356 -0.0056484994 -0.015516397 0.0103241345
-0.11378012 0.017270299 0.12504846 -0.1280453 0.011951972 0.08801699 0.10530028 -0.047748398
0.0063916314 0.049509615 0.08633941 0.009028093 0.026046185 -0.07988948 0.009190315 0.051233843
0.0504027 0.027594972 -0.017795095 -0.025727917 -0.040869176 0.04280349 0.0031844373 0.024113847
0.0064919232 0.04925398 0.048323903 -0.012228812 0.013154196 -0.06922521 -0.0072775916 -0.03604333
0.0032871086 0.042232953 -0.044782296 -0.009227618 0.026533004 -0.12553485 -0.14293213 0.02791928
-0.06916402 0.019689456 -0.03155812 -0.04735135 -0.006296559 -0.008113627 -0.014511367 -0.016093325
0.07060736 -0.039327145 -0.10198778 -0.04611403 -0.034708552 -0.040539164 -0.098597884 -0.005933535
-0.026611403 0.07587721 0.068338275 -0.053059552 -0.031652343 -0.032502722 -0.02868058 -0.094450064
-0.08267915 -0.053506635 -0.17934166 -0.09466609 -0.09008098 -0.0707328 -0.052642513 -0.030644612

dense.0.bias f4 [32]
00000000: 2666 d0be 29c0 1abd b24c 53bd 6c6a 90bd
00000010: 95f8 bc3b 789e a13e 25cc 0300 25b2 b43c
00000020: 654d 4c3e 31b8 8c3e bafd 69bc 5926 d03b
00000030: 4ebd 953c 8911 393d 8caf ae3c 71c4 98bd
00000040: 4d8e 22be 8792 453d ea4a c23d d781 ea3c
00000050: b4a5 e23e 7ac8 8fbe b4c6 b33d 2a0c 4d3e
00000060: 49d3 a93c a16b f23e 3f51 d5bc 3f4d 433d
00000070: dd66 afb7 8409 f93e 487f ac3e 21fd d3bd
-0.40702933 -0.037780914 -0.051586814 -0.07051548 0.005766938 0.31566215 3.4874e-40 0.022057602
0.19951399 0.27484277 -0.0142816845 0.0063522276 0.018278744 0.04518274 0.021323942 -0.07459343
-0.15874596 0.048235442 0.09486945 0.028626366 0.44267046 -0.2808264 0.08778134 0.20024171
0.020730631 0.4734774 -0.026039718 0.04768109 -2.0909525e-05 0.48640072 0.33690858 -0.10351015

dense.2.weight f4 [10, 32]
00000000: a109 a0bd 58fb bdbe d297 a93d dd5a bdbe
00000010: d80f 58bd 60be 4ebd 53f3 ddb9 7e0f 263f
00000020: c465 7f3d 85a5 0fbd 20f8 b6bd 16b2 e8bd
00000030: 6946 4cbe 9f16 46be 0b99 6fbe 67a4 023f
00000040: e1bf babe 25dd ce3e 7523 cd3e f0ca cd3e
00000050: c80f 9d3c 8be9 ce3e a5b6 02bf 1de9 3bbd
00000060: 164c 11bf 58ce 273e 6a05 3d3e 8e20 4a3d
00000070: 2996 7ab9 9de9 023e fe1a 673e 1cfe 813c
00000080: f837 723d 49cf 40be c069 4c3e 49b4 713d
00000090: a52c d5be cdaa 66be 2c2f 8537 351a 19bf
000000a0: 3782 cebd 9202 0dbe 45b0 b0bd 87b8 80be
000000b0: eed9 c4bd 09e9 adbe c6c3 ad3e 2493 6fbb
000000c0: 9bb5 6cbe 6a35 0dbe 2001 a8be 0f75 75bd
000000d0: ca41 92bd c05d adbe 0e07 6bbe b1ca 3d3d
000000e0: 170a 79be 1377 723d dc7b 25bd 88d6 673d
000000f0: fcc4 873b f8e1 913d 1fca 743e d073 0c3f
00000100: 6c29 aebc 2910 20be 0e03 8ebd b5f4 903e
00000110: cd08 673e e21d 9a3d 2b6a 2cad 9b4b 203f
00000120: c678 1a3d bff4 14bf f6a0 eabe 55f4 863e
00000130: ad66 ca3e e5f3 1bbf 873a a9be 18da 17be
00000140: 24aa aabe 6817 073f febb c53e 48cd abbe
00000150: 7ef1 dfbd 3e50 1bbf 861b 9c3e 2a41 8dbb
00000160: a958 17be 6777 f43d eef6 513f 7b16 a33d
00000170: 2694 aeb8 8e66 fe3d a804 8c3e 76f8 233e
00000180: 2945 543d 32cd 9a3e 9798 48bd b8b2 fb3e
00000190: 315a f23e 98f3 663d ff77 483a 97b3 b83e
000001a0: 2946 8abd 6ded 19bc a438 1f3f 8e6b 41bd
000001b0: a744 1fbd f3ac 933e 0d2e 11bf 9ac1 9abe
000001c0: f637 143f 6352 c33e a5eb babe 072a 0bbf
000001d0: 2269 9fbc 1375 1d3e 2a7e c3be d960 3ebb
000001e0: e100 02bf 1e9d 403d 895b 60bd efca 1e3d
000001f0: be76 9334 fbe1 7d3b 79ba 4f3e 6976 56be
00000200: e7cd d5bd e5ad 2b3d d04f b0bd ac64 c5be
00000210: a386 c1be 6b81 903c c00a 83b2 3667 f3be
00000220: 2240 363c 881e c63e 37b7 0b3f 5724 69bb
00000230: c9ca cdbc 778e 0cbd b6ec ba3e 0565 983d
00000240: d7af d7bd a8bc 3ebf a6cf 0abf 9329 32be
00000250: 1160 913d 7075 4abf 4f9d 3cbe 4613 0b3d
00000260: d16c 27bf 915f 4b3d d840 3abe 5535 ed3d
00000270: 4d93 2d38 2a08 623d b148 0c3b 7130 5abe
00000280: 6632 fb3c 566b 203e a4d4 81bd 918f 9ebe
00000290: 08b5 b8be 20b6 e43d 423b 91b7 8f59 dc3e
000002a0: 5fc0 89bd 5cf5 1cbe 7e93 03be 9735 803e
000002b0: 0081 cabd d42f 013e 6d92 9c3e 3586 fd3e
000002c0: 2982 fdbc 9e49 6ebe 1815 0dbe fd22 8c3e
000002d0: a886 1bbd 3248 f93e efae 3d3e 9e05 4a3c
000002e0: 9cc2 1e3f f96b f53c 671e a3be a5a7 193d
000002f0: 741d 323a 184f 4e3c 0dae 633e 2125 30be
00000300: 6c4e d83d b24c 6d3e 5b48 acbd f61b 1abf
00000310: 8020 d5be f363 cbbc ae67 ffac a454 e9be
00000320: 234c 2fbd d264 57be 7b89 b1bd 0203 d7be
00000330: 7968 4ebd ecc4 2d3d a552 e9bd be0a 31bf
00000340: 6c8b 85be 4e35 0c3f 2ae1 b73e e19b 113e
00000350: 36bc 13bd 84bf 05bf 6539 84be a1bd c4bd
00000360: 0515 04bf 414d 623d 128c babd 7fe2 163e
00000370: d175 42ba 7ca0 e8bd 64db 643e 6188 afbd
00000380: 56a4 19be 1127 91bc 4cad 593d 1b9d 1f3c
00000390: 5ea1 12bd 3475 e83d 2d24 b233 9172 07bf
000003a0: b4c7 69bd b290 80be 18c9 eebd b4b9 883d
000003b0: d599 313e 5f89 15bf 8cce 093e 79e6 19bf
000003c0: 70dd 38be 576f 1ebf f9b3 e83e 0f3a ebbd
000003d0: 3087 68bd ebcb cebe f1eb 8fbe 201a 44bc
000003e0: 6473 04be 0aea ed3c 642e a4bd 18e1 b83d
000003f0: f722 8bb7 6391 2bbe 5579 683d 8213 49be
-0.078143366 -0.37105823 0.082809106 -0.36983386 -0.052749485 -0.050474524 -0.00042333695 0.6486739
0.06235291 -0.03506996 -0.08934045 -0.11362092 -0.19948734 -0.19344567 -0.23398225 0.5103211
-0.36474517 0.40403095 0.40066114 0.40193892 0.019172564 0.40412554 -0.51059943 -0.04587661
-0.5675672 0.16387308 0.18459097 0.049347453 -0.00023897797 0.12784429 0.2256889 0.01586824
0.059135407 -0.18829073 0.19962215 0.059009824 -0.41635624 -0.22526093 1.5876802e-05 -0.59805614
-0.1008343 -0.13770512 -0.08627371 -0.25140783 -0.09611879 -0.33966854 0.33938426 -0.0036556209
-0.23116152 -0.13789907 -0.32813358 -0.05992609 -0.071414545 -0.33860588 -0.2295191 0.04633588
-0.24320255 0.05919559 -0.040401325 0.056601077 0.0041433554 0.07123178 0.23905228 0.54864216
-0.021259986 -0.15631165 -0.069341764 0.28311697 0.22561951 0.07525231 -9.800642e-12 0.62615365
0.037712835 -0.5818595 -0.45825928 0.26358286 0.3953146 -0.6091903 -0.33052465 -0.1482929
-0.33332932 0.5277009 0.3861999 -0.33555055 -0.10934733 -0.60669315 0.3048975 -0.0043107467
-0.14779915 0.11936837 0.8201741 0.07963272 -8.324561e-05 0.124219045 0.27347302 0.16012749
0.05182377 0.30234677 -0.048973646 0.4915979 0.47334436 0.056384653 0.00076472753 0.36074516
-0.06751663 -0.009394986 0.621958 -0.047221713 -0.03888383 0.28842887 -0.5671089 -0.3022583
0.5789789 0.38148794 -0.36507908 -0.54361004 -0.01945931 0.15376692 -0.38182193 -0.0029049425
-0.5078259 0.04702484 -0.054774795 0.03876775 2.746728e-07 0.0038739431 0.20285977 -0.20943607
-0.104396634 0.041913886 -0.08608973 -0.3855337 -0.37798032 0.017639836 -1.5255296e-08 -0.4753968
0.011123689 0.38695168 0.5457644 -0.0035574639 -0.02512111 -0.034315553 0.3650872 0.07441143
-0.10531586 -0.74506617 -0.54223096 -0.17398672 0.07098401 -0.79085445 -0.18419383 0.033953927
-0.65400416 0.049651686 -0.18188798 0.11582438 4.13836e-05 0.055183567 0.0021405632 -0.21307541
0.03066368 0.15665945 -0.06339386 -0.30968907 -0.36075616 0.1116755 -1.7312941e-05 0.43037078
-0.06726145 -0.15327972 -0.12849233 0.25040886 -0.09887886 0.12615901 0.30580464 0.49516454
-0.030945854 -0.2327027 -0.13777578 0.27370444 -0.037970215 0.48687893 0.18523763 0.012330441
0.620157 0.029958712 -0.31859133 0.037513394 0.000679455 0.0125921 0.22234364 -0.17201664
0.10561833 0.23173788 -0.08412238 -0.60198915 -0.41626358 -0.024827933 -7.2590467e-12 -0.45572388
-0.04279722 -0.21034554 -0.086688004 -0.41994482 -0.0503926 0.042424127 -0.11392716 -0.69157016
-0.26082933 0.54768836 0.35913974 0.1421962 -0.036068164 -0.52245355 -0.2582504 -0.09606481
-0.51594573 0.055249456 -0.091087475 0.14734839 -0.00074180687 -0.11358735 0.22349316 -0.08570934
-0.15004095 -0.017718824 0.053143784 0.009742047 -0.035798423 0.1135048 8.295351e-08 -0.5290919
-0.057075217 -0.25110394 -0.11659449 0.06676045 0.17343839 -0.58412737 0.13457698 -0.601173
-0.18053222 -0.6188864 0.45449808 -0.11485683 -0.05676955 -0.40389952 -0.28109697 -0.011969119
-0.12934643 0.029042263 -0.08016661 0.09027308 -1.6586373e-05 -0.1675468 0.056756336 -0.19636348

dense.2.bias f4 [10]
00000000: 430c e7be a4e3 e3be 9534 fc3e 6a91 d6be
00000010: 11e0 cf3f 66ad b4bf d05b bc3c 7853 97bd
00000020: 29dc 1e3f ca97 a0bd
-0.45126542 -0.44509614 0.49258867 -0.41907817 1.6240255 -1.4115417 0.022992998 -0.07388967
0.6205469 -0.078414515
