ResidualLoss/CNN-Train/CIFAR_11_6/false_epoch-1550.pt (torch, 58431 bytes, 10 tensors)

conv1.0.weight f4 [16, 3, 3, 3]
00000000: 94db 94be 3eb9 9abe 438f 6abe 513b 8cbe
00000010: 468e a0be d2bf 86be 14dd 4bbe 4db8 56be
00000020: 29f3 16be 522d b0be e439 b8be eac0 99be
00000030: 8776 acbe b246 c7be 0a1b babe 1860 8bbe
00000040: 86e9 9abe a0ed 8abe faf3 79be 484d 8abe
00000050: b4a4 67be 5836 74be ee82 93be 9b0c 88be
00000060: 9610 46be 4d6e 57be 434d 33be 0c25 903e
00000070: e7a8 b23e c37d 923e 5c15 be3e 35a5 b83e
00000080: 7190 643e c0f5 613e db81 173e 393f 7bbb
00000090: b1ae 8a3e f421 ab3e 20cb 943e 0a5f b03e
000000a0: 559b aa3e ad42 603e 4dbe 3c3e 6596 f33d
000000b0: c05d cdbb a01f 47be 800b 34be 98f1 65be
000000c0: 975d 16be 65e7 4bbe 32a0 98be 7f6a 91be
000000d0: 3eaa c5be 793e febe 3508 cabe 3274 45be
000000e0: 096a 4a3e 9db0 a3be c892 0a3d 0908 e63e
000000f0: 6a3b 20bd 3f17 8e3e e835 fa3e e9b6 adbe
00000100: 2397 23be c3db 713e 3f45 8cbe 2285 5c3d
00000110: 2c48 f63e 3942 63bc fcf7 923e fa20 033f
00000120: 58c4 0dbf b9fc bdbe 9216 cfbb 5d76 f1be
00000130: fc73 19be de25 613e 47ae 2cbe 8417 d93d
00000140: c165 813e fcfd 86be 900b 0a3e cd7f fa3e
00000150: 5866 bfbe 38ed 6b3d 90fd f43e 7b30 20be
00000160: 0c86 493e 7b39 c13e 8849 e2be e3ed 8dbd
00000170: 36cb 983e c833 0ebf 8f57 28be ed8b 7c3e
00000180: c740 acbe 98b0 03bd 0ea0 193e 72b9 c9be
00000190: ae48 08bd 7d59 a13e 1777 f0be a9f6 a0bd
000001a0: 772e 913e 8c9a 6cbe a859 913d 268e 513e
000001b0: 2101 8fbe 2b9f a4be db7a 8cbe e1a7 8bbe
000001c0: db41 b1be 4910 9cbe ef87 4dbe 47a0 76be
000001d0: 1449 3abe bb62 a1be bd22 b9be 15b2 a5be
000001e0: b92b a3be d984 cdbe 367e c5be d02e 82be
000001f0: 4f48 a1be df4d 93be c1f4 59be 8f3a 84be
00000200: af3d 6dbe ee37 60be 54c6 96be 67d4 8bbe
00000210: 2c86 31be 0b63 5fbe a1da 36be 8814 98be
00000220: 64c0 b6be a861 2dbe 14a5 2abe 23bf 67be
00000230: 91f1 a9bd b436 a03d e39e 333e 6316 673e
00000240: 8fa3 a3be c233 bfbe e7f4 5cbe 6120 59be
00000250: 5441 6ebe 59ed ebbd d61f 3a3d 1061 093e
00000260: efbc 3c3e e994 d53b 3425 d9bd 4189 743d
00000270: 1cae 7c3d 9543 143d 1439 183e 3630 9c3e
00000280: b373 bb3e f4be ca3e 0d4b 59be c126 47be
00000290: de42 08be 9ffb 96be 91c4 a6be 86a8 9cbe
000002a0: 8774 abbe 0f0b c6be fd58 b5be 4bdc 323e
000002b0: 4319 283e d41c 4d3e 3894 ee3d 098e 9b3d
000002c0: b9c2 4d3d edc9 9d3d 321e 7a3b 0207 183c
000002d0: 1002 2a3e 8a0a 293e 55c0 3b3e 22f3 103e
000002e0: 658c b03d a837 a13d b4bb fa3d c1cf 513d
000002f0: 5837 133d a762 50bc 2583 2d3e 3bac ce3e
00000300: 31fd dbbd e9dd 013e da55 df3e 1a32 603d
00000310: 503c 923e 3820 d53e 6eb6 9bbe 720a 18be
00000320: a05d c43d c1f8 c9be 4611 44be 4d93 ea3d
00000330: 8323 6cbe 77ab 02bd 68d9 de3d 5e92 abbe
00000340: 0df8 60be 2d90 efbb 2e7a cbbe 6ec1 77be
00000350: 0402 913c 721a 69be e2a0 97bd 300f b03c
00000360: a98e 8bbe a617 91be bf4f 7cbe 449d 95be
00000370: c32f acbe ec88 9fbe d844 72be 6640 87be
00000380: ced6 63be f5bf 91be d0b2 99be f7b2 8bbe
00000390: 3eea 9bbe 59f6 b6be 059e b5be 72c0 7dbe
000003a0: 5a29 97be 0997 91be 2bd0 46be b2a7 57be
000003b0: 121c 44be bf40 5abe 65e9 87be b824 83be
000003c0: 2f9e 32be 056b 5cbe b01c 44be 2578 80be
000003d0: 1be6 78be feb5 21be 1734 8cbe 4f2e 94be
000003e0: 4426 37be 2940 43be 2d16 48be fbd7 b9bd
000003f0: fded 3dbe 4256 2ebe ba7f b7bd c405 50be
-0.29073775 -0.30219454 -0.22906213 -0.27389005 -0.31358546 -0.26318222 -0.19908553 -0.20968743
-0.14741196 -0.34409577 -0.35981667 -0.30029994 -0.3368418 -0.38921124 -0.36348754 -0.2722175
-0.3025629 -0.27134418 -0.24409476 -0.27012086 -0.22621423 -0.23848855 -0.2881083 -0.26572117
-0.19342265 -0.2103817 -0.17509942 0.28153265 0.34894487 0.28611574 0.3712567 0.36063543
0.22320725 0.22066402 0.1479563 -0.0038337244 0.27086404 0.33424342 0.29061222 0.3444751
0.33321634 0.21900435 0.18431969 0.1189392 -0.0062672794 -0.19445658 -0.17582512 -0.22455442
-0.14684139 -0.19912489 -0.2980972 -0.28401563 -0.38606447 -0.49657038 -0.39459386 -0.19282606
0.19767012 -0.31970683 0.033831388 0.44928005 -0.03911916 0.2775211 0.48869252 -0.33928612
-0.15975623 0.23618989 -0.2739658 0.053837903 0.48101938 -0.013870769 0.28704822 0.51222193
-0.5537772 -0.37106875 -0.0063198293 -0.47160617 -0.14985651 0.21987101 -0.16863357 0.106001884
0.25272945 -0.2636565 0.13480973 0.4892563 -0.3738277 0.057599276 0.47849703 -0.15643494
0.19680041 0.37739167 -0.44196725 -0.06930139 0.29842538 -0.5554776 -0.16439651 0.24662752
-0.3364317 -0.032150835 0.15002462 -0.39399296 -0.033272438 0.31513587 -0.46965858 -0.07859547
0.28355762 -0.2310583 0.07097179 0.20464382 -0.2793055 -0.32152686 -0.2743748 -0.2727652
-0.34620556 -0.30481175 -0.20071386 -0.24084578 -0.1819194 -0.31520638 -0.36159316 -0.32362428
-0.31869295 -0.40140417 -0.38572854 -0.2542634 -0.3150048 -0.28770348 -0.21284772 -0.25825927
-0.23168062 -0.21896335 -0.29448187 -0.27310488 -0.17336339 -0.21815126 -0.17856838 -0.29703164
-0.35693657 -0.16931784 -0.16664535 -0.22631507 -0.08298028 0.07822934 0.17541079 0.22567134
-0.31960723 -0.37344176 -0.21577798 -0.21203758 -0.23267108 -0.1151988 0.045440517 0.13415933
0.18431447 0.0065179956 -0.10602799 0.059701208 0.06168948 0.036197264 0.14865524 0.30505532
0.3661171 0.3959881 -0.21220036 -0.19448377 -0.13306758 -0.29488847 -0.32571843 -0.30597323
-0.3348734 -0.38680312 -0.35419455 0.17466848 0.16415887 0.20030528 0.11649364 0.075954504
0.05023453 0.0770453 0.003816497 0.009279015 0.1660235 0.16507927 0.18335088 0.14155248
0.08620528 0.07871944 0.12242833 0.05122352 0.03594145 -0.012718833 0.16944559 0.40365776
-0.10741652 0.12682308 0.43620187 0.05473528 0.2856164 0.41626143 -0.3041262 -0.14847735
0.0958817 -0.39447597 -0.19147214 0.11453877 -0.23060422 -0.031901803 0.10881311 -0.33510107
-0.21969624 -0.0073108883 -0.39741653 -0.24194881 0.017701156 -0.22763994 -0.07403733 0.021491617
-0.2725728 -0.28338355 -0.24639796 -0.29221547 -0.3363019 -0.3115915 -0.23659074 -0.2641632
-0.2224991 -0.28466764 -0.30019236 -0.27284977 -0.3045215 -0.35734823 -0.35472122 -0.24780443
-0.29523736 -0.28435543 -0.19415347 -0.21060064 -0.19151333 -0.21313761 -0.26545253 -0.25613952
-0.17443155 -0.215252 -0.19151568 -0.25091663 -0.24306528 -0.15792081 -0.2738349 -0.2894158
-0.17885691 -0.19067444 -0.1953971 -0.09074398 -0.18547817 -0.17025092 -0.08959909 -0.203147

conv1.0.bias f4 [16]
00000000: dedc 313e 6503 9d3e 17fe 073f a6de ca3e
00000010: 72ce 4a3e 6d1a ca3e 7c79 703e aff2 943e
00000020: 1475 143e 6595 9f3e a056 0d3f 17d7 293e
00000030: c103 963e c8fc 203e ad1b 353e eb64 1a3e
0.1736941 0.30666652 0.53122085 0.39622992 0.19805315 0.39473286 0.23483843 0.29091403
0.14497787 0.31168666 0.55210304 0.16585957 0.2929974 0.15721428 0.17686339 0.1507756

conv2.0.weight f4 [16, 16, 3, 3]
00000000: 409c 843e d8a4 193e 11f5 4cbd abaf d63c
00000010: 119c 033d 3ff8 1ebe a445 cc3d a8f6 e9bc
00000020: 093d bfbe cf4c 0abe 6ec0 54bb 8ca3 c93c
00000030: bdda 023d 1236 7d3d 99f3 793d 856d 223e
00000040: 6386 093e a98a 3b3e 942f a23d be5c b03d
00000050: 8bcc 9f3d 8359 103e 6006 e63d 280a a33e
00000060: cf68 c5bb aa3c 1d3e 11d2 213e 9cb9 e5bc
00000070: 5958 203d 4a57 903c 0cbe 833d f70b 2dbb
00000080: 7a35 143e 545e a13c c68d 363e 5fe4 d13d
00000090: 43c9 8b3e c18a 983d 8382 efbc 7eef 553d
000000a0: 70e8 18bc b91b 0dbe deec d73d d01b 18bd
000000b0: d671 c2be 5737 293e 5fec b83d f5fe 5b3b
000000c0: 1566 843d 3eb7 9c3d 373a c43d c2c5 d7bb
000000d0: 610c 2e3c 8c5c aaba ee39 f13d cd66 a53d
000000e0: fb48 b33d a542 bc3d 41c7 633d f6ff 6b3d
000000f0: de8d 443d 535c 453d 301a 4d3c 5150 a2bc
00000100: 294f 353d 30a9 ef3c 9b13 873d 25c4 f43c
00000110: 7c5e c83d cda5 683d 7843 0f3e 4cc2 443d
00000120: b83d 673e 8dd0 b23d b75f 1bbd 8785 263d
00000130: 6779 833b 77a7 0cbe c9c8 5a3d 6ec9 12bd
00000140: 4f88 bcbe 86c1 4e3e 3bba 1e3e 235b 4839
00000150: 99b3 363d 53eb 633d 7556 bfbd 589f b93d
00000160: 7ba4 f33c 4e7e 6ebe 40a8 3a3e 90b2 ef3d
00000170: d13c 473d 726b 323e 128b 073e 4a8b b33e
00000180: 38c5 8bbc 2c14 903d c9f3 273e 8eec d63b
00000190: e3de adbc fc68 ae3b 0b22 e93d 8d8e a13d
000001a0: 2759 ad3d 1d82 a53d 03e3 3abd c908 653d
000001b0: 47c8 3b3e 5894 213e c34e c53c 1983 583d
000001c0: 06f6 8c3c db92 05be 8dde 243d c442 89bc
000001d0: 94bd 9bbe 25da 2fbd d969 80bb cf52 093d
000001e0: cd04 f43b 45bf 99bc 9753 c0bc 9947 dc3d
000001f0: 14e1 333e ce7f 073e 879b d73a ae4b 3abd
00000200: 500e 9e3d 0fa0 c73d 98dc 113d d5aa e43d
00000210: d59a 8f3d 2162 74bd 2ab1 953d 9e5b a2bc
00000220: 431d d6bc 1225 673d 0730 d43d f343 4f3d
00000230: 737a ae3d d7f4 873d b1f3 d2bc 0145 823d
00000240: 697b 7f3d 105b 063d 14e1 0dbe b6ed 3c3e
00000250: 5d05 26bc c1c7 42bd 34b1 83bd 583d 27be
00000260: a794 15be 6c3d 0f3d 94e8 663d ef86 1c3e
00000270: de57 b13c c9f9 0e3d 439b 163e 4c96 f43d
00000280: 6ddb 9c3d 9048 c83d 349e 6b3c f413 e23c
00000290: 9e75 7abc a723 793e 2121 033e 7c33 d23c
000002a0: 9b68 233e 2acd 82bb 9510 b9bd fc81 033e
000002b0: 131f fc3d 9ab5 503d 62e0 ac3e 03e6 413e
000002c0: 7b0b 16bd 9d9b 643e 1f28 9d3d ded4 cebd
000002d0: 8045 823d 874d d43c 0751 0fbe a707 433e
000002e0: ba50 abbc ddd7 27bd 5429 a5bd 6581 3abe
000002f0: e6ab 13be c21b c6bb b37d f23c ed99 293d
00000300: d006 963d e38e 8d3d a629 b53d c025 39bb
00000310: e6b9 6cbd 6cf5 62bd 171c 893d 688c fd3c
00000320: 6f17 ea3c a42f b53c b749 69bc 3437 963b
00000330: 0852 5abd 5f92 1fbd 9577 90bc da57 dc3d
00000340: 75de 0d3e ffba d83d 580f 873e fd03 3c3e
00000350: 8095 b73d 2ca7 553e 8d02 9a3d 5b79 9c3c
00000360: 6293 833d 7115 4d3d 5522 04be f2fe 2f3e
00000370: 478a 04bd 872b 3dbd a40a a4bd 9c4d 26be
00000380: 20ad 10be b153 15bc 92b5 01bd d533 1bbe
00000390: 04a6 f83d ce35 adbc 0b4e 5dbd dad8 84bd
000003a0: f0c5 2dbe 52c0 14be 3763 483d 37d0 4a3d
000003b0: 70cc 623c fb4b 6e3e d9d6 223e 53f7 593d
000003c0: 5f46 2b3e 74ce 643c 832e 05be 83e7 d73d
000003d0: 3ad0 8f3d 31d8 a73d 5179 83bd 3209 473e
000003e0: e5e3 143e 10f7 d13c 367d 653e b5d5 893e
000003f0: a13f 123d 70b4 663b ae31 39be 1bf4 073e
0.2590046 0.15004289 -0.0500384 0.026206812 0.03213126 -0.15524386 0.099742204 -0.028559998
-0.37351254 -0.13505863 -0.003246333 0.024614118 0.031946886 0.061819144 0.06102333 0.15862091
0.1343017 0.18314613 0.07919231 0.08611439 0.07802685 0.14096646 0.11231685 0.31843686
-0.006024457 0.15355173 0.1580279 -0.028042607 0.039146755 0.017619748 0.06432733 -0.0026404837
0.14473525 0.0196983 0.1782752 0.102486365 0.27301988 0.0744834 -0.029237038 0.05223035
-0.009332761 -0.13780107 0.10543226 -0.0371359 -0.37977475 0.16525017 0.09029459 0.0033568714
0.06464783 0.07652138 0.09581416 -0.006584854 0.010623069 -0.0012997552 0.11778627 0.08076248
0.08754154 0.09192399 0.055609945 0.05761715 0.047986858 0.04818375 0.012518451 -0.019813688
0.044264946 0.02925548 0.06595536 0.029878685 0.097836465 0.056798745 0.13990581 0.04803686
0.22582138 0.08731184 -0.037933078 0.040654685 0.004012275 -0.13735758 0.05341414 -0.03583663
-0.36822745 0.20191011 0.15500729 0.00019107437 0.04460487 0.055644345 -0.09342662 0.090635955
0.029741516 -0.23290369 0.18228245 0.1170398 0.048641983 0.174238 0.13236645 0.35067207
-0.017061815 0.070350975 0.1640159 0.0065589612 -0.021224445 0.0053225737 0.11383446 0.078885175
0.0846427 0.08081458 -0.04562665 0.05591658 0.18338118 0.15779245 0.024085408 0.0528594
0.017207157 -0.13044302 0.040251303 -0.01675547 -0.30418074 -0.04293265 -0.003918868 0.033526238
0.0074468614 -0.018767962 -0.023477359 0.10755844 0.17566329 0.13232347 0.0016449549 -0.04548233
0.07717574 0.09747326 0.035610765 0.11165396 0.07011954 -0.059663896 0.07309182 -0.019819077
-0.026137 0.056431837 0.10360723 0.05060191 0.08519449 0.06638496 -0.025750967 0.06360818
0.062373552 0.032801688 -0.13855392 0.18450055 -0.010133115 -0.04755378 -0.06430283 -0.16331995
-0.14607488 0.034970686 0.056374148 0.15285848 0.021648344 0.034906182 0.14707665 0.11942729
0.0765904 0.09779465 0.01438098 0.027597405 -0.015286831 0.24330007 0.12805606 0.025659315
0.15957873 -0.0039917426 -0.09036366 0.12842554 0.123106144 0.05095444 0.3376494 0.18935399
-0.036632042 0.22324987 0.07673668 -0.10099195 0.06360912 0.025915874 -0.13995753 0.19045888
-0.020912517 -0.040977348 -0.08064523 -0.18213423 -0.14421043 -0.0060457895 0.029600954 0.04140656
0.07325518 0.06912019 0.088458344 -0.002825126 -0.057794474 -0.055409834 0.06694811 0.03095074
0.028575627 0.022117443 -0.014238766 0.0045842174 -0.053300887 -0.03895795 -0.017635146 0.10758944
0.13854392 0.10582542 0.26378894 0.18360896 0.08964062 0.20864552 0.07520018 0.019100836
0.064245954 0.050069276 -0.12903722 0.17187098 -0.032358434 -0.04618409 -0.08009842 -0.16240543
-0.14128542 -0.009114192 -0.0316673 -0.15156491 0.1214104 -0.02114382 -0.054029506 -0.06486674
-0.16970038 -0.1452649 0.048922744 0.049514975 0.013842687 0.23271172 0.1590227 0.053214382
0.16726063 0.013965238 -0.13006024 0.10542204 0.07022138 0.08195532 -0.06419624 0.19437101
0.1454006 0.025630504 0.22411045 0.26920858 0.035705213 0.0035202764 -0.18085358 0.13276713

conv2.0.bias f4 [16]
00000000: ac21 ee3c 0898 a53a ed2a 0b3d 623f 023d
00000010: 8682 3f3d 65f0 373c 906f f63b 4e3f 1ebd
00000020: ee63 963b cf0e 2dbb d6b3 c43c 108d 0f3d
00000030: 3410 133d 7ed1 cfbc df94 ae3c c889 c5bc
0.02906879 0.001263381 0.033976484 0.031798728 0.046755336 0.011226748 0.0075206235 -0.03863459
0.0045895493 -0.0026406532 0.024011534 0.035046637 0.035904124 -0.025368448 0.021311222 -0.02411355

conv3.0.weight f4 [16, 16, 3, 3]
00000000: 216b 2bbe 1739 10be 65d7 563e b6e6 45be
00000010: c44a a3bd 0b79 1f3e 9889 833e 8e4b 83be
00000020: 9e01 0d3e a176 ee3d 8544 d83d 2b4f 0f3e
00000030: f61a 90bd 5df7 5c3e 9916 633e 0dfa 6bbd
00000040: 0e7e ee3d 30f8 633e 6803 adbd fb06 90bd
00000050: f700 75bc a46a 9dbd a367 273d 3544 0a3e
00000060: 27e6 debd 131f 94bd 7322 eb3d e8c6 84bd
00000070: e762 f83d 53cc d03b 2c68 ce3b da70 2f3e
00000080: f91b 5fbc bae0 be3d dd65 11bc 2992 253d
00000090: 0654 ddbd 6d61 b63d 8bf8 1ebe 1542 b6bc
000000a0: 889b 493b 656a af3c 33a1 9e3c c062 06be
000000b0: 078d 933d 9275 f5bc 0add bd3d 081a 6b3c
000000c0: 4b5c 163e 5cc9 5abe 356a 6d3d 0db0 923c
000000d0: 2963 ce3c 3d13 f3bd 0760 693e d134 01bc
000000e0: 3e33 f2bd 8ef7 fa3b 4352 423e 4455 9dbd
000000f0: ee3f b43c b6ae 19bd e7a7 003e ecf2 9e3d
00000100: 3add 91bc 1f54 313e 8fd7 673e a7af 523d
00000110: fd3e ca3d aeca 9abd b9a6 133d 6e0d c1bd
00000120: 1215 3b3b fd6e e83b 8df5 88be dfd0 8cbd
00000130: e4f9 1cbe 397d 723e 5596 18bd 155a 1c3e
00000140: c7d1 44be 9a47 4fbe fcdb 6bbe d55c 553e
00000150: aa96 7e3d 688c 3ebd 7874 edbc 39d3 1f3e
00000160: df85 af3d ea1a 423e 0ca0 f7bc e253 283d
00000170: 6a12 283e fced 933d 1289 97bd d4cf b93d
00000180: bc21 203d 2544 f8bc e085 643d e0c2 9e3a
00000190: 3b80 1a3e 4ddd 67bb 7df0 cebd 7b18 493e
000001a0: 4985 4ebd 9136 fe3d 2900 fbbd 1899 07be
000001b0: 1524 96bd d9ac 6a3c 1a76 c4bd e21c 30be
000001c0: d044 bcbd 9aec 2b3d 7774 81bc 5b9a a3bc
000001d0: 38e5 dc3d af2a 123d 8751 d73d a385 873d
000001e0: dbf7 293e 7c1d d83d 4010 cabd 50b7 67bd
000001f0: 811e 5fbd 3e2f bb3d f149 9dbd 638c d43d
00000200: cc23 04bd 6124 dcbc 3106 463d a8b3 82bd
00000210: 204f eb3d 6059 033e b63e 443e 3693 343c
00000220: 9bc5 fd3d 62cc 3bbe 9249 233c cc2d fabd
00000230: 01dc 09be 8f02 943d 37c4 093c af18 b5bd
00000240: dda0 9bbc bbf6 2b3e 59da a93c a5ab 07be
00000250: d195 573e 29bd d73d 2909 20bd be05 de3d
00000260: 82ec 1bbd d29b c8ba 26e5 60bc 2fff d4bc
00000270: d7c7 5bbd 14a7 943d 1318 8c3d 90b7 643e
00000280: 96a4 1a3d 1685 abbc b446 0ebd 8812 f43d
00000290: 9f58 2a3e 3d9a 123e 3f88 ef3d cb31 b53d
000002a0: fc97 3c3d 13f6 37bd 26a0 5fbd 3c30 ce3d
000002b0: 6e79 003d 8921 bd3c 1638 e8bc a373 1c3c
000002c0: 92bd 153c 7f69 ec3d 3d89 cdbd e2b3 b7bd
000002d0: 86c2 023e 8b11 513e a875 083d b1d7 843d
000002e0: 1dcc 6d3e af58 8cbd 9812 293e 39ef a83d
000002f0: 0bec 1ebd 3002 62bc dcab 8d3d 16d2 e03d
00000300: 3fd5 89bd 935b c13c 4cd7 5f3d 8674 9b3d
00000310: b462 813d 9d15 18be d881 043d bd02 443d
00000320: aa5e 3c3e c463 003d 8621 02be 625f 6dbe
00000330: efdf 54bd 0e58 b2bd d097 7c3d 5b05 f3bc
00000340: d9f2 39be 9007 2f3d 5cf2 7e3d ab89 d4bd
00000350: d626 9bbd ffd5 043e 1201 8dbe f316 873e
00000360: 9162 5abd 0748 2b3e f472 a53e ce29 413c
00000370: 72a4 0f3e 440a 153e dee4 e23d 7d39 8abc
00000380: 39cc 893e 30f6 333e 0f30 6b3d 9267 3d3d
00000390: 0e6b 1e3d 2a29 3cbe 3cfa 29be f0f3 3f3d
000003a0: 7e38 e1bd e846 0abe 680e 8a3d 57d7 a13d
000003b0: bdd2 e03c ed87 c63d 05a2 6e3e 3a20 cb3d
000003c0: 624a 193e afac be3d 257d 893b 9a78 f33a
000003d0: af6b e23d 27ce d8bd 1f96 0c3d d1fa f8bd
000003e0: 1679 d0bd 1aa3 8d3d 5e28 e33d 90d6 e5bd
000003f0: 6166 73bd c5e5 3ebe 78d0 7bbd 3c7a 55bd
-0.16740085 -0.14084278 0.20980604 -0.1932629 -0.07973245 0.15573518 0.25690913 -0.2564358
0.13770148 0.116437204 0.10559944 0.13995044 -0.070363924 0.21578737 0.22176589 -0.057611514
0.11645137 0.22262645 -0.08447915 -0.070325814 -0.014953843 -0.07686356 0.04087032 0.13502581
-0.10883742 -0.072324894 0.1148118 -0.06483251 0.12128239 0.0063720136 0.0062990393 0.17132893
-0.013617509 0.09320207 -0.008874384 0.040422592 -0.10807042 0.08905301 -0.15524499 -0.022248307
0.003076287 0.021413038 0.019363975 -0.13123608 0.07204633 -0.029963288 0.092706755 0.014349468
0.14683644 -0.21365875 0.057962615 0.017906213 0.025193768 -0.11868904 0.22790538 -0.007886128
-0.1182618 0.0076589053 0.18976693 -0.07682279 0.02200314 -0.037520133 0.1256405 0.077611774
-0.017805684 0.17317246 0.22640823 0.051437046 0.09875295 -0.07558189 0.03604767 -0.0942639
0.0028546494 0.007093309 -0.2674984 -0.068757765 -0.153297 0.23680581 -0.037252743 0.15268739
-0.19220649 -0.20242158 -0.23033136 0.20836194 0.062155403 -0.04652062 -0.0289862 0.15607919
0.08570456 0.1895558 -0.030227683 0.041095622 0.16413274 0.07223126 -0.07399191 0.09072843
0.03909467 -0.030305931 0.055791736 0.0012112521 0.15087979 -0.0035379708 -0.10104463 0.19638245
-0.05042008 0.124127515 -0.1225589 -0.13241994 -0.07331101 0.014323437 -0.095928386 -0.17198518
-0.091928124 0.041973688 -0.015802605 -0.019971063 0.107859075 0.035685237 0.10513597 0.06617286
0.16598456 0.10552499 -0.09866381 -0.056571305 -0.05447245 0.0913987 -0.07680119 0.10378339
-0.0322607 -0.026872816 0.04834575 -0.06381923 0.11489701 0.12827063 0.19164547 0.011021426
0.12391206 -0.18339685 0.009966271 -0.12215766 -0.13462831 0.072270505 0.008408598 -0.08842599
-0.018997604 0.16793339 0.020734 -0.13249071 0.21053244 0.10534126 -0.039071236 0.10840939
-0.03806735 -0.0015305227 -0.013726508 -0.026000587 -0.05365738 0.0725843 0.06840529 0.22335649
0.037754618 -0.020937484 -0.034735397 0.11917597 0.16635369 0.1431665 0.11695909 0.08847388
0.04604338 -0.04491241 -0.05459609 0.10067794 0.031365804 0.02308728 -0.028347056 0.009549054
0.009139435 0.11543559 -0.10035942 -0.08969857 0.12769517 0.20416848 0.03331533 0.06486452
0.23222394 -0.068528526 0.16510999 0.08248753 -0.038799327 -0.013794467 0.06917545 0.10977571
-0.067301266 0.023603236 0.054648682 0.075905845 0.06317654 -0.14851995 0.03235039 0.047854174
0.18395486 0.031345144 -0.127081 -0.23180917 -0.051971372 -0.08708201 0.061668217 -0.02966564
-0.18159045 0.04273182 0.06224285 -0.103778206 -0.07575767 0.12972258 -0.2753988 0.26384696
-0.053316657 0.16726695 0.32314265 0.011789752 0.14027575 0.14554697 0.11078809 -0.016873116
0.26913622 0.17574382 0.05741888 0.04624135 0.038676314 -0.18375078 -0.16599363 0.046863496
-0.10997103 -0.13503611 0.06741029 0.07902401 0.027444238 0.096938945 0.23303993 0.09918256
0.14969781 0.093102805 0.0041958266 0.0018575371 0.11055695 -0.105861954 0.034322854 -0.121572144
-0.10179345 0.06915875 0.11091684 -0.11222565 -0.059423808 -0.18642338 -0.06147811 -0.052118525

conv3.0.bias f4 [16]
00000000: 607e f6bb 0972 883c e34c 60bc 7203 923c
00000010: 14ce 023b 068a 02bd 27ab e33b 46ee 2cbd
00000020: 1cb2 b53b c5f7 88bb 9894 7fbb 4b1a b3bb
00000030: 25af ef3b 0577 1abc 3e1d 183c 727a c63b
-0.0075223893 0.016655939 -0.013690206 0.017823908 0.0019959258 -0.03186991 0.006947893 -0.042219423
0.005544914 -0.004179927 -0.003899848 -0.005465781 0.00731458 -0.0094277905 0.009284316 0.006057077

dense.0.weight f4 [32, 256]
00000000: 4631 0fbd 2d9b 40bd 0142 a43c e9a2 813c
00000010: 327d fc3c b38a aa3c 8942 adbc c915 723c
00000020: e3ba 80bc 060b 90bd 69aa 103d ff76 84bc
00000030: 1ce6 333b 1ea3 013b 0ca0 033d 977c 3abc
00000040: 3020 513d da36 f4bc d713 563c 72d8 023c
00000050: 21da 253c f667 23bb ee80 4bbd d144 3c3b
00000060: 9f37 81bd 1be8 1dbb eb17 2a3d 8557 883b
00000070: d1e3 3b3d 1adf 4bbd 397a 543b f058 b03b
00000080: 514d 8fbd 45d5 b43c 85ef 8fbc c8ae 65bd
00000090: d30f 1c3d a717 393b 13b4 90bd 1856 fc3a
000000a0: 89cb 333c d358 6ebd c61e 96bd 3897 6e3d
000000b0: 0e3b 843d d61d 363c cea9 03bc b88b 17bb
000000c0: 1af7 5c3d 8c5c c73b a4aa 20bd 7839 e53b
000000d0: 25a6 7939 7296 aa3c 72aa 833d 2543 20bd
000000e0: be1b 6b3a b5fe dabb cbb8 643d a939 92bd
000000f0: ef68 3b3d 956e 1fbd 2905 fc3c 8bf4 aa3c
00000100: c8a2 983d 86e6 9bbb 95cd 453c e036 0bbc
00000110: 62b6 713c 691b bfbb 7f05 45bd 844f 00bc
00000120: aa96 a3bc 5d37 37bd 1f4a 193d 74c5 adbc
00000130: 5f79 ac3c 6dbc 3abd d6f6 4a3d f93a 073d
00000140: 5c3b 323a 0c19 35bc 1a2c a5bc 739a 2abd
00000150: 4745 59bc 8765 083b 0132 db3c ec55 5b3d
00000160: 99b6 a6bd 33a0 f2bc 4e25 c63c 61d6 693c
00000170: b712 b13b 704f 2dbc eb58 ddbc 7a8f 363b
00000180: 8cb3 533d f0af babc 4f7d 80bd 90a9 4bbc
00000190: 9fb1 643d d068 3a3d a4f0 173d 636d a83d
000001a0: 020c b5bc dc0e a6bb d90a 2c3b bdf1 af3b
000001b0: adf9 173d 6de9 4abd 13b4 943c f69f d2bc
000001c0: b0e8 553c 3f42 79bd 6724 8b3d 15c6 983a
000001d0: f9ee b23c 722b 3e3a 0b30 15bc 09c6 a0bc
000001e0: f319 09bd dc93 e3b9 ada1 b33d 057f 44bd
000001f0: 504e 41bc 8c29 f6bc 7214 f23b 91ce a63b
00000200: a727 6ebd 217b 203c 9071 7e3d 2c3e b13c
00000210: e687 68bc 67f3 9f3c fc08 11bd 7e2a a6bc
00000220: 3763 ef3c 4f08 a93c 0572 443b 00fc 9a3d
00000230: d8f7 da3c 2546 5d3c 1f3a 12bc 6c23 6c3d
00000240: 2e6d 4fbb 32ed 023d aaa8 44bd de46 6dbd
00000250: 61fe abbb 1318 da3c 287a c4bc edad 98bc
00000260: ef01 0f3c 73b7 c6bc 7c6d 9b3c ef3e 983c
00000270: 4d0c b83c 573c 59bc 577e f9ba ef97 bcbc
00000280: b18e 0e3d 0bcf cdbc cc41 933d 1114 9a3c
00000290: c742 4dbd 60fb d63c 8420 0bbc 4a01 373c
000002a0: fd0d 793c 89c8 84bc b0df b63c 9326 21bd
000002b0: dc42 b63d 5f5f 833b 276d 5abd 8f41 a5bc
000002c0: 74ce 723b c8f6 0fbd 45a3 3f3c 18e3 82bd
000002d0: 04ef e0bc 5c6b 683d ffd0 1f3d 0f1f 803d
000002e0: 8997 f6bc ea2f 26bd 296f 46ba beef f1bc
000002f0: 9c5a 1f3c 9862 573d 6c6a 56bc e060 ae3b
00000300: 0526 58bb 8acf 3bbc df9e 603c 40b6 dfbb
00000310: 8c30 5bbc 957d c83c ae08 533d 7da3 d83d
00000320: 1ccc 803c 1b78 6dbd 4ff1 bcbc 7879 1bbd
00000330: a80e 443d d1f6 fc3c 300a 9ebc db0b 8a3c
00000340: fc59 ed3c 5bfd 503c f959 afbc 388c f7bb
00000350: 172e 92bd 8886 5fbd 7150 8a3c d29a fabc
00000360: da76 93bc 6450 0dbd fd15 6cbc 5117 cbbd
00000370: 2116 a93c 13ca bf3c 36a6 6b3d 7c7d d43c
00000380: b4b6 63bd 3513 16bd 625b bdbd fb3b d0bd
00000390: 5ba9 1abd 10f0 693b 2ba0 dbb9 724e 003d
000003a0: ea9d ec3c 5e07 983c 042c ec3b 07b5 5b3b
000003b0: f779 33bd 380b edbc f6de 57bd 11c1 233d
000003c0: c9b7 413d 0c02 8bbc 6ebe e83c 0a46 28bc
000003d0: c719 4ebc b083 e3bc 6ddc 98bd aa0b c5bb
000003e0: e8c4 b1bc fe7d ff3c 032e c73c d237 183d
000003f0: 88a1 6c3d 92f9 363c 0177 133d 60ad 27bd
-0.0349591 -0.047022987 0.020051004 0.015824752 0.030821417 0.02081809 -0.02114989 0.014775702
-0.015714115 -0.070333526 0.035318766 -0.016170023 0.0027450388 0.0019781063 0.032135054 -0.011382244
0.051056087 -0.029811312 0.013066254 0.007986175 0.010122807 -0.0024933792 -0.049683504 0.0028727541
-0.06309437 -0.0024094644 0.041526716 0.0041608238 0.04587156 -0.049773313 0.0032421483 0.005381696
-0.06997169 0.022074351 -0.017570267 -0.056074888 0.03810103 0.0028242858 -0.070655964 0.0019251732
0.0109738195 -0.058190178 -0.07330088 0.058249682 0.06456576 0.011115512 -0.00803609 -0.002312405
0.053946592 0.0060840305 -0.039225236 0.006995376 0.00023808384 0.020823691 0.06428994 -0.039126534
0.00089686725 -0.0066831955 0.055840295 -0.07139904 0.04575437 -0.03892382 0.03076418 0.02086856
0.07452923 -0.004757705 0.01207294 -0.00849697 0.014752956 -0.005832125 -0.048100945 -0.007831458
-0.019969303 -0.044730533 0.037424203 -0.021212317 0.021053968 -0.045589853 0.049551807 0.033015225
0.00067990064 -0.011053335 -0.02016263 -0.0416512 -0.013261146 0.0020812468 0.026757242 0.05354874
-0.081402965 -0.029617405 0.02418771 0.014272303 0.0054038423 -0.010578021 -0.027019938 0.0027856515
0.0516849 -0.022788972 -0.06273901 -0.012430564 0.055833455 0.045510113 0.037094727 0.08223989
-0.022100452 -0.0050676893 0.0026251583 0.0053693936 0.037103344 -0.04953902 0.018152272 -0.025711041
0.013055965 -0.060854193 0.067940526 0.0011655713 0.021842467 0.00072543987 -0.009105693 -0.01962568
-0.033472013 -0.00043406978 0.087710716 -0.047972698 -0.011798456 -0.030049108 0.007387691 0.0050905426
-0.058143284 0.009794981 0.06212002 0.021636091 -0.014192557 0.019525243 -0.03540896 -0.020283934
0.029222114 0.020633845 0.0029975187 0.075675964 0.02672951 0.013505493 -0.00892499 0.05765097
-0.003165077 0.03196449 -0.048012413 -0.057928912 -0.00524883 0.026622808 -0.02398403 -0.018637622
0.008728488 -0.024257397 0.018973105 0.018584697 0.022466803 -0.013259015 -0.0019034845 -0.023021666
0.03480405 -0.02512314 0.07190284 0.018808397 -0.050112512 0.026242912 -0.008491639 0.011169741
0.015201089 -0.016208904 0.02232346 -0.039343428 0.08899471 0.004009172 -0.053326752 -0.020172862
0.0037049325 -0.03514746 0.011696641 -0.06390971 -0.027457722 0.05674301 0.039017674 0.06255924
-0.030101554 -0.04057304 -0.0007569665 -0.029533263 0.009726193 0.05258426 -0.013086896 0.005321607
-0.0032981646 -0.011463055 0.013709753 -0.006827146 -0.013378274 0.024473945 0.05152195 0.10578058
0.015722327 -0.05797587 -0.023064284 -0.03795764 0.04786554 0.03087941 -0.019291967 0.016851356
0.028973572 0.012755717 -0.021405207 -0.007554557 -0.07137697 -0.05457166 0.01688406 -0.030591402
-0.018001009 -0.034500495 -0.014409539 -0.099165566 0.020640435 0.023411786 0.057531558 0.025938742
-0.05559416 -0.03663941 -0.092459455 -0.1016769 -0.037759166 0.0035696067 -0.0004189027 0.03132481
0.028883893 0.0185582 0.0072073955 0.0033524649 -0.043817487 -0.028936014 -0.052702866 0.039979044
0.04729441 -0.01696875 0.028411116 -0.010270605 -0.012579388 -0.027772754 -0.07463918 -0.0060133534
-0.021700338 0.031188007 0.024313932 0.03716261 0.057771236 0.011167901 0.036002163 -0.040936828

dense.0.bias f4 [32]
00000000: 7be8 803b 4233 d23c e12a 71bb 3054 223c
00000010: eb5c 3cbc b4b3 99bc 3ebe ea3b b7a6 863c
00000020: 74fa 103c 87de c13b 8ac8 d4bb 25fc 3e3c
00000030: b925 80bb bc23 2fbc 434c 533c 532b 283b
00000040: 1658 9fbb 67b1 85bc 7235 f4ba fe6d 0b3b
00000050: ebba 643a 947b d53b 007a 363b c6ad 6e3a
00000060: f5fe b6bc d2b8 dabb b934 3c3b cc91 dd3b
00000070: c8a4 073c b93d 26bc 1ad5 a0bb f024 393c
0.003933964 0.025659207 -0.003679924 0.009907767 -0.011496763 -0.018762447 0.007163792 0.016436918
0.008848775 0.00591642 -0.0064936327 0.011656796 -0.003910747 -0.010689672 0.0128966 0.002566059
-0.0048627956 -0.016319944 -0.0018631651 0.0021275277 0.0008725363 0.006514976 0.0027843714 0.0009104874
-0.02233837 -0.0066748643 0.0028717949 0.006761765 0.008279033 -0.010146552 -0.004908216 0.0113003105

dense.2.weight f4 [10, 32]
00000000: 8a98 913e 488c c9bd 084c d83d a48f 6cbd
00000010: 2bf1 243e 68c4 103f 1438 91be c296 903e
00000020: 44bc 03be 3245 e03d 881f 17be 4219 a2bd
00000030: f11d 04bf e22a 53bd f61d 263d 28e1 0cbf
00000040: 4db9 b5be f8c0 39bf 7063 d13e 5ee0 563e
00000050: 5458 6c3e 84fa 98be 770e 65be 4b24 e93d
00000060: ddd4 ca3d 8a1f 09bb 6698 a6bd 0429 a7bd
00000070: 860c ed3e 3a4a a03e 7173 73bd c5db d33d
00000080: fada 5a3e 4040 dbbe b469 88be d958 82bb
00000090: 083e 553e 71da 34bd 8502 67bd fd34 acbe
000000a0: 61c3 40be 8482 e73d 436d 8abd fb4d e7be
000000b0: f575 32be 31b4 18bd aa69 3abe df33 1d3e
000000c0: 32f0 91bd 37bb 0e3f 5daf aa3e 9106 dabc
000000d0: 911d bb3d 6e29 963d ed16 fdbd 9ceb 9ebd
000000e0: 6f46 683e 802e b43d 47c1 eb3c b681 f3bd
000000f0: e339 8dbe c902 813e fbb3 cb3d 403d 353d
00000100: ce19 5f3d 89a2 1b3d e748 073d f7f2 143e
00000110: e6e9 a93e 249f b2bd 865f afbe 0179 bc3e
00000120: 2f69 c23e 7131 70bd 1ebf bc3c 1533 06bf
00000130: 2f2c 743e d31d 9abd e784 553e a985 0c3f
00000140: f2c5 443e 9a77 483e 43b8 76be d66b 40be
00000150: e1ca 22bf 6f88 c2bd 6a9f d2be 9858 b6be
00000160: c6ea 8e3e d52e 983e 609a d13d b8ec 093d
00000170: ade6 383f 5c81 2fbf 98f4 27bf 58ac 273f
00000180: 6878 64bc 97ee b33e 3a0e 613f ea58 6e3d
00000190: 56ba aa3b 109c cebd 6a03 53bf 2be2 2ebe
000001a0: 6445 13bf 871f 373d 6009 643d 9476 cebd
000001b0: fc27 db3c 6ce5 c9bb 2f26 aabe f738 733d
000001c0: e0d9 2a3f 79a9 083e ee24 6cbe 8341 09be
000001d0: 28eb 9a3e 5e64 1ebd 251b aabc 9cee ee3e
000001e0: 551f b6bc b18e f73e aee4 94be 3188 8ebd
000001f0: d2b3 d4bd 51b0 413f 8059 0dbf 61e2 65bf
00000200: c8e1 8cbc 9148 e3be 6787 05bf 5bf9 92bd
00000210: 4030 573e e02b 253e d91e 6b3d 6bcd 993d
00000220: 4a58 dbbe 70af a43d 484c 49be 4341 983e
00000230: bd89 35bd f7e6 27be 048c cebd 8a51 323e
00000240: 78bf 52be d445 b5be c79b a7be cf55 a03e
00000250: a653 1dbe 6045 653e 649b 253e bdee 7dbe
00000260: 62a4 66bf 4ccf c5be 99ba 7a3c 8b39 d33e
00000270: 9dc0 0abf dc17 7dbe bb96 1c3e a39d 1a3f
00000280: dfd9 41be fe9b 60be 3f63 70be 7b7c b1be
00000290: 4b54 90bd 751d d73d 3a24 243f a422 09be
000002a0: 32fe d93e 44b2 1cbe de04 98be 6aa4 8b3e
000002b0: d754 d93e 205f 193f 0af6 983d 0bfb c53e
000002c0: 1e79 e0bc 42d4 bb3e bb90 eb39 c9b8 1b3e
000002d0: 4874 973e 429b 9dbe a1e6 903e dfba 2dbd
000002e0: e5fa 2c3f e282 05bf 8af4 fb3e 7c0d 19be
000002f0: 1320 95be 319f ccbe 1d40 833e 8b65 d9be
00000300: c712 e5bd 38c5 843e f3f9 ecbd f889 8b3e
00000310: 6c82 bbbe 6cb4 1abf b302 1a3f 0575 a23e
00000320: 5022 bc3e 4c6a ebbc 6cac 53be 6845 d33e
00000330: 69de f0be bdbe f9be 20f4 a03e 90fc 09bf
00000340: 16f4 9ebe d948 0f3e e218 6c3e 6af2 1bbe
00000350: a037 a83d d09c a73e ecc3 2d3e 8c87 0bbe
00000360: 45da aebe dba2 ac3d 8723 76be 294e 9b3d
00000370: bf0d a23e eadd 523e 249e cc3d 1d5c 24bd
00000380: 7bb3 853d 8c2f 2f3f c659 593e 49e1 e93d
00000390: 3f13 8ebe 27cf 1dbf 3611 063d 1038 44be
000003a0: 2098 8d3e 15ca 3d3e 946b f3bc 4332 12bf
000003b0: 24e1 893e 4a39 833e 958e bc3d abbd f2be
000003c0: 630c 843e bdf2 c0be 8e82 06be 7865 b53e
000003d0: c498 c63d 7ca6 babd 90c4 8ebd ed6a 203e
000003e0: 3b6c b9be 1f98 62be 8e1e 9abe 3856 49be
000003f0: ee62 bbbd 4779 c0be bbf6 073e 9eb8 233e
0.2843669 -0.0984121 0.10561377 -0.057754174 0.16107623 0.5654969 -0.28363097 0.2824002
-0.12864786 0.10950698 -0.14758122 -0.07914974 -0.51608187 -0.051554568 0.040555917 -0.5503106
-0.35492936 -0.7256007 0.40896177 0.20984027 0.2308057 -0.29878628 -0.22368799 0.113838755
0.09903882 -0.002092334 -0.081345364 -0.0816212 0.46298617 0.3130663 -0.059436265 0.10344652
0.21372595 -0.42822456 -0.26643145 -0.0039778766 0.20824444 -0.044153634 -0.056398887 -0.33634177
-0.18824531 0.11304191 -0.06759121 -0.45176682 -0.1742781 -0.03728122 -0.1820437 0.15351819
-0.07125892 0.5575442 0.33336917 -0.02661446 0.09136499 0.07332121 -0.12357888 -0.07759783
0.22683118 0.08797932 0.028778685 -0.11889975 -0.27583227 0.25197437 0.09946438 0.044247866
0.05446797 0.037996802 0.03302851 0.14545809 0.33186263 -0.0872176 -0.34252566 0.3681107
0.37970874 -0.0586409 0.02304035 -0.52421695 0.2384498 -0.0752522 0.2085148 0.5489145
0.19216135 0.19576874 -0.24093728 -0.18791136 -0.6359082 -0.09498679 -0.41137248 -0.35614467
0.27913493 0.2972323 0.10234523 0.03367302 0.72226983 -0.6855676 -0.65607595 0.6549735
-0.013944723 0.35142967 0.87912333 0.058190264 0.0052102013 -0.1008836 -0.82427084 -0.17078464
-0.57527757 0.0447078 0.055673003 -0.10081211 0.026752464 -0.0061613824 -0.33232257 0.059380498
0.667387 0.13345899 -0.23060963 -0.13403897 0.30257535 -0.038669936 -0.020764897 0.4666642
-0.022231737 0.48351052 -0.2908072 -0.0695957 -0.103858605 0.7565966 -0.5521469 -0.8979855
-0.017197505 -0.443913 -0.5215973 -0.07176467 0.210145 0.16130018 0.057402465 0.075098835
-0.42840797 0.080412745 -0.19658005 0.2973729 -0.04432081 -0.163967 -0.100852996 0.17413917
-0.20580852 -0.35404837 -0.32736036 0.31315467 -0.1536394 0.22389746 0.16172558 -0.24798103
-0.9009458 -0.38634717 0.015303277 0.4125484 -0.54200155 -0.24716133 0.15291874 0.60396785
-0.18930767 -0.21934506 -0.2347536 -0.34665284 -0.070473276 0.10503665 0.6411778 -0.1339212
0.42576748 -0.15302378 -0.29691213 0.27273875 0.4244754 0.59910774 0.07468803 0.38668093
-0.027401503 0.36685377 0.00044930525 0.15207209 0.29580903 -0.30782515 0.28300956 -0.042414542
0.67570335 -0.52152836 0.49210006 -0.1494655 -0.29126033 -0.39965203 0.25634852 -0.42460284
-0.11185222 0.25931716 -0.115711115 0.272537 -0.36622941 -0.6043155 0.6016037 0.31729904
0.36744928 -0.02873721 -0.20671242 0.4126389 -0.47044685 -0.48778334 0.31436253 -0.53901005
-0.31045598 0.13992633 0.23056367 -0.15229192 0.082137346 0.32736826 0.1696927 -0.13625926
-0.341509 0.084295 -0.2403699 0.07583267 0.31651112 0.20592466 0.099911004 -0.04012691
0.06528374 0.68431926 0.21225652 0.11419923 -0.2774906 -0.61644214 0.032731257 -0.19162011
0.27655125 0.1853412 -0.029714383 -0.57107943 0.2692958 0.25629646 0.09206883 -0.4741033
0.257907 -0.37685195 -0.1313574 0.35428977 0.096971065 -0.091137856 -0.06971085 0.15665789
-0.36215386 -0.22128342 -0.30101436 -0.19661796 -0.09149729 -0.37592527 0.13277714 0.15988395

dense.2.bias f4 [10]
00000000: 08d9 7e3b d275 bebc bc1d 5d3b 5653 afba
00000010: 9b50 a33b 09ff 23bc ccd1 cf3c 4687 2c3c
00000020: d4ec fb39 d064 12bc
0.0038886685 -0.02324954 0.0033739647 -0.0013376276 0.004983974 -0.010009536 0.025368594 0.010530299
0.000480509 -0.008935168
