ResidualLoss/CNN-l2-freeze-upperbound/alpha-0.05-p-10.pt (torch, 27135 bytes, 10 tensors)

conv1.0.weight f4 [8, 3, 3, 3]
0	0x3d1eada8	0.03873983
1	0xbde272ac	-0.11057028
2	0x3dcce8c3	0.10005333
3	0x3e316cd8	0.17326677
4	0xbecad25b	-0.39613613
5	0x3e777ccf	0.24168704
6	0x3d868249	0.06567819
7	0xbe43c1b8	-0.19116867
8	0x3d861312	0.06546606
9	0x3ea4c3fa	0.32180768
10	0xbefb4c31	-0.49081567
11	0x3e259316	0.1616939
12	0x3e391a1c	0.18076366
13	0xbe8cedb6	-0.2752511
14	0x3e70d51f	0.23518799
15	0xbc281fb5	-0.010261466
16	0xbe9852be	-0.29750627
17	0x3e4e355c	0.20137542
18	0x3cf81a07	0.030285848
19	0xbe708545	-0.23488338
20	0x3e23ce9e	0.15996787
21	0x3e5fe286	0.21863756
22	0xbee41b2e	-0.44551986
23	0x3e8bc74a	0.27300483
24	0xbc4daf8a	-0.012554059
25	0xbdb381fc	-0.08765027
26	0x3db5cb12	0.08876623
27	0x3dadfbbf	0.084952824
28	0x3dc4d666	0.09611206
29	0xbe941888	-0.28924966
30	0x3d93ccd3	0.072168015
31	0xbf0d280f	-0.5513925
32	0xbe94e4ea	-0.29080898
33	0x3d9df034	0.07711831
34	0xbdcf9e42	-0.10137607
35	0x3d13cf86	0.03608658
36	0xbe407b1d	-0.18796964
37	0xbd3c8fbe	-0.04603552
38	0x3d9f6714	0.077833325
39	0x3e0621be	0.13098809
40	0x3d94f264	0.07272795
41	0x3e8cded8	0.27513766
42	0xbeb31eb1	-0.34984353
43	0x3ea77ebc	0.32713878
44	0xbe97eb65	-0.2967178
45	0x3dd9ae9e	0.10629009
46	0x3e7d2c2e	0.24723884
47	0x3dd8a0e5	0.10577563
48	0x3cd60652	0.02612606
49	0x3d80efb2	0.06295718
50	0x3e37de72	0.1795595
51	0x3bd05b46	0.006358537
52	0x3ddcdc8f	0.10784256
53	0x3d58a1e9	0.052888785
54	0x3eb2f0cd	0.3494934
55	0xbe0e2e19	-0.13884772
56	0xbcffd40e	-0.031229045
57	0x3d93c86b	0.07215961
58	0x3ec53fb1	0.38525155
59	0x3e65140e	0.22370932
60	0xbebf396e	-0.37348503
61	0xbe0837c7	-0.13302527
62	0xbecce11a	-0.4001549
63	0x3bec41fc	0.0072100144
64	0xbd7b4bd5	-0.061351616
65	0x3d3334c4	0.043751493
66	0xbdb735c2	-0.089458
67	0x3e1962a1	0.1497903
68	0x3e9f683e	0.31134218
69	0x3dab3ee1	0.083616026
70	0xbe8b3006	-0.27185076
71	0xbddee41b	-0.108833514
72	0xbd49b59a	-0.049245454
73	0xbdf22ab3	-0.118245505
74	0xbe72e0c0	-0.23718548
75	0x3e151200	0.14557648
76	0x3e8ad057	0.27112076
77	0x3d8ee025	0.06976346
78	0xbdaad0a6	-0.08340578
79	0xbc4857be	-0.012227951
80	0xbcda2a65	-0.026631543
81	0xbe5ba5cd	-0.21449967
82	0x3e2089a4	0.15677506
83	0x3da4007b	0.08007904
84	0x3d8fa76c	0.07014355
85	0x3e08e1ef	0.13367437
86	0x3e79dd11	0.24400736
87	0xbe7d7155	-0.24750264
88	0xbcba99da	-0.02277844
89	0x3e4ed30c	0.20197695
90	0x3ed09079	0.40735224
91	0xbe140ac8	-0.14457238
92	0x3e01b733	0.12667541
93	0xbd840a9e	-0.064473376
94	0xbe386e4b	-0.18010823
95	0xbeb01304	-0.34389508
96	0x3e2d3e07	0.16918193
97	0xbe4bd05b	-0.199037
98	0xbe884f2c	-0.26622903
99	0x3c4ce2d2	0.01250525
100	0xbd01fcba	-0.03173516
101	0xbe6550de	-0.2239413
102	0xbd4f00e9	-0.050537977
103	0xbde3a173	-0.11114778
104	0xbc5052bb	-0.012715037
105	0x3ca8b019	0.020591782
106	0x3e821ab8	0.2541101
107	0x3dcc211a	0.09967251
108	0x3e7571a6	0.23969135
109	0x3dac1d10	0.08403981
110	0xbe72702d	-0.23675604
111	0x3e1e8f5f	0.15484379
112	0x3ebf9918	0.3742149
113	0x3cd77310	0.026299983
114	0xbdd4733a	-0.1037354
115	0x3d3ea2f5	0.046542127
116	0x3e941121	0.28919318
117	0xbe535aaf	-0.20640062
118	0x3d89d18e	0.067294225
119	0xbe327e20	-0.17430925
120	0xbe16e5dc	-0.14736122
121	0x3e96fb7a	0.29488736
122	0xbd991a59	-0.074757285
123	0xbe061fae	-0.13098022
124	0xbd16ebf4	-0.036846116
125	0xbe910e05	-0.2833101
126	0x3d1b9054	0.03797944
127	0x3ecfbf88	0.40575814
128	0xbeb4658f	-0.35233733
129	0xbdb7060c	-0.089367
130	0x3e92955c	0.28629577
131	0x3dad4d20	0.08461976
132	0xbe74d48e	-0.23909208
133	0x3e59a3d4	0.21253902
134	0x3e8025c1	0.25028804
135	0x3d886090	0.06659043
136	0xbea58dcc	-0.32334745
137	0x3e824e71	0.2545047
138	0x3dcc77aa	0.099837616
139	0x3e2b903d	0.16754241
140	0xbe9d2202	-0.30690008
141	0xbd5c79ca	-0.053827085
142	0x3d27eed2	0.04099924
143	0x3d853f18	0.06506175
144	0x3c1cda29	0.009573498
145	0xbeabd208	-0.3355868
146	0x3e683ac2	0.22678664
147	0x3da5df31	0.08099211
148	0x3eb19928	0.3468716
149	0xbe8168a4	-0.25275147
150	0xbea2fc93	-0.31833324
151	0x3e2523ac	0.16126889
152	0x3da13c39	0.07872815
153	0x3ea599da	0.32343942
154	0xbee5c5df	-0.44877526
155	0x3e54956e	0.20760128
156	0xbdd146c9	-0.10218579
157	0x3e88ecc2	0.26743132
158	0xbed3bc8c	-0.41354787
159	0x3c9267e6	0.017871808
160	0x3cbbc50a	0.022921104
161	0x3d0eb39b	0.034839254
162	0xbde79f62	-0.11309697
163	0x3d8aa3b0	0.06769502
164	0x3ea1e01b	0.3161629
165	0x3e589e88	0.21154225
166	0x3ee71f88	0.45141244
167	0xbe838c1e	-0.25692838
168	0x3e92796e	0.28608268
169	0xbe5e7b7d	-0.21726795
170	0xbe913ff9	-0.2836912
171	0xbe1a4d44	-0.15068537
172	0x3e0d58f5	0.13803466
173	0x3d90f486	0.07077889
174	0xbe13de5a	-0.14440289
175	0x3edcaf9e	0.43102735
176	0xbef922e7	-0.4865944
177	0xbd8cd41b	-0.068763934
178	0xbeb59f46	-0.35473078
179	0x3e4745d9	0.19460239
180	0xbeceaa41	-0.40364268
181	0xbc60b8f7	-0.013715974
182	0x3e5a9e67	0.21349488
183	0x3d02da92	0.031946726
184	0x3f13641b	0.57574624
185	0xbe43468a	-0.19069877
186	0x3e4617ca	0.19345012
187	0xbb1c2218	-0.0023824032
188	0xbdb89d1c	-0.09014341
189	0x3e914119	0.28369978
190	0xbe6a4ffd	-0.22882076
191	0xbdc4686b	-0.09590229
192	0x3e22d1da	0.15900365
193	0x3e098283	0.13428693
194	0xbe0b478f	-0.13601516
195	0x3bfff805	0.0078115487
196	0xbd61d1f8	-0.055131882
197	0xbdc92b8c	-0.09822759
198	0x3e872272	0.26393467
199	0xbd8fe9fa	-0.07027049
200	0xbe08e124	-0.13367134
201	0x3db68a9f	0.089131586
202	0x3e1d4956	0.15360007
203	0xbe0d6fde	-0.13812205
204	0x3cb29331	0.021798702
205	0xbe79dbb0	-0.2440021
206	0xbc0d0f84	-0.008609656
207	0x3df5dc67	0.12004929
208	0x3e2bd152	0.16779068
209	0xbe9fcab5	-0.3120934
210	0x3ea01c4e	0.31271595
211	0xbdd4af23	-0.10384967
212	0xbe884504	-0.26615155
213	0xbc25c999	-0.010118865
214	0x3e50cb42	0.20390037
215	0xbd8f23b3	-0.06989231

conv1.0.bias f4 [8]
0	0x3ae047d3	0.0017111249
1	0x3f24b198	0.64333487
2	0xbc782b55	-0.01514705
3	0x3f917a96	1.1365535
4	0x3f6865c2	0.9078027
5	0x3dbb34d1	0.09140933
6	0x3ebf8a2c	0.37410104
7	0xbb6b4dd7	-0.003590455

conv2.0.weight f4 [8, 8, 3, 3]
0	0xbe4b3588	-0.1984464
1	0xbe7ff289	-0.24994864
2	0xbe147080	-0.1449604
3	0xbe87b78c	-0.26507223
4	0xbe8ac5e8	-0.27104115
5	0xbe68c1f7	-0.22730242
6	0xbe38a3c9	-0.18031229
7	0xbeafc6a0	-0.34331226
8	0x3d8d695e	0.06904863
9	0xbe028dc0	-0.12749386
10	0x3dc2ea21	0.09517313
11	0x3dceda31	0.101002105
12	0x3db0f7e7	0.086410336
13	0xbe3cf16c	-0.1845147
14	0xbd015989	-0.031579528
15	0x3e8ba645	0.2727529
16	0x3cc067d9	0.023487018
17	0xbe289812	-0.1646426
18	0x3d597da4	0.053098336
19	0xbe788d96	-0.24272761
20	0x3e9f7452	0.31143433
21	0xbd2a1b4e	-0.041529946
22	0xbd34125d	-0.043962825
23	0x3e46bec1	0.19408704
24	0x3e4bbaa9	0.19895424
25	0xbd98c489	-0.07459361
26	0x3e14019c	0.14453739
27	0x3e28e4bd	0.16493507
28	0xbe96f565	-0.29484096
29	0x3e679a38	0.22617424
30	0x3dfe4edb	0.12417384
31	0x3dc6a452	0.0969931
32	0xbe99df49	-0.30053166
33	0xbcb80179	-0.02246164
34	0xbda825c4	-0.08210328
35	0xbd089e11	-0.03335387
36	0xbe4e9ef9	-0.20177831
37	0x3e4a6fd0	0.19769216
38	0x3eb34886	0.35016268
39	0x3ea9cd9b	0.33164677
40	0x3d8af11d	0.0678427
41	0x3ca1e752	0.019763622
42	0x3e3025eb	0.17201965
43	0x3d677854	0.05651124
44	0xbddfba00	-0.109241486
45	0x3de097ab	0.10966428
46	0x3e96e020	0.2946787
47	0x3d239789	0.039939437
48	0x3e90c3ec	0.28274477
49	0x3ebfae78	0.37437797
50	0x3ddbb21e	0.107273325
51	0x3e0eb2e7	0.13935433
52	0x3ecfa091	0.4055219
53	0x3f1bff82	0.6093675
54	0xbd7003d6	-0.05859741
55	0xbe08848e	-0.13331816
56	0xbe1989f6	-0.14994034
57	0xbe5ee17a	-0.217657
58	0xbe540eee	-0.2070882
59	0xbd1f2fc8	-0.038863927
60	0xbeb6ac00	-0.356781
61	0xbe32d2c1	-0.17463209
62	0xbe4d71c5	-0.20062931
63	0x3dbb51bd	0.0914645
64	0x3d7f7ce0	0.06237495
65	0xbe71c9a1	-0.23612072
66	0xbd911794	-0.07084575
67	0x3cd77bdb	0.026304176
68	0xbdaa91d7	-0.08328598
69	0x3e4163df	0.18885754
70	0xbdfca37f	-0.12335872
71	0xbd2811f0	-0.04103273
72	0xbd01d975	-0.031701524
73	0xbdc6c057	-0.09704655
74	0xbd3f6358	-0.0467256
75	0xbcefdef4	-0.029281117
76	0xbcb2a25f	-0.02180594
77	0xbbed1525	-0.0072351866
78	0xbd1b80b4	-0.037964538
79	0x3d321f34	0.04348679
80	0x3cebacef	0.028768985
81	0xbd7eb4f4	-0.06218429
82	0x3dc06b1f	0.09395432
83	0xbeedd70f	-0.4645314
84	0xbe1fbe4f	-0.1559994
85	0x3ef63ae3	0.48091802
86	0xbc2a9085	-0.010410433
87	0x3eb700f4	0.35742915
88	0x3e57b823	0.21066336
89	0x3cb8ae2a	0.022543985
90	0x3e1f46ba	0.15554324
91	0x3e71ba6b	0.23606269
92	0x3e312274	0.17298299
93	0xbc70eec7	-0.014705366
94	0x3e8ce9ac	0.27522027
95	0x3e1eaa92	0.15494755
96	0xbe2c1d3f	-0.16808031
97	0xbd2ec8d3	-0.04267199
98	0x3ec9ffef	0.39453074
99	0x3eb5ad5d	0.35483828
100	0x3dfc5cb0	0.12322366
101	0x3d658dfa	0.056043603
102	0x3e3cbe88	0.18432057
103	0x3ed9c51d	0.42533198
104	0xbe05e8c5	-0.13077076
105	0x3ced5f06	0.028975975
106	0x3ef4239b	0.47683415
107	0xbd03b44d	-0.03215437
108	0xbd7f1e1b	-0.06228457
109	0xbdb5fe57	-0.08886402
110	0xbcc5a61c	-0.024127059
111	0xbe6d4827	-0.23172055
112	0xbd9a2dd4	-0.07528272
113	0x3e509990	0.2037108
114	0x3d6cfd34	0.05785866
115	0xbd1cc7f9	-0.038276646
116	0xbda9c5f9	-0.082897134
117	0xbdd9d891	-0.1063701
118	0xbe8726eb	-0.2639688
119	0xbe41acef	-0.18913625
120	0xbe9e3a65	-0.30903926
121	0xbc8b1d98	-0.016981885
122	0x3cc57d24	0.024107523
123	0xbefc025f	-0.4922056
124	0xbe9d25f9	-0.30693033
125	0xbd6c77a4	-0.057731286
126	0x3ddf07dc	0.10890171
127	0xbdd4fb87	-0.103995375
128	0xbe35960c	-0.1773302
129	0x3a501c87	0.0007938821
130	0x3cfb29b0	0.030659527
131	0xbe0c8f8f	-0.13726638
132	0x3d22f79f	0.03978693
133	0x3d6687af	0.05628174
134	0x3d893e1f	0.06701302
135	0x3da67d3f	0.081293575
136	0xbdccca75	-0.09999553
137	0x3d3c25d0	0.0459345
138	0x3a26cbec	0.0006362784
139	0x3ba30952	0.0049754763
140	0xbccd2570	-0.025042266
141	0xbd2bdf46	-0.041960977
142	0xbd8c0f42	-0.06838848
143	0x3cc4acbd	0.02400815
144	0xbe56264d	-0.20913048
145	0xbee00d9a	-0.43760377
146	0x3cfd3760	0.030910194
147	0xbefad25a	-0.4898861
148	0xbf96be31	-1.1776792
149	0xbe23a6de	-0.15981624
150	0x3da23371	0.07919968
151	0xbe622035	-0.22082599
152	0x3d822723	0.06355121
153	0x3d9bbb8d	0.07604132
154	0xbd88e1bb	-0.0668368
155	0x3e0673d2	0.1313012
156	0x3c1d527a	0.0096021835
157	0xbe0b425f	-0.13599537
158	0x3c598187	0.013275511
159	0xbe5f78b5	-0.2182339
160	0xbd5ae29c	-0.053438768
161	0x3e02e300	0.12781906
162	0x3dcfb408	0.1014176
163	0x3e2d7413	0.1693881
164	0x3e69e255	0.22840245
165	0x3eacd7ab	0.33758292
166	0x3ec0e804	0.37677014
167	0x3de3c2d2	0.111211434
168	0x3dac3b7f	0.084097855
169	0x3dc7967d	0.097455
170	0x3d98df57	0.07464474
171	0x3e391f07	0.18078242
172	0x3e013fb6	0.1262196
173	0x3d86a6ec	0.065748066
174	0x3e748a44	0.23880869
175	0x3e0771f9	0.13227071
176	0x3e4855c9	0.19563974
177	0xbe676051	-0.22595336
178	0xbdf341a7	-0.118777566
179	0xbdf74eaa	-0.12075551
180	0x3d43b1e5	0.047777075
181	0xbd233e31	-0.039854232
182	0xbcf6ac86	-0.030111562
183	0x3d831b00	0.06401634
184	0xbea3a1b8	-0.3195932
185	0x3b8b8de8	0.00425886
186	0x3dde0610	0.10841
187	0xbd687862	-0.05675543
188	0x3e15c922	0.14627507
189	0x3c020930	0.007936761
190	0xbe10ad47	-0.141286
191	0xbe752304	-0.23939139
192	0xbecdd27e	-0.40199655
193	0xbf1d346a	-0.614081
194	0xbd2cb4b4	-0.04216452
195	0xbe1d24c9	-0.15346064
196	0x3e0d137a	0.13776961
197	0x3d1f8a61	0.038950328
198	0x3d46eacb	0.04856376
199	0xbe423201	-0.18964387
200	0xbcda8ffc	-0.026679985
201	0x3d3bbca7	0.04583421
202	0xbe1b92b0	-0.15192676
203	0xbdfa0d6e	-0.12209593
204	0xbd303bda	-0.04302583
205	0xbdc0efbc	-0.09420726
206	0x3e697d8b	0.22801797
207	0xbc9a5256	-0.018838089
208	0xbe0d451e	-0.13795897
209	0x3c41f9e0	0.01183936
210	0xbd550a17	-0.052011576
211	0xbf2aa8da	-0.666639
212	0xbdd59331	-0.10428465
213	0x3d348feb	0.044082563
214	0xbdf5a863	-0.11995008
215	0x3cd45ec1	0.025924088
216	0x3e13e434	0.14442521
217	0x39a080fe	0.00030613685
218	0x3ca9895c	0.02069538
219	0xbd322d12	-0.043500014
220	0x3e3bee8a	0.18352714
221	0x3e65b905	0.2243386
222	0x3e27313b	0.16327374
223	0x3e967d4f	0.29392478
224	0x3e737114	0.23773605
225	0xbea803ec	-0.32815492
226	0xbddd6edd	-0.10812161
227	0xbdbe7b51	-0.093008645
228	0x3d46fca8	0.048580796
229	0x3e8446d7	0.25835297
230	0xbd846924	-0.064653665
231	0xbe905527	-0.28189966
232	0xbe2d6ce6	-0.16936073
233	0x3e259522	0.16170171
234	0x3cc987e3	0.024600929
235	0x3e52f0ce	0.20599672
236	0x3ec882be	0.39162248
237	0x3e284eea	0.16436353
238	0xbe2eab90	-0.17057633
239	0x3e7cc90f	0.24686073
240	0x3e0b0cbe	0.1357908
241	0x3d97df85	0.0741568
242	0x3d199c0a	0.037502326
243	0x3ef73103	0.4827958
244	0x3f2ad891	0.66736704
245	0x3df26cee	0.11837183
246	0x3e5b4c47	0.21415816
247	0x3e8a7a1b	0.27046284
248	0x3d918af1	0.07106579
249	0xbc4b2b67	-0.012400485
250	0x3e14558c	0.14485759
251	0x3e521042	0.20514014
252	0x3c2b193a	0.010443026
253	0xbe4ed518	-0.20198476
254	0x3dbbed88	0.09176165
255	0xbe041b43	-0.12901025

conv2.0.bias f4 [8]
0	0x3d7c32b6	0.0615718
1	0xbf11be11	-0.56930643
2	0x3f6fa387	0.936089
3	0x3df2d752	0.11857475
4	0x3f0f35ca	0.5594145
5	0xbf5842b5	-0.84476787
6	0x3f0350d8	0.5129523
7	0xbf03af30	-0.5143919

conv3.0.weight f4 [8, 8, 3, 3]
0	0x3e023b13	0.12717848
1	0xbe2e4df5	-0.17021926
2	0xbe298f6d	-0.16558619
3	0x3ea4b042	0.32165724
4	0xbea53383	-0.32265863
5	0x3e15edc7	0.14641486
6	0xbe60d48e	-0.21956083
7	0x3eb7854a	0.3584388
8	0x3e895614	0.26823485
9	0xbec4df86	-0.38451785
10	0x3e4f214c	0.20227545
11	0xbe1d808f	-0.15381072
12	0x3e3c8a72	0.18412188
13	0x3d420a79	0.04737327
14	0x3d4da5cc	0.050206944
15	0xbdadb069	-0.08480913
16	0xbe65bdbf	-0.22435664
17	0xbe2efcc6	-0.17088613
18	0x3deb374b	0.11485156
19	0xbf0aa554	-0.5415852
20	0x3e592142	0.21204093
21	0x3e683549	0.22676577
22	0x3deda45e	0.11603616
23	0xbe9348b2	-0.287664
24	0x3ee4254c	0.44559705
25	0x3ec8866b	0.39165053
26	0x3e8cc4b4	0.27493823
27	0xbdabb698	-0.08384436
28	0xbdb67781	-0.08909512
29	0xbe11f501	-0.14253618
30	0xbe6ca7df	-0.23110913
31	0xbe284792	-0.16433552
32	0x3e353ac0	0.17698193
33	0xbcb5e75c	-0.022205047
34	0x3e533ab3	0.2062786
35	0x3cfb8361	0.030702295
36	0xbde3d5ff	-0.11124801
37	0xbe1c0a5c	-0.15238327
38	0xbd2ec82c	-0.042671368
39	0x3e110281	0.14161111
40	0x3e1c5c49	0.15269579
41	0x3e2bcb6e	0.16776821
42	0x3ecae256	0.39625806
43	0x3e6cbae2	0.23118165
44	0x3df22873	0.11824121
45	0x3e831c8c	0.25607717
46	0xbe12c444	-0.14332682
47	0x3dfdb0ab	0.12387212
48	0x3d8bf5ec	0.06834015
49	0xbe0a8369	-0.13526691
50	0x3e70a105	0.23498924
51	0x3bfd0c25	0.007722395
52	0x3d424869	0.047432337
53	0xbc40d8a6	-0.011770403
54	0xbe1ba3ec	-0.1519925
55	0xbd9ef577	-0.077616625
56	0x3d50b2fe	0.05095195
57	0x3dcf864a	0.101330355
58	0xbe988b1f	-0.2979364
59	0x3c032768	0.008005001
60	0x3e243c87	0.16038714
61	0x3dfad78e	0.12248145
62	0xbde6de59	-0.11272878
63	0x3bb1f0d9	0.0054303226
64	0x3e76c861	0.24099876
65	0x3e3bd12a	0.18341509
66	0x3de20208	0.11035544
67	0xbe010a0a	-0.12601486
68	0x3e8c7102	0.27429968
69	0x3d050bcb	0.03248195
70	0x3e2c803d	0.16845794
71	0x3e5ccc83	0.2156239
72	0x3c458ebd	0.012057957
73	0x3d76600e	0.0601502
74	0xbc38e060	-0.011283964
75	0xbc7e6a4b	-0.015528272
76	0xbe4e1b38	-0.2012757
77	0x3d7e5171	0.062089387
78	0x3dd69d7d	0.10479257
79	0x3dd2c93d	0.102922894
80	0x3e7584bf	0.2397642
81	0x3e04a39d	0.12953039
82	0xbec26d08	-0.3797381
83	0xbe61cf97	-0.22051845
84	0xbdfbc9fa	-0.12294383
85	0xbdb96e1c	-0.09054205
86	0xbe5f3bb6	-0.21800122
87	0xbd54ecfd	-0.051983822
88	0xbe0f34b2	-0.13984945
89	0xbec1b49d	-0.3783311
90	0xbddc5d70	-0.10760009
91	0xbe9f46e4	-0.31108773
92	0xbeb104c1	-0.3457394
93	0x3dc4db77	0.09612172
94	0xbe039fd3	-0.12853937
95	0xbe9f7aa4	-0.31148255
96	0x3b7ec4aa	0.0038874545
97	0xbd73711f	-0.059434053
98	0xbecfc73a	-0.40581685
99	0x3d165f08	0.036711723
100	0x3c8230a6	0.015892338
101	0x3e1fd7ad	0.15609618
102	0x3c0fd041	0.008777679
103	0x3c9f9e9d	0.019484812
104	0x3d770383	0.060306083
105	0x3b02f09e	0.0019979845
106	0x3e1ef9ee	0.15525028
107	0x3e8b15b1	0.27164987
108	0x3d576153	0.05258305
109	0xbe90dbc6	-0.28292674
110	0x3b96d72d	0.0046032877
111	0xbdca94e0	-0.09891677
112	0xbc9e4c82	-0.019323591
113	0x3c92c3d9	0.017915653
114	0xbe0bce76	-0.13652977
115	0x3cc95e19	0.024581002
116	0x3ccbec97	0.024893088
117	0xbd8c8b3a	-0.06862493
118	0x3c4ccab8	0.012499504
119	0x3de113ca	0.109901026
120	0x3dc67f9f	0.096923105
121	0xbe98bbb8	-0.29830718
122	0x3dc9d481	0.09854985
123	0x3e19f351	0.15034224
124	0x3dd86ad1	0.105672486
125	0xbd889206	-0.06668477
126	0x3dc65a66	0.09685211
127	0x3e9b51b0	0.3033576
128	0x3d7b29a4	0.06131901
129	0xbd88a291	-0.06671632
130	0x3e4c210b	0.1993448
131	0xbd8826e7	-0.06648045
132	0x3d8d2e5d	0.06893609
133	0x3cf69a32	0.030102823
134	0x3e782ddf	0.24236248
135	0xbde00207	-0.10937887
136	0xbdcedd4a	-0.10100801
137	0xbe1acd7c	-0.15117449
138	0x3d186da2	0.03721393
139	0xbea0facf	-0.31441352
140	0xbc42c37a	-0.011887426
141	0x3e4fabf4	0.20280439
142	0xbd0186d8	-0.031622738
143	0x3e93925a	0.28822595
144	0xbce1e64e	-0.027575638
145	0x3e21f42b	0.15815799
146	0xbe262115	-0.16223557
147	0xbe17da6f	-0.1482942
148	0xbd13d47c	-0.036091313
149	0x3e911199	0.28333738
150	0x3ddb92f3	0.10721388
151	0xbe675ccc	-0.22593993
152	0xbe72a948	-0.23697388
153	0x3e9a4fcd	0.30139008
154	0x3ec55c12	0.38546807
155	0x3e4f5717	0.20248066
156	0x3e0b50ee	0.13605091
157	0x3e89db38	0.26925063
158	0x3e35a754	0.17739612
159	0x3d395842	0.045250185
160	0x3c9dc096	0.019256871
161	0x3e262761	0.1622596
162	0xbe6e7888	-0.23288167
163	0xbd42caa8	-0.04755655
164	0xbe4bcf2a	-0.19903246
165	0xbea2762f	-0.31730792
166	0xbeca3149	-0.39490727
167	0xbe32ad9b	-0.17449038
168	0xbe0c734e	-0.1371586
169	0xbeaf097a	-0.34186918
170	0xbf19433a	-0.59868205
171	0xbce431f7	-0.027855856
172	0xbdeedfac	-0.11663756
173	0x3d99f354	0.07517114
174	0x3d50975c	0.050925598
175	0xbe01891b	-0.12649958
176	0xbe102006	-0.14074716
177	0x3e0e203b	0.13879482
178	0x3e8401ad	0.2578253
179	0x3e6cb849	0.23117174
180	0xbe43c5f7	-0.19118486
181	0x3d955acd	0.072927095
182	0xbcf92c82	-0.03041673
183	0xbc04e18b	-0.008110414
184	0xbdcd8354	-0.100348145
185	0x3e5049d4	0.20340663
186	0x3a9fee47	0.001220175
187	0x3db6aa62	0.08919217
188	0x3e50ac4f	0.2037823
189	0x3c155486	0.00911439
190	0x3e131997	0.1436523
191	0xbcc9fbb4	-0.024656154
192	0xbe880dcd	-0.2657303
193	0x3dd96561	0.106150396
194	0xbdbf01ed	-0.09326539
195	0x3d0bf35e	0.03416764
196	0x3e97ab44	0.29622853
197	0x3ebf7432	0.37393337
198	0xbe457e85	-0.19286545
199	0xbed56c9c	-0.41684425
200	0xbea94a18	-0.33064342
201	0x3c038485	0.008027201
202	0xbe7343be	-0.2375631
203	0xbe5c2d65	-0.21501692
204	0xbddc2c18	-0.10750598
205	0x3e21fb0d	0.15818425
206	0x3da83760	0.08213687
207	0x3e8f9a62	0.28047472
208	0xbd8a2274	-0.06744853
209	0x3dfdb828	0.12388641
210	0x3da91101	0.08255196
211	0x3eb3a8c9	0.3508971
212	0x3e64358a	0.22286049
213	0xbe688032	-0.22705153
214	0x3e14851a	0.14503899
215	0xbe6fc903	-0.23416524
216	0xbe876f6c	-0.26452196
217	0x3dc4bfea	0.09606917
218	0x3d7cb4fb	0.061696034
219	0x3da2a379	0.07941336
220	0x3d95c7dc	0.07313511
221	0x3ea689dd	0.32527056
222	0x3e1e8d4f	0.15483592
223	0x3e34b31e	0.17646453
224	0x3eb5266c	0.35380876
225	0x3e2db48d	0.16963406
226	0x3e9e3ad1	0.30904248
227	0xbcae2a44	-0.021260388
228	0xbd5d9a41	-0.054102186
229	0x3ebe941c	0.37222373
230	0x3dc7230d	0.09723482
231	0x3d69d8c9	0.057091508
232	0x3e8f6191	0.28004125
233	0x3d6d749b	0.05797253
234	0xbd541667	-0.051779177
235	0xbe79b7ff	-0.24386595
236	0xbd7ccfb3	-0.061721515
237	0x3d55b296	0.052172266
238	0xbd80bdd5	-0.062862076
239	0xbe076ca9	-0.13225044
240	0xbd864b5a	-0.06557341
241	0x3deaeb69	0.11470682
242	0x3cdeeef8	0.027213559
243	0xbe641ce4	-0.22276646
244	0xbd98ad4a	-0.07454927
245	0xbde88012	-0.113525525
246	0xbdec2f2f	-0.11532437
247	0xbea81b2c	-0.3283323
248	0x3e0ebb73	0.13938694
249	0xbd4f5e4a	-0.05062703
250	0xbe1a143b	-0.1504678
251	0x3e7f4489	0.24928488
252	0xbe43a858	-0.19107187
253	0x3e025a65	0.12729795
254	0x3e1c7c33	0.15281753
255	0x3ce64b20	0.028111994

conv3.0.bias f4 [8]
0	0xbf727047	-0.9470257
1	0x3fbdf91e	1.484165
2	0x3dc08d03	0.09401896
3	0xbf009a63	-0.50235575
4	0xbfac247e	-1.3448637
5	0xbf753f44	-0.9579966
6	0xbdd8fd50	-0.105951905
7	0x3d0f742e	0.035022907

dense1.0.weight f4 [32, 128]
0	0xbd300127	-0.04296985
1	0x3e4d9921	0.20077945
2	0xbd4a9213	-0.049455713
3	0x3d8f7239	0.07004208
4	0xbce3d0d1	-0.027809532
5	0xbd5124bf	-0.051060434
6	0xbd70d1d4	-0.058793858
7	0xbdcdee4e	-0.10055219
8	0x3e825868	0.25458074
9	0x3e34148c	0.17585963
10	0xbe94b6be	-0.2904567
11	0x3d7e802d	0.062133957
12	0xbe4fe9c8	-0.20304024
13	0x3c71b979	0.014753693
14	0xbd9676d1	-0.07346881
15	0xbc19acb2	-0.009379553
16	0xbe8c458a	-0.27396804
17	0xbda35b08	-0.07976347
18	0x3e7a3b28	0.24436629
19	0x3cd9d0c6	0.026588809
20	0x3dff3251	0.12460769
21	0xbe2ff0d9	-0.1718172
22	0xbe45cd58	-0.19316614
23	0x3e07734b	0.13227575
24	0x3eade40a	0.33963042
25	0xbdb42610	-0.08796322
26	0x3e4dadb1	0.2008579
27	0xbde57f14	-0.11205879
28	0xbd7b98e3	-0.0614251
29	0x3d517d7d	0.051145066
30	0xbd86932c	-0.065710396
31	0xbddc021c	-0.1074259
32	0xbdffacfa	-0.124841645
33	0x3e48a852	0.19595459
34	0xbdf97248	-0.121800005
35	0xbd85ab6e	-0.06526838
36	0x3e6915c7	0.22762214
37	0x3e6c03ea	0.23048368
38	0xbe2975ed	-0.16548891
39	0xbc6e2654	-0.014535505
40	0x3d509e05	0.05093195
41	0x3d8e2721	0.06941057
42	0xbe8fe418	-0.2810371
43	0x3e70defa	0.23522559
44	0x3d0f6d4b	0.03501634
45	0x3d201153	0.03907902
46	0xbde4421d	-0.111454226
47	0xbcc9177c	-0.024547331
48	0xbd497934	-0.049187854
49	0x3dd4fffe	0.10400389
50	0xbe5c4068	-0.21508944
51	0x39223105	0.00015467785
52	0xbe6ff42d	-0.2343299
53	0x3e2c073c	0.16799635
54	0xbe0f86e6	-0.14016303
55	0x3d2cd372	0.042193837
56	0xbe0dd322	-0.13850072
57	0x3db2d177	0.087313585
58	0x3d8dc143	0.06921627
59	0xbd872687	-0.065991454
60	0x3e2de205	0.16980751
61	0xbe0d90da	-0.13824788
62	0xbd07c700	-0.033148766
63	0xbe1288af	-0.14309953
64	0x3b2b7228	0.0026160572
65	0x3e60276e	0.21890041
66	0xbe16bc98	-0.1472038
67	0x3e496fed	0.19671603
68	0x3e573b33	0.21018676
69	0x3d96274f	0.07331716
70	0xbe61f64f	-0.22066616
71	0x3d90c026	0.070678994
72	0xbe1255ac	-0.14290494
73	0x3da0019c	0.07812807
74	0xbd67cc19	-0.056591127
75	0x3e868799	0.26275328
76	0xbe268c8d	-0.16264553
77	0xbe30f742	-0.17281821
78	0xbd40cd64	-0.047070876
79	0x3cf969e1	0.030445995
80	0x3e1aaeb0	0.151057
81	0x3e151da3	0.14562087
82	0xbc439e78	-0.011939637
83	0xbd28acdd	-0.04118048
84	0x3cd2df96	0.02574138
85	0x3e278f0c	0.16363162
86	0xbe6dbc24	-0.23216301
87	0x3c154c93	0.009112495
88	0x3d9a0b16	0.07521646
89	0xbd99d378	-0.075110376
90	0xbd39e96a	-0.045388617
91	0xbb3a2cb2	-0.0028407988
92	0x3e1acf07	0.15118037
93	0x3e0ebb40	0.13938618
94	0x3dc929cb	0.098224245
95	0xbc943889	-0.018093364
96	0xbcc970cc	-0.024589919
97	0x3d94a1d5	0.072574295
98	0x3c29f2e5	0.010372852
99	0xbdfda968	-0.12385827
100	0xbe5a7817	-0.21334873
101	0x3e04d7e7	0.12972985
102	0xbe1b4ffa	-0.15167227
103	0x3db381be	0.08764981
104	0x3d0465cb	0.03232364
105	0x3de2fa73	0.11082926
106	0x3b301d40	0.0026872903
107	0x3e677124	0.22601753
108	0x3e191623	0.1494985
109	0xbe6844f7	-0.22682558
110	0xbde6f5f0	-0.112773776
111	0xbc0cb431	-0.008587883
112	0xbe0667aa	-0.13125482
113	0xbe60f4a9	-0.2196833
114	0x3d983006	0.07431035
115	0x3e80f13b	0.25184044
116	0x3d29043b	0.0412638
117	0x3ebc1ec3	0.3674222
118	0xbe3e7c4b	-0.18602102
119	0xbdfbdaaa	-0.12297566
120	0x3df2122d	0.11819873
121	0x3ded7781	0.11595059
122	0x3e110434	0.1416176
123	0xbe6a21e8	-0.22864497
124	0x3c98b031	0.018638702
125	0x3da9d0a1	0.08291746
126	0xbdfdd308	-0.12393767
127	0xbdb743c5	-0.08948473
128	0xbe0d58fb	-0.13803475
129	0x3e057b4c	0.13035315
130	0x3d96ef97	0.07369917
131	0xbdbcaf39	-0.092131086
132	0xbd81b267	-0.06332856
133	0xbde84b74	-0.113425165
134	0x3db0e84d	0.08638058
135	0x3e081897	0.1329063
136	0x3e9b5382	0.3033715
137	0xbdc7e529	-0.09760506
138	0xbe1df8c4	-0.15426928
139	0x3d9943e1	0.0748365
140	0x3ca45bc7	0.020063294
141	0x3d252b8c	0.040324733
142	0x3b67af49	0.003535228
143	0x3c8f6667	0.017504884
144	0xbc8471a0	-0.016167462
145	0x3dee6bd2	0.11641659
146	0x3da81184	0.08206466
147	0xbe0b8570	-0.13625121
148	0xbcb628b9	-0.022236215
149	0xbe06b774	-0.1315592
150	0xbe34b6e2	-0.1764789
151	0x3c07e4c9	0.008294293
152	0xbd593e04	-0.05303766
153	0xbe3996d5	-0.18123944
154	0xbe0fe20c	-0.14051074
155	0xbc279a89	-0.010229715
156	0x3d26cafa	0.040720917
157	0xbe2fc7c7	-0.17166053
158	0xbde5b252	-0.112156525
159	0x3d122b92	0.035686083
160	0x3d8830f1	0.0664996
161	0x3e0b1478	0.13582027
162	0xbd90f55f	-0.07078051
163	0x3df269e0	0.118366
164	0xbd500b6c	-0.050792143
165	0x3e5b8e9d	0.21441121
166	0x3d9c5a7d	0.07634447
167	0xbe2970e8	-0.16546977
168	0x3d8d99aa	0.06914075
169	0xbe0ac2a4	-0.13550812
170	0x3ce49e01	0.027907373
171	0x3d0f5de7	0.03500166
172	0xbdc63e89	-0.096798964
173	0x3d8773e3	0.066139005
174	0x3cd5ca6a	0.026097495
175	0xbe84aadb	-0.25911602
176	0x3d8b99b1	0.06816424
177	0xbdce303f	-0.10067796
178	0xbd65d135	-0.05610772
179	0xbea6bb39	-0.32564715
180	0x3e20eabb	0.15714543
181	0xbdbc20b0	-0.09185922
182	0xbd8aae90	-0.067715764
183	0xbcccc617	-0.0249968
184	0xbe889992	-0.26679665
185	0xbcfc8c40	-0.030828595
186	0x3cee3812	0.02907947
187	0x3da0ac93	0.07845416
188	0xbe19302a	-0.1495978
189	0x3e58291e	0.21109435
190	0x3e46ec9b	0.19426195
191	0x3e328515	0.1743358
192	0x3e2cf761	0.16891243
193	0xbdb51fca	-0.08843954
194	0xbccd7c76	-0.025083762
195	0xbc9d0b15	-0.019170323
196	0x3d9b75e0	0.07590842
197	0xbd1a9138	-0.037736148
198	0x3d96134a	0.07327898
199	0x3d15e496	0.03659495
200	0x3e054fa8	0.13018668
201	0x3d3fe5cc	0.04685001
202	0x3eb3dbf3	0.35128745
203	0x3e4ce79f	0.20010231
204	0x3d096e8e	0.0335527
205	0x3e418e21	0.18901874
206	0x3e985cc6	0.2975828
207	0xbddf6b09	-0.10909087
208	0x3e0c0491	0.13673617
209	0xbdd614c6	-0.10453181
210	0x3e37e75e	0.17959353
211	0x3e23d147	0.15997802
212	0xbdcb5ae6	-0.09929447
213	0x3d8b7dae	0.06811081
214	0x3e616a4d	0.22013207
215	0x3d83560d	0.06412897
216	0x3e1b4368	0.15162432
217	0x3e82b3c4	0.25527775
218	0x3f03d62a	0.51498663
219	0x3d9ebdde	0.07751058
220	0xbe2f26d6	-0.17104658
221	0x3ce56733	0.02800331
222	0xbeb15835	-0.3463761
223	0xbe1c00ef	-0.15234731
224	0xbd8e2ded	-0.069423534
225	0xbe199846	-0.14999494
226	0xbeaf2c44	-0.3421346
227	0x3df07041	0.11740161
228	0xbe900082	-0.28125387
229	0xbe5c38f5	-0.21506102
230	0xbe7077e6	-0.23483238
231	0xbdabb81c	-0.083847255
232	0xbdc8df45	-0.0980821
233	0xbde43eb5	-0.11144773
234	0xbcb90b1d	-0.022588307
235	0xbe94d6fd	-0.29070273
236	0xbd1daa78	-0.03849265
237	0x3db0d7dc	0.08634922
238	0xbe0555fb	-0.1302108
239	0xbc8ba677	-0.01704715
240	0xbd18a0f0	-0.037262857
241	0x3daa6b04	0.08321193
242	0xbd2bac6f	-0.041912492
243	0xbe400aac	-0.18754071
244	0x3e151d57	0.14561974
245	0xbe9c1589	-0.3048518
246	0x3e18bf6c	0.14916772
247	0x3dd03a9b	0.10167428
248	0x3d6b1324	0.0573913
249	0x3e92bc9d	0.28659526
250	0x3d1a9f67	0.037749674
251	0x3c65cf49	0.014026471
252	0xbd447a32	-0.047968097
253	0x3e605d6b	0.21910636
254	0xbe033fb0	-0.12817264
255	0x3e8bfb89	0.27340344

dense1.0.bias f4 [32]
0	0xbef4cfff	-0.47814938
1	0x3fd8e7b2	1.6945708
2	0x3fc3db18	1.5301237
3	0x400483a0	2.0705338
4	0x3e3934a1	0.18086483
5	0xbe6c194e	-0.23056528
6	0x3f3baa00	0.73306274
7	0x3f208956	0.6270956
8	0x3f85c887	1.0451821
9	0xbf35ae31	-0.7096892
10	0xb969b7db	-0.00022289103
11	0xbe3bbcbf	-0.1833372
12	0x3f29e01c	0.6635759
13	0xbe5e159a	-0.21687928
14	0xbf9433b2	-1.1578276
15	0x3f1cedf1	0.6130057
16	0xbdcb30e2	-0.09921433
17	0x3f6f5936	0.934955
18	0xbdf9d253	-0.12198319
19	0xbf74ad9b	-0.955774
20	0x3fe94530	1.8224239
21	0x3f825b02	1.0184023
22	0xbf142227	-0.5786461
23	0x3f6325c2	0.8872949
24	0x3f4b8721	0.79503065
25	0xbee05e42	-0.43821913
26	0xbfcbbb4d	-1.5916535
27	0x3fc291df	1.5200766
28	0xbff24e4f	-1.8930148
29	0xbd4c33f7	-0.049854245
30	0xbdad9122	-0.084749475
31	0xbf891247	-1.0708703

dense2.weight f4 [10, 32]
0	0xbd177918	-0.03698072
1	0xbd1ab426	-0.03776946
2	0x3e900c4c	0.28134382
3	0xbf535445	-0.8255046
4	0x3ecb7ff3	0.39746055
5	0x3e0dbc87	0.13841449
6	0xbec324f6	-0.38114136
7	0xbe7c6120	-0.24646425
8	0x3e717bd5	0.23582394
9	0xbe0eec44	-0.13957316
10	0x3b9f0030	0.0048523173
11	0xbce91e10	-0.028456718
12	0x3e76f8c3	0.24118333
13	0xbe9ddfad	-0.30834714
14	0x3e9dd351	0.30825284
15	0x3e73300d	0.23748799
16	0xbe1915fe	-0.14949796
17	0xbe869d9e	-0.26292127
18	0x3ef5d050	0.48010492
19	0xbee1b848	-0.44085908
20	0x3d07ed2a	0.03318516
21	0x3e9d880f	0.30767867
22	0x3e4e6381	0.20155145
23	0x3e88d979	0.26728418
24	0xbf1a216a	-0.60207236
25	0x3e841d13	0.25803432
26	0xbf197885	-0.59949523
27	0xbe4d1f31	-0.2003143
28	0x3e8b0d03	0.27158365
29	0xbde669b2	-0.112506285
30	0xbdbbc59c	-0.0916855
31	0x3ec671b0	0.38758612
32	0xbe570498	-0.20997846
33	0x3ea2dd9f	0.31809708
34	0xbeb9ea04	-0.36311352
35	0x3f19f481	0.6013871
36	0x3e871bca	0.2638839
37	0xbefd3de1	-0.49461272
38	0xbe698b1e	-0.22806975
39	0xbd9e14ca	-0.07718809
40	0xbf3cf797	-0.7381529
41	0x3f1056df	0.56382555
42	0xba6d7a8f	-0.0009059095
43	0x3eb365dd	0.35038653
44	0xbf1dcdb8	-0.61642027
45	0x3e4df839	0.2011422
46	0x3f96e303	1.1788028
47	0x3ec9e819	0.3943489
48	0x3cc3214e	0.023819592
49	0xbf1a5690	-0.60288334
50	0xbdbc11b0	-0.09183061
51	0x3e430c66	0.19047698
52	0xbf494411	-0.78619486
53	0xbf222603	-0.6333925
54	0xbe567b1f	-0.20945404
55	0xbf09bdb5	-0.53805095
56	0xbdb00ff5	-0.085967936
57	0x3ece3762	0.4027663
58	0xbe6b8763	-0.23000865
59	0x3e3e079a	0.18557587
60	0x3e98da48	0.29854035
61	0x3ea47cc5	0.32126442
62	0x3ebfce7a	0.37462217
63	0xbe0d3173	-0.13788395
64	0x3f4c62e1	0.7983838
65	0x3de99571	0.11405457
66	0x3e8ec0dd	0.27881518
67	0x3e322a30	0.17398906
68	0x3da58039	0.08081097
69	0x3f3106dd	0.691511
70	0xbebd1f85	-0.3693811
71	0x3dbed2a3	0.093175195
72	0x3e5ead18	0.21745718
73	0xbeed8244	-0.46388447
74	0xbb0f34f3	-0.0021851629
75	0x3b7f8558	0.0038989391
76	0x3d06c03a	0.032898165
77	0xbed4b6d7	-0.41545746
78	0xbca4ab31	-0.020101162
79	0x3dad757b	0.08469673
80	0xbf35ad8e	-0.7096795
81	0x3eab3a83	0.33443078
82	0x3dac489b	0.08412286
83	0xbee51b99	-0.44747618
84	0x3eaaf090	0.3338666
85	0xbce07006	-0.027397167
86	0x3dc00013	0.09375014
87	0xbe3571ec	-0.17719239
88	0x3d927dc1	0.07152892
89	0x3df32f29	0.118742295
90	0x3db0e447	0.086372904
91	0xbe7aef30	-0.24505305
92	0x3d4e95b6	0.050435744
93	0x3f05d2b4	0.5227463
94	0x3eae10aa	0.3399709
95	0xbea605f7	-0.32426426
96	0x3c3cb158	0.011516891
97	0xbf024fd0	-0.50903034
98	0x3caa8ed1	0.020820053
99	0x3d47f37f	0.0488162
100	0xbe10bfff	-0.1413574
101	0xbd1d6f70	-0.038436353
102	0x3e922edb	0.28551373
103	0xbd3791ec	-0.044816896
104	0xbdb00472	-0.08594598
105	0xbe9c9796	-0.305844
106	0x3b0e6851	0.0021729658
107	0xbef8078d	-0.4844326
108	0xbe3b6136	-0.18298802
109	0x3e840e76	0.25792283
110	0xbe22662a	-0.15859285
111	0xbdc2e817	-0.09516924
112	0x3d24c649	0.040228162
113	0x3e600ff8	0.21881092
114	0xbdd1dfc6	-0.102477595
115	0x3e0e0267	0.13868104
116	0xbd907dc4	-0.07055238
117	0xbd20cb57	-0.03925642
118	0x3a95f3b5	0.0011440428
119	0x3e80f220	0.25184727
120	0xbeb8d177	-0.3609731
121	0xbda172ee	-0.07883249
122	0x3c842bf2	0.016134236
123	0xbe9428cc	-0.28937376
124	0x3e5e8a50	0.2173245
125	0x3d067d50	0.03283435
126	0xbeae0e32	-0.33995205
127	0x3cc5cf9a	0.024146844
128	0xbe3552d6	-0.1770738
129	0xbe8eea09	-0.2791293
130	0xbe02f9ad	-0.12790556
131	0x3e12a84e	0.14322016
132	0xbeaf228a	-0.3420604
133	0xbee71082	-0.45129782
134	0x3e9924a2	0.2991076
135	0x3eb219d4	0.3478533
136	0x3e4781b7	0.19483076
137	0xbed08d44	-0.40732777
138	0xbb078090	-0.0020675994
139	0xbeeb67c7	-0.45977613
140	0x3e27757d	0.16353412
141	0xbe79a240	-0.243783
142	0x3bf9929a	0.007616353
143	0xbf0ba900	-0.5455475
144	0x3e770703	0.24123769
145	0x3dd08855	0.10182253
146	0xbe60ecb5	-0.21965297
147	0xbccf0f2e	-0.025275793
148	0x3eb65a86	0.3561594
149	0x3d769e71	0.060209695
150	0x3e3ca0f9	0.18420781
151	0xbe674fc7	-0.22589026
152	0x3db44f81	0.08804227
153	0xbe5aeec8	-0.2138015
154	0xbeed7a8a	-0.46382552
155	0x3ee19b1c	0.44063652
156	0xbefa2a98	-0.4886062
157	0xbf709ca7	-0.9398903
158	0x3e7af568	0.24507678
159	0x3ec565d6	0.38554257
160	0x3d621282	0.05519343
161	0xbf0365ca	-0.5132719
162	0xbdb9340c	-0.0904313
163	0xbe38e8fd	-0.18057628
164	0x3e5ec719	0.21755637
165	0xbbe84101	-0.007087827
166	0x3e04ed7d	0.1298122
167	0x3d05f03b	0.032699805
168	0xbc37c6db	-0.011216844
169	0xbec37cbc	-0.38181102
170	0x3b5d7568	0.0033791903
171	0xbf1a485a	-0.6026665
172	0xbd66aacf	-0.05631524
173	0xbd5613e0	-0.052265048
174	0xbe698aed	-0.22806902
175	0x3e13673b	0.14394848
176	0x3e21e178	0.15808666
177	0x3ea00278	0.31251884
178	0xbe8e3bd5	-0.27780023
179	0x3d0bca91	0.03412873
180	0x3d0e2249	0.034700666
181	0x3e703a14	0.23459655
182	0x3cfe7983	0.0310638
183	0x3dff1606	0.124553725
184	0xbede2a4c	-0.43391645
185	0xbf0c2729	-0.54747254
186	0x3dfc82bd	0.12329624
187	0xbe866fd5	-0.26257196
188	0x3e49cdd8	0.1970743
189	0x3e44ca46	0.19217786
190	0xbee67e4c	-0.45018232
191	0x3c6f986d	0.0146237435
192	0xbf047809	-0.5174566
193	0xbdc83a38	-0.09776729
194	0x3e89422f	0.26808307
195	0x3d87ea4a	0.06636484
196	0xbe78a434	-0.24281389
197	0xbe51dd58	-0.20494592
198	0x3e872eb5	0.26402822
199	0x3e5bb9ce	0.21457598
200	0xbcb80c23	-0.022466725
201	0xbe8fede2	-0.28111178
202	0x3afb7968	0.0019185962
203	0x3eb1a910	0.34699297
204	0x3f04690a	0.51722777
205	0x3e022396	0.12708887
206	0xbe8bcff6	-0.273071
207	0x3e7d9e7b	0.24767487
208	0xbe2cc9b6	-0.16873822
209	0xbd3e541c	-0.04646693
210	0x3f0488e9	0.5177141
211	0x3e9f6be1	0.31136993
212	0x3cf00777	0.029300435
213	0xbe96233b	-0.29323754
214	0xbf17aae2	-0.5924512
215	0x3d06734e	0.032824807
216	0xbec56287	-0.38551733
217	0xbd5192a2	-0.05116523
218	0x3e116da4	0.14201981
219	0xbf3befd1	-0.73412806
220	0xbf135ddc	-0.57565093
221	0xbcffe91d	-0.031239087
222	0x3de3a347	0.11115127
223	0xbefad49e	-0.4899034
224	0xbe4392bf	-0.19098948
225	0xbf01df7f	-0.5073165
226	0xbf052243	-0.52005404
227	0xbeba6b5c	-0.36410034
228	0xbea0560b	-0.31315646
229	0xbe4a6482	-0.19764903
230	0xbef73513	-0.4828268
231	0xbdbe9cb6	-0.09307234
232	0x3e08bb79	0.13352765
233	0xbf0336d7	-0.51255554
234	0xbb97ff85	-0.0046386146
235	0xbecff555	-0.4061686
236	0xbe91ccd0	-0.28476572
237	0xbec67929	-0.38764313
238	0xbd4650f4	-0.048417047
239	0xbee27562	-0.4423018
240	0xbe3dabf6	-0.18522629
241	0x3d06112a	0.032731213
242	0xbf0ca56f	-0.5493993
243	0x3e5cf310	0.21577096
244	0x3e80fe42	0.25193983
245	0x3f5c63c7	0.8608975
246	0x3edadc9a	0.4274643
247	0xbe66ce83	-0.22539715
248	0x3edd97ee	0.43279976
249	0x3dfd8721	0.123792894
250	0x3edd993b	0.43280968
251	0x3e5562f8	0.20838535
252	0x3e8894f0	0.2667613
253	0xbea4aadb	-0.32161602
254	0xbe219aeb	-0.15781753
255	0xbc0b2b07	-0.008494145

dense2.bias f4 [10]
0	0x3efb61e3	0.4909812
1	0xbf845286	-1.0337684
2	0x3f3fa874	0.74866414
3	0xbe974177	-0.29542133
4	0x3feb296d	1.8372017
5	0xbf88ca93	-1.0686821
6	0x3e9fc7f2	0.31207234
7	0xbf917c9e	-1.1366155
8	0x3f3163ec	0.69293094
9	0xbf4ecd3e	-0.80781925
