ResidualLoss/CNN-Train/CIFAR_17/back_epoch-28.pt (torch, 27135 bytes, 10 tensors)

conv1.0.weight f4 [8, 3, 3, 3]
000000 44 4a 0f bf df 4c 9b 3e 64 3a a5 3e f2 26 24 bf
       -0.55972695 0.30332085 0.3227111 -0.64121926
000010 d8 6f d2 be d1 30 05 bf 21 45 24 3f d5 ce fa bd
       -0.41100955 -0.5202761 0.6416798 -0.12246481
000020 a2 0b 32 bf b3 7a 0b bf e2 cc a4 be b7 b8 84 3d
       -0.69549 -0.544841 -0.32187563 0.06480544
000030 0d d7 28 3e 3d 40 5f bd 2b 81 2f be 2c 26 83 3f
       0.16488285 -0.05450462 -0.17139117 1.0246024
000040 0d 50 97 be 36 2f da be a7 68 1c bf 23 d3 fc be
       -0.2955326 -0.42614144 -0.61097187 -0.49379835
000050 55 1e a2 bc 29 8e c8 be 68 77 9a bd 36 80 54 be
       -0.019789854 -0.3917096 -0.07542306 -0.20752034
000060 c9 89 c7 bb 12 a8 81 be 6c 9d 12 be 57 4e c8 3e
       -0.0060894233 -0.2532354 -0.14317864 0.3912227
000070 8a 7e 5e bd 7e 31 fb 3e b3 d5 4e 3f dd 14 e2 3e
       -0.054319896 0.49061197 0.8079483 0.44156542
000080 7a 01 5f 3d 33 cc 71 3f 32 c5 ef bd ce 52 30 bf
       0.054444768 0.9445221 -0.11707534 -0.6887635
000090 21 de d8 3e 33 60 66 3f 20 a6 4a 3f 1b 97 2e be
       0.4235697 0.8999054 0.79159737 -0.1704983
0000a0 fb 31 e4 3e db cf 22 bd ef f3 e3 3c 8a 77 c0 bd
       0.44569382 -0.039749008 0.027826278 -0.093978
0000b0 e4 87 0b bf a3 b4 aa 3d 3d 64 47 3f 85 96 13 3e
       -0.5450423 0.08335235 0.77887326 0.14412887
0000c0 c9 60 a5 3e 3a dd 28 be ce 9a 58 bf 31 0e 48 3f
       0.32300404 -0.16490641 -0.84611213 0.78146654
0000d0 19 df 6e be b4 5e 61 bf 05 fe f7 be 34 3d 43 be
       -0.23327293 -0.8803513 -0.4843599 -0.19066316
0000e0 cf 38 1c 3f 8f 41 ed be 42 0f 85 bd c4 40 4e 3f
       0.61024183 -0.4633908 -0.06497051 0.80567575
0000f0 2f ec f1 bd 20 f9 b9 be 1f 68 e8 3e a2 71 81 be
       -0.118126266 -0.3632288 0.45391938 -0.25282007
000100 e0 31 e3 be 6c 36 c6 bd fb 7b ae bd 3b ca 0d bf
       -0.4437399 -0.09678349 -0.08519741 -0.55386704
000110 d2 33 b1 3e 96 ba 96 bd 5f 0f dd be e1 90 37 3f
       0.34609848 -0.07359807 -0.4317579 0.7170544
000120 7a 2f 0b 3c ad d6 25 bf f8 93 e1 3e d9 de 01 bf
       0.008495206 -0.64780694 0.44058204 -0.50730664
000130 e2 c2 ac 3c 14 a0 22 3f 38 2e 21 be f3 a9 66 3d
       0.021089021 0.6352551 -0.15740287 0.05631442
000140 3d 31 64 3f b7 39 f7 3d 79 4e 5d 3f 41 a9 39 3f
       0.8913763 0.12071555 0.86447865 0.72523886
000150 8a 06 bc be 34 6a 8d be 75 a8 9d be 37 09 01 3f
       -0.3672374 -0.2762009 -0.30792585 0.50404686
000160 a7 a3 1f 3f a3 df 47 3e 18 ef ff be 6f 7d d6 3e
       0.6235909 0.19518904 -0.49987102 0.41892573
000170 0f b6 62 3e cd 6b a0 bf 48 ed d4 be b7 b1 19 be
       0.22139762 -1.2532898 -0.4158728 -0.15009199
000180 52 2a 28 bf cc 79 b8 bd 55 73 1c 3e 20 4d 99 3b
       -0.65689576 -0.09007606 0.1527837 0.0046783835
000190 31 ab 07 3f 98 4e 8d 3f 43 31 08 3e eb e1 6e 3f
       0.5299559 1.103961 0.13300042 0.93313473
0001a0 73 ce 98 3f 35 c8 c2 be c1 e2 2d 3d 97 87 6c 3e
       1.1938003 -0.3804337 0.042452578 0.23098598
0001b0 9d 24 7f 3f 1d fb 9a 3d 9e a8 97 be f3 66 3e 3f
       0.9966524 0.07567427 -0.29620832 0.7437584
0001c0 e1 77 9b 3e 01 0c 03 bf 92 3b 08 3f 56 00 cd 3e
       0.30364898 -0.5119019 0.532159 0.4003932
0001d0 dc b7 72 be e7 ef f1 bd 28 af a0 be 91 91 36 bd
       -0.2370295 -0.11813336 -0.31383634 -0.044572417
0001e0 96 93 47 bf f6 f2 2c be 35 34 dc be 99 50 90 bf
       -0.77959573 -0.16889557 -0.4300858 -1.1274596
0001f0 1c 7e 99 be 1c 44 0e bf 81 fa 2b bd 77 26 92 be
       -0.29979026 -0.55572677 -0.041986946 -0.2854497
000200 7c 5f 6b 3e a2 ad 22 bf b2 f4 c3 3e d8 aa 61 bf
       0.22985643 -0.6354619 0.38272625 -0.8815131
000210 47 bb f4 bd 49 3c 2b 3e 5b 32 87 3b 3a 6d bf be
       -0.11949783 0.16722216 0.004125876 -0.3738802
000220 3b a0 ac be 61 63 88 3e 29 8f bf be 82 e6 28 bf
       -0.33715996 0.2663832 -0.3741391 -0.65976727
000230 61 d6 98 be a9 6a 9a bd a8 77 d5 3d d9 cd b2 3d
       -0.29851058 -0.07539875 0.10423213 0.087306686
000240 fe e0 5b be d0 0d ca be dc 2e d3 bd 2b da 81 be
       -0.21472546 -0.39463663 -0.10311672 -0.2536176
000250 6c 87 e7 be 57 77 85 bd 61 97 da 3e c8 e9 64 3e
       -0.45220506 -0.06516903 0.42693618 0.22354805
000260 a8 a3 a7 3e 35 79 4a 3e 81 7b e3 bd 4c 36 31 3e
       0.32742047 0.197728 -0.11107541 0.17305869
000270 ed 6b 3a bd b4 65 1e be 31 8b 36 3f 7a 50 df 3e
       -0.045513082 -0.15468484 0.7130614 0.43616086
000280 f4 ac ea 3e 55 be 2e 3f 69 d2 84 3e c1 48 f4 3e
       0.45835078 0.68259174 0.2594178 0.47711757
000290 5a 16 4d 3f 23 b0 c6 be 30 3c 11 be df 57 ea be
       0.8011223 -0.38806257 -0.14183116 -0.45770165
0002a0 88 38 9d be d8 09 70 be 9f 41 17 be 23 ce f9 3e
       -0.30707192 -0.23441255 -0.14771126 0.48790082
0002b0 d9 fb 2c bf 0e 13 53 3e dc 74 be 3e c0 c8 0f be
       -0.6757179 0.20612738 0.37198532 -0.14041424
0002c0 58 9a cc bd 09 23 b7 3e 9a 99 f1 be 35 77 1f 3e
       -0.09990376 0.35768917 -0.471875 0.15572818
0002d0 4d ae 07 be 2b 21 02 be cf 3e 08 bc 65 93 2a be
       -0.13250084 -0.12707965 -0.008315756 -0.16657789
0002e0 ad e7 52 be ce 59 ed 3d 70 a5 9a 3e 54 38 16 bd
       -0.2059619 0.115893945 0.30204344 -0.036674812
0002f0 a3 85 87 3e 6e 29 c3 bb 04 b3 c6 3e 00 09 91 3e
       0.26469144 -0.0059558665 0.38808453 0.2832718
000300 1b 20 03 bf a4 d9 61 be f0 6a fe 3e 07 28 00 bf
       -0.51220864 -0.2205568 0.49690962 -0.50061077
000310 55 ca dd 3d bf b8 ba bd d6 58 8f 3e cc 01 17 ba
       0.108296074 -0.09117269 0.27997464 -0.00057604606
000320 55 a2 1a be 68 7c fb bd f3 c8 0a be b2 45 54 3e
       -0.15100987 -0.12279588 -0.13553219 0.20729712
000330 33 e0 2a be 97 2a e3 3d 2a 4e b3 3d 26 49 45 ba
       -0.16687088 0.11092108 0.08755143 -0.00075258536
000340 86 af ad be 42 b9 c3 3e 14 56 c1 be d0 1f a0 bd
       -0.33922976 0.38227278 -0.37760985 -0.07818568
000350 fd e3 2d 3f 4b 81 2f bf 14 94 03 3e 4b 88 10 3f
       0.6792601 -0.6855666 0.12849456 0.56457967

conv1.0.bias f4 [8]
000000 a0 83 fe 3e e0 38 b4 3f 18 44 ab bd 6f 96 3a 3e
       0.49709797 1.4079857 -0.08362597 0.18221448
000010 6d 8a 60 bf 8d 5e 1f 3e 1b 2e c2 be 81 cf a3 3e
       -0.8771122 0.15563412 -0.379258 0.3199425

conv2.0.weight f4 [8, 8, 3, 3]
000000 00 c5 b9 3c 07 c7 91 bd 61 da 05 3e 5e d9 15 3e
       0.022676945 -0.071180396 0.13071586 0.146337
000010 7b 9b aa 3e 67 1b 58 be 6d 4c 2f 3d 89 01 c7 bd
       0.33321747 -0.21104203 0.042797495 -0.0971709
000020 26 69 96 3d 5f 5a a7 3d 80 b6 11 bf 4b 7e 04 3e
       0.07344274 0.08171534 -0.569191 0.12938802
000030 df 0b 4d 3d 34 66 56 3d ae 4b 31 be 2f d4 69 3e
       0.05006015 0.052343562 -0.17314026 0.22834848
000040 5f 78 93 be 91 61 1f be 4d 39 ec 3b cf 66 9a be
       -0.28802773 -0.15564562 0.007208979 -0.30156562
000050 0c f1 92 bd 8a 08 98 3e 34 e3 9b be 25 20 59 be
       -0.07174882 0.29694015 -0.3044678 -0.21203668
000060 42 5c 26 be fb 80 9c 3e 9a b4 1e be 8d a3 f5 3d
       -0.16246131 0.30567154 -0.15498582 0.119940855
000070 e1 ba d8 bd c0 37 e8 3d 5c 47 4a 3e ac 5c 7d 3e
       -0.10582519 0.113387585 0.19753784 0.24742383
000080 a7 65 33 be 45 d8 50 3a 22 c3 e3 3e 8c 93 9f be
       -0.17519246 0.0007966797 0.44484812 -0.31167257
000090 6c 09 06 3d e2 6e 49 3e 4d 36 27 3d 80 00 2b be
       0.03272383 0.19671205 0.04082327 -0.1669941
0000a0 60 1e 0a 3e 54 56 a3 bd 4d 02 0b bd 51 91 24 3e
       0.1348815 -0.0797545 -0.03393774 0.16071059
0000b0 48 00 08 bd 18 19 c6 bd ef 90 85 3e 60 65 0d be
       -0.033203393 -0.09672755 0.26087138 -0.13808203
0000c0 38 11 80 be bb 58 85 3e 66 a3 e2 be e3 12 ea 3e
       -0.25013137 0.26044258 -0.44265288 0.45717534
0000d0 3b 62 79 3c df 00 db 3e fc 42 eb be 84 11 8b 3e
       0.015221174 0.42774102 -0.45949543 0.271618
0000e0 58 bd 03 3f 1d 3f 2b bf 2c af 82 3e b7 6e 22 3e
       0.5146079 -0.6689318 0.2552427 0.15862547
0000f0 5e 19 f5 3d d7 24 94 3e 6b e0 37 3f 95 80 72 3e
       0.11967729 0.28934357 0.7182681 0.23681863
000100 8f 82 27 be 0a dd 17 3f 35 52 0e 3d ab ea 2d 3c
       -0.16358398 0.59321654 0.034746367 0.010615031
000110 e8 6a c7 3e 6c 16 a8 3e 7e 2a 9a 3e 81 df c0 3e
       0.3894875 0.32829607 0.30110544 0.3767052
000120 82 9a bc 3e 96 5e 3d bd 2f 99 49 bc e0 3e cb 3d
       0.3683663 -0.046232782 -0.012304588 0.09924102
000130 ed 89 2a 3e ad 0a 6e be 0c a8 93 3e a3 56 49 bd
       0.16654177 -0.2324626 0.28839147 -0.04915489
000140 76 fc f2 3d c5 ca 41 3c e4 65 43 3d be 7f 31 3e
       0.11864559 0.011828129 0.047704592 0.17333886
000150 ff c6 5b be 3b 89 60 3e 69 b4 6d 3e a0 ad 21 3e
       -0.2146263 0.2192735 0.23213352 0.15788889
000160 f6 c3 1e 3d d6 c3 87 3e 81 a6 2e 3f 0a f4 30 3e
       0.0387611 0.26516598 0.68222815 0.17280594
000170 31 45 06 3f a7 8b 07 be e8 05 b3 be e8 ce db 3d
       0.5244933 -0.13236867 -0.34965444 0.107328236
000180 21 57 af be c0 54 4c 3e 6b 1a 99 be 28 46 cf be
       -0.34246162 0.19954205 -0.29902968 -0.40483212
000190 bf f0 eb be c4 07 d1 3e 45 30 b4 be 61 df 5a be
       -0.46082112 0.40826237 -0.35193077 -0.21374275
0001a0 c0 46 19 bd fa 36 a1 3c 75 95 bf 3d db 4c e7 be
       -0.037420988 0.019679535 0.093546785 -0.45175824
0001b0 67 82 0f 3e 42 61 a9 3e 5e 45 07 3e 4f 0b 6b bd
       0.14014588 0.33082014 0.13210055 -0.05738383
0001c0 ec af 34 3e 87 2b 26 be b1 4e a3 be 0c 80 c8 3b
       0.17645234 -0.16227542 -0.31895974 0.00611878
0001d0 62 76 32 be 4a d6 91 be fb 18 05 3f a3 2e 18 bf
       -0.17427972 -0.28483802 0.5199124 -0.5944616
0001e0 72 43 84 be a7 3e 2e 3d 31 6a dc 3e 2e ed 9e 3e
       -0.25832707 0.04254022 0.43049768 0.3104033
0001f0 08 f9 e7 bd 36 09 0e bf 20 a7 9a 3e 86 86 91 be
       -0.11326796 -0.55482805 0.3020563 -0.28422946
000200 27 9d 2b 3f fe da a7 3f 48 61 87 bf bd 9c 0a bf
       0.6703667 1.3113706 -1.0576563 -0.54145414
000210 5b 68 d3 bf 55 bb c1 3f 73 62 94 bd 00 57 8d 3d
       -1.6516222 1.5135294 -0.0724534 0.069013596
000220 c4 8f 86 bd 63 ed e1 be a4 f7 55 3f bd 5c bf 3c
       -0.0657039 -0.44126424 0.83580995 0.02335965
000230 d9 38 16 3e 19 8b 06 3e 16 52 68 be 33 6d 0a 3f
       0.14670123 0.13138999 -0.22687563 0.54072875
000240 35 d5 cb bd 02 52 3a bd 27 88 23 be 9b 7b ff bd
       -0.099527754 -0.045488365 -0.15969907 -0.12474748
000250 5d 1b d9 ba 2b 27 28 3e 67 b7 7f 3e 44 7c b9 3d
       -0.0016563941 0.16421191 0.24972306 0.09056905
000260 48 96 0c 3e 72 b4 d8 bd a5 97 32 3e 7d 28 22 3e
       0.13729203 -0.10581292 0.1744066 0.15835758
000270 4c 09 b5 3d 3c e8 64 bd c0 2f 82 be 0a 18 11 be
       0.08839664 -0.05588554 -0.25427055 -0.14169326
000280 f1 43 8a be d3 a2 a3 3e 72 c4 e6 be c0 40 41 be
       -0.2700496 0.31960163 -0.4507175 -0.18872356
000290 e1 4c 24 bf 1a 19 63 be 5e 3e 39 be 81 3b d6 3d
       -0.6417981 -0.22177544 -0.18090197 0.10460568
0002a0 aa 35 94 be fa f8 e0 3e 70 5d b6 3e f8 d9 82 3e
       -0.28947192 0.43939954 0.35618162 0.25556922
0002b0 55 f2 bc 3e 63 41 a3 3d 96 07 d6 3d e0 a2 d8 3d
       0.36903635 0.07971456 0.10450666 0.10577941
0002c0 b1 3e 83 bd 86 80 85 3e 13 aa a1 3d 6c 41 92 be
       -0.06408442 0.26074618 0.07893767 -0.28565538
0002d0 db 30 e2 3d 17 5a 3c bd bb 68 34 3e 37 d3 8a be
       0.11044475 -0.045984354 0.17618077 -0.2711427
0002e0 58 b4 0b 3f 2e ea 6b 3e 22 5c 1b 3e 57 06 b6 bd
       0.5457206 0.23038551 0.15171865 -0.08887928
0002f0 7b 29 ba be 74 11 db 3e 59 78 f3 3e 43 20 63 3f
       -0.36359772 0.42786753 0.47552755 0.887211
000300 15 65 02 3f b2 7b 0f 3f ad a6 65 bb 0e 29 9d 3e
       0.5093549 0.5604812 -0.0035041973 0.30695385
000310 e4 44 8a 3e 6c 77 1e be 85 13 01 bf 68 4e 6d bf
       0.27005684 -0.15475243 -0.5042041 -0.92697763
000320 56 59 94 bf f5 70 8b 3c ca 96 e1 bf 04 76 82 be
       -1.1589763 0.017021636 -1.7624142 -0.25480664
000330 67 25 58 bf 92 2a e9 3e 0c 23 ac be fb f6 a3 3c
       -0.8443207 0.4554029 -0.3362049 0.02001523
000340 04 79 7f 3e 8b f8 2f 3f 66 4c a6 3e 9d 89 a7 3d
       0.24948508 0.6873862 0.32480162 0.081805445
000350 82 27 e8 3e 2f cc 15 3f 57 ba 9e be b8 df 19 3e
       0.45342642 0.58514684 -0.3100154 0.15026748
000360 57 e9 28 be 2b 61 57 3e f2 cc bf bd 21 ae 90 bd
       -0.16495262 0.2103316 -0.09365262 -0.070644625
000370 22 45 95 bd 3a 2b df 3d e9 60 86 bd 35 2e 3a bc
       -0.07288577 0.10896917 -0.06561453 -0.011363556
000380 09 93 53 bd d1 dc 2f 3e 3c 9f 7f 3d 22 f1 da 3d
       -0.051653896 0.17174079 0.062407717 0.10690524
000390 2b 04 4c 3d 48 c8 8b be 0c b9 dc 3d a6 02 0a 3e
       0.049808662 -0.2730124 0.107774824 0.13477573
0003a0 b8 9b 36 be 69 fe 8a 3d 24 a7 7f bb 19 2e ba bd
       -0.1783284 0.06786806 -0.0039009536 -0.09090824
0003b0 e0 d3 ab bd f0 37 df 3c 42 eb d6 3d 13 0d f7 3e
       -0.08390021 0.027248353 0.104940906 0.48252162
0003c0 62 b6 8e 3d 95 be 22 3f 9f a2 ce 3e 73 d3 8f 3e
       0.069683805 0.63572055 0.40358445 0.2809101
0003d0 55 b5 86 be 01 1b b3 bd 80 d5 21 3e e7 7e 07 3e
       -0.2631022 -0.08745385 0.158041 0.13232003
0003e0 d1 30 a1 3e 4b 13 82 3e 1b 37 64 be 35 e2 0a be
       0.31482556 0.25405344 -0.22286646 -0.13562854
0003f0 a2 2e 24 bd a3 fa b4 be 06 d6 dc bc 5f 04 94 3d
       -0.040083535 -0.3534747 -0.026957523 0.07227396

conv2.0.bias f4 [8]
000000 07 a9 53 3d dc 2d 13 3f cd a4 03 3f ac ee 0b bf
       0.05167487 0.5749185 0.5142334 -0.5466106
000010 d1 b4 14 bc 75 a5 a1 3b b2 81 87 3f 8a 0d 42 be
       -0.009076313 0.004933054 1.0586455 -0.18950477

conv3.0.weight f4 [8, 8, 3, 3]
000000 d2 d3 19 3e bc 5c 61 3e 98 fa 8e 3e 99 24 8e 3e
       0.1502221 0.22008032 0.27925563 0.27762297
000010 8e 53 3c be 5a 56 9e 3e f5 7f 6a 3e ae a8 32 bd
       -0.18391249 0.30925256 0.22900374 -0.043617897
000020 de f0 ab be 9c f2 0e 3c 18 7f d5 bd e5 a5 bf bd
       -0.33582205 0.008724835 -0.10424632 -0.09357814
000030 f3 dd 82 bd 7c 0d 29 3e 1d fc 75 bc e5 3c 6d bd
       -0.0638999 0.1650905 -0.015013722 -0.0579194
000040 be f7 d8 bb 76 47 54 be b5 bc 45 3e c0 b9 84 3e
       -0.00662133 -0.20730385 0.19310267 0.25922966
000050 f3 18 82 3e a9 1f a5 3d 85 52 fc 3d 81 e7 91 bc
       0.2540966 0.08062679 0.12320427 -0.017810585
000060 6a cb db bd 1b ee 1e 3a 1f b1 81 3d 24 ed 59 3e
       -0.107321575 0.0006062702 0.06332611 0.21281868
000070 9c ae ab 3c b1 b4 5f 3e 2a b2 86 bc 3f d2 2e be
       0.020957284 0.21846272 -0.016442377 -0.1707239
000080 33 0b 91 be 22 00 88 be 57 bf 92 be 2d 20 e6 bd
       -0.28328857 -0.265626 -0.28661606 -0.11236606
000090 53 67 59 3e 20 fb 7e be b1 24 fc bd ce e3 42 b8
       0.21230821 -0.24900484 -0.12311686 -4.6465364e-05
0000a0 f8 22 0b 3e f6 a0 8c bd 12 2b 70 be 9f a3 37 be
       0.13587558 -0.06866638 -0.2345393 -0.1793351
0000b0 ce 47 c6 bd 12 fb 34 3e 3e f0 bc 3e 33 63 64 bd
       -0.096816644 0.176739 0.3690204 -0.055758666
0000c0 62 0d 0b be 33 30 ba 3d d5 92 51 bd 5c 82 f7 be
       -0.13579324 0.090912245 -0.05116542 -0.48341644
0000d0 ba c6 42 3f ea 12 03 3e af 19 6c 3e 05 a5 ea 3c
       0.7608448 0.12800184 0.23056673 0.02864314
0000e0 8d 77 8c be 7e a0 5e be a2 1e 29 3e f7 da e1 3c
       -0.2743496 -0.2174091 0.16515592 0.02757023
0000f0 4b 62 a3 be d1 19 b0 3d a7 53 22 3e d0 d9 6f be
       -0.3191093 0.08598674 0.15852223 -0.23422933
000100 6f a9 fa bd 54 bf 47 be 00 bd 13 be 61 1a 17 3e
       -0.12239348 -0.1950658 -0.14427567 0.14756157
000110 24 f5 83 3e 2c 64 a9 be 25 fe 63 bd 3b 51 21 3e
       0.25772965 -0.33084238 -0.055662293 0.15753643
000120 7b 10 88 bd f5 73 15 be 8b 45 6f be f6 46 b1 be
       -0.066437684 -0.14595015 -0.23366372 -0.3462445
000130 1a 85 15 be b2 d3 64 be 6c 46 3d be 8c 1f 87 3e
       -0.14601555 -0.2234638 -0.18483895 0.26391256
000140 a5 97 9f 3d c7 18 ba bd 13 a4 89 be 9e 13 fd 3c
       0.07792596 -0.09086757 -0.2688299 0.030893143
000150 fe 68 ea 3d 00 f3 36 be 37 be 9e bd 72 85 02 bd
       0.11445807 -0.17866135 -0.07751124 -0.031865545
000160 f1 d7 42 3d af 77 2b 3e f5 eb 72 3d 59 f9 4c 3c
       0.04756922 0.16744874 0.059307057 0.012510621
000170 90 3f 60 3e 07 95 aa 3e 61 23 d8 bd 28 01 54 bd
       0.21899247 0.33316824 -0.10553623 -0.051758915
000180 18 ff c4 3d 5d 81 f8 3e 5d d8 31 be 2f 37 57 be
       0.09618968 0.48536196 -0.17367692 -0.21017145
000190 30 3e 24 be 34 3f 03 be 64 28 62 3d 52 ad 96 be
       -0.16039348 -0.12817079 0.0552143 -0.29429108
0001a0 5d c9 aa bd 8a cb db be 75 bd c9 be 34 82 be 3e
       -0.08339188 -0.42928725 -0.39402357 0.37208712
0001b0 9f 26 ad 3d eb 17 97 3e cd 5b 22 bd 31 f8 ae be
       0.08454632 0.29510435 -0.03963833 -0.3417373
0001c0 1b 7a 49 be e8 80 ff 3d a0 02 01 be 47 5a 98 be
       -0.19675486 0.12475759 -0.12598658 -0.29756376
0001d0 04 bd 61 be 63 95 6d 3e ba 7a b7 bd 5b 5f 7b 3d
       -0.2204476 0.23201518 -0.08958955 0.061370235
0001e0 42 81 60 3e ab 06 1a be 10 dc cc 3e 17 1f 41 3e
       0.21924308 -0.15041606 0.40011644 0.18859516
0001f0 37 a5 05 be 4a 8c 7b 3e 43 53 2e bd 21 72 38 3e
       -0.13051306 0.24565235 -0.042559873 0.18012287
000200 23 0a 7d 3e 5e e5 2c 3e ce e7 b3 bc c0 80 83 bd
       0.24710898 0.16884372 -0.021961119 -0.064210415
000210 4c 68 25 3e 8c e0 05 3e 51 68 35 3e 59 24 02 3e
       0.16153067 0.13073939 0.17715575 0.12709178
000220 1b c4 37 be 4c bb 09 3e f5 ad 09 be 59 a9 a6 be
       -0.17945902 0.13450354 -0.13445266 -0.32551077
000230 da 47 c5 be ac 3b 81 be af df 01 3d 2b 2f 50 3e
       -0.3853138 -0.2524084 0.031707462 0.20330493
000240 51 df e0 bd 64 c6 f2 be 1b 93 9f 3e 3b 11 a5 be
       -0.10980094 -0.47416985 0.3116692 -0.32239708
000250 3b 64 5f be 56 5e c2 3d 31 13 75 be 16 a7 da 3d
       -0.21815579 0.094906494 -0.23933102 0.106764
000260 13 98 e4 3d 3c 25 06 be 09 b0 91 3e e0 d0 88 bd
       0.11161818 -0.13100141 0.28454617 -0.06680465
000270 2b 3f 63 bd ee a6 4c 3e b5 76 1e 3e f2 1e ed bc
       -0.055480164 0.19985554 0.1547497 -0.02894542
000280 be 77 5e be 86 85 d9 3c dd fd 39 be 47 f1 fd 3d
       -0.21725366 0.026552927 -0.18163247 0.123995356
000290 5e b7 a1 3d 0e a7 ba 3d 43 54 8c be 77 83 6e be
       0.07896303 0.091138944 -0.27408037 -0.23292337
0002a0 6c 80 ec bd 82 14 5e bd 9d a9 6e 3e f8 ea 1b be
       -0.11547932 -0.054218777 0.2330689 -0.15226352
0002b0 fe a3 91 be 49 35 cc 3b 9c 9f 3c be c6 55 e4 3d
       -0.2844543 0.006231938 -0.18420261 0.111491725
0002c0 a0 70 41 3e 7b 29 f6 be 81 8d 78 be 69 1c 36 bd
       0.1889062 -0.48078522 -0.2427273 -0.044460688
0002d0 bb 6b 6f 3e 27 2a 95 3e 55 8f 69 3e 60 93 41 3e
       0.2338094 0.29133722 0.22808583 0.18903875
0002e0 d5 98 0a 3e 3f db a4 be 19 37 fb 3e e4 95 db 3e
       0.13534863 -0.32198521 0.49065474 0.42887795
0002f0 d5 a8 6b 3e 66 25 e9 3d 41 2f 83 3e df 66 af bd
       0.23013623 0.11384086 0.2562199 -0.08564543
000300 c5 48 60 3e 10 fe 84 3e 40 c7 4a 3d c1 3a c1 3e
       0.2190276 0.25975084 0.049506426 0.37740138
000310 6c b5 e3 3d 97 5c 58 3e dc f5 a6 3e 05 e7 6b 3e
       0.11118588 0.2112907 0.3260945 0.23037346
000320 ab 06 11 3e 76 8a d5 3d 3f d1 3a be f7 ad 29 3e
       0.141627 0.104268 -0.18243884 0.16570269
000330 5e 7a d3 3e 7e 72 4a 3e 66 f9 7b be 25 95 86 be
       0.41304296 0.19770238 -0.24606857 -0.26285663
000340 14 d2 fb be cf 6e 6b 3d fc 16 2c be 6c e3 be 3d
       -0.49183714 0.057478722 -0.16805643 0.09320721
000350 85 3f c6 be 61 4a 84 be b1 46 0b be 13 04 75 3d
       -0.38720337 -0.25837997 -0.13601185 0.05981834
000360 ee 75 2c 3e a4 37 d5 3d 5c df ad be 69 3a dd 3b
       0.16841862 0.10411003 -0.33959472 0.006751348
000370 47 65 0a bd e1 60 36 bf 0f 3b 5b be f3 0b c5 bd
       -0.03378799 -0.71241575 -0.21409248 -0.0962142
000380 a1 15 49 be ba a1 cd 3e ab a1 0a be 53 fb 15 bc
       -0.19637157 0.4016245 -0.13538234 -0.009154159
000390 4e 7a 31 3e b4 5b 2e 3d c2 e3 cf 3e ac 41 45 3e
       0.17331812 0.042567924 0.40603453 0.19263333
0003a0 55 df 13 3e 60 29 91 3d be 37 3d 3d 57 8d 8f bd
       0.14440663 0.0708797 0.046195738 -0.0700938
0003b0 44 7c 1f bc 6d f0 a9 3d 4d 3e 85 bd 82 02 9d 3c
       -0.009734217 0.08297811 -0.065060236 0.019166235
0003c0 6b d4 f8 bc a7 e3 57 bc 57 6b 60 3e da 67 a5 bd
       -0.030374726 -0.013176835 0.21915947 -0.08076449
0003d0 2a e2 64 be 21 95 8f 3e 2c 8f 8b 3c fa b3 34 3e
       -0.223519 0.28043464 0.017036043 0.1764678
0003e0 6a 94 37 3e a1 dc 1a be 3e 99 8a bd d7 4b 45 3e
       0.17927709 -0.15123226 -0.0676751 0.19267212
0003f0 dd 86 63 bd e5 96 af bc 72 17 d5 3d 47 8b ad bd
       -0.055548538 -0.021434257 0.104048625 -0.08473831

conv3.0.bias f4 [8]
000000 da a7 ca be 2b 3f db 3e ce 60 bd 3e ab dc d7 3d
       -0.39581186 0.4282163 0.3698792 0.10540136
000010 d2 58 c5 be aa 83 6d be 5f cd e7 be bc 3a 9b bf
       -0.38544327 -0.23194757 -0.45273873 -1.2127299

dense1.0.weight f4 [32, 128]
000000 57 0c 59 be 8c 27 6a 3e d2 64 3c 3e d2 f1 26 3d
       -0.21196114 0.22866648 0.18397835 0.04075796
000010 63 2d ba bd c3 93 9f 3c eb b4 84 3d e1 29 70 3c
       -0.09090688 0.019479638 0.0647982 0.014658422
000020 12 b5 a7 bd 6f 52 1f bd 31 89 27 3e 0f be 6a 3d
       -0.08188833 -0.038896974 0.16360928 0.05731016
000030 bf de 96 bb 56 7a 31 bd 91 7d d9 3d 74 a7 11 3e
       -0.00460419 -0.04332956 0.10619653 0.14224035
000040 e9 84 b1 bb 19 41 63 be c1 c9 5e bd 6f 1a 0c be
       -0.0054174555 -0.22192802 -0.054391626 -0.13681959
000050 b4 2f 3c bd 66 55 53 3e cb 71 57 bd e9 47 d3 3c
       -0.04594393 0.20638046 -0.052598756 0.025791125
000060 6c 3e d0 bd fd b4 22 be 23 f3 04 bd 54 b9 33 be
       -0.10168156 -0.15889354 -0.032458436 -0.17551166
000070 71 43 fb 3e ae df fa 3d ce 7a 31 bc 76 0f 77 bd
       0.4907489 0.12249695 -0.010832502 -0.06031748
000080 70 7c 28 3e 7a e0 98 be 0e a9 6c 3d 41 dc 15 3d
       0.16453719 -0.29858762 0.05777841 0.036587004
000090 14 01 7b bd 4d 4f 02 3d 9f 75 4b 3e 82 c1 1d 3e
       -0.061280325 0.03181391 0.19869088 0.15405849
0000a0 45 5d c1 bd f5 91 89 3e 5b 12 5c ba ca c5 dd 3c
       -0.09441618 0.2686917 -0.0008395069 0.027071852
0000b0 0c 7b ab 3d 0c 45 af bd ef af 66 be 4a 9b fb 3d
       0.08373079 -0.085580915 -0.22528051 0.122854784
0000c0 7a e6 f2 3d e6 89 ac bd e4 60 71 3e cc 1b 58 bd
       0.11860366 -0.084247395 0.23572117 -0.052760884
0000d0 4f ea b4 bd 73 f8 00 3e 81 b8 82 bc 4a 1c 2c bc
       -0.08833753 0.12594776 -0.015957119 -0.0105047915
0000e0 27 58 35 3d 3d 54 bd bc bc c6 5b 3e 59 71 6c bd
       0.04427352 -0.023111457 0.2146253 -0.057725284
0000f0 32 45 ad bc fb 99 e0 bc fc 35 8b 3d 12 28 85 bd
       -0.021151159 -0.027417174 0.06797406 -0.065017834
000100 47 71 c0 3d 52 90 8b 3d 85 b2 f7 bc 13 87 12 be
       0.09396606 0.06814636 -0.030236492 -0.14309339
000110 ad 64 82 3d ad bd 21 be 0a c3 b6 bc 7e 2e c8 3d
       0.06366859 -0.15795012 -0.022309799 0.09774493
000120 17 f5 be bb b3 cf d6 3d 76 b0 00 3e 8f 25 fe 3c
       -0.005827557 0.10488834 0.12567315 0.031023769
000130 65 74 ac bd 72 4f 2e 3d c9 cf 23 be a2 8f 58 bd
       -0.08420638 0.042556234 -0.15997232 -0.052871354
000140 e7 8e 02 be 93 e9 92 be 8c 8e 6c bd 33 a9 24 3d
       -0.12749825 -0.28693828 -0.05775313 0.040200423
000150 ed ec e9 bd 1e 30 05 3e 00 69 ad bc 40 95 b4 bb
       -0.11422143 0.13006637 -0.021168232 -0.005510956
000160 ea 4b 33 3e 4c 10 92 3c 2c 80 09 3c e1 21 4a bd
       0.17509428 0.017830037 0.008392375 -0.049348716
000170 9e 5d 72 3d 7b 1f 38 3e e8 9d 7e bc 17 88 83 3d
       0.05917131 0.17980759 -0.0155405775 0.064224415
000180 13 18 3d be ce 2d 23 3e 59 e2 3a bd bf 1c 42 3c
       -0.18466215 0.15935442 -0.04562602 0.011847674
000190 fb 90 45 bd 5e a4 df 3d 1c 28 22 3c 6c b3 73 3e
       -0.048233967 0.109200224 0.009897258 0.23798913
0001a0 2a c3 65 3c d2 b2 e1 bd 54 3a bd 3c 2c 96 35 be
       0.0140235815 -0.110204354 0.023099102 -0.17733067
0001b0 82 5d 51 3d e5 5a 8f 3e cb e2 8f 3e 9c cc 90 3d
       0.051114567 0.27999035 0.28102717 0.07070276
0001c0 a1 4d bb 3d 9e 40 45 3d 57 77 0f bd e5 70 e5 3d
       0.09145666 0.048157327 -0.03502592 0.112031735
0001d0 4a 11 f9 bc bf fb 19 3e 29 7e 0a be 4a db 82 3d
       -0.030403752 0.1503744 -0.13524689 0.06389482
0001e0 81 ca df 3d 4f ee 4d 3b a5 f9 f2 3d 43 52 08 3e
       0.109272964 0.003142256 0.11864022 0.1331263
0001f0 00 76 f1 3c ee 43 8f bb 42 a1 ef 3c 81 2a 55 bd
       0.029475212 -0.0043721115 0.029251698 -0.052042488
000200 bb 9a df 3d 9c 25 8f 3d b2 37 e3 bd c2 f0 f6 3d
       0.10918184 0.06989595 -0.110946074 0.1205764
000210 6e 05 b5 bd 0a 0f 87 bd e4 14 f0 3d af a5 f8 bd
       -0.08838926 -0.06594665 0.117227346 -0.12140977
000220 6f 12 4a 3a 1b 23 ba 3d 0c 26 48 3d ae 0d 35 be
       0.00077084353 0.09088727 0.04886441 -0.17681
000230 b6 3c ce 3d 00 06 85 3c 3a 74 dc bd 92 b4 37 3a
       0.100701734 0.016238213 -0.10764356 0.0007007803
000240 e4 71 17 3e c7 bb 35 3e 36 8a 87 3d 26 fd 20 be
       0.1478954 0.17747413 0.066181585 -0.15721568
000250 fc b9 32 be 4b a6 1d 3d 47 19 94 bd 3e ff 00 bd
       -0.1745376 0.038488667 -0.07231384 -0.031493418
000260 d8 24 ed bd c8 1d a7 be 45 b8 d5 bd 63 78 94 3d
       -0.11579293 -0.3263991 -0.10435537 0.072495244
000270 87 72 d7 3e b6 0c 31 bd 89 e6 08 3e 97 3f 19 be
       0.42079565 -0.043225013 0.13369192 -0.14965664
000280 5a 0e 21 3e 36 ce 35 be 06 91 83 3d 28 a4 1f 3c
       0.15728131 -0.17754444 0.064241454 0.009743728
000290 d9 8d 87 bc 49 7b 18 3e c8 47 6c bc 81 63 f2 3d
       -0.01654713 0.1489078 -0.014421411 0.11835385
0002a0 d3 18 d8 3d d8 dd 15 3c 0d 0e 04 3c dc 55 26 bc
       0.1055161 0.00914713 0.008059991 -0.010152306
0002b0 68 42 94 bd b4 b3 2e be c8 a6 81 be 59 79 bd 3d
       -0.072392285 -0.17060739 -0.25322556 0.09251661
0002c0 43 a1 13 bc 79 e1 f4 bd 01 be f5 3c af cf e8 bd
       -0.009010616 -0.11957068 0.029997827 -0.113677375
0002d0 fe de 91 3d a1 f1 d1 bd b8 3a c8 3d 2c 9f ff bd
       0.071226105 -0.10251165 0.09776825 -0.124815315
0002e0 bd 27 9c 3e dc 3b 8b 3e 80 cd c6 3d 05 46 dd 3d
       0.30499068 0.27194107 0.09707165 0.10804371
0002f0 eb 37 3f 3e 77 7f 8f bd ef 1b df 3c 2d a5 b5 bd
       0.18673675 -0.07006734 0.027235 -0.088693954
000300 c6 cc ce 3d 31 08 45 3e 47 5b 86 bc 23 ed b0 bd
       0.10097651 0.19241406 -0.016400946 -0.0863898
000310 65 25 52 3d d0 c7 e9 bd b0 e9 c6 3d d1 58 c5 3d
       0.051305193 -0.11415064 0.09712541 0.09636081
000320 c5 58 eb 3d 06 5e 01 be ac 20 9e 3e 74 81 ec 3d
       0.11491541 -0.12633523 0.30884302 0.11548129
000330 63 70 0d be b6 48 c2 bc e2 06 a7 bd 79 53 8e 3d
       -0.13812403 -0.023716312 -0.0815561 0.06949515
000340 ed 94 14 be c1 07 57 be 97 59 31 3d 5a 87 98 3e
       -0.14509936 -0.20999052 0.04329833 0.29790765
000350 88 31 98 bc c0 3c fc 3d 84 60 4a be ff d9 f4 bd
       -0.018578306 0.12316275 -0.1976338 -0.11955642
000360 d7 e0 89 3d c8 1f d8 bd 4e 70 a2 bc 7c 84 f4 bd
       0.06732338 -0.10552937 -0.019828942 -0.11939332
000370 a8 ba 27 be 79 f0 60 3e a4 31 b2 bd 98 fe b2 3d
       -0.16379797 0.21966733 -0.087008744 0.08739966
000380 4c e9 a4 3d 58 43 99 be 0f 1e 8f be 50 08 e2 3d
       0.0805231 -0.29934192 -0.2795262 0.11036742
000390 73 ff 4e bd a8 5d e4 3d 43 d7 9b bd 16 4d fd 3c
       -0.050536584 0.11150676 -0.07609417 0.030920547
0003a0 99 79 a3 3d df 68 5e be 02 05 d5 3b 7a 95 9b be
       0.07982177 -0.21719693 0.006500841 -0.3038748
0003b0 af e6 2e 3e b2 e1 fb 3e e5 6b 15 be 8b c2 7d bd
       0.17080186 0.4919563 -0.1459194 -0.06195311
0003c0 a0 32 64 bd 9b 3c 89 3d 8d ab 15 3e 9b bb 83 bd
       -0.055712342 0.06701013 0.14616223 -0.06432267
0003d0 d8 40 01 bd 63 ca 20 3e 55 43 e3 3b 27 2a 0a 3e
       -0.03155598 0.15702204 0.006935517 0.13492642
0003e0 3e 83 d2 3c fa 51 88 bd 03 96 00 be e5 f1 1d 3e
       0.025697347 -0.06656261 -0.12557225 0.15424307
0003f0 92 99 54 be 6f fa 29 3a 6a 1e 03 3e 8b 15 e9 3b
       -0.20761707 0.0006484156 0.12804571 0.007113164

dense1.0.bias f4 [32]
000000 b2 13 f7 be e7 a2 bf 3e ba 4a 60 bf 48 72 67 bf
       -0.48257214 0.37428972 -0.87614024 -0.90408754
000010 1c 0c 0e 3f 45 4e c8 be c2 65 36 3f f1 7f 69 bd
       0.5548723 -0.39122215 0.7124902 -0.05700678
000020 af 2d 12 bf 6e 36 e3 be f6 63 00 3f 8f e8 96 3e
       -0.5710096 -0.44377464 0.5015253 0.29474303
000030 72 c6 22 bf 90 00 28 3e 2d ec 81 be 7f d2 70 be
       -0.63584054 0.16406465 -0.253755 -0.23517798
000040 73 ac 14 be b5 c8 05 80 81 a4 4b bf 87 c0 25 3e
       -0.14518909 -5.31178e-40 -0.7954789 0.16186725
000050 d4 b7 0a 3f a8 f4 a2 be ef 95 46 3e b5 06 52 3f
       0.5418675 -0.31827283 0.19393133 0.82041484
000060 dc c1 58 3f b9 d3 14 bf 1f 41 2b c0 07 7c 52 bf
       0.84670806 -0.58135563 -2.6758497 -0.822205
000070 5d ca e8 3e 39 30 97 3d 34 73 c9 3e 63 0d 03 3e
       0.4546689 0.073822446 0.39345706 0.12798075

dense2.weight f4 [10, 32]
000000 c4 59 95 be b7 0b 51 3e 28 8c 10 be 7f a6 5f bd
       -0.29170048 0.20414625 -0.14115965 -0.054602142
000010 06 95 80 bd 58 82 af 3d ee b2 58 be 0a 06 90 be
       -0.06278424 0.08569783 -0.21162006 -0.28129607
000020 4f 83 c0 3c 20 86 46 bd 1c 01 82 3d 94 08 ee be
       0.023500113 -0.048467755 0.06347868 -0.4649092
000030 70 df 21 3f b1 0c 1d 3e 10 35 74 bd 0a 57 88 3e
       0.63231564 0.15336873 -0.059620917 0.26628906
000040 2d 35 4e be 87 aa 06 3a 92 d7 68 3e fa 94 55 be
       -0.20137472 0.0005137105 0.22738484 -0.20857611
000050 6a bd 86 3e c3 3c 9f be f6 5d f3 3d 9c cc 66 3e
       0.26316386 -0.31101045 0.11883156 0.2253899
000060 fa 86 be 3e bf d0 9c 3e 43 25 1d 3e d8 a2 29 3e
       0.37212354 0.3062801 0.15346245 0.16566026
000070 f0 ad 98 3e ff 56 9d bd df 4c 01 bb 0f 68 58 3e
       0.29820204 -0.07682609 -0.0019729657 0.21133445
000080 3c 90 40 be 91 13 f0 be 75 c9 26 3f 66 9c 0f 3f
       -0.18805021 -0.46889928 0.6515115 0.5609802
000090 52 30 98 3f ba a8 41 bf 3e a7 43 3f d2 30 dc bd
       1.1889746 -0.7564808 0.76427066 -0.10751499
0000a0 2c d9 0d 3f fd 5a 45 3f 2d 57 47 c0 88 27 21 3f
       0.55409503 0.7709196 -3.1146958 0.62950945
0000b0 66 7a cc be 29 2d 92 bf e0 16 8a 3d 08 3b 5e bf
       -0.39937133 -1.1420032 0.06742644 -0.86808825
0000c0 21 87 4b 3f c9 38 30 b9 ed 10 17 3f ef 2f 79 bf
       0.79503065 -0.00016805822 0.590102 -0.97338766
0000d0 ae 90 23 bf 3f ea dd 3f e9 a2 f9 bd 49 6a 5e bf
       -0.6389264 1.7337111 -0.12189276 -0.8688093
0000e0 61 4c 82 3f 8a 12 c3 c0 b7 ff d6 3f e8 95 83 3f
       1.0179559 -6.096013 1.6796788 1.0280123
0000f0 f7 28 90 bf c5 1f 2a bf 6b 5a 05 3f 75 97 8a bf
       -1.1262501 -0.66454726 0.5209109 -1.0827471
000100 fd 8d c0 3d 07 7a 44 bd 35 d9 55 3d 26 c3 e9 3e
       0.09402082 -0.047967937 0.052209098 0.456567
000110 0d 17 46 be a5 65 fb 3d b9 f4 de be 93 75 cd 3c
       -0.1934473 0.122752465 -0.43546084 0.025080478
000120 72 81 e6 bd b5 89 90 3d 75 ea 35 3e e8 6a 0e be
       -0.112551585 0.070575155 0.1776522 -0.13907969
000130 c5 64 d5 c0 58 6e 21 3e ac c3 0a 3e 3d 35 b0 3d
       -6.668551 0.15764749 0.13551205 0.086039044
000140 69 f6 15 3d de 6b 60 39 95 b6 89 3e b0 84 0a 3e
       0.03661195 0.00021402488 0.26897112 0.13527179
000150 a8 3e be 3d fd 3a d8 3d 70 b8 17 3e c6 83 61 3e
       0.092892945 0.10558126 0.14816451 0.22022924
000160 b5 8e 85 bd 3a f5 99 3e 96 a5 8b bd 41 8f 89 3d
       -0.0652136 0.30069906 -0.068186924 0.06716777
000170 04 5d cb 3d 02 ce 98 3c ca 53 8c be 15 dc b6 bd
       0.09929851 0.01865292 -0.27407676 -0.08928696
000180 8d 01 ff 3d 14 62 48 bb ab f1 1d 3d ea b7 0c 3e
       0.12451468 -0.0030576037 0.03856055 0.13742033
000190 4b 54 21 bd 0f 14 15 3e 35 6d 8b bd dd 08 01 3e
       -0.03938703 0.14558433 -0.06807939 0.12601037
0001a0 6e eb 50 be 45 cb c8 bd 55 3a bb 3d 9e dc f0 3b
       -0.2040231 -0.098043956 0.09141985 0.0073505184
0001b0 61 8c b1 3e 32 04 58 3e c0 8e 87 be 7e ca 23 3c
       0.34677413 0.2109535 -0.26476097 0.009997008
0001c0 db 75 05 3e 61 8a 0b 3b e3 a7 47 3c 84 8f 1e bd
       0.1303324 0.0021292197 0.012186023 -0.038711086
0001d0 82 33 33 bc 3b 34 02 be da ac 77 3c b1 51 62 3c
       -0.010937573 -0.12715237 0.015116895 0.013813422
0001e0 f1 01 f2 3d f1 6c 97 3e e1 3e cb 3d 04 fb 65 3e
       0.118167765 0.29575303 0.099241026 0.22459036
0001f0 62 45 54 3e da 37 c0 3b d8 42 58 be 5d 6f 22 3e
       0.20729592 0.005866033 -0.21119249 0.15862794
000200 30 01 a7 3d 0b 48 ba bc 19 02 1d 3e c2 de 3e 3e
       0.081545234 -0.02273943 0.15332831 0.18639663
000210 e8 ab f9 bd a2 28 67 3e e5 07 16 be da aa c6 bb
       -0.12190992 0.22574094 -0.14651449 -0.0060628476
000220 e6 5b b6 bd 5b 98 7b 3b b2 a1 40 3e c2 a0 5b be
       -0.08904247 0.0038390371 0.18811682 -0.21448043
000230 01 f7 a9 3e 23 42 ab bd dc 41 0c be 7d 66 d9 3d
       0.33196262 -0.08362224 -0.13696998 0.10615251
000240 fc c1 93 bd 57 18 02 ba 59 d4 1f 3d 0f 06 03 be
       -0.07214734 -0.00049627334 0.03902087 -0.1279528
000250 72 40 16 3e 7a df 0e be f8 88 a3 bc dc 32 14 3e
       0.14673021 -0.13952437 -0.019962773 0.14472526
000260 da 6f 02 3e e0 e5 4d 3e 88 5b 8c be fd 66 d9 bc
       0.1273798 0.20107222 -0.27413583 -0.026538366
000270 02 d3 eb 3d 61 f1 20 3c 0f 3d 24 be 93 2b 3b bd
       0.11514856 0.009823174 -0.16038917 -0.045695852
000280 1d 09 b1 3e 0f 44 5a be a8 8d 0e be 86 82 7b 3e
       0.34577265 -0.21315025 -0.13921225 0.2456151
000290 ad 23 38 3d 4f b7 2e 3e f7 42 a5 3d 70 f4 7a 3e
       0.044955898 0.17062114 0.08069413 0.24507308
0002a0 af aa 22 be d4 b0 e2 3d 7e 75 83 3d cd 09 b6 3e
       -0.15885423 0.110688835 0.06418894 0.35554352
0002b0 4a 89 8e c0 d3 36 d5 3d f9 fa b4 bf ff 0f a3 be
       -4.454259 0.104108475 -1.4139091 -0.31848142
0002c0 b6 60 18 be 8a e7 6a bb cf 5e 9e 3e f1 2f 84 3e
       -0.14880642 -0.0035843574 0.30931708 0.25817826
0002d0 83 13 a1 be ff 3b 09 bd 10 be 15 3e f9 14 3c be
       -0.314602 -0.033504482 0.14623284 -0.18367375
0002e0 f0 34 4c be 89 14 6b 3e a5 a2 a2 3e c4 2f a9 be
       -0.19942069 0.22957052 0.31764713 -0.33044255
0002f0 e5 04 3c 3e 2b ca 1d bb 74 f1 99 bd f7 c3 44 3e
       0.18361242 -0.00240768 -0.07516757 0.1921538
000300 5c 77 53 bc 39 1d fa 3d 17 9e 96 3c dd c1 6a 3d
       -0.012906875 0.12212605 0.01838593 0.05731379
000310 6c 6c c7 3d 47 fe 86 3e c4 08 2a be 9b ce 82 3c
       0.09737477 0.26365873 -0.16604906 0.015967658
000320 21 c8 74 be 4e 9b 29 3c 9e 1a 5d 3e 85 cf 07 be
       -0.23904468 0.010351969 0.21592185 -0.13262756
000330 40 54 8d 3e ef b2 de bd 22 83 ad be ee 1b 43 3d
       0.2760334 -0.108739726 -0.3388911 0.047634058
000340 c1 76 1a be 20 eb d8 ba 81 03 60 3e ee bc 00 be
       -0.15084364 -0.0016549565 0.21876337 -0.12572071
000350 72 4f 48 3d 4e 5d 3e 3e 7f ca a4 bd ec 62 af bd
       0.04890389 0.1859028 -0.080464356 -0.0856379
000360 6a 28 31 3e e0 eb 03 be 48 d2 54 be 23 e0 52 3e
       0.17300573 -0.12882948 -0.20783341 0.20593314
000370 46 e9 d2 3d 31 6d 63 be 4e d4 93 bd 39 e0 14 3e
       0.102983996 -0.22209622 -0.07218228 0.14538659
000380 36 f2 7f 3d cf ff 06 3c d9 91 ff bc f4 a3 c2 c0
       0.06248685 0.0082397 -0.031197475 -6.082514
000390 e7 76 0f be ba 4c bb 3d 6c c2 92 be fa c4 52 3e
       -0.14010201 0.09145494 -0.28663957 0.20582953
0003a0 cc 7b 40 be d9 d7 3a be 05 37 03 3d 44 af 73 bb
       -0.18797225 -0.18246402 0.032034893 -0.0037183324
0003b0 5e 6e a4 3e 5b 59 4e 3d d9 11 d8 3d d1 f3 dc 3a
       0.32115453 0.050378185 0.10550279 0.0016857331
0003c0 e7 73 81 bd e5 66 62 3a 36 72 54 3b 3c ab 69 bd
       -0.06320935 0.00086365483 0.0032416708 -0.057048067
0003d0 d4 40 fe 3d c6 d5 c6 3d c6 e9 dc 3d ee 79 ef bb
       0.12414709 0.09708743 0.10786776 -0.0073082363
0003e0 56 9a 8d bc 30 f0 69 3e c5 9f 4b be 67 33 1b 3e
       -0.017285507 0.2284553 -0.19885166 0.15156327
0003f0 73 35 bc 3d e9 a0 d3 3d a0 75 11 3d 0a a8 e7 3d
       0.09189882 0.103334256 0.035512567 0.11311348

dense2.bias f4 [10]
000000 cb 10 84 3e 9b 32 f0 bf 30 63 cf bd 00 a4 22 bf
       0.25794062 -1.8765444 -0.101263404 -0.63531494
000010 ea a8 bf be 8a 65 96 3e 7f 15 75 3f 23 bd e2 be
       -0.3743356 0.29374343 0.95735925 -0.44284925
000020 78 b2 6b 3f 29 13 16 3f
       0.92069197 0.58622986
