ResidualLoss/CNN-Train/CIFAR_17/back_epoch-230.pt (torch, 27135 bytes, 10 tensors)

conv1.0.weight f4 [8, 3, 3, 3]
000000 88 79 cf be 80 35 0e 3e fb e8 8e be a8 8f ee be
       -0.40522408 0.13887596 -0.27912125 -0.46593976
000010 44 3e d1 3d be 65 44 be 88 4f af 3e a4 fc aa 3e
       0.10216954 -0.19179437 0.34240365 0.33395875
000020 e2 16 05 3e 07 64 86 3e f7 40 d6 3e 5f 4f 6f bd
       0.1299701 0.2624819 0.4184644 -0.058425304
000030 aa 77 8c bd e0 68 bb 3d 8b 0b bd be 8a e3 7a be
       -0.068587616 0.09150863 -0.3692287 -0.24500862
000040 b5 c0 87 3e 8f a7 0d be 61 35 35 bd 8f cf 39 3e
       0.2651421 -0.1383345 -0.04424036 0.18145584
000050 de e7 e5 3d b1 ee 18 3d 05 ac 00 bd 16 49 25 3e
       0.11225866 0.03733701 -0.03141405 0.16141161
000060 f4 16 d5 bd 5e 2a c6 3c e1 fe 3b be d3 2a 7a 3e
       -0.104047686 0.024190124 -0.18358947 0.24430399
000070 55 cb 0f be 64 3e 3a 3e c0 fd 17 bf cc a9 94 bd
       -0.14042409 0.18187863 -0.59371567 -0.07258949
000080 d2 50 a5 be e6 36 b7 be c8 25 41 bd 4a 9f 2f 3e
       -0.32288224 -0.35784072 -0.04715517 0.17150608
000090 45 e6 2a be 71 1d 07 be 83 9e 1b 3d f8 18 ef 3d
       -0.16689403 -0.13194825 0.037992965 0.11674684
0000a0 2c 56 df 3e 69 67 9a be af 1e f3 be a2 7c ae bc
       0.4362043 -0.3015702 -0.47484347 -0.021299664
0000b0 c8 90 bd bd d5 ce 48 3d 14 06 dc be 1e 1e 61 bf
       -0.092561305 0.049025375 -0.42973387 -0.8793658
0000c0 be fc 89 3f 0a de ab 3e b1 ee ef 3d 74 94 06 3f
       1.0780256 0.3356784 0.11715449 0.5257027
0000d0 4d 3e b9 3e 1a c3 1e 3f 37 bc 43 3e e8 09 1c 3f
       0.36180344 0.6201645 0.19114767 0.60952616
0000e0 a1 bb ed 3c 16 6b dd 3e ef 66 e3 3d 33 c8 2d 3d
       0.029020132 0.43245763 0.111036174 0.042427253
0000f0 bf 6d 4d 3d a9 c4 a0 bd 47 90 78 be 06 13 f8 bd
       0.05015349 -0.0785001 -0.24273787 -0.121130034
000100 4e 01 84 3e a8 7f 48 be 45 c4 3e be b1 0c 86 be
       0.25782245 -0.19579947 -0.18629558 -0.26181558
000110 57 2f cb be 39 10 10 be 5d 1e 34 be 4b e0 3e be
       -0.39684555 -0.14068688 -0.17589708 -0.18640248
000120 5c 24 44 3d 4f 65 45 3e fa 85 14 bf d6 2d 05 3f
       0.047886238 0.19276927 -0.5801693 0.52023065
000130 a4 d8 b9 3d 28 00 ce bd 52 b4 d3 3d 04 56 4b be
       0.09074524 -0.100586236 0.10337128 -0.19857031
000140 51 f1 1d 3e b0 df c9 be 1b d4 70 bf c5 f6 6c bb
       0.15424086 -0.39428473 -0.9407365 -0.0036157828
000150 10 a9 37 be b5 31 e0 3d 9b a0 f7 3e 3c 45 88 3d
       -0.17935586 0.10946981 0.4836472 0.066538304
000160 c6 58 ac 3e d3 4c 65 3e d0 c0 b3 be 9c 86 1d be
       0.3366148 0.22392587 -0.35108042 -0.1538338
000170 76 c7 9c be b3 25 4f bd ab aa bb 3e 74 7f a5 3e
       -0.30620927 -0.050573062 0.36653647 0.32323802
000180 e9 37 74 3d 9e 51 00 3e 05 3f 5d 3e 11 f5 ac be
       0.059623633 0.12531134 0.21606071 -0.3378072
000190 33 de c5 be f8 1a 2f 3e 01 1c 5f 3e 6f c6 77 3e
       -0.38646087 0.17100132 0.21788026 0.2419679
0001a0 32 0c ff 3d 5a f3 03 3d a0 9b b0 3e 6f 36 16 be
       0.12453498 0.0322145 0.34493732 -0.14669202
0001b0 04 2b b3 bd b0 a3 8e bd ca 58 0d be ae 3b e5 be
       -0.08748439 -0.06964815 -0.13803402 -0.44772094
0001c0 4f 39 3a bd 94 31 05 3f 93 58 bd be 19 eb e4 3d
       -0.04546481 0.52028775 -0.3698164 0.11177654
0001d0 23 6c d1 3d 7b a6 fd 3e e3 6c 45 3d c2 c4 5d be
       0.102257036 0.49541077 0.048199546 -0.21657088
0001e0 86 df 01 be 57 04 65 be ef f6 62 3e da b8 3f be
       -0.12682924 -0.22364937 0.2216451 -0.18722859
0001f0 7d 73 78 3e 53 81 f0 3d e2 da 35 3c 5e 37 5c be
       0.24262805 0.11743417 0.011099549 -0.21505496
000200 ea 4c 1a 3d 23 b5 21 be 67 6f 7e be 5f 01 0c 3f
       0.037671007 -0.15791754 -0.24847184 0.5468959
000210 ed 3e a0 bd ef 3e bf be 96 ab a0 3e 6d df d1 bd
       -0.07824502 -0.37352702 0.3138091 -0.10247693
000220 00 6a dd 3e a0 a1 93 3c 83 16 37 bd 5e 8a b6 3d
       0.43244934 0.018021405 -0.044699203 0.0891311
000230 7a 5c cc bd cd 70 04 3e 2d 67 c3 bd 62 ff 47 be
       -0.09978576 0.12933655 -0.095411636 -0.19531015
000240 18 18 bf be 3a f0 f7 be c9 95 47 be a6 fd 94 3e
       -0.3732307 -0.48425466 -0.19490732 0.29099768
000250 3c d3 b9 3e 16 4d a0 bb d9 9e 23 3f 07 d0 c3 3e
       0.36293972 -0.004892002 0.6391426 0.3824465
000260 55 3e 89 3e 70 9e 70 3e f7 62 0c 3f f4 ad 5c 3e
       0.26805368 0.23497939 0.5483851 0.21550733
000270 9f b6 43 3e f4 2a 80 3e 37 6c 66 3e 33 3e 30 3e
       0.19112633 0.2503277 0.22502218 0.17211227
000280 90 91 9d 3d 35 82 8a bc 57 29 05 3e c7 99 d7 bd
       0.076937795 -0.01690779 0.13004051 -0.105273776
000290 ee 69 e4 3d b7 c5 26 3e 18 71 f5 3c d3 31 9d bd
       0.11153017 0.1628636 0.029961154 -0.07675519
0002a0 67 6d e5 3d 22 f5 6e 3d 1b 8a 06 be 77 a6 70 3b
       0.112025075 0.058339246 -0.1313862 0.0036720315
0002b0 81 a8 f6 be 36 36 52 be 2e bc d8 3d 4b 4f a7 be
       -0.48175433 -0.20528492 0.105827674 -0.32677683
0002c0 3a 01 d9 be c0 a8 9c 3d 47 44 4a 3d c4 3a e9 be
       -0.42383748 0.07649374 0.04938152 -0.45552647
0002d0 92 b8 a4 be 60 00 4c be f7 e5 a5 bd dc 41 04 be
       -0.32172066 -0.19922018 -0.08100503 -0.12915748
0002e0 07 c8 0b be 82 14 a5 be c5 1f 9e 3b d3 cd 0a 3e
       -0.13650523 -0.3224221 0.0048255646 0.13555078
0002f0 be 34 8f be ea 71 fe 3c 7d 05 e9 bd b1 c8 ca bc
       -0.27969927 0.031060178 -0.11378 -0.0247539
000300 10 f6 b4 be 0b d4 93 be fa cb 4b 3e 82 40 0a be
       -0.3534398 -0.28872713 0.1990203 -0.1350117
000310 52 9b 9e bd 8f 68 8e bc 6b e7 4e 3f 1d b3 00 3f
       -0.07744469 -0.017383842 0.80821866 0.50273305
000320 5b 4e a3 3e 09 60 80 be 6d 5b 6c be cf ae e0 3d
       0.31895718 -0.2507327 -0.23081751 0.10970842
000330 c8 8b b2 3c 65 7f 25 3e 22 80 78 bd 63 85 f4 bd
       0.021795169 0.16161878 -0.060669072 -0.11939504
000340 2c 97 b3 3c 8b 87 c6 be 0f df a6 be 51 9f 0c 3d
       0.02192267 -0.38775286 -0.32592055 0.034331623
000350 d9 b0 1e be 90 8b ae 3d ba da b6 3e a9 05 62 be
       -0.1549715 0.08522713 0.3571375 -0.22072472

conv1.0.bias f4 [8]
000000 69 f0 84 3d e1 67 d3 bd 78 f5 38 3f 70 03 57 3e
       0.06491167 -0.10322548 0.72249556 0.20997405
000010 95 91 b9 3e 02 24 9d bd 0f a8 35 bf 3e 5b 18 bd
       0.36243883 -0.076728836 -0.7095956 -0.03719639

conv2.0.weight f4 [8, 8, 3, 3]
000000 d0 2f 31 be 86 ef 17 3f eb 83 39 be 36 92 e5 be
       -0.17303395 0.5934986 -0.18116729 -0.44838113
000010 f5 dd 38 3e 69 6a 7a 3e d0 48 89 be 3d af 9f be
       0.1805342 0.24454655 -0.26813364 -0.31188384
000020 04 f7 fc bc f0 e6 21 3e a0 7c 9e 3d c4 cb 04 3e
       -0.030879505 0.15810752 0.07738614 0.12968355
000030 31 40 b2 bd 95 51 f2 3c b3 d4 82 bd d5 e8 c4 be
       -0.0870365 0.029579917 -0.063882254 -0.38458887
000040 9c e0 ac 3c 85 02 d0 bc bf f3 98 3d 7e 9b 6a bd
       0.021103196 -0.025391826 0.07468366 -0.057277195
000050 be 97 3f 3e 54 a1 c7 be d3 68 01 bd ef f6 0b 3e
       0.18710229 -0.3899027 -0.03159411 0.13668416
000060 82 47 71 be b4 7c f1 bd 9f 0a a2 3d e7 39 12 bc
       -0.23562434 -0.11791363 0.07912182 -0.008924938
000070 f3 35 84 3e 22 14 68 be 69 7d 6f 3d 81 d1 0a 3e
       0.2582241 -0.2266393 0.05846921 0.13556482
000080 93 20 6c be 4b ca 7f bd 06 72 9b bd 14 68 34 be
       -0.23059301 -0.06244878 -0.075901076 -0.17617828
000090 1b 30 70 3e 32 e8 11 bf b7 01 d1 bd 88 26 a9 3e
       0.23455851 -0.56994927 -0.10205405 0.3303721
0000a0 85 ce 1d bd 4e 0c 6c 3d b1 ef 1a 3e 10 63 84 be
       -0.03852703 0.057628922 0.15130498 -0.2585683
0000b0 40 8a 57 3e 77 2b a4 3e 71 54 05 3e bd c5 0c be
       0.21048832 0.3206441 0.13020493 -0.13747306
0000c0 9d a2 f5 bc 45 09 52 3e 99 97 6c be 94 82 24 3e
       -0.029984767 0.20511349 -0.23104705 0.16065437
0000d0 ab b8 96 bd 61 6c 01 be 2c f0 10 3e 7d 91 9a be
       -0.07359441 -0.12639 0.14154118 -0.30189124
0000e0 8c 3a a5 3e 09 89 8f be 54 f9 d4 bd 70 67 ab 3d
       0.3227123 -0.28034237 -0.10399118 0.083693385
0000f0 1a 22 0c bd a4 1f c0 bc d5 3b a8 3e 9a cf 83 3d
       -0.03421221 -0.023452587 0.32858148 0.06436081
000100 e3 27 0f bd b7 4c 93 be bd 1c a0 be f5 49 c6 be
       -0.03495015 -0.28769466 -0.31271926 -0.387283
000110 e6 be 7e be cd 2e 1c bd cf 95 c7 be 47 16 ff be
       -0.2487751 -0.03813057 -0.38981482 -0.49821684
000120 27 78 45 3d 35 16 36 bd 4c 2d 3f 3d 97 06 bd bc
       0.04821029 -0.044454772 0.046674058 -0.023074431
000130 ba 7e 8f be 8c e2 bc bd 9d 68 3c 3e bf 7b f5 3d
       -0.28026372 -0.09222898 0.18399282 0.11986493
000140 7a ca 06 bf 6e 05 cd 3e 69 fa 99 be 68 f1 72 be
       -0.52652705 0.40043205 -0.3007386 -0.23724902
000150 68 25 c1 3d c6 c7 5f be 53 68 ea bd e9 07 89 bd
       0.09430963 -0.21853551 -0.114456795 -0.06690962
000160 30 a2 85 3e fe 60 af be e4 89 40 be d7 24 02 3d
       0.26100302 -0.34253687 -0.18802601 0.031773414
000170 2a 0c 35 3d 54 a3 da 3c e9 aa eb bc 46 22 3b 3e
       0.044201054 0.026689209 -0.02876802 0.18274793
000180 b6 64 4c bd 2e bb 94 bd ef 0f 53 3d a6 10 9b bd
       -0.049900733 -0.07262264 0.051528867 -0.07571535
000190 70 c4 ae 3d 70 0c 39 3e 14 ec 82 be f6 1f 1e 3e
       0.08533561 0.18071151 -0.25570738 0.1544188
0001a0 64 a8 61 be 4b e7 9d bc 98 2e 8a bd 60 aa 74 bd
       -0.22036892 -0.019275328 -0.06747168 -0.059732795
0001b0 6f e7 37 3e 2b 6f 31 3e e6 b2 10 3e c9 a6 30 bc
       0.17959379 0.17327563 0.14130744 -0.010781952
0001c0 95 3d 45 3e ee 4c 93 3d 63 03 a1 bd a8 25 ee 3d
       0.19261773 0.071924075 -0.07861974 0.11628276
0001d0 25 24 19 3e ee 64 11 bc 4d 18 82 3d b1 ad 82 be
       0.14955194 -0.008874161 0.06352291 -0.2552314
0001e0 f8 61 94 bc f3 c8 5b 3d bb e5 10 bd 7b 7f 72 3d
       -0.018113121 0.053658437 -0.035375338 0.059203606
0001f0 56 58 a1 bd dd 52 1d 3e 9b 1f 17 3e fa 55 14 be
       -0.07878177 0.15363641 0.1475815 -0.14485922
000200 53 33 93 3c 69 24 b0 3d 32 7a 2b bd 3f 23 8c bd
       0.01796881 0.08600695 -0.04186458 -0.0684266
000210 9f 0a f3 bd 1e 3b 82 bd 98 6b 8f bd 0c 1f 01 3f
       -0.1186726 -0.06358932 -0.07002944 0.50438
000220 ac 20 87 be bd 2b d5 bd e2 b2 25 3e 2f b1 85 bd
       -0.26392114 -0.10408733 0.1618152 -0.06527936
000230 e7 78 dd be 7b 88 d7 3e 65 d7 50 be 61 4f a0 be
       -0.43256304 0.42096314 -0.20394666 -0.3131056
000240 25 b9 4c 3e 52 8e 2d be 59 c4 f3 3e 04 82 95 be
       0.19992502 -0.16948822 0.4761074 -0.29200757
000250 98 23 70 bd 30 8b 01 3e c1 37 06 3c 5c 67 21 3e
       -0.058627695 0.12650752 0.008192004 0.15762085
000260 64 9f 16 bf 12 ea 41 be 6f ca 57 be 36 49 89 3e
       -0.5883696 -0.18936947 -0.21073316 0.26813668
000270 d2 f7 9a bd 09 8c 11 3f 65 4a d5 3e 1e 5c a6 be
       -0.07566799 0.568543 0.4165832 -0.32492155
000280 64 61 21 bd ef 55 51 3e 5a 63 45 3e 6d 52 28 be
       -0.03939952 0.20442937 0.19276181 -0.16437693
000290 74 3d d3 bc 9a 5e f9 3d c2 e4 e5 3e f0 0b 79 3e
       -0.02578614 0.12176247 0.4490109 0.2432096
0002a0 c3 3b 53 3d 86 1d 82 3c 86 10 37 3d 46 68 99 3d
       0.051570665 0.015883218 0.044693492 0.07490592
0002b0 92 3b 0e 3e 49 97 dd 3e f9 82 d3 3e 6c fd 72 3c
       0.13889912 0.43279484 0.41310862 0.014830928
0002c0 4a cf a0 bd 4a d3 ac bd e6 dc b6 be e8 2e 97 3e
       -0.07852037 -0.08438738 -0.35715407 0.29527974
0002d0 6a 1e 2b be 61 36 d9 3b 3e cc d2 3d 96 af ce 3d
       -0.16710821 0.006628797 0.10292862 0.10092084
0002e0 00 6b 0f 3e 09 17 2e be 5b 56 4f be 7a 73 b6 3d
       0.14005661 -0.17000975 -0.20247786 0.08908744
0002f0 31 27 d4 bd 75 af 84 3e 45 21 45 3e d2 3e cd 3c
       -0.10359038 0.25915113 0.19250973 0.02505437
000300 20 77 ea be f6 8f dd bd 18 70 4a 3d 09 ce a7 3d
       -0.4579401 -0.10818474 0.049423307 0.08193595
000310 7f 63 38 3b 17 37 cc bd b4 39 ec 3d b2 e8 56 be
       0.0028135476 -0.09971445 0.115344435 -0.20987204
000320 11 72 f9 bd 25 bd 68 3c 0f 49 6d 3e d9 e8 fb 3d
       -0.121799596 0.014205252 0.23172401 0.123002715
000330 7a 2d ff 3c 4a b0 1c be 8e a2 18 3d 0d d6 78 3e
       0.031149615 -0.15301624 0.0372644 0.24300404
000340 c6 25 54 3e f0 1a e1 be b3 d9 25 3e 38 28 1c be
       0.20717534 -0.43965864 0.16196327 -0.15249717
000350 b9 c8 c6 be 85 07 91 3e 10 36 3a bb ec 46 a9 3e
       -0.38825014 0.2832605 -0.0028413571 0.33061922
000360 ea 75 f5 3e 94 f5 da 3e 2b 1a 61 3e ff e8 17 3f
       0.47941524 0.42765486 0.21982639 0.593399
000370 4e 96 0b 3f b7 9f 62 bc 71 61 08 3f 56 69 07 3f
       0.5452622 -0.013832024 0.53273684 0.52895105
000380 34 ba 3f be 77 d0 bd 3c 0f c0 29 be fd e2 8d be
       -0.18723375 0.023170693 -0.16577171 -0.2771224
000390 70 14 6b bc ed 28 22 bd 39 21 86 bd 01 5f 42 be
       -0.014348134 -0.03958981 -0.065493055 -0.18981554
0003a0 27 a8 16 3e 4a 16 c4 bd 65 1f 64 bd b6 a8 59 3e
       0.14712583 -0.09574564 -0.055694003 0.21255764
0003b0 63 79 41 3e eb 02 83 bc ec 5d 03 3c 10 d0 19 be
       0.18893962 -0.015992602 0.008017998 -0.15020776
0003c0 14 70 ba bd da f3 f3 bd a5 5b a7 be 11 f0 40 ba
       -0.091034085 -0.11911745 -0.32687107 -0.00073599914
0003d0 dc 69 bc bc 31 33 4c 3e 9b f2 dd 3d 27 77 55 3e
       -0.022999696 0.19941403 0.10837289 0.20846234
0003e0 a4 78 2a 3e 87 e6 4a 3e 0e 87 4f 3c 37 d9 f1 3c
       0.16647583 0.19814502 0.012666477 0.029522521
0003f0 2b de 32 bd a0 83 bf 3d eb ac 33 3e 5d 28 40 be
       -0.043668907 0.09351277 0.17546432 -0.18765397

conv2.0.bias f4 [8]
000000 06 c2 05 3f d6 08 97 3e e8 08 98 3e 58 d7 d7 3c
       0.5224918 0.2949893 0.29694295 0.026347801
000010 b9 b4 0e 3c f8 7c 14 be 69 41 1b bf 1f 35 88 3f
       0.00871008 -0.14500797 -0.6064668 1.0641211

conv3.0.weight f4 [8, 8, 3, 3]
000000 cb 8c 2d bd 86 27 b9 3d 32 35 76 bd 6a a4 e4 bc
       -0.0423706 0.090407416 -0.060109325 -0.02791043
000010 cd b1 05 3e 93 ce 59 3e e6 f5 75 bb 74 f9 b1 bc
       0.13056107 0.21270208 -0.00375306 -0.021725394
000020 7b 69 10 3e 71 e8 b2 bd f4 03 a9 3d eb 3e 64 be
       0.14102738 -0.08735741 0.08252707 -0.22289626
000030 72 fa 90 be a4 22 88 bd fe 13 68 be 02 20 5b be
       -0.28316075 -0.06647232 -0.22663876 -0.21398929
000040 d4 e9 dc bd 04 17 eb bc 07 05 3b 3e 16 5e 29 bd
       -0.10786787 -0.028697498 0.18263637 -0.041349493
000050 f0 cf 88 3d 60 0c ad 3d 74 1f b0 3e 92 e4 0b 3e
       0.06680286 0.08449626 0.34398997 0.13661411
000060 98 d4 55 3e bb b7 87 3e 3e 76 bf 3e ba 1f 27 bd
       0.2088188 0.26507363 0.373949 -0.04080174
000070 c2 c4 a7 be 53 77 70 bd 44 fb 75 bc 29 3c 7f 3d
       -0.32767302 -0.058707546 -0.01501352 0.062313233
000080 08 3f ca bd e1 0d 77 bc 85 9b c3 3d 06 94 b2 bd
       -0.098753035 -0.015078993 0.09551147 -0.087196395
000090 03 b9 5e be 86 76 ff 3d 9f e3 33 3d f2 d3 a7 3d
       -0.21750264 0.124737784 0.04391825 0.08194722
0000a0 b0 ed 69 bc ed a7 61 be 37 ac 68 3d 35 f4 22 be
       -0.0142778605 -0.22036715 0.056804862 -0.1591347
0000b0 29 48 11 be cb c4 2a bd ac d6 1e bd 3e da bb bd
       -0.14187683 -0.041691583 -0.038778946 -0.09172486
0000c0 18 c2 aa bd 98 40 a5 3c 62 8c a6 bd 65 5e 47 bd
       -0.08337802 0.020172402 -0.08132245 -0.048674006
0000d0 a4 af 4c 3e c3 fb 22 3e ac e0 27 3e 13 40 d5 bd
       0.19988877 0.15916352 0.163943 -0.10412612
0000e0 a1 f7 20 3d ce 68 66 3d e4 c0 d2 bb f2 60 1e bd
       0.039298657 0.056252293 -0.0064316858 -0.038666673
0000f0 ca 4d 13 bb 22 e7 d6 3d 17 fa 8b 3e fa ac 89 3e
       -0.0022476786 0.10493304 0.2733924 0.26889783
000100 70 26 94 3b 4a cd a6 3e 12 f0 47 3e 5a f7 d4 bd
       0.0045211837 0.32578498 0.19525173 -0.10398741
000110 c7 b5 00 3e 82 59 b8 bd 53 86 33 be e7 ce f4 be
       0.12569343 -0.09001447 -0.1753171 -0.47814104
000120 34 d8 79 bd 5a 6a a2 3c 13 c5 a6 3d 31 6b 79 3d
       -0.060997203 0.019826103 0.08143058 0.06089324
000130 62 0a e8 3d 8b 89 87 3e e5 1a bd bd 42 b7 06 3e
       0.11330105 0.26472124 -0.09233645 0.13155845
000140 59 0f 66 3e 11 d1 29 3e ff ad c9 3e bb b9 f0 3e
       0.22466792 0.16583659 0.3939056 0.470167
000150 48 fe 90 3d 7b f4 2a 3e 4c e8 fb 3e bd d1 c2 3e
       0.0707975 0.16694824 0.49200666 0.38050643
000160 e3 17 95 3e 74 ac ed 3e 28 1e 20 3e 4d 45 b6 bd
       0.29119787 0.46420634 0.15636504 -0.08899937
000170 a4 2a cb 3d 53 02 03 bd a8 91 9c bd 8b 04 ec bd
       0.099202424 -0.03198464 -0.07644969 -0.11524304
000180 59 cd 05 3d 1f 65 07 bd 21 ea 08 be 5b cf 87 be
       0.032666538 -0.03305542 -0.13370563 -0.26525387
000190 35 ee 99 bd e6 1c eb 3d 80 6c 9f 3d 7e 9a 77 3d
       -0.075161375 0.11480121 0.077843666 0.06045007
0001a0 96 2e 34 3e 44 d2 05 bc 5f bb 19 bd a8 6a 7f 3e
       0.17595896 -0.008167807 -0.037532207 0.2494303
0001b0 39 3e be 3d f7 c0 88 be 94 2a 6e 3d 3a 0f 91 bd
       0.09289212 -0.2670972 0.058146074 -0.07082982
0001c0 12 7e 64 be 04 7d d3 bc 37 ac ca 3d 3d 2c 76 be
       -0.22313717 -0.025816448 0.098961286 -0.24040313
0001d0 3a c4 e3 3d a4 3c 27 be b9 9a a2 bd 4f 97 08 3d
       0.111214116 -0.16331726 -0.07939667 0.033347424
0001e0 96 8f 2e be 4c f5 07 3d f1 0b 5f 3d 48 3c 6b bb
       -0.17046961 0.033192918 0.054454748 -0.0035894085
0001f0 4f 3d 48 be 6a f1 37 3e 59 20 9b be ff 5f 07 be
       -0.19554637 0.17963186 -0.30298117 -0.13220213
000200 c2 b5 04 3d 0e 4f e9 be bd c3 95 be d5 94 50 3e
       0.0323999 -0.45568126 -0.292509 0.20369275
000210 b8 e1 06 be 5b 1f 48 be 76 01 83 3e b9 60 a5 3e
       -0.13172042 -0.19543211 0.25587052 0.32300356
000220 60 f2 76 3e 25 e2 8d 3e b5 0b 97 3d c8 cf 2f 3e
       0.24115896 0.27711597 0.0737528 0.17169106
000230 01 c0 89 3e 7a c8 87 bc 97 fc 8a 3e 15 a6 11 be
       0.269043 -0.016575087 0.27145836 -0.14223512
000240 16 35 48 3e 32 a7 ce 3d bf 63 38 bc f7 34 8a bd
       0.195515 0.10090484 -0.01125425 -0.067483835
000250 9a 09 10 3e 63 11 01 3e ff a5 65 3e fc 43 ce 3d
       0.14066163 0.12604289 0.22426604 0.10071561
000260 53 ca 7b 3e 16 9c 1f be 75 2b 50 be 90 2b 9e be
       0.245889 -0.15586886 -0.20329078 -0.3089261
000270 4d da 06 be 18 d2 e9 be 73 b1 63 3d 06 aa 59 bd
       -0.13169213 -0.456681 0.05558915 -0.053140663
000280 38 8f 4a 3e eb da 13 bc a3 b8 ab 3d c0 f9 22 be
       0.19781196 -0.009024362 0.08384826 -0.15915585
000290 ca b4 17 3e ba 13 23 3c ce 55 74 be 33 3d c4 3e
       0.1481506 0.009953434 -0.23860857 0.3832794
0002a0 13 f3 ed 3c 37 c6 ba bd 3a b7 29 3e f8 e8 63 3b
       0.02904657 -0.09119838 0.16573802 0.0034776311
0002b0 ab b8 0a be d2 d9 3e 3e db 4b 7f 3e da 2b ca 3e
       -0.13547008 0.1863778 0.2493128 0.3948658
0002c0 11 c3 8c 3e bb a9 37 3e 78 5c 8b 3e 9a 44 b9 3d
       0.27492574 0.17935841 0.27218986 0.09046288
0002d0 b1 b1 37 3e 6e ed a6 3d 88 6b 60 bd 54 28 c0 bb
       0.17938878 0.08150755 -0.05479005 -0.0058641825
0002e0 f9 29 f7 bc 34 60 cc 3d 83 2f df 3d 8f c5 b2 bd
       -0.030171381 0.09979287 0.10897734 -0.087290876
0002f0 c8 03 2c be 5f 04 6c 3e 87 8b fa 3c ed b9 6d 3e
       -0.16798317 0.23048542 0.03058411 0.23215456
000300 ad 8b 87 bd 95 9e 43 3d 03 14 be bd f5 4c 56 3d
       -0.06618438 0.047758657 -0.09281161 0.052319486
000310 2e 95 12 be f7 53 de bd 10 9d 5c 3e 50 ca d4 bd
       -0.1431472 -0.10855859 0.2154429 -0.103901505
000320 0b 40 d8 bc 83 07 88 be b0 2f ea be 28 2a d4 be
       -0.026397726 -0.2656823 -0.45739508 -0.41438413
000330 cb 66 3a be f0 3d aa be 05 81 33 be ae b0 fe bb
       -0.18203275 -0.3325038 -0.17529686 -0.0077725267
000340 28 59 9b be c4 77 41 be b0 71 c0 3d 56 38 33 be
       -0.30341458 -0.18893343 0.09396684 -0.17501959
000350 97 8f 4c bc 85 a1 98 bc 49 ef d9 bd 4b 8e 04 3e
       -0.012485406 -0.018631706 -0.10641343 0.12944905
000360 13 91 eb be 52 67 bb be bd 8a 37 bd 45 eb c7 be
       -0.4600912 -0.36602265 -0.044810046 -0.39046684
000370 81 82 49 be 82 99 7f be cc 1c 24 be 92 99 d1 be
       -0.1967869 -0.24960902 -0.1602661 -0.40937477
000380 17 9b 83 be 78 21 a1 bd df 3c 65 bd 7d 5b fe 3d
       -0.25704262 -0.07867712 -0.055966254 0.12419794
000390 f2 5a 8d 3e 15 ce 29 3e 57 a2 67 be 47 9c 80 bc
       0.27608448 0.1658252 -0.22620521 -0.015699519
0003a0 99 b4 9c 3d c4 3f e6 3d ce ce 62 3e 87 9e 30 3c
       0.07651634 0.11242631 0.22149202 0.010779983
0003b0 ae e1 e6 bd 15 d1 73 3d 08 33 26 3e e6 41 92 3d
       -0.11273514 0.059525568 0.16230404 0.071414754
0003c0 2c 89 1f 3e 2b 98 93 3d 99 d5 35 3e b5 f2 9b 3d
       0.1557967 0.07206758 0.17757262 0.07614652
0003d0 18 63 ae be 9a 7b 47 3e 4a 7c 3f 3d ac 33 8b 3e
       -0.34059978 0.19480744 0.04674939 0.2718786
0003e0 90 30 fb 3c fb d4 53 3e 53 03 4f 3e 21 6a 72 3e
       0.030662805 0.20686714 0.20216112 0.23673297
0003f0 3d c3 27 be 0b dd 07 3e c8 b5 0d 3e 5b 9e 35 be
       -0.16383071 0.13267915 0.13838875 -0.17736189

conv3.0.bias f4 [8]
000000 47 f2 7e bf e5 73 ba 3e 80 72 c1 3e 93 4a 2a be
       -0.99588436 0.36416546 0.3778267 -0.1663001
000010 66 8d 94 bc ed 21 68 be 00 4d 09 bf 3d 59 70 bf
       -0.01813383 -0.22669192 -0.5363312 -0.93886167

dense1.0.weight f4 [32, 128]
000000 fb cd 94 3d e7 a2 7e 3d d7 db 09 bc ce c0 66 be
       0.0726585 0.062167075 -0.00841423 -0.22534487
000010 d5 05 5b bd 69 8d 76 bd 53 7c 37 be b4 9c 10 3e
       -0.05347236 -0.060193453 -0.1791852 0.14122277
000020 87 4e bb 3e 87 d8 a6 bd f6 11 1b be 45 d3 fc bd
       0.3658335 -0.08146768 -0.1514357 -0.12344984
000030 49 27 71 3d ec 0b 14 bd 26 96 f0 3d 8d 8d 85 3e
       0.058875356 -0.036144182 0.117473885 0.26084557
000040 19 aa 9d be b5 f7 6f be 7d 05 44 3e 59 4d 03 3d
       -0.30793837 -0.23434336 0.19142719 0.032056186
000050 cc d1 80 3e 01 62 25 be ea ea a4 3d 1b 98 94 3d
       0.25160062 -0.16150667 0.08052619 0.07255574
000060 be df f9 bd bd 7b 00 3b 8b 94 cf 3c e4 75 11 3e
       -0.122008786 0.0019605004 0.025339385 0.14205128
000070 a6 41 1f be 82 5c ed bb 5b 96 80 3e 56 73 4e be
       -0.15552387 -0.007243694 0.25114712 -0.20161185
000080 f7 2b 37 be 2d 03 95 be b7 17 fa bc 7f 9e 66 3e
       -0.17887865 -0.29103985 -0.030528886 0.22521399
000090 8e 2b c4 bc 59 9e 07 3e dc 23 ce 3d 9c 78 c6 3d
       -0.02394655 0.13243999 0.100654334 0.09690973
0000a0 f0 ef 2a bd 65 3e 01 be 87 5a 60 3e 59 c1 70 3c
       -0.04173273 -0.12621458 0.21909533 0.014694535
0000b0 ef 5c 26 be 0f 3b 26 be d8 79 54 3d 01 83 78 bd
       -0.16246389 -0.16233467 0.05187401 -0.06067181
0000c0 81 b4 c0 3d b9 4e c4 3d 05 f7 3a 3d 5a b9 94 3d
       0.094094284 0.09585328 0.045645732 0.072619155
0000d0 cf 97 47 bd bf eb cb bd ee b0 2e bd d4 26 ca bd
       -0.04872876 -0.099570744 -0.042649202 -0.09870687
0000e0 c6 a8 33 3e 8b a1 27 bc 78 d5 55 3e 34 c8 78 b9
       0.1754485 -0.010231386 0.20882213 -0.00023725705
0000f0 0c 6c 7a 3e 60 25 c4 3c 80 b4 b5 3d 65 93 c3 bd
       0.24455279 0.023943603 0.08872318 -0.09549598
000100 25 33 13 be 6c b9 b7 3d 9b 08 22 be 0a 80 15 be
       -0.14374979 0.08970913 -0.15823595 -0.14599624
000110 97 e9 9a bd f4 c2 b4 3d 11 34 84 3e 9d 07 eb 3d
       -0.07564085 0.08826247 0.25820974 0.114760615
000120 1e 6f 9a 3c e2 52 9a 3d 88 df 06 3e 57 cd 1f be
       0.018851813 0.0753534 0.13171208 -0.15605675
000130 ab 93 d5 3d 5f 9f 87 bd 47 6d e9 bc 54 e1 b4 3d
       0.10428556 -0.066221945 -0.02849449 0.088320404
000140 4e e0 89 3c cc bd aa bd 19 fd 29 be 04 26 99 3d
       0.01683059 -0.08336982 -0.16600455 0.07477954
000150 b4 11 d8 bd 03 be 6a 3c ee 39 ad 3d 61 41 6c bd
       -0.105502516 0.014327529 0.08458315 -0.057679538
000160 7a c6 9d 3d db 81 bd bd 58 80 20 be 50 57 49 bb
       0.07703872 -0.092532836 -0.1567396 -0.0030722208
000170 af 08 2f be a2 dd 6c 3e 6f 68 47 3e c5 e7 e9 3d
       -0.17093156 0.23131421 0.19473432 0.1142116
000180 89 ab e8 bc 5c 39 29 3e 43 4b f2 3c 08 84 09 3d
       -0.028402107 0.16525787 0.029576903 0.03357318
000190 44 69 44 be ee 5b bf 3d 09 51 a6 3e 4a e8 29 3e
       -0.1918078 0.09343706 0.324837 0.16592517
0001a0 9e 62 1c 3d bc 0f 30 3e 0b e0 26 3e 6a 28 14 3e
       0.038179986 0.17193502 0.16296403 0.14468542
0001b0 04 81 21 3a 8a 37 3c bc 30 3d 2d bb c8 1e 62 3e
       0.00061608874 -0.011487851 -0.0026434176 0.22082055
0001c0 91 59 a9 bc 62 09 a2 bc 37 5b f3 bd ca 98 c0 3c
       -0.020672591 -0.019779865 -0.11882632 0.023510356
0001d0 7b 7b b7 bd de 91 ac bd 99 c9 30 3c 4c 38 42 bd
       -0.08959099 -0.084262595 0.010790252 -0.04741697
0001e0 04 95 04 3d f2 2a 19 3e 89 f6 17 ba a7 24 1e bd
       0.032368675 0.14957789 -0.00057969295 -0.038609173
0001f0 c5 0c 67 bd 14 0a 11 be d6 bd 01 be 4b 69 ef bd
       -0.056408662 -0.14164001 -0.12670073 -0.11690005
000200 79 61 c1 3d cb 80 13 be a6 c6 fe 3d fc db 99 3d
       0.094424196 -0.144046 0.12440233 0.07512662
000210 82 45 a5 3d 8e 43 bd bb d0 98 47 3e 8b 6d 0d bd
       0.08069898 -0.0057758754 0.19491887 -0.034528296
000220 8c 61 66 be c9 2b e9 bd 52 ce 0c bd 57 4f a8 3d
       -0.22498149 -0.113853045 -0.03437645 0.08218258
000230 b3 aa 04 bd c9 bd 15 be cc e3 62 be b9 17 92 bd
       -0.032389354 -0.14623179 -0.2215721 -0.07133431
000240 25 72 78 bd 7c 3b c4 3d 33 c8 d1 bd e4 ce 32 3c
       -0.06065573 0.09581658 -0.10243263 0.010913584
000250 64 50 87 bc ae 3b 17 3e e3 19 67 bd ff fa 33 3d
       -0.016517825 0.1476886 -0.056421172 0.04394054
000260 fd fd ca 3d b1 7f 9e 3c cf 74 a4 3e c6 08 78 3d
       0.09911726 0.019347997 0.32120368 0.060555242
000270 c2 78 85 3d a5 14 9d 3d 87 79 95 3d b0 d3 b0 3d
       0.06517173 0.07669953 0.0729857 0.08634126
000280 df 14 96 bd 27 cc b8 bc a5 d8 02 3d d0 b5 75 be
       -0.073281996 -0.022558285 0.03194489 -0.23995137
000290 3c 7d 88 bd f4 00 65 3d 5f 30 07 be 5f 68 3f 3d
       -0.066645116 0.055909112 -0.13202046 0.046730395
0002a0 77 f1 92 3c 90 8f 0a 3e d7 d6 13 3e ef 3b 0d be
       0.017937405 0.13531327 0.14437424 -0.13792394
0002b0 d0 36 be 3d 47 f0 bf bd e2 01 23 3e 57 05 f1 bc
       0.092877984 -0.09372001 0.15918687 -0.029421492
0002c0 2f 67 6e 3e a0 02 ee 3b c6 e4 27 be 30 36 79 3e
       0.23281549 0.0072634965 -0.16395864 0.24337077
0002d0 46 c2 de bd c8 3e bf bd 8c 90 dc 3d df 40 58 bd
       -0.108768985 -0.093381464 0.10769758 -0.05279624
0002e0 b7 7d 34 3e d4 3e 25 be 98 70 72 bc 0c 1d 0f 3d
       0.17626081 -0.16137248 -0.014797352 0.03493981
0002f0 31 75 9b bd 27 d9 3e bd 2d f1 8b 3e bf 0e 12 be
       -0.07590712 -0.04659381 0.2733244 -0.14263438
000300 3e 80 3a bc 59 da 18 bd be cc 21 bd 2f 6d a2 bc
       -0.011383114 -0.037317608 -0.039501898 -0.019827453
000310 c3 25 47 3c e3 69 0c 3d 62 4d 48 bc 4b 9e e6 bd
       0.012154999 0.03428067 -0.012225481 -0.11260661
000320 e4 d4 94 be 98 47 db bd c1 56 37 be da 15 f5 3d
       -0.29068673 -0.10707015 -0.17904188 0.119670585
000330 f0 4d 43 bd 1d 12 44 bd f3 0a c1 be 3f 16 2a be
       -0.04768175 -0.047868837 -0.37703666 -0.16610049
000340 2b 6c 6e bd 48 7e 82 bd a7 00 1f 3e d5 95 a7 bd
       -0.058208626 -0.063717425 0.15527593 -0.08182875
000350 36 4d 0c 3e 58 5a af bd 60 7d ea 3c de 0d 4d bd
       0.13701329 -0.085621536 0.028624237 -0.050062053
000360 75 4a a0 bc 6a f6 1a 3d 1e 95 ec 3c 62 65 44 3d
       -0.019566754 0.037832655 0.028879698 0.04794825
000370 21 d5 51 bc 9e 1b 18 be 03 91 2d be 77 47 10 be
       -0.012807162 -0.14854285 -0.16949849 -0.14089762
000380 ee c3 9c 3c 84 88 18 be 09 fd 10 3b 6a c1 0d 3e
       0.019136395 -0.14895827 0.0022123477 0.13843313
000390 e9 eb ac 3d ec 96 cc 3c 1a 76 c1 3b cb ff 89 bd
       0.08443434 0.024974309 0.0059039714 -0.06738242
0003a0 1a 48 20 be 3d 53 c0 3d ef fe 65 3d 2f 39 a1 3d
       -0.15652505 0.093908764 0.056151327 0.07872235
0003b0 35 31 8b bd 76 04 0e bd 0d 3c 78 be 58 7e be 3d
       -0.06796495 -0.034672223 -0.24241658 0.09301442
0003c0 bd c6 c2 3d 09 65 26 bd 8d 80 54 3d 7c 15 16 3d
       0.095105626 -0.0406237 0.051880408 0.036641583
0003d0 0b a0 be 3d 3f 7c 02 ba 25 28 5d bd 00 db 09 bd
       0.093078695 -0.00049776206 -0.053993363 -0.03365612
0003e0 61 0e b4 3d ad 0d 05 3d 9f de 4b 3d 76 71 8d 3d
       0.08791805 0.032483745 0.049772855 0.069064066
0003f0 32 ea 6a be b4 a0 ec 3c 82 f9 20 bd f8 54 ad bd
       -0.22940901 0.028885223 -0.03930045 -0.08463472

dense1.0.bias f4 [32]
000000 e6 b8 80 3e f1 a2 88 3f e2 b9 68 3e 43 96 20 3e
       0.25141066 1.0674726 0.22727159 0.1568232
000010 e2 7a b6 3e f1 08 be 3e d2 5b 99 be dc fb fa be
       0.35640627 0.37116197 -0.29952866 -0.49020278
000020 68 90 0f bd 07 93 94 bf a2 d7 34 3f f0 bc d0 be
       -0.035049826 -1.1607369 0.7064153 -0.40769148
000030 1c 2d 56 3f b6 2d 3e 3f ed 9e 80 3f c2 be a2 bf
       0.8366258 0.742885 1.00485 -1.2714465
000040 64 3c 95 3f 46 12 8a 3c 55 2a 43 2a a8 b6 1a be
       1.1659055 0.016854417 1.7334166e-13 -0.1510874
000050 54 81 3e bf 9a 70 69 bf d7 01 c5 be f9 3b f7 3e
       -0.7441609 -0.9118744 -0.38477966 0.48287943
000060 91 47 11 bf 68 61 d9 bd 2a 75 d6 bd 81 11 68 3e
       -0.56749827 -0.10614282 -0.10471566 0.22662927
000070 3b 2b 67 3f 35 72 95 b4 73 7c df 3e 1a 1a 87 3f
       0.9030034 -2.783651e-07 0.43649635 1.055484

dense2.weight f4 [10, 32]
000000 26 b5 8c be 7f db 95 bd 84 50 b2 3e 8f 59 14 3e
       -0.27481955 -0.07317256 0.34827054 0.14487289
000010 57 f2 b2 3c 7b d5 d6 3e 21 07 09 3e 60 89 b8 3e
       0.021844072 0.41959748 0.13381626 0.3604231
000020 12 08 b0 3e 87 40 b3 bd df a5 96 3e db 6b a4 3d
       0.34381157 -0.08752542 0.29423425 0.08028384
000030 86 64 38 3e a0 b6 a5 3e c3 00 92 3b 8c c3 57 be
       0.18007097 0.32365894 0.004455657 -0.21070689
000040 8b 8d 31 3d 84 da b7 3c df c9 07 bb 0e c6 13 be
       0.043347877 0.022443064 -0.002071969 -0.1443102
000050 f5 95 a8 bd fb 0c 38 3e b6 6a c2 be 3f 9b 8e 3e
       -0.08231727 0.17973702 -0.3797204 0.27852818
000060 2e 41 d9 be 58 b1 db be 5a f0 b4 3d 22 fa 23 be
       -0.4243254 -0.4290874 0.08834906 -0.16013387
000070 d7 b7 f9 bd e3 fc ff ba 69 5b 1d bd 80 ff 24 be
       -0.12193268 -0.0019530322 -0.038417254 -0.1611309
000080 19 cd 66 be 71 45 7f 3e 40 e9 6a 3e 00 09 c2 bd
       -0.22539176 0.24928834 0.2294054 -0.09474373
000090 21 15 a0 be d8 f4 9d 3e ed cb 98 3e c6 66 4e 3e
       -0.3126612 0.30850863 0.29843083 0.20156392
0000a0 65 7c 1c be f3 ed 21 3f b5 14 c4 be 20 a7 64 3e
       -0.15281828 0.63253707 -0.38297048 0.22329378
0000b0 45 64 9c be d3 da b7 be eb a1 f0 be 15 21 be bc
       -0.3054525 -0.35909137 -0.46998534 -0.023209134
0000c0 da 48 93 be c0 d0 22 bd 15 6a 55 ba 90 42 52 be
       -0.2876652 -0.03974986 -0.00081411126 -0.20533204
0000d0 fd 62 05 3f 16 e3 80 be b0 cd bb 3e 1f 3f 83 3d
       0.5210417 -0.25173253 0.36680365 0.06408524
0000e0 dd bb 53 be 40 fb 98 bd 8d 48 f0 3e ed d2 ee bd
       -0.20677133 -0.07469797 0.46930352 -0.11661325
0000f0 8d b8 5b be c0 bc 3c ba 9d 34 7b be 73 14 cc bd
       -0.2145712 -0.0007199757 -0.24531789 -0.09964838
000100 02 f8 16 be 05 23 80 be e0 e2 6d 3d 49 31 69 3e
       -0.14743045 -0.25026718 0.058077693 0.22772707
000110 fd b3 92 3e d1 06 4f 3d b9 4e 2a 3e 41 55 0c be
       0.28652945 0.05054361 0.16631593 -0.13704397
000120 1f d8 af bd eb 9c a4 be 4f ef 88 ba ab 34 75 3e
       -0.08586144 -0.3215097 -0.0010447296 0.23945872
000130 4b fb b5 3d 8e ef b9 3e 47 18 ba 3d 41 c5 1b 3e
       0.08885821 0.36315578 0.09086662 0.15211965
000140 88 bc 58 be bb 05 b3 bd 5c 1c 95 3b bb a3 8a be
       -0.21165669 -0.087413274 0.0045505 -0.2707804
000150 82 94 e1 3c ce 30 26 3e c1 4d fe bd 9d 5a 67 be
       0.027536634 0.16229555 -0.12417174 -0.2259316
000160 ce a9 8d 3d ab 64 55 be 95 21 82 3d 48 55 64 3e
       0.06917153 -0.20839183 0.063540615 0.22298157
000170 0a c3 5a be 44 74 21 bb 72 46 ae 3e fb 4a 2b 3d
       -0.21363464 -0.002463595 0.3403812 0.041819554
000180 c2 d0 dd 3c 18 dd 82 be c7 8b 4e be 86 d4 1e be
       0.027077083 -0.25559306 -0.20170508 -0.15510759
000190 f9 1f e7 3d 4a 78 1a c0 dd 64 9b be 6a 0b 4d be
       0.11285395 -2.4135919 -0.3035039 -0.20023885
0001a0 41 8a 36 be 38 a9 c1 3e 29 c9 87 bd 42 78 04 3c
       -0.17826177 0.37824416 -0.06630165 0.008085312
0001b0 97 1d 92 3d 20 e3 07 be 29 50 2f 3e 5f 67 0e 3e
       0.0713455 -0.13270235 0.17120422 0.1390662
0001c0 f5 07 af bd cf 65 86 3e 1c 1a 9f 3a 1a d2 41 3e
       -0.085464396 0.2624955 0.0012138519 0.18927804
0001d0 1f f8 ec be ee 3b 14 be d3 7a 91 bc bc 9d 85 bd
       -0.4628305 -0.14475986 -0.017758762 -0.06524226
0001e0 91 b1 46 bc b7 1e dc 3c fe 61 b6 be bd 33 20 3e
       -0.012127296 0.026870115 -0.35621637 0.15644737
0001f0 c8 49 9f bc 1d f4 2d bb 53 78 0c 3d 42 01 9f 3e
       -0.019444361 -0.0026543208 0.034294438 0.31055647
000200 7f fc 82 3d fa dc b3 bd 91 6e 88 3e ab fa 94 bd
       0.06395816 -0.08782382 0.26646855 -0.072743736
000210 fb 56 ae 3e 93 6d 6f c0 ef aa f6 be c7 f7 5a be
       0.34050736 -3.7410629 -0.48177287 -0.21383582
000220 d7 6c 8c be 6c 85 aa bf 23 fd 8b be 48 af 5c be
       -0.27426788 -1.3321967 -0.27341565 -0.2155124
000230 02 36 ab 3e a3 5a 96 3b 05 8b 1f be c3 c2 2e be
       0.33439642 0.0045884415 -0.15580375 -0.17066483
000240 75 87 3b be a5 72 8c be 52 43 ac 3a a5 ed 6c 3d
       -0.18313392 -0.27431217 0.0013142622 0.057843823
000250 2a ec 9d 3d 69 56 1d be 76 21 d2 3d aa 83 7e be
       0.0771106 -0.15364994 0.102602884 -0.24854913
000260 66 50 e2 bd 0b 80 05 be a4 4d 28 3e f0 0c ab be
       -0.11050491 -0.13037126 0.16435868 -0.33408308
000270 fe 05 e5 3e f7 e9 75 bb ae fd 5a 3c 13 b3 2e 3e
       0.44731134 -0.0037523487 0.013366146 0.17060499
000280 50 b7 2d 3e 02 32 a1 bc c4 ae ee be 01 66 49 be
       0.1696446 -0.019677166 -0.4661771 -0.19667818
000290 99 a4 63 bd b2 76 da bd 34 89 8e be 62 89 94 3b
       -0.055576894 -0.106671706 -0.27839053 0.004532979
0002a0 69 da e6 bc 0b 12 8e bd 50 f7 2b 3c c6 c8 0a 3d
       -0.028180318 -0.06937035 0.010495976 0.03388288
0002b0 e4 ad 65 3e 4c c0 d8 bd 19 64 52 bc fb 24 b6 3e
       0.22429615 -0.10583553 -0.012841248 0.3557509
0002c0 de cd 5c 3e 5a 63 94 3d ac bf 79 3b ca e8 a3 3d
       0.21562907 0.07245512 0.003810863 0.08003385
0002d0 fe 1d b3 bf ae 60 83 3d c7 b6 5e be 07 e3 b7 be
       -1.3993528 0.064149246 -0.21749412 -0.35915396
0002e0 a3 c2 0b 3e 3e c9 94 3e 96 a2 c6 bd 9c 61 51 3d
       0.13648467 0.29059786 -0.096989796 0.05111848
0002f0 7a 29 81 be 7f 38 23 3b 4f 36 ba bd 79 ef 90 be
       -0.25226957 0.00249055 -0.0909239 -0.28307703
000300 38 65 44 3e 0f 62 09 bf 20 4d 49 be 72 ee fd 3e
       0.19179237 -0.5366525 -0.19658327 0.49595982
000310 5f 39 ef 3d b7 fc 3a 3e cc 32 39 be e7 41 a7 bd
       0.116808645 0.18260466 -0.18085784 -0.08166867
000320 d5 24 74 bc 75 75 d2 bd 39 8f 97 bd 13 e0 a9 bd
       -0.01490136 -0.102763094 -0.074003644 -0.08294692
000330 bb 03 ab bd e1 a5 ac 3c 7f 49 82 be 40 a6 a8 3d
       -0.08350321 0.021075191 -0.25446698 0.08234835
000340 e8 9a c2 be bb 2d 9b bc ca 48 9c bb 1d 53 d8 be
       -0.3800881 -0.018942704 -0.0047694193 -0.4225091
000350 ea 78 16 bf 40 6b 23 be 20 d3 c7 bd 93 bd 9d 3e
       -0.5877825 -0.15958881 -0.09757066 0.30808696
000360 65 0a 03 3e cd 57 36 be e5 eb ce bd b4 48 03 3e
       0.12796934 -0.17806931 -0.10103587 0.12820703
000370 68 39 42 3e 92 07 28 3b 83 b3 99 be 3f 5d 90 3e
       0.18967211 0.0025639278 -0.3001977 0.2819614
000380 99 12 8d be d1 f0 07 3f 5b 65 ac bd 3c c8 b2 be
       -0.2755325 0.5310183 -0.084177695 -0.34918392
000390 b3 b0 0c 3e 75 df 40 3f f4 95 a7 be 8c 3e 41 3e
       0.1373928 0.7534097 -0.32731593 0.18871516
0003a0 56 f9 5b 3e 5f b5 04 c0 1e 3c e8 be e4 1d d6 be
       0.21481833 -2.07357 -0.45358366 -0.4181968
0003b0 49 06 9d bc 4f 77 66 bf 8c ce 7b be 96 84 1b be
       -0.019168036 -0.900258 -0.2459051 -0.15187296
0003c0 ba 35 a4 bd f0 19 a3 be 05 2b db ba 70 28 ad 3e
       -0.0801806 -0.31855726 -0.0016721195 0.33819914
0003d0 fc b9 17 3e 4b 9d b5 3e fc 06 3e 3d 6c c3 d7 be
       0.14817041 0.35471568 0.04639338 -0.42141283
0003e0 a3 53 a3 3e 41 24 c8 3e ee 27 8e be e3 c1 d2 be
       0.31899747 0.3909016 -0.2776484 -0.4116355
0003f0 f8 4b bc be 6c 55 28 3b e5 82 5c bd 88 f3 f4 be
       -0.3677671 0.002568568 -0.05383577 -0.4784205

dense2.bias f4 [10]
000000 5e ab 0b be c1 8f 85 bf c5 45 fb 3e 38 7a 99 bd
       -0.1363959 -1.0434495 0.49076667 -0.074940145
000010 27 b1 8d 3f 01 4c 89 bc 1b 57 32 be 3e 25 db be
       1.1069688 -0.016759874 -0.1741604 -0.4280185
000020 6d 2d 16 3f b1 c7 f2 be
       0.58663064 -0.47417977
