ResidualLoss/CNN-Train/CIFAR_17/back_epoch-288.pt (torch, 27135 bytes, 10 tensors)

conv1.0.weight f4 [8, 3, 3, 3]
000000 7a 04 c9 be cd 73 1c 3e fe 63 85 be f2 2f ec be
       -0.39261228 0.1527855 -0.2605285 -0.4613033
000010 ce bd e5 3d 7a 6c 3a be 40 37 9e 3e b2 f1 a5 3e
       0.11217843 -0.18205443 0.30901527 0.3241096
000020 9a 96 00 3e 63 14 8b 3e df 43 df 3e 3a ee 61 bd
       0.1255745 0.2716399 0.4360647 -0.05515883
000030 4e 68 70 bd 5a 5d eb 3d 1d bb bf be b7 50 84 be
       -0.058693223 0.11492415 -0.37447444 -0.2584283
000040 4d 67 90 3e 0d 40 19 be ec 6e 77 bd d8 fc 22 3e
       0.28203812 -0.1496584 -0.060408518 0.15916765
000050 41 32 a7 3d 49 22 e9 3c 86 bd 07 bd 7d 7d 0c 3e
       0.08163882 0.028458731 -0.033139728 0.13719745
000060 39 95 df bd 70 f0 4d 3d ed 2e 3d be 21 6c 85 3e
       -0.10917134 0.050278127 -0.18474932 0.26059058
000070 62 2d 00 be 9f ca 77 3e ea d7 1b bf 81 47 ab bd
       -0.12517312 0.24198388 -0.60876334 -0.08363248
000080 8f cf b0 be d0 ed b0 be 52 49 37 bd aa 3a 3a 3e
       -0.34533355 -0.34556437 -0.044747658 0.18186441
000090 f7 c7 0c be 90 10 02 be 1a 9c 37 3d 8b b2 1c 3e
       -0.13748156 -0.1270163 0.044826604 0.15302484
0000a0 a5 83 f2 3e d7 71 a2 be 89 38 f0 be 33 1e 6d bc
       0.47366062 -0.31727478 -0.46918133 -0.014472532
0000b0 53 de c5 bd 57 76 d1 3c be af ea be b2 d9 67 bf
       -0.096615456 0.025569124 -0.45837206 -0.9056655
0000c0 18 61 88 3f 58 33 b1 3e 8d a7 b0 3d e4 8b ef 3e
       1.0654631 0.34609485 0.08625708 0.46786416
0000d0 f7 e0 ab 3e ed 34 18 3f 37 54 2e 3e aa ba 19 3f
       0.33570072 0.5945576 0.17024313 0.6005045
0000e0 9f c8 49 3d 9c e8 db 3e a5 6d ae 3d 4c 8e 49 3d
       0.049263593 0.42950904 0.08517007 0.04920797
0000f0 c5 4a 0a 3d 35 a4 d2 bd 14 73 61 be c0 76 0b be
       0.033762712 -0.10285226 -0.22016555 -0.13619518
000100 60 f8 7f 3e c9 db 40 be ce 58 26 be 23 9c 8f be
       0.24997091 -0.18833841 -0.16244814 -0.2804881
000110 ce 78 c5 be f1 92 00 be d3 84 44 be 77 8a 18 be
       -0.3856873 -0.12556054 -0.19191293 -0.1489657
000120 c4 b3 05 3d 39 c4 34 3e a3 d1 10 bf 6f f5 0a 3f
       0.03264214 0.17652978 -0.5656988 0.5428075
000130 56 5c 90 3d 7c ab a7 bd e2 b1 f3 3d fd 79 5c be
       0.07048862 -0.08187005 0.11899163 -0.2153091
000140 06 3e 4c 3e 27 56 bf be 09 52 74 bf 0f f5 43 bd
       0.19945535 -0.37370417 -0.95437676 -0.047841128
000150 f5 85 3c be 09 1f e9 3d d1 cf f3 3e 1f 70 cd 3d
       -0.18410476 0.113828726 0.4761949 0.10031151
000160 48 2a b8 3e 32 42 48 3e d1 f0 a5 be b2 b2 23 be
       0.35969758 0.19556502 -0.3241029 -0.15986136
000170 9e bd 9f be 10 d6 a1 bd 5e 6f b2 3e e1 ce a0 3e
       -0.31199354 -0.07902157 0.3485059 0.31407836
000180 67 ad 4f 3d b8 8e c6 3d 94 4b 17 3e ce be 94 be
       0.05070248 0.0969519 0.14774925 -0.29051822
000190 2e a3 ba be 1a 95 51 3e 87 4e 5f 3e 79 90 7b 3e
       -0.3645262 0.20467034 0.218073 0.2456683
0001a0 13 ef 10 3e 70 b6 3d 3d f1 cb a8 3e f1 83 3e be
       0.141537 0.046316564 0.32968095 -0.18605019
0001b0 5f 01 8e bd 2c aa 93 bd c3 9a 11 be 66 f9 e1 be
       -0.06933855 -0.07210192 -0.14219193 -0.44135588
0001c0 b2 6f 5b bd 9f ec 09 3f c1 d5 ba be b9 aa c0 3d
       -0.053573318 0.5387668 -0.36491206 0.09407563
0001d0 d0 12 db 3d 7e f6 01 3f 9b dd 44 3d 23 36 6a be
       0.106969476 0.5076674 0.048062902 -0.22872214
0001e0 ef 10 04 be cc a3 69 be e5 02 6e 3e a0 77 3d be
       -0.12897085 -0.2281639 0.23243292 -0.18502665
0001f0 2b b6 68 3e 83 da e0 3d 88 bb 94 3c bf 0a 5b be
       0.22725742 0.10979178 0.018155828 -0.21390818
000200 e7 13 96 3c ba c3 22 be 7c a0 7c be 83 1d 0c 3f
       0.018320037 -0.15894976 -0.24670595 0.5473253
000210 7f 49 81 bd 50 f8 ba be 50 e9 a1 3e 26 bf c5 bd
       -0.063128464 -0.36517572 0.31623316 -0.09655599
000220 1f ae d9 3e 9c 6c b3 3c 22 b4 96 bd 2e 52 d1 3d
       0.42515656 0.021902375 -0.07358576 0.10220753
000230 62 5c ad bd cb 90 e4 3d e3 e5 b7 bd a7 4b 5b be
       -0.08464886 0.111604296 -0.08979394 -0.21415578
000240 0d 59 ac be 2b 69 f0 be a3 93 2f be 0d 9b 8d 3e
       -0.3366169 -0.46955237 -0.17146163 0.27657357
000250 b7 b5 ba 3e 48 84 8d ba ef 9d 29 3f 12 7b c8 3e
       0.36466762 -0.0010796869 0.6625661 0.39156395
000260 80 b7 85 3e b5 93 64 3e f3 e4 06 3f bc 8e 57 3e
       0.26116562 0.22321971 0.526931 0.21050543
000270 ec 7e 1c 3e 19 42 6f 3e 64 20 5f 3e 8e 93 3e 3e
       0.15282792 0.23365058 0.217897 0.18610975
000280 58 99 ad 3d 48 04 c6 bc 8d 92 12 3e a2 c6 cc bd
       0.084765136 -0.024171963 0.14313717 -0.09998824
000290 9d c3 f1 3d e3 5d 2c 3e 6c 66 fd 3b 14 c9 56 bd
       0.118048884 0.1683269 0.007733157 -0.052437857
0002a0 12 23 71 3d 13 ec 9a 3c 84 95 16 be 14 3e 31 3c
       0.058871336 0.018911397 -0.14705473 0.010818023
0002b0 68 f2 00 bf b4 8c 6f be 32 cf 1a 3e 9f a0 ab be
       -0.5036988 -0.23393518 0.15118101 -0.33520982
0002c0 80 f8 cd be 12 4d cc 3d 80 d4 89 3d 2a 23 e5 be
       -0.40228653 0.099756375 0.06729984 -0.4475339
0002d0 f0 73 a9 be 00 dc 63 be e5 03 a3 bd e0 ca db bd
       -0.33096266 -0.22251892 -0.07959727 -0.10732055
0002e0 24 5e 28 be 09 ae 99 be af ce c3 3c 08 36 08 3e
       -0.16442162 -0.3001559 0.023902265 0.13301861
0002f0 ae 62 8b be 7a f5 3b 3d 27 2f e5 bd 28 be 65 bd
       -0.27223724 0.0458884 -0.11190634 -0.05608955
000300 bf 1b b0 be 3a bd 90 be b5 fb 4d 3e c6 63 d0 bd
       -0.3439617 -0.28269368 0.2011555 -0.1017528
000310 5f d9 7c bd 72 44 50 bd 57 58 4f 3f 3a a6 f9 3e
       -0.06173074 -0.050846525 0.8099417 0.48759633
000320 6f 3e 99 3e b6 cf 84 be 99 53 7b be 31 b4 04 3e
       0.29930446 -0.2593972 -0.24543609 0.12959363
000330 6a f5 81 3c d9 24 1b 3e 10 e4 89 bd cb ed f8 bd
       0.015864093 0.15150775 -0.067329526 -0.121547304
000340 79 d1 a0 3a c0 ea bc be 68 02 ab be 36 96 84 3c
       0.0012269459 -0.3689785 -0.33400273 0.016184907
000350 a8 d2 e6 bd d4 f0 a8 3d 39 ac b1 3e 78 f8 51 be
       -0.11270648 0.08249059 0.34701708 -0.2050494

conv1.0.bias f4 [8]
000000 91 b7 4b 3d 82 c0 c2 bd 7d e0 39 3f 07 d3 5d 3e
       0.04973561 -0.09509374 0.72608167 0.21662532
000010 cb ba b2 3e 47 3a 85 bd 77 dc 32 bf b9 5c c2 bc
       0.34908137 -0.06505256 -0.6986765 -0.023725854

conv2.0.weight f4 [8, 8, 3, 3]
000000 ba 4a d9 bd 57 7e 13 3f ea 7d 42 be 27 ff cf be
       -0.10609956 0.57614654 -0.18993345 -0.40624353
000010 3b 72 22 3e fd 91 61 3e 9b 24 91 be 2f 73 9e be
       0.15863888 0.22028346 -0.2834824 -0.30947253
000020 d6 39 c3 bc 1c bc 0b 3e cc a6 aa 3d 3c 41 01 3e
       -0.02383129 0.13645977 0.08332595 0.12622541
000030 b5 d9 c8 bd d9 01 91 3c 12 66 9e bd d9 d0 c9 be
       -0.09807149 0.017701076 -0.07734312 -0.3941715
000040 9f f1 69 3d ed 2d 08 bd 59 16 8a 3d 07 8b 3b bd
       0.057115193 -0.033246923 0.06742544 -0.045786884
000050 69 a2 4d 3e d8 b6 c4 be 43 9f 18 bd 3a 2e 0a 3e
       0.20081486 -0.3842075 -0.03726126 0.13494197
000060 ca bc 6b be d2 a6 e6 bd 46 9c 9d 3d c6 c9 a7 bc
       -0.23021236 -0.11262287 0.076958224 -0.020481955
000070 00 ad 80 3e 8b e6 5f be 76 a1 9b 3d 08 a0 00 3e
       0.2513199 -0.21865289 0.075991556 0.12561047
000080 e0 39 79 be 73 a7 90 bd 76 19 15 be 60 87 35 be
       -0.24338484 -0.070631884 -0.14560494 -0.17727423
000090 93 5b 73 3e 08 79 07 bf 92 95 e4 bd 27 d4 a1 3e
       0.23765402 -0.52919054 -0.11161341 0.31607172
0000a0 4f 41 9f bc 81 f3 7f 3d 96 ee 25 3e 74 fa 6c be
       -0.019440321 0.062488083 0.16204295 -0.23142415
0000b0 12 35 57 3e e1 df a1 3e 7a e2 02 3e 7d d5 17 be
       0.21016338 0.3161612 0.12781706 -0.14827533
0000c0 2f e4 e4 bc 54 2e 5a 3e 06 a3 76 be 2b 44 2f 3e
       -0.027940838 0.21306735 -0.24085626 0.17115848
0000d0 7a 0c 6d bd 54 82 05 be b2 2e f8 3d 63 7f 9e be
       -0.057873227 -0.13037997 0.121182814 -0.30956563
0000e0 c5 03 a9 3e 52 8b 8d be 40 02 c7 bd d0 8a d6 3d
       0.33010688 -0.27645355 -0.09717226 0.10475695
0000f0 b6 e7 06 bd 71 25 dc bc ca 50 ab 3e f3 42 63 3d
       -0.03293582 -0.026873322 0.33460075 0.05548377
000100 5b 28 2a bd db 9f 8e be 20 d9 8f be d1 1a cd be
       -0.041542392 -0.27856335 -0.2809534 -0.40059522
000110 ec 5a 94 be 82 0a 4d bd 3e fd be be 65 d9 04 bf
       -0.28975618 -0.05005885 -0.37302583 -0.5189422
000120 83 86 bf 3c 36 5f 4d bd 91 8b 5e 3c eb 43 48 bb
       0.02337957 -0.05013963 0.01358308 -0.003055806
000130 59 18 8d be 25 de b8 bd 75 b0 5d 3e 82 74 dc 3d
       -0.27557638 -0.09026746 0.21649344 0.107644096
000140 f3 6b ec be 78 df c7 3e da 02 9e be 06 f8 8b be
       -0.4617611 0.3903768 -0.3086155 -0.27337664
000150 e1 1c c4 3d 9c 5e 3d be 83 61 35 be e4 a0 22 bd
       0.09575821 -0.18493122 -0.17712979 -0.03970422
000160 28 d8 78 3e 98 d6 bd be 2e e8 5c be 2d 0d 00 3d
       0.24301207 -0.37077785 -0.21572945 0.031262565
000170 81 f7 50 3d 6f d1 df 3c fe 07 f2 bc 0e 42 35 3e
       0.051017288 0.027321545 -0.029544827 0.17700979
000180 bc e5 4c bd 2f ea 8d bd ea 11 91 3d 3c 10 68 bd
       -0.05002378 -0.069294326 0.07083495 -0.056656107
000190 74 9d c9 3d 9a bc 3a 3e 65 5f 7f be 52 1d 06 3e
       0.09844485 0.18236008 -0.24938734 0.13097122
0001a0 09 e7 64 be 8b a0 c8 bc 91 0d ad bd 7f fb ac bd
       -0.22353758 -0.024490615 -0.08449853 -0.084464066
0001b0 2a e9 1f 3e 46 4e 36 3e c7 33 e9 3d e0 22 51 bb
       0.15616289 0.17803296 0.11386829 -0.0031911656
0001c0 ce 0e 45 3e f9 6a 98 3d 67 6c b1 bd b3 a1 ef 3d
       0.19243929 0.074422784 -0.08663254 0.117007636
0001d0 65 b3 0d 3e 37 28 8b bb 29 20 8a 3d d3 39 84 be
       0.13837965 -0.0042467373 0.06744415 -0.25825366
0001e0 d3 45 c0 bc 80 00 08 3d 69 e8 04 bd 78 8d 8b 3d
       -0.023470795 0.0332036 -0.032448206 0.068140924
0001f0 b3 41 bc bd 66 13 28 3e a2 e9 1d 3e 71 42 11 be
       -0.09192219 0.1641365 0.15421155 -0.14185502
000200 37 1c 7d 3c 10 41 a4 3d 4b bd 1e bd 7f 61 64 bd
       0.0154486215 0.08020222 -0.038754743 -0.055757042
000210 ee a3 dc bd 62 33 9a bd 13 be 6a bd 09 3c fb 3e
       -0.107734546 -0.07529332 -0.057310175 0.4906924
000220 db e4 4e be 55 6e e4 bd e3 6b 39 3e e8 15 67 bd
       -0.20204489 -0.11153857 0.18107562 -0.056417376
000230 33 4f e0 be c3 36 da 3e fa 47 48 be 3a 62 b5 be
       -0.43810424 0.42619905 -0.19558707 -0.35426503
000240 93 3e 4f 3e 1d 3b 2b be 3d f9 f5 3e 74 30 9d be
       0.20238714 -0.16721769 0.48041716 -0.3070103
000250 12 56 e4 bd 01 25 67 3d 2a 7d b1 bd c2 74 d3 3d
       -0.11149229 0.056431774 -0.08666451 0.10325004
000260 2c 76 1e bf b6 6f 46 be 46 f9 51 be c9 eb 80 3e
       -0.61899066 -0.19378552 -0.20505247 0.2517989
000270 b3 be b7 bd 8f 50 11 3f 9f 42 e4 3e 61 7c bf be
       -0.0897192 0.5676355 0.44582078 -0.3739958
000280 15 30 aa bd 00 8f 60 3e 3f ab 2a 3e 6c 2d 22 be
       -0.08309952 0.2192955 0.16666888 -0.1583764
000290 a1 ee 81 bd 81 1a b8 3d a4 2b e1 3e 6b e2 61 3e
       -0.06344343 0.0898943 0.43978608 0.22059028
0002a0 d3 98 8f 3d c3 92 07 3c 6b b4 2a 3d 55 6e 6c 3d
       0.07011571 0.008274737 0.041675966 0.05772241
0002b0 f6 d8 12 3e da 6a dc 3e 8e f9 c9 3e cf b7 07 3d
       0.14340577 0.4305027 0.39448208 0.033134278
0002c0 87 38 b0 bd c7 5c 56 bd 71 af b3 be 49 46 9d 3e
       -0.08604532 -0.052334573 -0.3509479 0.30717686
0002d0 73 33 f9 bd 4c cd 14 3d 39 66 e2 3d 47 54 f2 3d
       -0.12168016 0.0363286 0.11054654 0.11832481
0002e0 52 9b 1b 3e 9d 2d 13 be fe 42 8d be ac cc 6e 3d
       0.15195969 -0.14372869 -0.27590173 0.05830066
0002f0 53 af e3 bd 6b b7 83 3e 16 e6 51 3e 03 70 04 3d
       -0.11117425 0.25725874 0.20497927 0.032333385
000300 a1 8a e6 be 88 e3 b3 bd d3 a7 76 3d 6d 56 b4 3d
       -0.4502764 -0.087836325 0.060218643 0.08805547
000310 9e 59 59 bc af 90 cb bd 3c 0e cc 3d 7b 12 53 be
       -0.013265995 -0.099397056 0.099636525 -0.20612518
000320 81 8c 02 be 89 0a c9 3b 65 78 79 3e 30 12 fe 3d
       -0.1274891 0.006135289 0.24362333 0.12405813
000330 5e c3 80 3c a5 05 21 be 20 67 45 3d f7 86 71 3e
       0.015718158 -0.1572481 0.04819405 0.23586641
000340 8a b7 49 3e da 39 e0 be 23 bc 44 3e c1 33 ef bd
       0.19698921 -0.43794137 0.19212393 -0.11679793
000350 ee 03 ae be c6 d9 8a 3e e2 05 2c 3c 3d 5f 9f 3e
       -0.33987373 0.27119273 0.010499449 0.3112735
000360 39 8a e8 3e ac 1a ce 3e 6f df 7f 3e 5a 07 13 3f
       0.45417956 0.40254724 0.24987577 0.5743309
000370 1e 9d 09 3f 3e fc b6 3c 73 cc 0a 3f 06 46 0b 3f
       0.53755367 0.022337075 0.54218215 0.5440372
000380 d1 e8 1f be e7 16 22 3d f5 98 0a be 3d c6 94 be
       -0.15616156 0.039572623 -0.13534911 -0.29057494
000390 34 78 cf bb e5 08 53 bd d0 9e 8e bd 43 fe 3d be
       -0.006331468 -0.051522154 -0.06963885 -0.18554024
0003a0 50 35 0b 3e b6 07 af bd 38 d6 82 bd c8 ed 5c 3e
       0.13594556 -0.085463926 -0.06388515 0.21575081
0003b0 88 ce 41 3e 2a 6b af bc f7 84 0a 3c 37 ce 26 be
       0.18926442 -0.021413404 0.008454553 -0.16289602
0003c0 cc 00 a8 bd e7 f9 f8 bd 13 ba a9 be 9c 08 2b 3c
       -0.08203277 -0.1215704 -0.33149776 0.010439064
0003d0 e2 39 ef bc 46 7f 4f 3e af bc ef 3d c8 a2 50 3e
       -0.029202405 0.20263395 0.117059104 0.20374596
0003e0 fa b5 2d 3e ea e3 3a 3e 60 0a 97 3c 20 52 11 3d
       0.1696395 0.18251005 0.018437564 0.03547871
0003f0 aa 1e e4 bc 51 38 94 3d e1 29 43 3e 6d 9f 3a be
       -0.027846653 0.07237304 0.19058944 -0.18224879

conv2.0.bias f4 [8]
000000 88 c8 09 3f 92 45 a2 3e 3f 29 98 3e 4a 41 2e 3d
       0.5382161 0.31693703 0.29718968 0.042542733
000010 0f 78 e1 3c 04 3c 02 be be 58 1f bf b4 6d 89 3f
       0.027523069 -0.12718207 -0.62244785 1.0736604

conv3.0.weight f4 [8, 8, 3, 3]
000000 e1 e0 a0 bc 5a 5d 93 3d be b0 55 bd c7 56 1b bd
       -0.01963848 0.0719554 -0.052170508 -0.037924554
000010 9b 22 03 3e ed b2 57 3e b9 58 b2 3b ff 99 36 bd
       0.1280617 0.21064349 0.0054427055 -0.044580456
000020 fc a4 f7 3d 63 df 39 bd 79 43 1e 3d 9e 50 4b be
       0.12092015 -0.045379054 0.038638566 -0.19854972
000030 97 6a 75 be 4c 58 f4 bd a8 a6 4d be c0 9d 55 be
       -0.23966442 -0.11930904 -0.20083106 -0.20860958
000040 97 ec de bd 51 80 e2 bc bf 4c 1f 3e ff 8f a9 bc
       -0.1088497 -0.027649077 0.1555662 -0.020698546
000050 f4 25 b5 3d aa 01 e3 3d ec 64 c1 3e 12 3a 0f 3e
       0.088451296 0.11084302 0.3777231 0.13986996
000060 92 a0 55 3e a8 85 8c 3e 03 04 c6 3e 4f 11 24 bd
       0.20862034 0.27445722 0.38674936 -0.04005557
000070 03 e7 a8 be f8 42 1f bd 7e 84 0c bd 34 b1 03 3d
       -0.32988748 -0.038882226 -0.034306042 0.032151416
000080 57 06 b0 bd 87 f7 58 bc 95 c4 97 3d 4e 13 b7 bd
       -0.08594959 -0.013242609 0.07410542 -0.08939229
000090 d8 36 5d be f5 5a ec 3d 45 4b 39 3d 15 a5 94 3d
       -0.21602952 0.11540786 0.0452378 0.072580494
0000a0 b4 d7 ad bc 54 d0 67 be 25 d3 65 3d c2 3c 20 be
       -0.02122102 -0.22638065 0.056109566 -0.15648177
0000b0 b8 53 11 be 4b 4a 9e bc c3 5e 5c bd 5a 41 ca bd
       -0.14192092 -0.019322535 -0.05380131 -0.09875746
0000c0 5b ad b1 bd c4 ac a1 3c ee 36 c7 bd 43 ac 3f bd
       -0.08675643 0.019735701 -0.09727274 -0.04679514
0000d0 8e e3 59 3e 4b ba 19 3e ad 95 20 3e 3f 63 c8 bd
       0.21278211 0.15012471 0.15682097 -0.09784555
0000e0 9c 4c 5f 3d 2c 26 07 3d f6 0d c4 bc 79 ce fc bc
       0.05451642 0.032995388 -0.023932438 -0.030860173
0000f0 67 07 e0 bc 48 9c 0e 3e 7c a7 9a 3e 48 14 87 3e
       -0.02734728 0.13926804 0.30205905 0.2638266
000100 26 84 c4 3c 3d a3 af 3e cb 83 52 3e 27 ba c2 bd
       0.023988795 0.34304228 0.20558088 -0.09508162
000110 99 28 0e 3e 35 9a ad bd 6f b6 1d be d8 35 e4 be
       0.13882674 -0.08476678 -0.15401624 -0.4457233
000120 36 77 60 bd 16 40 dc 3c 2f 26 7d 3d c4 2d 87 3d
       -0.05480119 0.026886027 0.061803993 0.06600526
000130 85 5a fd 3d 24 5c 8f 3e 82 ae 97 bd be 56 03 3e
       0.12370781 0.27999985 -0.074063316 0.12826058
000140 75 82 5a 3e bb 54 26 3e 60 90 de 3e 78 ee f8 3e
       0.21338828 0.1624326 0.43469524 0.48619437
000150 2c 45 f5 3d d3 a8 38 3e 44 9f ee 3e 92 fc bc 3e
       0.11976084 0.18033151 0.46605885 0.36911446
000160 51 99 93 3e 9e 89 f1 3e a5 88 29 3e 8b c5 95 bd
       0.2882791 0.47175306 0.16556032 -0.07313069
000170 da 9f ba 3d 1a e8 46 bd 95 41 88 bd e9 e5 ec bd
       0.091125205 -0.048561193 -0.06653134 -0.115672894
000180 c4 72 56 3d 5b 49 35 bd 6f 1f 0e be c2 96 93 be
       0.052355543 -0.04425941 -0.13879178 -0.28825957
000190 5a 8e ba bd 27 57 f7 3d ac e1 79 3d 04 db 6d 3d
       -0.09109183 0.1207717 0.061006233 0.058070198
0001a0 51 05 44 3e fd 2b 00 bc 2c 98 53 bd 11 da 8b 3e
       0.19142653 -0.007822988 -0.051658794 0.2731481
0001b0 63 17 b8 3d db 1a 82 be c3 f3 4a 3d 6f de ab bd
       0.08988836 -0.25411114 0.049548876 -0.08392035
0001c0 a3 97 5e be 22 4b e8 bb f3 24 d6 3d 34 4d 56 be
       -0.21737532 -0.0070890347 0.10456266 -0.20927888
0001d0 d4 8e e9 3d 69 3c 18 be b6 55 a3 bd 0a e7 bc 3c
       0.114041954 -0.14866795 -0.079753324 0.023059387
0001e0 4a 04 29 be d0 de bb 3c 00 eb 3f 3d 5b 59 b9 b9
       -0.16505542 0.022933394 0.046854973 -0.00035352525
0001f0 f5 c7 35 be 81 6a 3d 3e b2 84 a7 be 1e d2 09 be
       -0.17752059 0.1849766 -0.32718426 -0.1345906
000200 22 79 41 3d c6 90 e9 be 75 57 9e be 93 6f 6d 3e
       0.047234662 -0.45618266 -0.309261 0.23187093
000210 96 2a fb bd 08 ec 3b be 99 c6 81 3e 28 f7 a0 3e
       -0.12263982 -0.18351758 0.2534683 0.31438565
000220 a5 d6 76 3e 30 cb 92 3e 20 48 a5 3d a8 ad 2a 3e
       0.24105318 0.28670645 0.080703974 0.16667807
000230 27 34 81 3e 46 8f 2c bd b2 5d 85 3e 6f 6d 42 be
       0.25235102 -0.042128824 0.26048046 -0.18987058
000240 02 6b 55 3e d8 7f fb 3d f5 83 63 bc cb 2d a1 bd
       0.20841601 0.12280244 -0.0138864415 -0.078700624
000250 6c dd e2 3d 6f 0e 03 3e 7b 5f 6a 3e fc f5 e5 3d
       0.11077389 0.12798475 0.22887985 0.112285584
000260 6b e4 7c 3e 1c d8 1e be 26 08 52 be 85 ba 97 be
       0.2469651 -0.15512127 -0.20510921 -0.2963449
000270 7d a3 00 be 26 ba e1 be 58 27 96 3d 53 50 23 bd
       -0.12562366 -0.44087332 0.07331723 -0.039871525
000280 a7 c2 50 3e 81 48 8a 3c 4a 9a a8 3d 29 12 28 be
       0.20386754 0.016880276 0.08232553 -0.16413178
000290 1d 6f 1f 3e e3 c0 72 3c 00 ba 69 be ae 1b be 3e
       0.1556973 0.014816496 -0.2282486 0.37130493
0002a0 e3 52 f4 3c c0 37 db bd 09 37 26 3e 2b 4d b5 3c
       0.02982468 -0.10703993 0.16231932 0.022131523
0002b0 bc 56 f8 bd 26 ab 2c 3e af 23 73 3e 40 ac ca 3e
       -0.12125918 0.16862163 0.23744081 0.3958454
0002c0 68 ff 90 3e 67 91 3a 3e f6 e2 8b 3e 73 ae ad 3d
       0.2831986 0.18219529 0.27321595 0.08480539
0002d0 33 05 29 3e 11 e2 8f 3d 7b 2c 85 bd 4e 15 e0 3a
       0.1650589 0.070255406 -0.065026246 0.0017096193
0002e0 2b 23 af bc f9 17 cb 3d 2e 22 b4 3d 50 d8 a9 bd
       -0.021379074 0.09916682 0.08795582 -0.082932115
0002f0 e4 c4 28 be ba 50 7a 3e ef 73 0d 3d 51 39 73 3e
       -0.16481358 0.24444857 0.03453439 0.23752333
000300 3e d5 81 bd 67 94 27 3d 37 f3 b0 bd 4c 7c 60 3d
       -0.06339501 0.040913012 -0.086401395 0.05480604
000310 a5 05 10 be eb 24 d4 bd 76 80 6d 3e 84 64 c5 bd
       -0.14064653 -0.10358604 0.23193535 -0.096383125
000320 22 dd ae bb ab 3a 89 be e1 2f e0 be eb 02 cc be
       -0.0053364197 -0.26802573 -0.4378653 -0.39845976
000330 ba 7e 46 be 8b ee b2 be b1 98 35 be e7 60 16 bc
       -0.1938428 -0.3494762 -0.17734028 -0.009178377
000340 2a 8c a0 be 82 fa 3c be fd 37 a4 3d 1e 2a 3a be
       -0.31356937 -0.18454936 0.080184914 -0.18180129
000350 4f 69 f4 3b 49 d9 03 bc 56 ed fb bd 6e d6 0b 3e
       0.007458843 -0.00804741 -0.123011276 0.13656017
000360 8f e8 e2 be 15 a1 c2 be ce 65 82 bc 99 9c c8 be
       -0.44318053 -0.3801352 -0.015917685 -0.39181975
000370 9f 2d 3e be ca ca 75 be 2c 35 31 be cc 88 cc be
       -0.1857209 -0.24003139 -0.1730544 -0.39948118
000380 fd 80 89 be 0d 3d b5 bd f6 f9 f8 bd 68 8e 6e 3d
       -0.26856223 -0.08849535 -0.12157051 0.058241278
000390 42 b5 82 3e ae 4f 1c 3e f3 53 6d be e3 dc 05 bc
       0.25528914 0.1526477 -0.23176555 -0.008170339
0003a0 ee 81 d2 3d 70 26 d5 3d 1c 30 67 3e fc 73 3d 3c
       0.10278688 0.10407722 0.22576946 0.011563297
0003b0 4b 33 c1 bd 2e f8 8a 3d 41 1f 25 3e 4c 24 70 3d
       -0.094336115 0.06785618 0.16125204 0.058628365
0003c0 06 a1 1c 3e 13 12 b6 3d 11 52 2b 3e ad 74 8b 3d
       0.152958 0.08890166 0.16730525 0.068093635
0003d0 bc 1e a5 be ef 36 41 3e 39 72 29 3d 73 48 84 3e
       -0.3225001 0.18868612 0.041368697 0.25836524
0003e0 80 b2 39 3c e6 31 4e 3e 7e 3e 37 3e db 25 66 3e
       0.011334062 0.20136222 0.17894933 0.22475378
0003f0 a2 45 30 be 5a 11 fc 3d 7f 22 15 3e 40 c9 2c be
       -0.17214063 0.12307997 0.1456394 -0.16873646

conv3.0.bias f4 [8]
000000 03 fe 84 bf ae 5a bb 3e ed e6 d2 3e 3f 32 33 be
       -1.0390018 0.3659262 0.41191807 -0.17499636
000010 79 55 3f bd e1 c0 8b be 31 41 01 bf 70 9a 6e bf
       -0.046712372 -0.27295592 -0.504901 -0.932044

dense1.0.weight f4 [32, 128]
000000 1f 73 92 3d 25 9e 84 3d 9d 0b 27 bc db 16 6d be
       0.07150864 0.06475476 -0.01019564 -0.2315325
000010 d3 64 39 bd 35 84 7a bd c4 8d 28 be 7e 89 13 3e
       -0.04526217 -0.06116124 -0.1646033 0.14407918
000020 45 8d bd 3e 0f af a9 bd 51 8f 21 be c8 7f fd bd
       0.37021843 -0.08285343 -0.15777327 -0.12377888
000030 d5 f3 6a 3d 11 75 b6 bc a5 7b 08 3e 6e 8f 86 3e
       0.057361443 -0.022272618 0.13328417 0.26281303
000040 d2 c3 a4 be 4c b8 81 be b8 fd 35 3e 3b c1 e6 3c
       -0.3218065 -0.2533592 0.17772567 0.028168311
000050 27 4f 7b 3e 8f b7 2b be c9 3d 7d 3d 4d 34 84 3d
       0.24541913 -0.16769241 0.0618265 0.06455288
000060 aa ed f5 bd 55 24 d4 3b eb 03 94 3c 0d 59 08 3e
       -0.120082214 0.0064740577 0.018068274 0.1331522
000070 7b 2d 33 be af 8f 92 bb 87 40 81 3e cb b2 48 be
       -0.17497818 -0.004472695 0.25244543 -0.19599454
000080 1c 71 32 be dc 21 97 be fc 30 f2 bc 19 a6 5d 3e
       -0.1742596 -0.2951802 -0.029564373 0.21645392
000090 23 d1 a7 bc ef ac 04 3e 02 29 b8 3d 32 d3 cc 3d
       -0.020485466 0.12956594 0.089921966 0.1000122
0000a0 3f 95 38 bd 9f ad 09 be d1 7e 4e 3e eb 93 73 b9
       -0.045064207 -0.13445137 0.20165564 -0.0002322939
0000b0 9d 88 24 be 34 77 26 be 29 04 53 3d 96 4a 54 bd
       -0.16067739 -0.1625641 0.05151764 -0.051828943
0000c0 a6 c1 d3 3d ce d7 c0 3d e9 7c 1b 3d e0 00 a0 3d
       0.1033967 0.094161615 0.03796092 0.07812667
0000d0 14 63 6a bd 8e 06 c7 bd 12 38 fb bc 9d b4 d7 bd
       -0.057223395 -0.09718047 -0.030666385 -0.10532496
0000e0 db 91 2b 3e 45 43 ce bc 02 c4 54 3e 9d c8 b7 bb
       0.16754858 -0.025178561 0.20777896 -0.0056086318
0000f0 45 24 77 3e bf f0 dc 3c 82 a7 b4 3d 20 f1 da bd
       0.2413493 0.026970265 0.08821012 -0.10690522
000100 e4 df 10 be 4b 91 b9 3d 47 94 2d be 44 2f 21 be
       -0.14147907 0.090609156 -0.16951095 -0.15740687
000110 75 a0 8f bd 7d f5 b4 3d c9 79 81 3e 3b d2 e3 3d
       -0.070130266 0.08835886 0.25288227 0.11124083
000120 65 f5 4f 3a 75 d5 c4 3d 96 12 ef 3d 90 99 2c be
       0.000793299 0.09611026 0.11673467 -0.16855454
000130 b1 4c bf 3d 8c 17 70 bd c5 0c cc bc a9 08 a7 3d
       0.093407996 -0.058616206 -0.024908433 0.08155949
000140 20 dd a4 3c 8e f6 8d bd 62 e5 2b be fa 3d 90 3d
       0.020124972 -0.06931792 -0.16786721 0.07043071
000150 bd fb d5 bd 4b f2 a8 3c ef f5 b9 3d df 2f 55 bd
       -0.10448406 0.020623347 0.09080111 -0.052047607
000160 7f 81 88 3d 14 af cd bd 98 b3 27 be 85 9c ea bb
       0.066653244 -0.10043159 -0.16377103 -0.007159772
000170 ec 40 32 be fc ac 62 3e 05 34 48 3e d5 2a e1 3d
       -0.17407578 0.22136301 0.19551094 0.10994498
000180 be 8e 99 bc c1 b2 2a 3e 4d 52 c3 3c 53 31 8e 3c
       -0.018744823 0.16669752 0.023842955 0.017357504
000190 8a f7 38 be 94 3b c2 3d d6 a0 a7 3e 6e a8 1f 3e
       -0.18063179 0.0948402 0.32739896 0.15591595
0001a0 b1 64 17 3d dc 91 2c 3e f0 66 39 3e a5 8f 1c 3e
       0.03696126 0.16852516 0.18105674 0.15289171
0001b0 c5 ea 66 bc ef 84 4f bc 1a 28 8b 3b 8f 71 65 3e
       -0.014094059 -0.012665971 0.004246724 0.224066
0001c0 dc 54 0d bd 1a 16 ef bc c2 ba ed bd 9e 8d eb 3c
       -0.034504756 -0.029185344 -0.11607887 0.028754052
0001d0 c7 64 b2 bd 91 97 a5 bd 2a 80 8b 3c 5c e3 52 bd
       -0.08710628 -0.080855496 0.017028887 -0.051486358
0001e0 2f cf e8 3c 30 71 21 3e e6 4d 6b 3b 16 3d 26 bd
       0.028419105 0.15765834 0.0035904585 -0.0405856
0001f0 04 61 73 bd 45 60 0c be 80 ae f6 bd e5 c4 e0 bd
       -0.059418693 -0.13708599 -0.12045002 -0.10975055
000200 5e 3e b8 3d a0 6c 0d be 93 19 d7 3d 6f 43 90 3d
       0.089962706 -0.13810968 0.10502925 0.07044112
000210 4e e3 ba 3d 38 2b ed 3b 32 4f 58 3e 1d bf 81 bd
       0.09125386 0.007237818 0.2112396 -0.0633528
000220 f8 d4 57 be 4f a5 0d be fa d6 b5 bc 02 65 a4 3d
       -0.21077335 -0.13832591 -0.022197235 0.08027078
000230 5c ee 0e bc 8b a1 1a be ee 07 82 be 14 6c 73 bd
       -0.0087238215 -0.15100686 -0.25396675 -0.059429243
000240 6f 48 6c bd a2 f8 e6 3d 2c d5 93 bd 6e 73 9f 3c
       -0.057686266 0.11277892 -0.07218394 0.01946422
000250 91 64 5f bc a4 19 0f 3e 36 d5 59 bd 15 c4 6d 3d
       -0.013634817 0.13974625 -0.05318185 0.058048327
000260 3b 45 f0 3d e8 cb 4a 3d 2b 7f a6 3e a4 bb 6a 3d
       0.11731955 0.049510866 0.32518896 0.057307854
000270 5e 64 98 3d 6d 75 9e 3d 57 72 ab 3d 97 96 db 3d
       0.074410185 0.07737241 0.08371418 0.10722082
000280 60 eb 97 bd df fa fa bc 5e 9a 35 3d 19 19 80 be
       -0.07417941 -0.030637203 0.04433667 -0.25019148
000290 f6 6b 84 bd 5e 00 d3 3c c4 5c d3 bd 02 c8 98 3d
       -0.064659044 0.025757011 -0.10320428 0.074600235
0002a0 00 a3 62 3c 59 be f2 3d cf 4d 06 3e 32 d5 00 be
       0.013832808 0.11852712 0.13115619 -0.12581328
0002b0 30 07 a2 3d 44 e9 b3 bd 1d ff 1d 3e e7 c5 13 bd
       0.07911527 -0.08784726 0.15429349 -0.036077406
0002c0 11 6b 77 3e c9 ea 1b 3c 4d bf 2e be 92 21 68 3e
       0.24161936 0.009516426 -0.17065163 0.22669056
0002d0 ed 56 b3 bd 42 f7 ac bd 08 36 cc 3d 2e 79 89 bd
       -0.08756814 -0.08445598 0.09971243 -0.06712566
0002e0 07 fe 3b 3e b5 32 1b be 0f 1b 44 3b 1e 7a a6 3c
       0.18358622 -0.15156062 0.0029923355 0.020321902
0002f0 2e 4f 9b bd 74 d4 89 bd 76 d6 9e 3e 97 4f 09 be
       -0.07583462 -0.06729975 0.31022996 -0.13409267
000300 9b b5 47 bc 20 4c 19 bd a6 7c e5 bc 44 74 d1 3b
       -0.012189294 -0.037426114 -0.028013539 0.006392034
000310 46 97 1f bb 97 df d0 bb 05 6f 60 bc 18 59 ef bd
       -0.002435164 -0.0063743102 -0.013698344 -0.11686915
000320 8c 19 96 be 26 72 06 be a2 fb 64 be 71 d7 df 3d
       -0.29316366 -0.13129482 -0.22361615 0.10929764
000330 ae 1f 13 bd 31 28 8f bd e1 b8 b5 be 3f 25 2f be
       -0.035918884 -0.06990088 -0.35492614 -0.17104052
000340 6a 39 91 bc 1d dd ba bc 74 64 23 3e 08 e7 ca bd
       -0.017727572 -0.022810513 0.15956289 -0.09907347
000350 e8 c5 07 3e 3c af ad bd 39 6e 3b 3d 97 8e 80 bd
       0.13259089 -0.08480689 0.045759413 -0.06277197
000360 b6 27 50 bc ca 98 22 3d 66 bd 65 3d 05 8b 66 3d
       -0.01270478 0.039696492 0.056088828 0.056284923
000370 df 7a bc bc f7 2c 1c be c7 b1 36 be ae 68 1d be
       -0.023007808 -0.15251528 -0.17841254 -0.15371963
000380 5d 70 8f 3c dc 79 1f be b4 d6 86 3c 48 69 07 3e
       0.017509634 -0.1557383 0.0164598 0.13223755
000390 4c 19 af 3d e0 6e 81 3c 94 fc 3d 3c 5c 14 92 bd
       0.08549747 0.01579994 0.011595864 -0.071327895
0003a0 8f ef 15 be 2c 9e 9e 3d 36 da 17 3d 31 ee 91 3d
       -0.14642166 0.07745013 0.037073337 0.071255095
0003b0 af cc 26 bd fa 61 1a bd 3c 38 6e be b6 28 c6 3d
       -0.040722545 -0.037691094 -0.23263639 0.09675734
0003c0 98 3f ef 3d 62 e5 21 bd c0 af 31 3d 83 6f df 3c
       0.116820514 -0.039525397 0.0433805 0.027274853
0003d0 6f f2 b9 3d e9 2a c6 ba b9 40 28 bd 3c 00 e1 bc
       0.09079444 -0.0015118989 -0.04107735 -0.027465932
0003e0 36 b1 89 3d 10 ab fe 3c c5 3d 29 3d ba d6 87 3d
       0.067232534 0.031087428 0.041318674 0.06632753
0003f0 a2 a2 7c be f4 66 5a 3c 97 fd 6e bd 48 07 c8 bd
       -0.24671414 0.01333021 -0.05834731 -0.09767014

dense1.0.bias f4 [32]
000000 ee c3 95 3e cb e2 8d 3f 6e d2 71 3e 67 f1 19 3e
       0.29251045 1.1084837 0.23615429 0.15033494
000010 6d 7b c4 3e ee cd c4 3e c8 3d be be 6f fa 13 bf
       0.38375416 0.38438362 -0.3715651 -0.57804006
000020 43 32 70 bd 5c 2e 94 bf c7 8f 42 3f 6d b1 dc be
       -0.058641683 -1.1576648 0.76000637 -0.43104115
000030 c2 f1 61 3f 79 80 45 3f c9 40 84 3f 61 04 a4 bf
       0.8825952 0.7714916 1.0332271 -1.2813836
000040 11 c7 9a 3f 20 19 ed bc fe c9 05 00 c5 73 13 be
       1.2092 -0.028942645 5.31639e-40 -0.14399631
000050 a4 86 45 bf 64 ab 6e bf 85 02 b4 be e0 9b ff 3e
       -0.7715857 -0.9323027 -0.35158172 0.4992361
000060 76 41 1a bf 40 0e f3 bd e7 e3 ec bd 69 e3 48 3e
       -0.60256135 -0.11867952 -0.115669064 0.19618
000070 8c 24 83 3f 6c ac 95 29 49 fe d7 3e a7 03 8f 3f
       1.0245528 6.6468397e-14 0.42186192 1.117299

dense2.weight f4 [10, 32]
000000 a6 7f 8d be 78 d7 4f bd 2a 6e ae 3e 99 40 1d 3e
       -0.2763645 -0.050742596 0.34068424 0.15356673
000010 c5 eb 94 3c 2c 7d dc 3e 45 dd 13 3e 1e 82 bd 3e
       0.01817883 0.4306425 0.14439876 0.37013334
000020 1a d2 ac 3e 3f 3e a2 bd 84 ea 8e 3e 00 33 a2 3d
       0.33754045 -0.07922029 0.27913296 0.07919884
000030 e2 7c 3a 3e 93 09 a9 3e 4d f8 c4 ba e0 7a 52 be
       0.18211702 0.33015117 -0.0015027613 -0.20554686
000040 89 72 40 3d 71 86 ac 3c 3c 40 72 b7 5d af 0d be
       0.04698423 0.0210602 -1.443928e-05 -0.13836427
000050 c6 eb b7 bd 65 4b 4b 3e 7e 50 c3 be e6 a8 90 3e
       -0.08980517 0.1985298 -0.38147348 0.2825386
000060 ff ba de be 4e b5 d9 be 3a 44 c6 3d d3 2e 1d be
       -0.43502042 -0.42521137 0.09680982 -0.15349893
000070 de 95 1c be eb 88 c3 aa 61 f1 fa bc ad 24 23 be
       -0.15291545 -3.4733964e-13 -0.030632677 -0.1593196
000080 17 73 66 be 67 a8 80 3e 78 8d 66 3e 55 36 8e bd
       -0.22504841 0.2512848 0.22514904 -0.06943957
000090 99 b1 a7 be a1 1a 9b 3e fb 7e a1 3e 75 99 54 3e
       -0.32752684 0.30293754 0.3154219 0.20761664
0000a0 da 64 26 be 67 f7 2a 3f 28 9f bc be 18 63 6a 3e
       -0.1624941 0.66783756 -0.36840177 0.22889364
0000b0 ba 64 99 be fd 6d ce be 40 e4 f4 be 1c 85 b0 bc
       -0.2995966 -0.4031829 -0.4783039 -0.021547846
0000c0 dd cf 8f be 39 f6 19 bd 58 ed c8 33 25 73 59 be
       -0.28088275 -0.03758833 9.356398e-08 -0.2123533
0000d0 72 45 0f 3f d9 0f 91 be 5f d9 ba 3e 0d 22 92 3d
       0.5596534 -0.28332403 0.36493966 0.07135401
0000e0 50 88 4a be 07 a6 97 bd db 4c f2 3e 4c ba f1 bd
       -0.19778562 -0.07404714 0.4732426 -0.118031114
0000f0 47 c6 5b be b5 ae e5 a7 4f ce 82 be 48 8e c2 bd
       -0.21462356 -6.3749686e-15 -0.25548026 -0.09499794
000100 c4 50 0e be 98 46 91 be d2 1d 6f 3d 06 70 5a 3e
       -0.13897997 -0.2837417 0.05837805 0.21331796
000110 a5 7c 91 3e cc cc 0e 3d ca 3c 25 3e f9 91 18 be
       0.2841541 0.03486328 0.1613647 -0.14899434
000120 80 c7 92 bd c9 d2 bd be 6e f9 db bc ad d5 75 3e
       -0.07166958 -0.3707488 -0.026852336 0.24007292
000130 6c 22 b5 3d 13 ec bc 3e 8b b4 98 3d 43 5b 2d 3e
       0.08844456 0.3689886 0.07456311 0.16929345
000140 68 20 4c be 4a 1b cb bd de 50 85 b7 84 67 86 be
       -0.19934237 -0.09917314 -1.5892492e-05 -0.2625085
000150 24 5c 4f bd fc 51 30 3e 00 53 00 be 60 e4 68 be
       -0.05062498 0.17218775 -0.12531662 -0.22743368
000160 50 4a b8 3d f8 2a 48 be 96 67 68 3d 5c 86 72 3e
       0.08998549 -0.19547641 0.056739412 0.23684067
000170 30 7f 56 be 49 e2 7e ab 46 ce af 3e 8d 4b b3 3c
       -0.20946956 -9.055296e-13 0.34337062 0.021886611
000180 35 68 bd 3c 17 38 80 be e0 2c 50 be be bd 18 be
       0.023120979 -0.25042793 -0.20329618 -0.14916131
000190 11 40 e8 3d 1d c4 12 c0 e7 26 9d be fc d2 49 be
       0.11340345 -2.2932198 -0.30693743 -0.1970939
0001a0 38 0d 2d be 14 e8 95 3e c4 34 86 bd 6d b5 06 bb
       -0.16899574 0.29278624 -0.06553033 -0.0020554916
0001b0 4f a2 88 3d 90 6e 05 be 97 f9 0c 3e 6f 02 0a 3e
       0.06671583 -0.13030457 0.13767086 0.13477491
0001c0 00 54 af bd 1f 95 89 3e 4f 56 de 36 89 7a 3b 3e
       -0.085609436 0.26871583 6.626163e-06 0.18308462
0001d0 d3 3b f2 be 07 b8 1d be a3 59 83 bc 88 16 85 bd
       -0.47311267 -0.15402232 -0.016033953 -0.06498438
0001e0 7b 5a 1b bc 11 83 05 3d 5d 47 b6 be c0 a5 16 3e
       -0.009482021 0.032595698 -0.3560132 0.14711666
0001f0 b0 88 d7 bc 8c 66 92 ab 03 5e c4 3c 83 20 9e 3e
       -0.026310295 -1.0402386e-12 0.02397061 0.3088418
000200 98 7b 5a 3d 83 0e 6f bd b6 bf 8e 3e 47 86 ba bd
       0.053340524 -0.05836345 0.2788064 -0.091076426
000210 65 1a ae 3e 44 22 5e c0 ac fb f5 be 95 6f 54 be
       0.34004512 -3.4708414 -0.48043573 -0.2074569
000220 d9 49 8d be 42 42 9c bf 63 38 8b be 36 8c 57 be
       -0.27595404 -1.220772 -0.27191457 -0.2104958
000230 4b cb aa 3e 18 47 a6 b9 a9 2d 15 be 25 44 3f be
       0.33358225 -0.00031714956 -0.14568199 -0.18678339
000240 8b f0 4a be 6b f5 8a be 06 51 c8 b7 46 72 8e 3d
       -0.19818322 -0.27140364 -2.3879587e-05 0.0695539
000250 69 cd 4d 3c b5 68 1a be bd e1 d4 3d cb 0e 7f be
       0.012561181 -0.15079005 0.10394619 -0.24907987
000260 05 3f f6 bd 75 52 0b be 07 05 3c 3e e3 64 af be
       -0.12023739 -0.13605674 0.18361293 -0.34256658
000270 f0 af e7 3e cc 6c 94 aa 39 97 ee 3b dd 20 35 3e
       0.45251417 -2.6365574e-13 0.0072812107 0.17688318
000280 98 4c 2a 3e 1c 48 63 bd 6b b3 e8 be 98 08 51 be
       0.1663078 -0.05548869 -0.45449385 -0.20413435
000290 b6 28 46 bd ed d7 b4 bd 90 5e 92 be 78 7c f3 3b
       -0.04837867 -0.08830247 -0.2858777 0.0074306093
0002a0 8d 6c f2 bc d9 e8 e0 bd dd 2e 5a 39 7e d3 76 3c
       -0.029592777 -0.10981912 0.00020807558 0.015065072
0002b0 76 2e 6a 3e 43 06 b3 bd 3f 51 ae bc d9 a3 b0 3e
       0.22869286 -0.08741429 -0.021278976 0.34500006
0002c0 41 82 59 3e 5e 2f 8b 3d 8f 39 51 37 3a 87 a2 3d
       0.21241094 0.06796144 1.2470772e-05 0.07935949
0002d0 83 75 9c bf 02 1d 59 3d e6 ed 58 be 26 d5 bf be
       -1.2223362 0.05300618 -0.21184501 -0.37467307
0002e0 56 62 0f 3e d6 05 97 3e c9 22 e4 bd 65 0a 28 3d
       0.14002356 0.2949664 -0.11139447 0.041025538
0002f0 70 0c 7b be ad e9 08 aa 5a 92 c4 bd 25 73 97 be
       -0.24516463 -1.2160299e-13 -0.09598227 -0.29580036
000300 ee 00 52 3e 8d 06 10 bf 8f e5 3e be aa d3 00 3f
       0.20508167 -0.56259996 -0.18642257 0.50322974
000310 1e a0 e2 3d 71 ac 85 3e 8c c1 3c be 1a 62 a0 bd
       0.11065696 0.26108125 -0.18433207 -0.078312114
000320 81 0d a0 bc b0 5c 40 bd 7c 3e 86 bd 12 7e ab bd
       -0.01953769 -0.046963394 -0.06554887 -0.083736554
000330 31 c6 a7 bd 34 4d e6 3c 13 8f 59 be 70 e9 a4 3d
       -0.08192099 0.028112985 -0.21245985 0.08052337
000340 83 a0 bf be 04 fb a1 bc 9b 89 8d b7 1c 0f d3 be
       -0.37427148 -0.019773014 -1.6872587e-05 -0.41222465
000350 95 67 18 bf 34 b1 4e be 63 66 c6 bd 96 07 aa 3e
       -0.59533054 -0.20184785 -0.096874975 0.33208913
000360 11 9c fb 3d 3c 34 34 be 93 54 e3 bd 16 8d f3 3d
       0.12285627 -0.17598051 -0.111001156 0.118921444
000370 ab d6 4d 3e 13 1d 12 28 54 67 9f be fc ec 90 3e
       0.2010142 8.1109325e-15 -0.3113352 0.28305805
000380 14 03 8a be 9b fe 09 3f 4c 7b 94 bd 9b b0 b7 be
       -0.26955473 0.5390412 -0.072500795 -0.35876927
000390 f0 57 12 3e 81 f8 31 3f 41 ef 9d be 60 73 3e 3e
       0.14291358 0.6951981 -0.308466 0.185987
0003a0 55 a8 53 3e 82 39 ec bf ac 21 eb be 13 cb cf be
       0.20669682 -1.845505 -0.45924127 -0.4058462
0003b0 2c e3 f1 bc 90 06 53 bf 74 5a 7d be 1e bd 26 be
       -0.02952727 -0.8243189 -0.24741536 -0.1628308
0003c0 9c 94 e4 bd ac 58 a1 be 95 b6 41 37 f8 0b a9 3e
       -0.111611575 -0.31512964 1.1546207e-05 0.33016944
0003d0 16 0a 89 3d b3 6c c8 3e db 74 34 3d 5b da d3 be
       0.06691377 0.3914543 0.044056755 -0.4137753
0003e0 a8 80 9d 3e b6 59 c1 3e 85 91 90 be b6 fe ce be
       0.3076222 0.37763757 -0.28236023 -0.40428704
0003f0 58 d3 bd be 98 97 f4 a8 74 c2 1b bd 9e 59 f1 be
       -0.37075305 -2.7155185e-14 -0.03802724 -0.47138685

dense2.bias f4 [10]
000000 43 1e 3f be 36 df 8f bf 40 18 ee 3e c8 dc 98 bd
       -0.18663888 -1.1239994 0.46502876 -0.07463986
000010 36 68 9b 3f 3a c8 32 bd 89 00 29 be de 75 e6 be
       1.2141178 -0.043647982 -0.1650411 -0.450118
000020 22 cd 1e 3f 29 03 da be
       0.6203176 -0.42580536
