ResidualLoss/CNN-Train/CIFAR_17/back_epoch-115.pt (torch, 27135 bytes, 10 tensors)

conv1.0.weight f4 [8, 3, 3, 3]
0	0xbf005dd5	-0.50143176
1	0x3eef4670	0.46733427
2	0x3f3822a1	0.7192784
3	0xbf088c30	-0.5333891
4	0xbed14984	-0.408764
5	0xbeabeace	-0.3357758
6	0x3f61f979	0.8827129
7	0xbd9008c3	-0.07032921
8	0xbf1a1d42	-0.60200894
9	0xbf172f3b	-0.5905644
10	0xbe8dab53	-0.27669773
11	0x3e846284	0.2585641
12	0x3e39e339	0.18153085
13	0xbe1fe9fc	-0.15616602
14	0xbe27117b	-0.16315262
15	0x3f8d157a	1.1022179
16	0xbec668ff	-0.3875198
17	0xbef84e34	-0.48497164
18	0xbeff8218	-0.4990394
19	0xbe85faf0	-0.26168013
20	0x3eb5d054	0.35510504
21	0xbe5d6455	-0.21620305
22	0x3cdeae1c	0.027182631
23	0xbb326805	-0.0027222645
24	0x3e629e80	0.22130775
25	0xbe16329c	-0.14667743
26	0xbb9ac193	-0.004722783
27	0x3dbc36e1	0.09190155
28	0xbd80b863	-0.06285169
29	0x3ec66af1	0.38753465
30	0x3f27fe39	0.6562229
31	0x3ee9e254	0.45680487
32	0xbd862fe9	-0.06552107
33	0x3f4a44a5	0.79010993
34	0xbe897652	-0.26848084
35	0xbf3311ce	-0.6994904
36	0x3e3bd281	0.1834202
37	0x3f564a85	0.8370746
38	0x3f18532c	0.5950191
39	0xbe8d8333	-0.2763916
40	0x3ece7598	0.40324092
41	0xbe788883	-0.24270825
42	0xbd98c05b	-0.07458564
43	0xbe8a539b	-0.2701691
44	0xbf17103b	-0.5900914
45	0xbd114413	-0.03546531
46	0x3f5c8848	0.8614545
47	0x3e3f71dd	0.18695779
48	0x3eaa88cf	0.33307502
49	0xbd08dbd6	-0.033412777
50	0xbf477134	-0.7790711
51	0x3f4f3342	0.8093759
52	0xbe4bb2b4	-0.19892389
53	0xbf26c6fa	-0.65147364
54	0xbedb9464	-0.4288665
55	0xbe94603e	-0.28979677
56	0x3f1d1185	0.6135486
57	0xbeeae7be	-0.4587993
58	0xbe3ce6d9	-0.18447436
59	0x3f3af45e	0.73029125
60	0xbe17b16c	-0.14813775
61	0xbec69b04	-0.38790143
62	0x3ece076c	0.40240037
63	0xbe03b394	-0.12861472
64	0xbefab9c4	-0.48969853
65	0x3baeb0a4	0.005331116
66	0xbc3abf8e	-0.011398209
67	0xbf1fb0c4	-0.623791
68	0x3ebc2422	0.36746317
69	0xbcf627d8	-0.030048296
70	0xbed1c3cf	-0.40969703
71	0x3f434789	0.7628103
72	0x3dcb67ae	0.09931885
73	0xbf3354f7	-0.7005152
74	0x3efb5f49	0.49096134
75	0xbef5b2cb	-0.4798797
76	0xbdcb0bb4	-0.099143416
77	0x3f0e92f1	0.55692965
78	0xbdfd6414	-0.12372604
79	0x3d12961b	0.035787683
80	0x3f5add34	0.8549378
81	0x3e7158c8	0.23569024
82	0x3f49b23d	0.78787595
83	0x3f2105f4	0.6289971
84	0xbe614f07	-0.22002803
85	0xbe7b3371	-0.24531342
86	0xbe77ee9b	-0.24212115
87	0x3ee3f9f4	0.44526637
88	0x3f02dd60	0.5111904
89	0x3e60d139	0.21954812
90	0xbedeabea	-0.43490535
91	0x3ea3004c	0.31836164
92	0x3dbe331f	0.09287094
93	0xbf8fa38f	-1.1221789
94	0xbecc77cd	-0.3993515
95	0xbdadafcc	-0.08480796
96	0xbf2ed0a7	-0.6828713
97	0xbe4eeae9	-0.20206799
98	0x3e4b9abd	0.19883247
99	0xbd622e2a	-0.055219807
100	0x3eb6ce2f	0.3570418
101	0x3f6e0f3b	0.9299199
102	0x3dcee2bc	0.1010184
103	0x3f558705	0.8340915
104	0x3f94ef17	1.1635464
105	0xbf10196d	-0.56288797
106	0xbe5321f0	-0.20618415
107	0x3e066fc4	0.13128573
108	0x3f72de3f	0.9487037
109	0x3d0cb778	0.034354657
110	0xbea0c83a	-0.3140276
111	0x3f4a5b86	0.79045904
112	0x3e4ff06f	0.20306562
113	0xbed7d827	-0.421571
114	0x3f08aaf0	0.5338583
115	0x3e806f20	0.25084782
116	0xbe8927d0	-0.26788187
117	0xbe2e99fd	-0.1705093
118	0xbeb3b82e	-0.35101455
119	0xbdc5f6eb	-0.096662365
120	0xbf3fcb37	-0.74919456
121	0xbe8bc0e5	-0.27295604
122	0xbec48055	-0.3837916
123	0xbf91cdc1	-1.1390916
124	0xbed772eb	-0.42079863
125	0xbf164bab	-0.5870921
126	0xbcbb2153	-0.022843039
127	0xbe7f4bf2	-0.24931315
128	0x3e826a71	0.25471833
129	0xbf095a4f	-0.53653425
130	0x3eb7366e	0.35783714
131	0xbf441a9f	-0.7660312
132	0xbdb07d68	-0.08617669
133	0x3dd91796	0.10600202
134	0x3d0cab59	0.034343097
135	0xbec3e08e	-0.3825726
136	0xbe78178f	-0.24227737
137	0x3e909d72	0.2824512
138	0xbeb13c8b	-0.34616503
139	0xbf0bbc27	-0.5458397
140	0xbe93d0ae	-0.28870147
141	0xbd7e6695	-0.06210955
142	0x3e0a570d	0.1350977
143	0x3dcca527	0.09992438
144	0xbe89b07b	-0.26892456
145	0xbeaa5281	-0.3326607
146	0xbe0dfae4	-0.13865238
147	0xbe7ae113	-0.24499922
148	0xbeae0267	-0.33986208
149	0xbd949657	-0.072552375
150	0x3ecc0928	0.39850736
151	0x3e5de548	0.21669495
152	0x3e8c9adf	0.27461907
153	0x3d6d3d56	0.057919823
154	0xbe1972d6	-0.14985213
155	0x3d4a7fd2	0.049438305
156	0xbd8382db	-0.06421443
157	0xbdb2485d	-0.087052085
158	0x3f2e6b3a	0.68132365
159	0x3ece59c0	0.4030285
160	0x3ee1b02c	0.4407972
161	0x3f206bbc	0.6266439
162	0x3e6c52ff	0.23078535
163	0x3ebe0a9e	0.37117475
164	0x3f4226f2	0.75840676
165	0xbeba0daa	-0.3633855
166	0xbe1c89bb	-0.15286915
167	0xbeecf6b4	-0.4628197
168	0xbe664251	-0.22486235
169	0xbe4daddc	-0.20085853
170	0xbd4eda75	-0.050501306
171	0x3eebc9ff	0.46052548
172	0xbf44b28c	-0.7683494
173	0x3e48a6a6	0.19594821
174	0x3ebae677	0.36503956
175	0xbe3082c9	-0.1723739
176	0xbdc8c90c	-0.09803972
177	0x3eb192c0	0.34682274
178	0xbf01e224	-0.5073569
179	0x3e454865	0.19265898
180	0xbdb8e8f9	-0.09028811
181	0xbdf541ef	-0.119754665
182	0x3d4dd578	0.050252408
183	0xbe0fd44c	-0.14045829
184	0xbe45cbcb	-0.19316022
185	0x3e18e330	0.14930415
186	0x3e9092b4	0.28236926
187	0xbd9e1bcb	-0.07720145
188	0x3e8e6bea	0.27816707
189	0x3d4ab9e1	0.049493674
190	0x3eb42953	0.35187778
191	0x3e0ee6d7	0.13955246
192	0xbf059001	-0.5217286
193	0xbe7b52a6	-0.24543247
194	0x3f0ec119	0.55763394
195	0xbece427a	-0.40285093
196	0x3d83af39	0.064299054
197	0xbd0b90ac	-0.034073517
198	0x3eab31e8	0.33436513
199	0xbd2cda17	-0.042200174
200	0xbe90ee97	-0.2830703
201	0xbe0a395a	-0.1349844
202	0xbe3b6c29	-0.18302979
203	0x3e6f2f7f	0.23357962
204	0xbdbfc7f6	-0.093643114
205	0x3bcb8912	0.0062114084
206	0x3d814f35	0.06313936
207	0x3e213187	0.1574155
208	0xbe87a7a9	-0.26495102
209	0x3ea8a8dc	0.3294133
210	0xbea85f9e	-0.3288545
211	0xbd7d0b10	-0.06177813
212	0x3f36a796	0.71349466
213	0xbf1798cb	-0.5921752
214	0x3d864dc0	0.065577984
215	0x3f0b433a	0.54399455

conv1.0.bias f4 [8]
0	0x3f02f087	0.51148266
1	0x3fc05c47	1.5028161
2	0x3d9388b0	0.072038054
3	0x3eabbe0b	0.3354343
4	0xbf3e6670	-0.7437506
5	0x3df81b42	0.12114574
6	0xbe986e34	-0.29771578
7	0x3eb62b8c	0.355801

conv2.0.weight f4 [8, 8, 3, 3]
0	0x3e126471	0.14296128
1	0x3dd1cce8	0.10244161
2	0x3e62f4a3	0.22163634
3	0x3e290cdc	0.16508812
4	0x3ecdc58f	0.40189788
5	0xbd31ce44	-0.0434096
6	0x3d99659e	0.07490085
7	0xbdcb09fc	-0.09914014
8	0x3e34c3df	0.17652844
9	0x3be8262f	0.00708463
10	0xbef5a150	-0.47974634
11	0x3e0222e7	0.12708627
12	0x3c415c46	0.011801785
13	0x3c2bfb32	0.010496901
14	0xbe4cde93	-0.2000678
15	0x3e3786e7	0.17922555
16	0xbe813044	-0.25232136
17	0xbe4285b4	-0.18996316
18	0xbdc8a127	-0.09796362
19	0xbe9a1e29	-0.30101135
20	0xbe0f289a	-0.13980332
21	0x3e7e036e	0.24805996
22	0xbe969679	-0.29411677
23	0xbe46e981	-0.19425012
24	0xbe5f7e2a	-0.21825472
25	0x3e5f60e6	0.21814308
26	0xbe8fc656	-0.28081006
27	0x3da99589	0.08280475
28	0xbe24e6fd	-0.1610374
29	0x3e0069fd	0.12540431
30	0x3e63017b	0.22168534
31	0x3e5ffb1f	0.21873139
32	0xbe3d8f18	-0.18511617
33	0xbcbc16b4	-0.022960044
34	0x3ed621ae	0.4182257
35	0xbe9fce11	-0.31211904
36	0xbc9b3f02	-0.018950943
37	0x3e322417	0.1739658
38	0x3c3b2607	0.011422641
39	0xbe44d8c6	-0.19223318
40	0x3dc248a6	0.09486513
41	0xbe0daae1	-0.13834716
42	0xbe02e849	-0.12783922
43	0x3db20716	0.08692758
44	0xbd703ef8	-0.0586538
45	0xbe056309	-0.1302606
46	0x3e44e9a4	0.19229752
47	0xbe136f6f	-0.14397977
48	0xbe97aee8	-0.2962563
49	0x3e957311	0.2918935
50	0xbeb42a77	-0.35188648
51	0x3edccadd	0.43123522
52	0xbdd8b0b7	-0.10580581
53	0x3ec458db	0.3834904
54	0xbea6788b	-0.32513842
55	0x3ef2a13d	0.4738864
56	0x3f3ece65	0.74533683
57	0xbea37673	-0.31926307
58	0x3e6a64d7	0.2289003
59	0x3e843bd4	0.25826895
60	0x3bd589a3	0.0065166517
61	0x3bb589fc	0.0055401307
62	0x3f2a3eab	0.66501874
63	0x3e86d07b	0.26330933
64	0xbd961c54	-0.07329622
65	0x3f316f4e	0.6931046
66	0x3e205000	0.15655518
67	0x3e03423c	0.12818235
68	0x3ed7a1ee	0.4211573
69	0x3ea50712	0.32231957
70	0x3e9e69d6	0.3094012
71	0x3eafbf5d	0.34325686
72	0x3eb17610	0.34660387
73	0xbd8a2346	-0.06745009
74	0x3cb782de	0.02240127
75	0x3d93bbd5	0.072135605
76	0x3e581b28	0.2110411
77	0xbe73c566	-0.2380577
78	0x3ea31fa0	0.31860065
79	0xbd9e0fcd	-0.077178575
80	0x3e317ac5	0.17331989
81	0x3db96c09	0.09053809
82	0x3caa3a0b	0.02077963
83	0x3e3fd12b	0.18732135
84	0xbe82d937	-0.25556347
85	0x3e59d176	0.2127131
86	0x3e681e07	0.22667705
87	0x3e54bafb	0.20774452
88	0x3d8f77b2	0.07005252
89	0x3e9b4e32	0.30333096
90	0x3f29550b	0.6614539
91	0x3e92f53e	0.2870273
92	0x3eebe3bc	0.46072185
93	0xbe269d4e	-0.16270944
94	0xbe90a85c	-0.28253448
95	0x3db88a7e	0.0901079
96	0xbeb6ea57	-0.35725662
97	0x3e03ce31	0.12871625
98	0xbe9dee4c	-0.3084587
99	0xbeaf0365	-0.34182277
100	0xbec6abe8	-0.3880303
101	0x3ebceb70	0.36898375
102	0xbec5aad5	-0.38606897
103	0xbe4edf2f	-0.20202325
104	0xbd87e4f2	-0.06635465
105	0x3c92d320	0.017922938
106	0x3dc8e128	0.0980857
107	0xbec43cfb	-0.38327774
108	0x3e006d77	0.12541758
109	0x3e86b0ff	0.26306912
110	0x3dbb4568	0.091440976
111	0xbc9ea305	-0.019364843
112	0x3da33ccc	0.079705805
113	0xbe905a97	-0.28194115
114	0xbe97021c	-0.29493797
115	0x3cc7959b	0.02436333
116	0xbe1742a0	-0.14771509
117	0xbea52488	-0.32254434
118	0x3efe3158	0.4964702
119	0xbf10de6f	-0.56589407
120	0xbe8c1631	-0.2736068
121	0x3d90ca7c	0.07069871
122	0x3ed62ed9	0.41832617
123	0x3eab1183	0.33411798
124	0xbd845b8e	-0.06462775
125	0xbebcf850	-0.36908197
126	0x3ecc980b	0.3995975
127	0xbcec4491	-0.028841289
128	0x3f3158cc	0.6927612
129	0x3fa97eff	1.3241881
130	0xbf825be7	-1.0184296
131	0xbeccf674	-0.4003178
132	0xbfae3e7e	-1.3612821
133	0x3fb6c5d8	1.4279127
134	0xbd2bd529	-0.041951332
135	0x3cabc5c1	0.02096832
136	0x3dcee9c6	0.101031825
137	0xbedc7263	-0.4305602
138	0x3f46eff8	0.77709913
139	0x3db4b1e6	0.08822994
140	0x3e14de4e	0.14537928
141	0x3df01f57	0.117247276
142	0xbe896cf6	-0.26840943
143	0x3f0f4508	0.5596471
144	0xbdb216ed	-0.08695779
145	0xbd9009ed	-0.07033143
146	0xbe0b748c	-0.13618678
147	0xbe487d3b	-0.19579022
148	0xbd846986	-0.064654395
149	0x3e088dc5	0.13335331
150	0x3ea06a92	0.31331307
151	0x3da0d82b	0.07853731
152	0x3ceac833	0.028659916
153	0xbd5cc521	-0.053898934
154	0x3e49d661	0.19710685
155	0x3e2f1ff7	0.17102037
156	0x3c179e31	0.009254024
157	0xbde4c925	-0.11171178
158	0xbe36a986	-0.17838106
159	0xbe8dd048	-0.27697968
160	0xbe9cc1d1	-0.3061662
161	0x3ea12b04	0.3147813
162	0xbee7d4f1	-0.4527965
163	0xbe9b4f73	-0.30334052
164	0xbf194adc	-0.5987985
165	0xbe81d6a3	-0.25359067
166	0xbe6a2e02	-0.22869113
167	0x3c3277c9	0.010892817
168	0xbe952faa	-0.29137927
169	0x3e95907f	0.29211804
170	0x3e8df25a	0.27723962
171	0x3e8d399c	0.27583015
172	0x3eba19bd	0.36347762
173	0x3e075451	0.13215758
174	0xbb884965	-0.00415914
175	0x3d9e84a5	0.07740144
176	0xbd6525b8	-0.055944175
177	0x3e0e0978	0.138708
178	0x3dbaf42b	0.091286026
179	0xbe749be2	-0.2388759
180	0x3d837ec7	0.06420665
181	0xbde78474	-0.1130456
182	0x3e0b8a07	0.13626872
183	0xbea770d2	-0.32703263
184	0x3ed3687c	0.41290653
185	0x3e033bcd	0.12815781
186	0x3e790bc9	0.24320902
187	0xbd71a417	-0.05899438
188	0xbe868f75	-0.26281324
189	0x3edd838d	0.43264428
190	0x3ed0e2b8	0.40797973
191	0x3f6538f6	0.8954004
192	0x3efa85c7	0.4893019
193	0x3f17f524	0.5935843
194	0x3d1c8c2e	0.038219623
195	0x3ed492d9	0.41518286
196	0x3e70cce9	0.23515667
197	0xbda6736b	-0.08127483
198	0xbf31fdf3	-0.6952812
199	0xbf81d891	-1.0144216
200	0xbfa30251	-1.2735082
201	0x3d3cbc89	0.04607824
202	0xbfe60eb3	-1.7973236
203	0xbe34c7e9	-0.17654385
204	0xbf141c2b	-0.5785548
205	0x3e8b50bc	0.27210033
206	0xbe9e05cd	-0.308638
207	0xbd152825	-0.036415238
208	0x3e582429	0.21107544
209	0x3f292f2a	0.6608759
210	0x3e844c0f	0.25839278
211	0x3dedb4ef	0.11606776
212	0x3eaeabac	0.3411535
213	0x3f0ba793	0.5455257
214	0xbe7f27e9	-0.24917568
215	0x3dff2f08	0.124601424
216	0xbe4d4d3c	-0.20048994
217	0x3e17ac81	0.14811899
218	0xbd8da154	-0.069155365
219	0xbe3e44ad	-0.18580885
220	0xbdc9dba5	-0.09856347
221	0x3e0513c5	0.12995823
222	0xbe37e6a2	-0.17959073
223	0xbd096fb8	-0.03355381
224	0xbd30c7df	-0.043159362
225	0x3e4f1021	0.20220996
226	0x3cd966f9	0.026538359
227	0x3d93853d	0.072031476
228	0x3d9e90d6	0.07742469
229	0xbea08d6f	-0.31357905
230	0x3da88974	0.08229342
231	0x3e511d47	0.20421325
232	0xbe11f664	-0.14254147
233	0x3d0fe043	0.035125982
234	0x3d419dd3	0.047269654
235	0x3bf8eeab	0.007596811
236	0xbc2327b9	-0.009958201
237	0x3d1013fd	0.035175312
238	0x3e6295ef	0.22127508
239	0x3f007807	0.5018315
240	0x3dc659bb	0.096850835
241	0x3f24d3eb	0.6438586
242	0x3eb419fc	0.35176075
243	0x3e712e84	0.235529
244	0xbe63eb6d	-0.22257777
245	0xbdeb20f3	-0.11480894
246	0x3e168dbe	0.14702508
247	0x3e006173	0.12537174
248	0x3e87ac2e	0.2649855
249	0x3e7ec987	0.24881564
250	0xbe5a090c	-0.21292514
251	0xbe447c76	-0.19188103
252	0xbd40c86e	-0.047066145
253	0xbe9ed938	-0.310251
254	0x3d52f243	0.05150057
255	0x3d2cc1f8	0.04217717

conv2.0.bias f4 [8]
0	0x3c40f535	0.011777212
1	0x3f0cbf43	0.5497934
2	0x3f12f0d6	0.57398736
3	0xbf08a9a8	-0.53383875
4	0xbd333004	-0.043746963
5	0xbc129346	-0.008946246
6	0x3f9dbf1c	1.2323947
7	0xbe314522	-0.17311528

conv3.0.weight f4 [8, 8, 3, 3]
0	0x3e349b0e	0.17637274
1	0x3e9cbaf4	0.30611384
2	0x3e649eec	0.22326249
3	0x3ec35d1e	0.3815698
4	0xbc511554	-0.012761433
5	0x3ec27469	0.3797944
6	0x3e7da470	0.24769759
7	0x3d9abdba	0.07555719
8	0xbe6a805c	-0.22900528
9	0x3e211c1e	0.15733382
10	0xbcbdc373	-0.023164487
11	0x3cb3c27d	0.021943325
12	0xbda73f5d	-0.081663825
13	0x3e0fa05c	0.14026016
14	0x3c9ebe60	0.019377887
15	0xbcd0a534	-0.0254694
16	0xbccab9c9	-0.024746792
17	0xbe8b6395	-0.27224413
18	0x3e496c36	0.19670185
19	0x3e9d0f39	0.30675676
20	0x3e7c3525	0.24629648
21	0x3daf7484	0.085671455
22	0x3e27433a	0.16334239
23	0xbc00cad6	-0.00786086
24	0xbdf6d878	-0.12053007
25	0x3ca18a5f	0.0197193
26	0x3dd08e75	0.101834215
27	0x3e3078f5	0.17233641
28	0xbbc4597b	-0.005992112
29	0x3e452b96	0.19254908
30	0xbe0b3f28	-0.13598311
31	0xbe7d9a9e	-0.24766013
32	0xbe7ded4d	-0.24797554
33	0xbea1f132	-0.3162933
34	0xbeb8687d	-0.36017218
35	0xbe24aff5	-0.16082747
36	0x3e7004ff	0.23439406
37	0xbe5c89f5	-0.21537001
38	0xbdc2e50a	-0.09516342
39	0xbde41dc0	-0.11138487
40	0x3e19cb98	0.15019071
41	0xbe05cbef	-0.13066076
42	0xbe3f5d46	-0.18687925
43	0xbe5f5fbe	-0.21813866
44	0xbe0d97bd	-0.13827415
45	0x3e26d7f3	0.16293316
46	0x3ea52bf5	0.322601
47	0xbd03b72c	-0.03215711
48	0xbe572ec4	-0.21013933
49	0x3e2aae03	0.16667943
50	0x3cd25b0d	0.025678182
51	0xbec4c0ec	-0.38428438
52	0x3f20e934	0.6285584
53	0x3d4a9afd	0.049464215
54	0x3e388a75	0.18021567
55	0x3d59a5a1	0.05313647
56	0xbe32c222	-0.17456868
57	0xbdff7d54	-0.12475076
58	0x3d7b778e	0.061393313
59	0x3d0cf040	0.034408808
60	0xbe874394	-0.26418746
61	0x3db96306	0.0905209
62	0x3e29ee8f	0.16594909
63	0xbe88f054	-0.26745856
64	0xbda33d79	-0.07970709
65	0xbe21cce7	-0.1580082
66	0xbdf52a8c	-0.11971006
67	0x3e10693a	0.14102641
68	0x3e67d699	0.22640456
69	0xbe77b72a	-0.24190965
70	0xbdd90bc2	-0.10597946
71	0x3e36e0bf	0.17859171
72	0xbdd70d80	-0.10500622
73	0xbe3c07a6	-0.18362293
74	0xbe63364a	-0.22188678
75	0xbea5475f	-0.32281014
76	0xbe3c4137	-0.18384252
77	0xbe73d488	-0.23811543
78	0xbe03b910	-0.12863564
79	0x3e06e463	0.1317306
80	0x3d2defd6	0.042465053
81	0x3c3de6e3	0.011590692
82	0xbe4314fd	-0.19050975
83	0x3dfd6bf3	0.12374105
84	0x3df6a5c8	0.12043339
85	0xbe78156d	-0.24226923
86	0xbd12c625	-0.035833497
87	0xbd69bc52	-0.057064362
88	0xbc0f4c15	-0.008746167
89	0x3e5192aa	0.20466104
90	0x3de2de8e	0.11077605
91	0x3c1b1677	0.009465805
92	0x3e27fcbe	0.16405007
93	0x3e8cc0f0	0.2749095
94	0xbdb6dc85	-0.089287795
95	0xbc733b1d	-0.014845637
96	0x3d8a2886	0.067460105
97	0x3ef9b967	0.48774263
98	0xbdf0b238	-0.117527425
99	0xbe0576d3	-0.13033609
100	0xbde5dc1b	-0.112236224
101	0xbd7bacfc	-0.061444268
102	0xbc1448b6	-0.009050539
103	0xbe91c232	-0.28468472
104	0x3d8610c8	0.065461695
105	0xbeef3d2f	-0.46726367
106	0xbee97b42	-0.4560185
107	0x3eba7dc4	0.36424077
108	0x3cd17145	0.025566706
109	0x3e02cfb4	0.12774545
110	0x3d9d7e9a	0.07690163
111	0xbebfd178	-0.374645
112	0xbee03f43	-0.43798265
113	0x3e5b0cec	0.21391648
114	0xbe3ca77b	-0.18423264
115	0xbedbfbdd	-0.42965594
116	0xbe196f06	-0.14983758
117	0x3e1db754	0.15401965
118	0xbddb0b33	-0.106954955
119	0x3d2047dc	0.03913103
120	0x3e22c2b0	0.1589458
121	0xbe8cc6a9	-0.27495316
122	0x3ea6ba03	0.3256379
123	0x3e32bade	0.17454097
124	0xbe10afdd	-0.14129587
125	0x3e686271	0.22693802
126	0x3d5122f1	0.051058713
127	0x3e394cf2	0.18095759
128	0x3e8cfb85	0.27535644
129	0x3e35dae6	0.17759284
130	0xbc99ecdc	-0.018789701
131	0xbc473360	-0.012158245
132	0x3e51c5d5	0.20485623
133	0x3e43dc93	0.19127111
134	0x3e458cff	0.19292067
135	0x3e3b5bcd	0.18296738
136	0xbe576413	-0.21034269
137	0x3e5798ff	0.21054457
138	0xbdc7c913	-0.09755149
139	0xbea97f3e	-0.3310489
140	0xbe79f8f1	-0.2441137
141	0xbd89ec9e	-0.06734584
142	0x3d302412	0.04300315
143	0x3e207e91	0.15673281
144	0xbe2d9195	-0.16950066
145	0xbef073db	-0.4696339
146	0x3e92b210	0.28651476
147	0xbe6f4019	-0.23364295
148	0xbe27a9e0	-0.16373396
149	0x3d299090	0.04139763
150	0xbe53d20a	-0.20685592
151	0x3d80bcb1	0.0628599
152	0xbc4cc8c7	-0.012499041
153	0xbd1d0a28	-0.038339764
154	0x3e92a055	0.2863795
155	0xbc800bee	-0.015630689
156	0x3d808e1a	0.06277104
157	0x3e5f6089	0.21814169
158	0x3e74928d	0.2388403
159	0xbd936a2b	-0.07197984
160	0xbe32156f	-0.17390989
161	0x3db0b70d	0.08628664
162	0xbe74e455	-0.23915227
163	0x3cb93e4f	0.022612719
164	0x3d8b228e	0.067937
165	0xbc3971ee	-0.011318667
166	0xbe708568	-0.2348839
167	0xbe530458	-0.20607126
168	0xbe29609e	-0.16540763
169	0xbdf6395b	-0.120226584
170	0x3e477489	0.19478048
171	0xbe185171	-0.14874817
172	0xbe814d77	-0.25254413
173	0x3d55fe66	0.052244566
174	0xbe57a236	-0.21057972
175	0x3e2ff6c5	0.17183979
176	0x3e70c3d4	0.23512203
177	0xbefc2fa1	-0.49255088
178	0xbe3b1a35	-0.18271716
179	0x3c81b71e	0.015834387
180	0x3dda683c	0.106644124
181	0x3d9b8216	0.07593171
182	0x3da96818	0.082718074
183	0x3df45557	0.1193034
184	0x3c099f64	0.008399818
185	0xbe6fbf39	-0.2341279
186	0x3edec406	0.4350893
187	0x3e94d554	0.29069006
188	0x3dc1ba0a	0.09459312
189	0x3e0bafd4	0.13641292
190	0x3e840e30	0.25792074
191	0xbd207e65	-0.03918304
192	0x3e8ad0a0	0.27112293
193	0x3e89cdfa	0.2691496
194	0x3e11d568	0.14241564
195	0x3e9f0fe3	0.31066808
196	0x3dc28f0a	0.09499939
197	0x3e6bda13	0.23032407
198	0x3e9caafd	0.30599204
199	0x3e754cb4	0.23955041
200	0x3e040e95	0.12896188
201	0x3e48c464	0.19606167
202	0xbd8672ee	-0.0656489
203	0x3e8ef104	0.27918255
204	0x3edaf14c	0.4276222
205	0x3e7e89f5	0.24857314
206	0xbe17ec91	-0.14836337
207	0xbe54226d	-0.20716257
208	0xbef89447	-0.48550627
209	0xbc9920d4	-0.018692411
210	0xbe4af094	-0.19818336
211	0x3d3d22a0	0.0461756
212	0xbea31301	-0.31850436
213	0xbeb13e08	-0.3461764
214	0xbe43fd6c	-0.19139642
215	0x3d4d923f	0.0501883
216	0x3e150712	0.14553478
217	0x3b2179a2	0.002463915
218	0xbee478f0	-0.44623518
219	0x3d3743bb	0.044742327
220	0xbe20ab69	-0.15690388
221	0xbf339ecf	-0.701642
222	0xbdf731ff	-0.12070083
223	0xbdc5f118	-0.096651256
224	0xbe9a2446	-0.301058
225	0x3e96c056	0.29443616
226	0xbd75ef88	-0.060042888
227	0x3c8d1332	0.017221067
228	0x3e7908f9	0.24319829
229	0x3dda7b5b	0.106680594
230	0x3ec6e2b7	0.38844845
231	0x3e98b38b	0.2982448
232	0x3e75d032	0.24005201
233	0x3d4df92c	0.050286457
234	0xbc285583	-0.010274294
235	0xbe0b6f48	-0.13616669
236	0xbd318c37	-0.04334661
237	0x3d2e24a4	0.042515412
238	0xbb32ffc9	-0.0027313104
239	0x3da8aa36	0.0823559
240	0xbdb49570	-0.088175654
241	0xbcc92bfb	-0.024557104
242	0x3e35d700	0.17757797
243	0xbdbb5af8	-0.0914821
244	0xbe20565a	-0.1565794
245	0x3e996bcc	0.29965055
246	0xbcb4595a	-0.022015262
247	0x3e4b4a84	0.19852644
248	0x3e2d0dd4	0.16899806
249	0xbe2eb16f	-0.17059873
250	0xbdbed35f	-0.093176596
251	0x3e45f414	0.1933139
252	0xbd56c222	-0.052431233
253	0xbd8c4072	-0.068482295
254	0x3be37cce	0.006942368
255	0xbdd6a600	-0.10480881

conv3.0.bias f4 [8]
0	0xbeb9e8de	-0.36310476
1	0x3f2bb1a1	0.67067915
2	0x3ec1dafc	0.37862384
3	0x3e7b155f	0.24519871
4	0xbeb29e2f	-0.3488631
5	0xbe90b162	-0.28260332
6	0xbebb76a7	-0.36613962
7	0xbfa12d7c	-1.2592006

dense1.0.weight f4 [32, 128]
0	0xbe399891	-0.18124606
1	0x3e829a47	0.2550833
2	0x3e26f163	0.16303019
3	0x3d8749b0	0.06605852
4	0xbd9fc85b	-0.07801887
5	0x3c8e5b03	0.017377382
6	0x3d117d25	0.035519738
7	0x3c83a4c7	0.016069783
8	0xbdb5d7e5	-0.08879069
9	0xbdd54850	-0.10414183
10	0x3dd93f42	0.106077686
11	0x3d44b765	0.04802646
12	0x3d2ef3af	0.042712864
13	0xbcb5f72d	-0.02221259
14	0x3de033f4	0.10947409
15	0x3e2a3bb9	0.16624345
16	0xbdfb73af	-0.12277924
17	0xbeb108c8	-0.34577012
18	0xbd212c53	-0.03934891
19	0xbe4300f3	-0.19043331
20	0xbd16c8fb	-0.036812764
21	0x3e38ecc2	0.18059066
22	0xbdbcfdec	-0.09228119
23	0x3e121899	0.14267196
24	0xbdb3f218	-0.0878641
25	0xbe6d4ba3	-0.23173384
26	0xbe3016b8	-0.17196167
27	0xbd8b3016	-0.06796281
28	0x3edf2890	0.43585634
29	0x3c9277c3	0.017879372
30	0xbc8808fa	-0.016605843
31	0xbc849b61	-0.016187372
32	0x3e34d720	0.17660189
33	0xbe885dae	-0.26633972
34	0x3e24e730	0.16103816
35	0x3d4cb23c	0.049974665
36	0xbdab8208	-0.08374411
37	0x3d2f7504	0.042836204
38	0x3e589c21	0.21153308
39	0x3e445aba	0.19175234
40	0xbcfbcb2d	-0.03073653
41	0x3e5e176d	0.21688624
42	0xbcf902b8	-0.030396804
43	0x3d211ca3	0.03933395
44	0x3dec0a5a	0.11525412
45	0xbd166179	-0.03671405
46	0xbe554670	-0.20827651
47	0x3e36cc83	0.17851453
48	0x3e09f71c	0.13473171
49	0xbd9af9ab	-0.07567152
50	0x3e629cb5	0.22130091
51	0xbc54ebba	-0.012995655
52	0xbd8504c3	-0.06495049
53	0x3ddd03d9	0.107917495
54	0x3c439e88	0.011939652
55	0xbd440449	-0.04785565
56	0x3d23d928	0.04000202
57	0xbce98517	-0.028505845
58	0x3e7a9d50	0.24474072
59	0xbd4a4b7a	-0.049388386
60	0x3966156e	0.00021942492
61	0xbb8c3e61	-0.004279897
62	0x3da240c0	0.07922506
63	0xbdaa0ddc	-0.08303425
64	0x3db2f836	0.08738749
65	0x3da88146	0.08227782
66	0xbc9872e3	-0.01860947
67	0xbe0837f3	-0.13302593
68	0x3df6fb42	0.120596424
69	0xbe0aa6c4	-0.13540179
70	0x3c3bb32a	0.01145629
71	0x3dea4114	0.11438194
72	0x3c41fd2b	0.011840145
73	0x3dd7c1cd	0.105350114
74	0x3dbbfe68	0.091793835
75	0x3d6b60e2	0.05746544
76	0xbd778409	-0.060428653
77	0x3d258134	0.04040642
78	0xbe20abeb	-0.15690582
79	0xbcb549b8	-0.022129878
80	0xbdf01172	-0.117220774
81	0xbe927df6	-0.28611726
82	0xbd6a7e78	-0.057249516
83	0x3c69b0aa	0.014263311
84	0xbdaf4cc4	-0.08559564
85	0x3e044a91	0.1291907
86	0xbd4516cc	-0.048117444
87	0xba2ea37a	-0.0006661933
88	0x3e635e81	0.22204019
89	0x3e2fb1fd	0.17157741
90	0x3d519392	0.051166125
91	0xbc939df2	-0.01801965
92	0x3da716c5	0.0815864
93	0x3e551710	0.20809579
94	0x3cc28635	0.023745636
95	0x3d983adb	0.07433101
96	0xbe2d2c51	-0.16911437
97	0x3e0ab139	0.13544168
98	0xbd9efa72	-0.077626124
99	0x3b39df99	0.0028362034
100	0xbdc7d499	-0.09757347
101	0x3e1d9c57	0.1539167
102	0x3c9fcf22	0.019507948
103	0x3e452136	0.1925095
104	0x3d0bf4fa	0.034169175
105	0xbd1329c8	-0.035928518
106	0x3d888ebf	0.06667852
107	0xbe33b529	-0.17549576
108	0xbb522301	-0.003206432
109	0x3e900471	0.2812839
110	0x3e881128	0.2657559
111	0x3d036227	0.032076027
112	0x3e175eb0	0.14782214
113	0x3d106403	0.03525163
114	0xbc9611ac	-0.018318973
115	0x3e08f22e	0.13373634
116	0xbdf9be9d	-0.1219456
117	0x3da13d05	0.07872967
118	0xbe0c5f54	-0.1370824
119	0x3d97ca23	0.074116014
120	0x3cc604ca	0.024172205
121	0xbc61c07d	-0.013778803
122	0x3dad099d	0.08449099
123	0x3dc0d970	0.09416473
124	0xbb2cd379	-0.0026371165
125	0x3b9bbc3d	0.0047526644
126	0x3d6cabe9	0.057781134
127	0xbd93328d	-0.07187376
128	0x3de72c14	0.11287704
129	0x3d8d354b	0.068949305
130	0xbddd7e60	-0.1081512
131	0x3de991ee	0.11404787
132	0xbdb84676	-0.08997814
133	0xbd8ef4b4	-0.06980267
134	0x3ddb6c3a	0.10714002
135	0xbdf0992c	-0.11747965
136	0x3b20b707	0.0024523155
137	0x3db73199	0.08945007
138	0x3d92b38d	0.07163153
139	0xbe27da72	-0.16391924
140	0x3dd0ea77	0.102009706
141	0x3cd46a76	0.02592967
142	0xbdaa7bc8	-0.08324391
143	0xbbbabb72	-0.0056986148
144	0x3e2a2bcc	0.1661827
145	0x3e0d6171	0.13806702
146	0x3d2177de	0.039420955
147	0xbe26b136	-0.16278538
148	0xbe147a33	-0.1449974
149	0x3db82efa	0.08993335
150	0xbdb56af3	-0.088582896
151	0x3c19c220	0.009384662
152	0xbdb94542	-0.09046413
153	0xbea5a57a	-0.3235281
154	0xbe113ed1	-0.14184119
155	0x3d9bdd18	0.0761053
156	0x3ed209ff	0.4102325
157	0x3c038af3	0.008028734
158	0x3dc16c74	0.09444514
159	0xbdea0f42	-0.114286914
160	0x3e0ff7b4	0.14059335
161	0xbe22aecb	-0.1588699
162	0x3d528431	0.0513956
163	0xbc48799f	-0.012236028
164	0xbc996826	-0.01872642
165	0x3e183444	0.14863688
166	0xbc405e7e	-0.011741279
167	0x3e03f7ed	0.12887545
168	0x3dda807e	0.10669039
169	0x3d535c4b	0.05160169
170	0x3d8b7235	0.06808893
171	0xbc203d98	-0.00978031
172	0xbd8f4c4a	-0.06996973
173	0xbe3ec003	-0.18627934
174	0xbe846e5b	-0.25865445
175	0x3dc337fd	0.09532163
176	0xbbf15721	-0.007365123
177	0xbdfc5a3b	-0.123218976
178	0x3d4d4cdf	0.050122138
179	0xbdda5b7b	-0.1066198
180	0x3d9d9f00	0.076963425
181	0xbde2b55b	-0.11069747
182	0x3dd406b4	0.10352841
183	0xbdd3a6af	-0.10334527
184	0x3e971e17	0.29515144
185	0x3e9a93f5	0.30191007
186	0x3dcf1ff4	0.101135164
187	0x3dd17596	0.10227506
188	0x3e47f96d	0.19528742
189	0xbd88ba23	-0.06676128
190	0x3d40725c	0.04698406
191	0xbdbd238e	-0.09235297
192	0x3de4e95c	0.11177322
193	0x3e3588d1	0.17727973
194	0xbc789a14	-0.015173454
195	0xbdafa8fe	-0.085771546
196	0x3d5180d3	0.051148247
197	0xbda7854d	-0.08179722
198	0x3d67b15a	0.05656562
199	0x3dae31a2	0.085055605
200	0x3dd5fde2	0.10448815
201	0xbe19e704	-0.15029532
202	0x3e9ba3c9	0.30398396
203	0x3dcdecc6	0.100549266
204	0xbe16eff2	-0.1473997
205	0xbcec344b	-0.028833529
206	0xbda64233	-0.08118095
207	0x3da2ef8d	0.07955847
208	0xbde61115	-0.11233727
209	0xbe576032	-0.2103279
210	0x3d85c27a	0.06531234
211	0x3e9cfff4	0.30664027
212	0xbc1d95ca	-0.009618232
213	0x3dfa56c4	0.122235805
214	0xbe2ff26b	-0.17182319
215	0xbdf1f77d	-0.11814783
216	0x3d7ca620	0.061681867
217	0xbde51338	-0.11185306
218	0xbc21446a	-0.009842971
219	0xbdaca013	-0.08428969
220	0xbe2ddaa9	-0.16977943
221	0x3e825603	0.25456247
222	0xbd85d1d4	-0.06534162
223	0x3dbf740c	0.09348306
224	0x3dbf776a	0.09348948
225	0xbe7c787e	-0.24655339
226	0xbe83fcda	-0.25778848
227	0x3de0bb7a	0.10973258
228	0xbd1eb0a1	-0.038742665
229	0x3da5bd84	0.08092788
230	0xbdca1d21	-0.09868837
231	0x3d28543d	0.04109596
232	0x3d97543d	0.07389114
233	0xbe5fad73	-0.2184351
234	0xbc74db77	-0.014944903
235	0xbe9ae5dc	-0.30253494
236	0x3e47e6af	0.19521593
237	0x3efb3aa8	0.4906819
238	0xbe022119	-0.12707938
239	0xbcfe8eb2	-0.031073902
240	0xbd7fb107	-0.062424686
241	0x3d9a9303	0.075475715
242	0x3e32b507	0.17451869
243	0xbd25cb48	-0.040477067
244	0xbcdebe48	-0.027190343
245	0x3e1c2009	0.15246595
246	0x3c0d0422	0.008606942
247	0x3e1f67ec	0.15566987
248	0x3d24f730	0.0402748
249	0xbd76d0cc	-0.060257718
250	0xbdc3485e	-0.09535287
251	0x3e2b7809	0.16745009
252	0xbe5da7a5	-0.21645983
253	0x3c354f93	0.011066335
254	0x3e1a719f	0.15082406
255	0x3d2104f6	0.03931137

dense1.0.bias f4 [32]
0	0xbef4acb2	-0.47788006
1	0x3ec4c70a	0.38433105
2	0xbf2447a0	-0.6417179
3	0xbf5cf459	-0.86310345
4	0x3f130dc9	0.5744291
5	0xbeca8ae3	-0.39559087
6	0x3f4561b8	0.7710223
7	0xbd7c66e1	-0.06162155
8	0xbf0f5ed2	-0.5600406
9	0xbf02590f	-0.5091714
10	0x3eeedc0f	0.46652266
11	0x3ea321b0	0.3186164
12	0xbf1d33f4	-0.614074
13	0x3d58e863	0.052955996
14	0xbe6ffa3e	-0.23435304
15	0xbe925e3a	-0.28587514
16	0xbdae2e5e	-0.085049376
17	0xbb297edc	-0.0025862968
18	0xbf475870	-0.7786932
19	0x3dff53c4	0.12467149
20	0x3f22fc64	0.6366637
21	0xbeda0512	-0.42581993
22	0x3e3e2d83	0.18572049
23	0x3f4187d3	0.75597876
24	0x3f5d28cc	0.86390376
25	0xbf0ceaed	-0.5504597
26	0xc02c661e	-2.6937327
27	0xbf4cb3c2	-0.7996179
28	0x3ed528fe	0.41632837
29	0x3e87f3ae	0.265531
30	0x3edd2118	0.4318931
31	0x3d897a3f	0.0671277

dense2.weight f4 [10, 32]
0	0xbe92651f	-0.28592774
1	0x3e5bb838	0.21456993
2	0xbe297edf	-0.16552304
3	0xbd3dc6e6	-0.046332262
4	0xbd8eef3e	-0.069792256
5	0x3e2eb2b1	0.17060353
6	0xbe428b33	-0.18998413
7	0xbe9067d4	-0.28204215
8	0x3c57ef7b	0.013179655
9	0xbcea12fc	-0.028573506
10	0x3dc4882d	0.09596286
11	0xbef1cb7a	-0.47225553
12	0x3f1b586d	0.606818
13	0x3e53fb2c	0.20701283
14	0x3d8fc052	0.07019104
15	0x3e851aab	0.2599691
16	0xbd88daaf	-0.066823356
17	0x3ba82513	0.0051313727
18	0x3e64b894	0.22336036
19	0xbe46d51f	-0.19417237
20	0x3e81bfff	0.25341794
21	0xbe418884	-0.18899733
22	0x3e172d4e	0.14763376
23	0x3e6ba0e7	0.23010598
24	0x3ebe58c7	0.37177107
25	0x3e9605d9	0.29301336
26	0x3e8acb39	0.27108172
27	0x3e10e46a	0.14149633
28	0x3e924b86	0.28573245
29	0xbdc130d8	-0.09433144
30	0x3ba8f450	0.0051560774
31	0x3da87ca1	0.08226896
32	0xbe405140	-0.18780994
33	0xbeefe448	-0.46853852
34	0x3e64b3fa	0.2233428
35	0x3ed0f33b	0.4081057
36	0x3f969c1d	1.1766392
37	0xbf012ec0	-0.5046196
38	0x3f15a44c	0.5845382
39	0xbdd1a1ff	-0.102359764
40	0x3f0c1a18	0.54727316
41	0x3f41acf9	0.7565456
42	0xc0307416	-2.7570853
43	0x3f1fa714	0.62364316
44	0xbe744da8	-0.23857749
45	0xbf1389c2	-0.57632077
46	0xbdb06334	-0.086126715
47	0xbf5dabcd	-0.8659027
48	0x3f340dff	0.70333856
49	0x3a9cf63c	0.0011975239
50	0x3f2cd8d1	0.67518336
51	0xbf786354	-0.9702656
52	0xbf21b1ae	-0.6316174
53	0x3fb10121	1.382847
54	0x3e30c4e6	0.17262611
55	0xbf5c0022	-0.859377
56	0x3f811886	1.0085609
57	0xc0a0be1c	-5.0232067
58	0x3fb6b11c	1.42728
59	0x3f33fc4c	0.7030685
60	0xbf5d05d9	-0.8633705
61	0xbf27af27	-0.65501636
62	0x3f016ecd	0.50559694
63	0xbf4c7239	-0.7986179
64	0x3dc306e3	0.09522798
65	0xbd33299d	-0.043740857
66	0xbc1f786d	-0.009733302
67	0x3f0ea0aa	0.55713904
68	0xbe33c976	-0.1755732
69	0x3e19b801	0.15011598
70	0xbed2a1e5	-0.4113914
71	0x3d49cf61	0.049270038
72	0xbdc65619	-0.096843906
73	0x3db4bcdd	0.08825085
74	0x3e100c4c	0.14067191
75	0xbdf4b78b	-0.119490705
76	0xc09de19f	-4.9337916
77	0x3e145caa	0.14488474
78	0x3eb56c11	0.3543401
79	0x3dbcb900	0.092149734
80	0x3dbd061e	0.092296824
81	0xbb28129b	-0.0025645855
82	0x3e97ff49	0.29686955
83	0x3e132568	0.14369738
84	0x3da63d67	0.0811718
85	0x3e84ff61	0.2597609
86	0x3e0efdd8	0.13964021
87	0x3e5e509b	0.21710436
88	0xbd9f1c82	-0.07769109
89	0x3e934144	0.2876073
90	0xbd360fa6	-0.044448517
91	0x3e3f22a5	0.1866556
92	0x3dcdb32b	0.10043939
93	0xbba301fa	-0.004974601
94	0xbe92265e	-0.28544897
95	0xbd8274ea	-0.06369956
96	0x3e20abee	0.15690586
97	0x3bb57ca9	0.0055385423
98	0xbaa59953	-0.0012634195
99	0x3e544bd5	0.20732053
100	0xbcdb503a	-0.026771653
101	0x3df9cefa	0.12197681
102	0x3beb3faa	0.00717922
103	0x3dc0e49b	0.09418603
104	0xbe2e3b9a	-0.17014924
105	0xbdb56e93	-0.08858981
106	0x3d45e5ef	0.048314985
107	0x3d2f425b	0.04278789
108	0x3eef580d	0.46746865
109	0x3e37ba7c	0.17942232
110	0xbea6ef66	-0.32604522
111	0xb78831f8	-1.6235732e-05
112	0x3d9ade2e	0.07561909
113	0x3b9eecac	0.004849991
114	0x3e751545	0.23933895
115	0xbccdb18a	-0.025109071
116	0xbd3be318	-0.04587087
117	0xbe170950	-0.14749646
118	0x3b5a7906	0.0033336296
119	0xbd003ce0	-0.031308055
120	0x3dd69be1	0.1047895
121	0x3e72f0a6	0.23724613
122	0x3d6b3d21	0.057431344
123	0x3e518600	0.20461273
124	0x3e2b89a4	0.16751724
125	0xbc5f9742	-0.0136469025
126	0xbe3778e1	-0.17917205
127	0x3e22c244	0.15894419
128	0x3da399e2	0.07988335
129	0xbd434652	-0.047674485
130	0x3e494b8e	0.19657728
131	0xbddfa9f4	-0.10921088
132	0xbe013e73	-0.12621479
133	0x3e4f1fb9	0.20226945
134	0xbe4273bf	-0.18989466
135	0xbcd2b85f	-0.02572268
136	0xbdd8d391	-0.10587228
137	0xbcbcfccc	-0.023069762
138	0x3e41ff4e	0.18945047
139	0xbe55e194	-0.20886832
140	0x3e3a67af	0.18203615
141	0xbd1d91bc	-0.03846906
142	0xbea7b256	-0.32753247
143	0x3db0ea27	0.08638411
144	0xbd966cd6	-0.073449776
145	0xba5368d3	-0.0008064631
146	0xbedc4007	-0.430176
147	0xbe2977e0	-0.16549635
148	0x3e56730f	0.20942329
149	0xbe042d79	-0.12907971
150	0x3d7e13c4	0.06203057
151	0x3e13424d	0.1438076
152	0x3e0c8b81	0.13725092
153	0x3e8533ba	0.26016027
154	0xbeac906d	-0.33703938
155	0xbe377e10	-0.17919183
156	0x3e033cb2	0.12816122
157	0x3d89272a	0.06696923
158	0xbe0c4fc0	-0.13702297
159	0xbdb1cf80	-0.086821556
160	0x3eafd0f4	0.34339106
161	0xbe4dfefe	-0.20116803
162	0xbd835fa1	-0.06414724
163	0xbe0c2117	-0.13684498
164	0x3d20a937	0.039223876
165	0x3e0b7238	0.1361779
166	0x3df50455	0.11963717
167	0x3e691d5c	0.22765106
168	0xbe4fbed3	-0.20287637
169	0x3de42504	0.11139873
170	0x3d83ff28	0.064451516
171	0x3ea9d519	0.33170393
172	0xc069b769	-3.6518195
173	0x3df2a6ed	0.11848245
174	0xbfc67653	-1.550486
175	0xbe9dcbee	-0.30819649
176	0xbd9aea86	-0.07564263
177	0xbb00f24e	-0.0019675675
178	0x3e59b833	0.21261673
179	0x3e8228cc	0.2542175
180	0xbe984262	-0.29738146
181	0xbdc443f4	-0.095832735
182	0x3ce635b4	0.02810178
183	0xbe268526	-0.1626173
184	0xbe3faa23	-0.18717246
185	0x3e2a8172	0.16650942
186	0x3e71622c	0.23572606
187	0xbe9f7b04	-0.3114854
188	0x3e384421	0.17994739
189	0x3c29e7cc	0.010370206
190	0xbd809740	-0.06278849
191	0x3e303cd1	0.172107
192	0xbc88b8f3	-0.016689753
193	0x3e02b4aa	0.1276423
194	0x3ce83925	0.028347561
195	0xbe50ba9f	-0.2038369
196	0x3e0d8486	0.13820085
197	0x3e9216dc	0.28533065
198	0xbe2b9136	-0.16754612
199	0x3c96b21c	0.018395476
200	0xbe56344c	-0.20918387
201	0x3d0f945a	0.03505359
202	0x3e7e9edd	0.24865289
203	0xbe1559cc	-0.14585036
204	0x3e50c578	0.20387828
205	0xbdea714a	-0.114473894
206	0xbf05f861	-0.5233212
207	0x3da24854	0.07923952
208	0xbde90cfc	-0.1137943
209	0xbb3e49b9	-0.0029035641
210	0x3e23da7f	0.16001318
211	0xbdc952b5	-0.09830228
212	0x3d14ee58	0.036360115
213	0x3e6a05a5	0.22853716
214	0xbe9a725e	-0.3016538
215	0xbdb5976d	-0.08866773
216	0x3e29f55a	0.165975
217	0x3bcba027	0.00621416
218	0x3c771051	0.015079574
219	0x3e42176a	0.18954244
220	0x3e001a11	0.12509944
221	0xbe845cfb	-0.25852188
222	0xbde87293	-0.11349978
223	0x3e17730b	0.14789979
224	0x3ca31e1f	0.019911824
225	0x3c8853e6	0.016641568
226	0xbd4c6ea4	-0.049910203
227	0xc0739485	-3.80594
228	0xbe309f01	-0.17248155
229	0x3cedd0ee	0.02903029
230	0xbe7feec1	-0.24993421
231	0x3e800984	0.2500726
232	0xbe19a28b	-0.15003411
233	0xbe53e03c	-0.20691007
234	0x3d838229	0.064213105
235	0x39d3d88e	0.00040406402
236	0x3e79ed2c	0.2440688
237	0x3e0e734e	0.13911173
238	0x3d8d2f94	0.068938404
239	0xbbebc1b9	-0.0071947244
240	0xbdbcb733	-0.0921463
241	0xbba55da0	-0.0050465614
242	0xbebd0c5c	-0.36923492
243	0xbd922550	-0.07136023
244	0x3e072360	0.13197088
245	0xbdd3afe0	-0.1033628
246	0x3e3763b8	0.17909133
247	0x3cb5bcb6	0.022184711
248	0xbc7ce043	-0.015434328
249	0x3e599242	0.21247199
250	0xbe45a7d0	-0.19302297
251	0x3debf5f5	0.11521522
252	0x3dee69e9	0.116412945
253	0x3dd212df	0.102575056
254	0x3d5aa2e7	0.053378012
255	0x3e2e3147	0.17010985

dense2.bias f4 [10]
0	0x3d4dc1a2	0.05023349
1	0xbfeea3c7	-1.8643731
2	0xbe9fbfd9	-0.31201056
3	0xbee25d77	-0.44211933
4	0xbb992abe	-0.0046742847
5	0x3e04c750	0.12966657
6	0x3f36f956	0.71474206
7	0xbed5598c	-0.4166988
8	0x3f8d57cd	1.104242
9	0x3f19fe70	0.60153866
