ResidualLoss/CNN-Train/CIFAR_17/back_epoch-164.pt (torch, 27135 bytes, 10 tensors)

conv1.0.weight f4 [8, 3, 3, 3]
-0.42728496 0.11678072 -0.300371 -0.47018838 0.0866199 -0.2014698 0.36886412 0.3467114
0.14174692 0.25375387 0.3946668 -0.06789733 -0.06859453 0.062802315 -0.36703846 -0.22871867
0.24872263 -0.12118557 -0.016680157 0.20944428 0.1439345 0.05783739 -0.033310246 0.18468222
-0.10019569 -0.008185051 -0.18112153 0.21891111 -0.15628316 0.117031984 -0.58449817 -0.06032138
-0.30507764 -0.34489 -0.042852987 0.14691816 -0.1999964 -0.13663536 0.027134502 0.085433014
0.40470344 -0.28651834 -0.43834794 -0.015800674 -0.10007181 0.06997159 -0.40633324 -0.8624848
1.0901572 0.32354194 0.13458155 0.62454784 0.39490885 0.62095493 0.22928204 0.61680746
0.014330369 0.43255746 0.12792364 0.037825204 0.06117974 -0.058261234 -0.27170464 -0.08273678
0.26872584 -0.19777545 -0.21073656 -0.25134346 -0.41127267 -0.16200472 -0.16460909 -0.23434292
0.07970638 0.21257828 -0.59193456 0.50058323 0.11152811 -0.11907559 0.09656167 -0.1755747
0.10665998 -0.42702538 -0.92065364 0.0594764 -0.15175313 0.101514764 0.49657083 0.04034976
0.3033887 0.25775644 -0.3993724 -0.14674549 -0.29422292 -0.009388713 0.38588846 0.3436144
0.0664697 0.15522979 0.30360046 -0.40254423 -0.412593 0.12201153 0.22748439 0.22838758
0.09862331 0.013936565 0.35350156 -0.099603906 -0.11454197 -0.064525984 -0.1324162 -0.46276978
-0.041542593 0.504399 -0.3738646 0.13249512 0.09591378 0.48265457 0.05156878 -0.20579879
-0.1231456 -0.21728243 0.21192469 -0.18175744 0.26465464 0.12129394 0.007325176 -0.21550536
0.052541424 -0.15231536 -0.2501138 0.544671 -0.09014854 -0.38245803 0.30250576 -0.10729224
0.4616744 0.005677494 -0.046836607 0.093916334 -0.11892847 0.15178053 -0.09901419 -0.16332348
-0.40461078 -0.47758067 -0.23858361 0.2784285 0.39415556 -0.008270583 0.62045366 0.38028756
0.2962916 0.26725537 0.5977346 0.2193453 0.21095672 0.29458433 0.23281449 0.15657347
0.07261697 0.007308784 0.08544817 -0.12485559 0.102251254 0.1455575 0.048302695 -0.09016403
0.15346853 0.09384735 -0.101069085 -0.02576675 -0.4649855 -0.17765117 0.040730663 -0.332954
-0.44840965 0.019537656 0.0033494893 -0.4692826 -0.31736192 -0.18098506 -0.08436241 -0.14659333
-0.1118034 -0.34602135 -0.004254429 0.13842656 -0.28369862 0.0034934224 -0.11863123 0.021672096
-0.375159 -0.29712343 0.18816756 -0.17306556 -0.0939191 0.02010816 0.8095455 0.5164334
0.3430126 -0.23309742 -0.20828696 0.0813095 0.031043205 0.17130499 -0.0546885 -0.10864007
0.042707205 -0.40460545 -0.30697158 0.057694994 -0.21622863 0.08518495 0.35887742 -0.25908512
00000000: 18c5 dabe bb2a ef3d 3aca 99be 88bc f0be
00000010: c665 b13d 194e 4ebe c2db bc3e 2884 b13e
00000020: 1b26 113e 07ec 813e c411 ca3e c10d 8bbd
00000030: 4a7b 8cbd 809e 803d 77ec bbbe 3a35 6abe
00000040: 25b1 7e3e 2430 f8bd d3a4 88bc 9078 563e
00000050: 9163 133e e6e6 6c3d 5370 08bd 561d 3d3e
00000060: 6633 cdbd 981a 06bc ec77 39be 3c2a 603e
00000070: b108 20be 77ae ef3d aca1 15bf 8d13 77bd
00000080: 2333 9cbe 6c95 b0be 9d86 2fbd b771 163e
00000090: dbcb 4cbe 24ea 0bbe 2d49 de3c 81f7 ae3d
000000a0: 4a35 cf3e 88b2 92be 246f e0be 6a70 81bc
000000b0: 73f2 ccbd 444d 8f3d e90a d0be cecb 5cbf
000000c0: 458a 8b3f 4aa7 a53e bfcf 093e 5ee2 1f3f
000000d0: 7e31 ca3e e7f6 1e3f e9c8 6a3e 18e7 1d3f
000000e0: edc9 6a3c 2c78 dd3e 6afe 023e 9aee 1a3d
000000f0: 9b97 7a3d 55a3 6ebd df1c 8bbe e771 a9bd
00000100: 6f96 893e a685 4abe 53cb 57be 17b0 80be
00000110: 5592 d2be 91e4 25be 498f 28be 97f7 6fbe
00000120: 193d a33d 1fae 593e 0689 17bf 3926 003f
00000130: da68 e43d e7dd f3bd 20c2 c53d dbc9 33be
00000140: 8c70 da3d 12a3 dabe f5af 6bbf 879d 733d
00000150: 2c65 1bbe f9e6 cf3d 883e fe3e ca45 253d
00000160: c455 9b3e a7f8 833e 8a7a ccbe 7344 16be
00000170: 63a4 96be 1ed3 19bc 2c93 c53e 3aee af3e
00000180: 4421 883d 8ff4 1e3e 8571 9b3e 471a cebe
00000190: 643f d3be 2ee1 f93d abf1 683e 6fde 693e
000001a0: 05fb c93d 3156 643c 28fe b43e 22fd cbbd
000001b0: fb94 eabd 3326 84bd 1d98 07be 29f0 ecbe
000001c0: 9128 2abd 4b20 013f 2e6b bfbe cdac 073e
000001d0: 726e c43d 801e f73e c939 533d ebbc 52be
000001e0: c333 fcbd 497f 5ebe c902 593e 9f1e 3abe
000001f0: d080 873e f568 f83d 0808 f03b 70ad 5cbe
00000200: ad35 573d 8ff8 1bbe ea0e 80be 8f6f 0b3f
00000210: cc9f b8bd 8ad1 c3be 09e2 9a3e 09bc dbbd
00000220: 9660 ec3e 460a ba3b bed7 3fbd 3557 c03d
00000230: c590 f3bd 5b6c 1b3e f4c7 cabd 453e 27be
00000240: 2529 cfbe 7485 f4be 434f 74be 2e8e 8e3e
00000250: c2ce c93e 5781 07bc 0dd6 1e3f 0db5 c23e
00000260: 88b3 973e b2d5 883e 2205 193f 0e9c 603e
00000270: 0a05 583e c2d3 963e ec66 6e3e cc54 203e
00000280: 35b8 943d 867e ef3b 73ff ae3d 4ab4 ffbd
00000290: 1b69 d13d 060d 153e 0cd9 453d eba7 b8bd
000002a0: db26 1d3e 0a33 c03d 4ffd cebd cb14 d3bc
000002b0: 9412 eebe 30ea 35be 32d5 263d f278 aabe
000002c0: f395 e5be 6f0d a03c 1b83 5b3b cf45 f0be
000002d0: 437d a2be 2654 39be 33c6 acbd 901c 16be
000002e0: 2ef9 e4bd b629 b1be bd68 8bbb b1bf 0d3e
000002f0: f240 91be e7f1 643b eef4 f2bd ae89 b13c
00000300: d714 c0be 9020 98be ffae 403e 1938 31be
00000310: a858 c0bd deb9 a43c 603e 4f3f fb34 043f
00000320: 599f af3e 17b1 6ebe 2d49 55be 9885 a63d
00000330: 524e fe3c 936a 2f3e 0c01 60bd af7e debd
00000340: c0ed 2e3d 7228 cfbe 612b 9dbe 9651 6c3d
00000350: 0a6b 5dbe 7275 ae3d c8be b73e cea6 84be

conv1.0.bias f4 [8]
0.08595433 -0.08467809 0.688351 0.21827784 0.37904355 -0.058406357 -0.70592695 -0.048112374
00000000: d308 b03d b56b adbd c537 303f 3a84 5f3e
00000010: ff11 c23e 813b 6fbd a1b7 34bf 7b11 45bd

conv2.0.weight f4 [8, 8, 3, 3]
-0.23488984 0.5977218 -0.18554819 -0.50620663 0.18351293 0.27471265 -0.2576449 -0.33935204
-0.02933831 0.18124883 0.061650828 0.1294943 -0.07757 0.03938303 -0.050534487 -0.3437733
0.0015411098 -0.02525929 0.098415285 -0.07854821 0.16716559 -0.3929883 -0.026553996 0.13877006
-0.23746093 -0.1185723 0.08411324 -0.009440325 0.26553383 -0.22581482 0.047086015 0.15862797
-0.21033967 -0.05040257 -0.0085244225 -0.19263022 0.23539227 -0.61073214 -0.08494635 0.36198753
-0.045795713 0.040300902 0.13543472 -0.26842758 0.20918708 0.31681395 0.12850815 -0.1337476
-0.038011692 0.19745077 -0.21513422 0.16825023 -0.096728444 -0.13922723 0.15756789 -0.28590357
0.31816372 -0.2917308 -0.11562995 0.0675814 -0.021190118 -0.010083852 0.32528144 0.0590809
-0.02594433 -0.31326842 -0.31578246 -0.3630868 -0.20701912 -0.013133405 -0.39033076 -0.47729388
0.06488113 -0.04925929 0.08479864 -0.06019552 -0.30327842 -0.097506724 0.14195159 0.11926039
-0.612082 0.40143836 -0.2833061 -0.22287141 0.10381268 -0.23138937 -0.05324988 -0.10447831
0.2739263 -0.29180235 -0.14940587 0.028182501 0.04161974 0.025186347 -0.032286353 0.1930143
-0.039531883 -0.08617216 0.03693473 -0.083612435 0.073332556 0.18295933 -0.27342182 0.15931529
-0.22217226 -0.0029231566 -0.060753744 -0.03823504 0.19988573 0.16476254 0.17665195 -0.0070719267
0.18125084 0.07081094 -0.06488009 0.115371324 0.1716095 -0.014628397 0.068866596 -0.24275799
-0.007864951 0.063279055 -0.03689513 0.056255337 -0.06843525 0.14100188 0.14680369 -0.15439379
0.014018099 0.091420956 -0.045009337 -0.07616658 -0.1298823 -0.050576147 -0.07801613 0.5047008
-0.32190478 -0.08188918 0.12905253 -0.08516249 -0.41748014 0.41853705 -0.21398786 -0.2790225
0.20064989 -0.18994394 0.4734299 -0.25674605 0.0016655839 0.18742672 0.08028278 0.19315478
-0.6164834 -0.20810033 -0.20562088 0.28364292 -0.06399636 0.568009 0.38202482 -0.26172143
0.012480086 0.18063515 0.20529455 -0.16381986 0.008996578 0.17016856 0.47395512 0.26159802
0.045462508 0.052597586 0.052810725 0.09719559 0.14402407 0.43913174 0.44061032 -0.009578747
-0.046678983 -0.12549509 -0.35337245 0.28337198 -0.20980862 -0.02911399 0.080580115 0.073772416
0.13565621 -0.17632028 -0.098954864 0.13442743 -0.12461824 0.2557261 0.16967686 0.020103479
-0.4652491 -0.13526519 0.04025121 0.08841078 0.027625764 -0.0831373 0.14434661 -0.20642248
-0.11056564 0.030637877 0.21489379 0.111540996 0.052779708 -0.1449871 0.02668191 0.25900868
0.19646391 -0.45502418 0.11913993 -0.18944436 -0.43850324 0.30549437 -0.03202355 0.34582508
0.5001723 0.4668753 0.15368173 0.6191541 0.56081 -0.05344392 0.5307985 0.50665164
-0.20605873 -0.009264756 -0.2050056 -0.25949323 -0.026452608 -0.02007467 -0.051279098 -0.20051803
0.16280718 -0.10301301 -0.04385876 0.2069526 0.19337158 -0.012323422 0.00781318 -0.1466726
-0.08849009 -0.11457047 -0.30725574 -0.009294189 -0.028088123 0.20604219 0.10887414 0.2054206
0.1582542 0.20120105 0.00015053868 0.006433195 -0.050006278 0.11619164 0.1473022 -0.18859018
00000000: f686 70be 4c04 193f 5800 3ebe c296 01bf
00000010: d0ea 3b3e 23a7 8c3e 08ea 83be 8dbf adbe
00000020: e556 f0bc 4b99 393e 9485 7c3d 279a 043e
00000030: 05dd 9ebd 1a50 213d 40fd 4ebd 0e03 b0be
00000040: 10ff c93a 92ec cebc f48d c93d e2dd a0bd
00000050: 752d 2b3e c335 c9be c487 d9bc bd19 0e3e
00000060: f528 73be 09d6 f2bd 9043 ac3d 98ab 1abc
00000070: 0df4 873e 003c 67be 44dd 403d 5f6f 223e
00000080: 4863 57be ed72 4ebd 05aa 0bbc db40 45be
00000090: ac0a 713e f158 1cbf 5af8 adbd 6e56 b93e
000000a0: 4994 3bbd 8f12 253d 66af 0a3e 576f 89be
000000b0: 2335 563e 7035 a23e a497 033e 21f5 08be
000000c0: 26b2 1bbd 8930 4a3e 254c 5cbe ca49 2c3e
000000d0: 9019 c6bd 9591 0ebe 7a59 213e f461 92be
000000e0: 5be6 a23e bd5d 95be 65cf ecbd 1e68 8a3d
000000f0: e696 adbc be36 25bc 4a8b a63e d0fe 713d
00000100: 3489 d4bc b864 a0be 3dae a1be 83e6 b9be
00000110: d2fc 53be 7e2d 57bc 6fd9 c7be dd5f f4be
00000120: 66e0 843d 1cc4 49bd e9aa ad3d 948f 76bd
00000130: 4f47 9bbe 9bb1 c7bd c25b 113e cb3e f43d
00000140: 68b1 1cbf 5489 cd3e 7f0d 91be 6738 64be
00000150: be9b d43d 56f1 6cbe 8c1c 5abd b9f8 d5bd
00000160: 1140 8c3e 1e67 95be dafd 18be fdde e63c
00000170: 7679 2a3d 9953 ce3c b23e 04bd 8aa5 453e
00000180: 2fec 21bd 087b b0bd df48 173d ff3c abbd
00000190: 612f 963d b159 3b3e f2fd 8bbe 8c23 233e
000001a0: 2081 63be 6e92 3fbb ebd8 78bd 589c 1cbd
000001b0: d8ae 4c3e 83b7 283e 40e4 343e 9fbb e7bb
000001c0: d299 393e 5305 913d dadf 84bd cd47 ec3d
000001d0: 67ba 2f3e f2ab 6fbc ee09 8d3d 8d95 78be
000001e0: ffdb 00bc 7398 813d 591f 17bd ff6b 663d
000001f0: c827 8cbd cc62 103e b553 163e 6819 1ebe
00000200: 2bac 653c e93a bb3d b65b 38bd 39fd 9bbd
00000210: deff 04be ef28 4fbd ecc6 9fbd 1234 013f
00000220: b4d0 a4be 84b5 a7bd 5926 043e ac69 aebd
00000230: f5bf d5be 7d4a d63e a21f 5bbe 0adc 8ebe
00000240: 2a77 4d3e aa80 42be 6765 f23e 3874 83be
00000250: b94f da3a caec 3f3e 4c6b a43d 5eca 453e
00000260: dbd1 1dbf 4118 55be 488e 52be a539 913e
00000270: 8610 83bd 0a69 113f c298 c33e 5a00 86be
00000280: 4679 4c3c 6cf8 383e bc38 523e 65c0 27be
00000290: 6266 133c ab40 2e3e 3faa f23e 2df0 853e
000002a0: e536 3a3d 9170 573d 0f50 583d 7b0e c73d
000002b0: 0c7b 133e e0d5 e03e ad97 e13e 2df0 1cbc
000002c0: 7632 3fbd c981 00be 3ced b4be 2216 913e
000002d0: 12d8 56be 7680 eebc 3007 a53d fe15 973d
000002e0: 76e9 0a3e 4e8d 34be d9a8 cabd 58a7 093e
000002f0: d937 ffbd 88ee 823e c5bf 2d3e 0db0 a43c
00000300: 2135 eebe f582 0abe 74de 243d b610 b53d
00000310: 6d4f e23c e443 aabd 99cf 133e 6a60 53be
00000320: 3d70 e2bd 49fc fa3c 1e0d 5c3e 9b6f e43d
00000330: 892f 583d 8077 14be 0594 da3c c99c 843e
00000340: d62d 493e eef8 e8be a3ff f33d b4fd 41be
00000350: 7f83 e0be c269 9c3e 202b 03bd fc0f b13e
00000360: 4b0b 003f 480a ef3e be5e 1d3e e280 1e3f
00000370: 3f91 0f3f 03e8 5abd 69e2 073f ecb3 013f
00000380: 0f01 53be 34cb 17bc fdec 51be 4cdc 84be
00000390: 24b3 d8bc a273 a4bc 080a 52bd 9954 4dbe
000003a0: edb6 263e 7cf8 d2bd 3ea5 33bd 62eb 533e
000003b0: 3303 463e 2ee8 49bc da02 003c 5831 16be
000003c0: 4b3a b5bd eca3 eabd a050 9dbe a746 18bc
000003d0: 1019 e6bc b9fc 523e 68f9 de3d c759 523e
000003e0: 640d 223e a607 4e3e ebd9 1d39 8dcd d23b
000003f0: 62d3 4cbd e2f5 ed3d 63d6 163e c91d 41be

conv2.0.bias f4 [8]
0.49671027 0.2809525 0.28490317 0.0046199104 -0.0053401515 -0.16335359 -0.5714686 1.0349959
00000000: cf50 fe3e 02d9 8f3e d4de 913e 9e62 973b
00000010: 70fc aebb 2a46 27be c44b 12bf bf7a 843f

conv3.0.weight f4 [8, 8, 3, 3]
-0.08409286 0.13282306 -0.07965314 -0.00662489 0.15427507 0.23532255 -0.0070034615 -0.029162461
0.14254056 -0.086451 0.10465174 -0.24766149 -0.29679054 -0.014372411 -0.24916331 -0.22612597
-0.103050224 -0.011496817 0.19985755 -0.065403745 0.044655785 0.041468572 0.3107872 0.1209249
0.20537756 0.24257581 0.37444326 -0.028460724 -0.32714754 -0.059226777 -0.01401896 0.10020701
-0.11735278 -0.018729178 0.11848718 -0.060220808 -0.20679486 0.1326867 0.04290503 0.056464728
-0.011535034 -0.21593894 0.04896152 -0.16769119 -0.14123622 -0.058790803 -0.014168704 -0.084569395
-0.08338362 0.038486134 -0.076950096 -0.046134196 0.2020186 0.17349498 0.15217842 -0.08538462
0.028889155 0.11223106 0.013931905 -0.026845904 0.014880609 0.08686397 0.24524513 0.26237458
-0.034726992 0.31934142 0.18828356 -0.10659894 0.11381448 -0.0979558 -0.20459285 -0.51260537
-0.04325643 0.013095567 0.104770586 0.07450846 0.101652935 0.2609759 -0.1183009 0.1433157
0.20918997 0.16717416 0.35159653 0.4243124 0.029559925 0.14961462 0.53341377 0.4088404
0.32449216 0.44427392 0.1556478 -0.111171775 0.09893992 -0.019846838 -0.08407979 -0.10973892
0.014485934 -0.01933131 -0.12313221 -0.25848335 -0.07066305 0.1152642 0.08616795 0.058485907
0.15018255 -0.006072917 -0.015608462 0.22518665 0.10023715 -0.28171945 0.0719712 -0.057793543
-0.22435445 -0.035086665 0.08269467 -0.2705615 0.11305089 -0.1710507 -0.06660152 0.039378446
-0.17946547 0.046147555 0.0642419 -0.0076186485 -0.2155086 0.15840928 -0.28369406 -0.13477989
0.025838139 -0.4457647 -0.26539037 0.17458409 -0.12495132 -0.19402465 0.24279353 0.33139795
0.24896252 0.2558364 0.05191489 0.16750723 0.2919811 -0.0044280733 0.30706552 -0.07496449
0.18657805 0.049809694 -0.008083189 -0.056759097 0.17593905 0.13031054 0.22085096 0.10789017
0.25330538 -0.13851345 -0.22688764 -0.307733 -0.14917018 -0.4787525 0.03625155 -0.076359
0.17691655 -0.04107181 0.0830367 -0.15957649 0.13984448 0.0003302061 -0.25414786 0.3945344
0.015552203 -0.07514601 0.17224737 -0.013378 -0.1366479 0.20684159 0.26044598 0.38628542
0.27700567 0.17180005 0.2766746 0.10245862 0.20352836 0.08832649 -0.054750163 -0.026912993
-0.03086069 0.10671786 0.1381033 -0.083744995 -0.16474053 0.22059315 0.025615197 0.23756258
-0.06972277 0.054420322 -0.1005833 0.04535743 -0.13608555 -0.111390546 0.18684983 -0.11857215
-0.047629822 -0.27713454 -0.46529505 -0.41740233 -0.17885569 -0.32688352 -0.17774604 -0.016045475
-0.27666116 -0.19338691 0.11073181 -0.16746682 -0.030804375 -0.030029992 -0.08488403 0.10373895
-0.47356218 -0.3696756 -0.049706448 -0.36045483 -0.19764777 -0.25146112 -0.15484895 -0.40214118
-0.2444191 -0.05857486 0.017474135 0.2063965 0.27623922 0.18090445 -0.21859692 -0.0680925
0.035135098 0.08852797 0.22634993 0.0073715453 -0.1393657 0.034223925 0.1702121 0.0928823
0.14756167 0.055425286 0.19385046 0.082089745 -0.3370217 0.21306127 0.06134461 0.28101483
0.03941531 0.20726581 0.22071472 0.24716905 -0.15019417 0.13530909 0.13697585 -0.18860061
00000000: e138 acbd c502 083e 2f21 a3bd 9b15 d9bb
00000010: 49fa 1d3e 65f8 703e 4b7d e5bb 1de6 eebc
00000020: 27f6 113e 390d b1bd a753 d63d f99a 7dbe
00000030: eef4 97be 437a 6bbc ab24 7fbe 918d 67be
00000040: ff0b d3bd 255d 3cbc 75a7 4c3e 66f2 85bd
00000050: fce8 363d f3da 293d 801f 9f3e 79a7 f73d
00000060: 7f4e 523e cb65 783e 07b7 bf3e 7726 e9bc
00000070: e27f a7be c797 72bd c8af 65bc 5539 cd3d
00000080: a856 f0bd ef6d 99bc 68a9 f23d 18aa 76bd
00000090: 08c2 53be 06df 073e 2fbd 2f3d 8f47 673d
000000a0: 70fd 3cbc 191f 5dbe e08b 483d 3db7 2bbe
000000b0: 3aa0 10be a0ce 70bd da23 68bc b832 adbd
000000c0: 08c5 aabd a3a3 1d3d 0398 9dbd 36f7 3cbd
000000d0: f7dd 4e3e aba8 313e a9d4 1b3e 22de aebd
000000e0: f3a8 ec3c 66d9 e53d a542 643c f1eb dbbc
000000f0: cccd 733c bde5 b13d 8a21 7b3e f655 863e
00000100: e43d 0ebd b880 a33e 68cd 403e 8c50 dabd
00000110: 9117 e93d 0d9d c8bd ca80 51be 1b3a 03bf
00000120: a82d 31bd ca8e 563c f691 d63d e497 983d
00000130: 6a2f d03d a29e 853e be47 f2bd 5ac1 123e
00000140: e535 563e b42f 2b3e 7604 b43e 7a3f d93e
00000150: a827 f23c 9334 193e ce8d 083f 8753 d13e
00000160: d623 a63e df77 e33e 2362 1f3e 07ae e3bd
00000170: 03a1 ca3d d695 a2bc 0632 acbd cdbe e0bd
00000180: 6956 6d3c b25c 9ebc bd2c fcbd ee57 84be
00000190: cab7 90bd a30f ec3d d278 b03d eb8e 6f3d
000001a0: 74c9 193e 52ff c6bb a2ba 7fbc 5497 663e
000001b0: 2349 cd3d 883d 90be a365 933d ecb8 6cbd
000001c0: 2cbd 65be 09b7 0fbd d35b a93d 0987 8abe
000001d0: 3a87 e73d ea27 2fbe 6166 88bd 4b4b 213d
000001e0: ccc5 37be 3805 3d3d 4291 833d dba5 f9bb
000001f0: 49ae 5cbe 0b36 223e 5940 91be bd03 0abe
00000200: 81aa d33c 453b e4be 3fe1 87be 2cc6 323e
00000210: 7ae6 ffbd 66ae 46be de9e 783e feac a93e
00000220: 08f0 7e3e fdfc 823e b5a4 543d 0487 2b3e
00000230: 8c7e 953e 5f19 91bb b137 9d3e fc86 99bd
00000240: 510e 3f3e 4005 4c3d 5a6f 04bc 3a7c 68bd
00000250: 5e29 343e 2070 053e c126 623e 85f5 dc3d
00000260: 3eb1 813e 78d6 0dbe 3c55 68be 2e8f 9dbe
00000270: 11c0 18be 0c1f f5be 817c 143d 1b62 9cbd
00000280: 9d29 353e ea3a 28bd 250f aa3d 0568 23be
00000290: 6433 0f3e 831f ad39 ab1f 82be 6a00 ca3e
000002a0: abce 7e3c 27e6 99bd 9d61 303e 662f 5bbc
000002b0: 6ded 0bbe 48ce 533e 2d59 853e 34c7 c53e
000002c0: b0d3 8d3e 5aec 2f3e 4ba8 8d3e d3d5 d13d
000002d0: bd69 503e 85e4 b43d b541 60bd a378 dcbc
000002e0: 8fcf fcbc e58e da3d f46a 0d3e 7f82 abbd
000002f0: beb1 28be 2ce3 613e f6d6 d13c 9b43 733e
00000300: d0ca 8ebd d8e7 5e3d 9efe cdbd b6c8 393d
00000310: 035a 0bbe ba20 e4bd 9055 3f3e f5d5 f2bd
00000320: 7d17 43bd 94e4 8dbe 273b eebe c2b5 d5be
00000330: f225 37be 475d a7be 0f03 36be cd71 83bc
00000340: 88a6 8dbe 3807 46be 5cc7 e23d 6c7c 2bbe
00000350: 7559 fcbc 7501 f6bc aed7 adbd 1675 d43d
00000360: be76 f2be 1f46 bdbe fd98 4bbd 898d b8be
00000370: 2d64 4abe 83bf 80be b990 1ebe 73e5 cdbe
00000380: 0049 7abe 31ec 6fbd eb25 8f3c 9b59 533e
00000390: 3a6f 8d3e 043f 393e dfd7 5fbe 1574 8bbd
000003a0: d2e9 0f3d 274e b53d 47c8 673e 018d f13b
000003b0: e2b5 0ebe 632e 0c3d 154c 2e3e 1339 be3d
000003c0: 681a 173e a005 633d bc80 463e ab1e a83d
000003d0: 1c8e acbe bc2c 5a3e 7c44 7b3d 2de1 8f3e
000003e0: f371 213d 7d3d 543e 0a03 623e e219 7d3e
000003f0: 80cc 19be 778e 0a3e 6643 0c3e 8520 41be

conv3.0.bias f4 [8]
-0.9677977 0.35139868 0.32929778 -0.15364134 0.0184098 -0.18602537 -0.57063556 -0.9306457
00000000: 97c1 77bf 87ea b33e b899 a83e 2854 1dbe
00000010: 26d0 963c 6f7d 3ebe 2c15 12bf cc3e 6ebf

dense1.0.weight f4 [32, 128]
0.063811 0.055213667 -0.00019391945 -0.2185491 -0.060822308 -0.056632243 -0.18991418 0.13744059
0.35609984 -0.07887215 -0.14513418 -0.13222739 0.05549877 -0.047676638 0.09832951 0.25469503
-0.2866774 -0.2097239 0.1983857 0.043461774 0.257569 -0.13920791 0.10796003 0.080192484
-0.12060036 -0.0027036308 0.032149997 0.15910663 -0.13390043 -0.0051557235 0.2575196 -0.20372039
-0.1970274 -0.29575023 -0.05142208 0.23260152 -0.027505262 0.13029467 0.10629574 0.089583635
-0.044540685 -0.12302639 0.23089807 0.028788602 -0.15797049 -0.16439381 0.055921175 -0.07058611
0.07273031 0.09899955 0.050299894 0.0635845 -0.04468088 -0.107360296 -0.04861322 -0.0944626
0.18340398 0.00022837539 0.20224357 -0.0015994263 0.24145302 0.015428112 0.08177787 -0.091876544
-0.14088596 0.102737635 -0.15483223 -0.14485776 -0.09305946 0.07552782 0.26601312 0.12005538
0.04000064 0.044833776 0.15091942 -0.1457917 0.11263258 -0.06252381 -0.032014377 0.09052613
0.024218636 -0.084867775 -0.17719026 0.077132575 -0.10843526 0.006922864 0.0818353 -0.058279853
0.089165226 -0.0881824 -0.15897238 0.0033917772 -0.17204182 0.23304603 0.19121315 0.113494255
-0.04197231 0.1625311 0.03972342 0.050212532 -0.20524251 0.09631327 0.32053182 0.16958492
0.040914197 0.1698723 0.14504848 0.14063334 0.019882176 -0.005813886 -0.012808834 0.21868876
-0.008808256 -0.017557021 -0.126383 0.013612444 -0.10334369 -0.08591431 0.009798618 -0.034497898
0.036619466 0.13683307 -0.004643019 -0.04141986 -0.049069837 -0.14596555 -0.1322712 -0.13449796
0.08606531 -0.15564327 0.13965726 0.081028864 0.06012634 -0.030578239 0.17010966 -0.0038780952
-0.24641798 -0.08508704 -0.073049344 0.084514014 -0.025926854 -0.124310665 -0.18218508 -0.083403505
-0.06119235 0.09007695 -0.12150194 -0.012857085 -0.018784612 0.15736824 -0.06889155 0.019674204
0.0681031 -0.0150766345 0.3115647 0.065923445 0.04347414 0.05738898 0.059096366 0.08282236
-0.060499083 -0.01166547 0.0029718475 -0.23086677 -0.048355017 0.083915964 -0.1476416 0.02113789
0.027809951 0.15774964 0.15958239 -0.14639886 0.11598628 -0.104318485 0.14512448 -0.014762993
0.23205385 0.0066604856 -0.14813198 0.26531306 -0.12603487 -0.103158526 0.093922265 -0.037624303
0.1620456 -0.1811858 -0.041132234 0.048448283 -0.07008341 -0.027825924 0.21616809 -0.14334239
0.016432455 -0.06357223 -0.05850722 -0.03210848 0.024535632 0.046823245 -0.00927187 -0.1097539
-0.28906947 -0.07837661 -0.11941295 0.14686449 -0.0571265 -0.015438819 -0.37344897 -0.13973728
-0.08439566 -0.08904355 0.15688078 -0.05694386 0.14079526 -0.081274234 -0.005690789 -0.040834863
-0.020145005 0.021976888 0.00967952 0.030808467 0.0012182938 -0.14035155 -0.14182186 -0.112000585
0.02195167 -0.13881418 -0.01172601 0.14851718 0.07912602 0.041068625 0.010862047 -0.062220477
-0.17057447 0.10488944 0.081068575 0.08175443 -0.09841019 -0.028234547 -0.25675964 0.084961
0.068212345 -0.039673544 0.060697347 0.048040174 0.09412886 -0.0010468685 -0.07362397 -0.03929538
0.105703965 0.043379188 0.076082155 0.06502068 -0.1991314 0.037521835 -0.008622273 -0.07778252
00000000: 57af 823d ba27 623d db56 4bb9 56cb 5fbe
00000010: d020 79bd 36f7 67bd dd78 42be 3abd 0c3e
00000020: b852 b63e b987 a1bd 0e9e 14be 9e66 07be
00000030: ae52 633d 9448 43bd fb60 c93d 6367 823e
00000040: 61c7 92be ddc1 56be 9f25 4b3e f904 323d
00000050: 15e0 833e 858c 0ebe 261a dd3d f53b a43d
00000060: 52fd f6bd 662f 31bb b7af 033d d9ec 223e
00000070: 321d 09be 58f1 a8bb 9cd9 833e 149c 50be
00000080: 8dc1 49be 936c 97be f59f 52bd 182f 6e3e
00000090: b752 e1bc f76b 053e 95b1 d93d a077 b73d
000000a0: 4b70 36bd 43f5 fbbd 8b70 6c3e 13d6 eb3c
000000b0: 04c3 21be da56 28be 9a0d 653d 738f 90bd
000000c0: a1f3 943d 47c0 ca3d 4307 4e3d 9738 823d
000000d0: 4c03 37bd b7df dbbd a81e 47bd 9c75 c1bd
000000e0: 41ce 3b3e 0d78 6f39 f018 4f3e d7a3 d1ba
000000f0: 763f 773e 31c6 7c3c 287b a73d c529 bcbd
00000100: 6944 10be 1c68 d23d 578c 1ebe 9855 14be
00000110: f595 bebd 54ae 9a3d df32 883e 98df f53d
00000120: b6d7 233d 9fa3 373d 9f8a 1a3e 6b4a 15be
00000130: e9ab e63d 7c0c 80bd 8221 03bd c365 b93d
00000140: 2966 c63c 28cf adbd 5d71 35be aff7 9d3d
00000150: 4e13 debd 31d9 e23b 4499 a73d dbb6 6ebd
00000160: 429c b63d f998 b4bd a8c9 22be 9448 5e3b
00000170: bb2b 30be 9ea3 6e3e 61cd 433e ad6f e83d
00000180: 28eb 2bbd 8d6e 263e 06b5 223d a8ab 4d3d
00000190: 182b 52be e43f c53d bf1c a43e aba7 2d3e
000001a0: a595 273d 01f3 2d3e 9787 143e 3002 103e
000001b0: f2df a23c 6982 bebb 25dc 51bc f2ef 5f3e
000001c0: 8150 10bc bed3 8fbc 8c6a 01be ba06 5f3c
000001d0: dba5 d3bd d7f3 afbd 628a 203c ab4d 0dbd
000001e0: 4bfe 153d f81d 0c3e 7724 98bb dfa7 29bd
000001f0: 74fd 48bd fe77 15be 1a72 07be d5b9 09be
00000200: 0243 b03d f360 1fbe 5002 0f3e 76f2 a53d
00000210: 0947 763d 377f fabc 3a31 2e3e a427 7ebb
00000220: ff54 7cbe 1d42 aebd e59a 95bd af15 ad3d
00000230: 8e64 d4bc 9796 febd ba8e 3abe 75cf aabd
00000240: d4a4 7abd 447a b83d 02d6 f8bd 86a6 52bc
00000250: 30e2 99bc 2425 213e 0317 8dbd cc2b a13c
00000260: a379 8b3d fd03 77bc 6985 9f3e df02 873d
00000270: f111 323d b510 6b3d 080f 723d c59e a93d
00000280: e3cd 77bd 8720 3fbc 54c3 423b 5768 6cbe
00000290: e90f 46bd 22dc ab3d 5c2f 17be 5e29 ad3c
000002a0: b2d1 e33c 1f89 213e 9169 233e 95e9 15be
000002b0: 378a ed3d eea4 d5bd 839b 143e 7be0 71bc
000002c0: 869f 6d3e 3440 da3b e9af 17be 1dd7 873e
000002d0: 490f 01be c744 d3bd 515a c03d f11b 1abd
000002e0: 48ef 253e c588 39be 467a 28bd b571 463d
000002f0: e487 8fbd 31f3 e3bc 2b5b 5d3e 59c8 12be
00000300: 5b9d 863c 2832 82bd 44a5 6fbd 2e84 03bd
00000310: f3fe c83c bbc9 3f3d 0be9 17bc a7c6 e0bd
00000320: ea00 94be eb83 a0bd c78e f4bd a563 163e
00000330: 7afd 69bd 1af3 7cbc b434 bfbe 4a17 0fbe
00000340: a2d7 acbd 775c b6bd 5ba5 203e f73d 69bd
00000350: a22c 103e 1b73 a6bd cc79 babb 7542 27bd
00000360: 2307 a5bc e008 b43c d996 1e3c 0a62 fc3c
00000370: 28af 9f3a 51b8 0fbe c039 11be 9060 e5bd
00000380: fdd3 b33c 4e25 0ebe 731e 40bc e314 183e
00000390: d30c a23d 9337 283d baf6 313c e6da 7ebd
000003a0: 13ab 2ebe 46d0 d63d 4807 a63d de6e a73d
000003b0: 488b c9bd 234c e7bc 0076 83be 0800 ae3d
000003c0: eab2 8b3d ba80 22bd c89d 783d c6c5 443d
000003d0: a2c6 c03d 1437 89ba 2ac8 96bd 31f4 20bd
000003e0: 527b d83d 60ae 313d f6d0 9b3d 9029 853d
000003f0: 1ae9 4bbe 7fb0 193d 6f44 0dbc 714c 9fbd

dense1.0.bias f4 [32]
0.1904369 1.0401689 0.19788167 0.17305538 0.32093984 0.35047215 -0.20572513 -0.38038546
0.01230796 -1.174132 0.6401361 -0.38620222 0.76360714 0.69394356 0.95683825 -1.2593583
1.1085228 0.06815375 -3.269909e-08 -0.16960762 -0.71337503 -0.86253244 -0.41466066 0.46881977
-0.50679135 -0.08248807 -0.100761764 0.25820342 0.740087 -0.0013900772 0.42502832 0.965343
00000000: e401 433e 4124 853f 7ea1 4a3e 6e35 313e
00000010: 3a52 a43e 1671 b33e 9ca9 52be e2c1 c2be
00000020: 53a7 493c f549 96bf f6df 233f 4cbc c5be
00000030: c27b 433f 49a6 313f 5af3 743f a732 a1bf
00000040: 13e4 8d3f 3194 8b3d 0871 0cb3 9fad 2dbe
00000050: bf9f 36bf edce 5cbf 674e d4be 2509 f03e
00000060: 14bd 01bf 81ef a8bd 2f5c cebd 3d33 843e
00000070: 5776 3d3f 4033 b6ba 509d d93e b820 773f

dense2.weight f4 [10, 32]
-0.27636495 -0.11186402 0.35841402 0.14581817 0.024734939 0.41028202 0.13022827 0.35819763
0.35041943 -0.082037024 0.3037519 0.08341788 0.16770704 0.3233444 0.02492684 -0.20813048
0.031737227 0.030876087 0.0012382474 -0.12912391 -0.08670154 0.17548631 -0.3700295 0.26840323
-0.42499077 -0.4332181 0.071802534 -0.16781421 -0.10398525 -0.0009934392 -0.05242951 -0.14899164
-0.2293456 0.24494977 0.23919553 -0.11158935 -0.30248296 0.29021013 0.27452382 0.18837087
-0.14502403 0.5422233 -0.39514425 0.21201396 -0.31272385 -0.29901078 -0.45402917 -0.032418106
-0.28584403 -0.041588943 -0.0034183755 -0.20386533 0.4619362 -0.22243233 0.3645231 0.05796641
-0.21013452 -0.079117246 0.46227923 -0.11149384 -0.21734029 -0.0018087646 -0.24724518 -0.09838207
-0.15074944 -0.23588113 0.055385455 0.23748642 0.29146156 0.066410445 0.16508456 -0.12474346
-0.097821556 -0.2661026 0.035016906 0.24105664 0.08883686 0.34050316 0.10953794 0.14393587
-0.22692367 -0.066679984 0.003262849 -0.28601906 0.104966044 0.14215031 -0.119849786 -0.22295076
0.044016562 -0.22128727 0.06388961 0.2159255 -0.21714598 -0.0015867838 0.3404451 0.055746812
0.03253913 -0.24558897 -0.20910588 -0.15277964 0.11370047 -2.5955374 -0.29360557 -0.2060923
-0.19242032 0.4388239 -0.05653618 0.027454784 0.07269167 -0.1426004 0.19233528 0.12973978
-0.08727375 0.26014036 -0.00031332226 0.1972241 -0.4632323 -0.11140622 -0.018925192 -0.053782407
-0.010299827 0.016743517 -0.3603939 0.16738349 -0.019360296 0.0030295306 0.04448482 0.3169737
0.06888457 -0.13035667 0.24034719 -0.044713106 0.3387982 -4.1359825 -0.48807833 -0.21285424
-0.27141497 -1.4164823 -0.27138308 -0.21705641 0.33546054 0.0032747213 -0.17841965 -0.15589032
-0.18230437 -0.27685404 0.004936627 0.047259204 0.11687186 -0.1472258 0.10152978 -0.24774092
-0.089073785 -0.12407621 0.15655321 -0.32822543 0.43294603 0.005684261 0.036588788 0.16821206
0.1706978 0.023240093 -0.474418 -0.20425421 -0.07046415 -0.16132843 -0.2666821 0.004760737
-0.028788796 0.016148532 0.028518671 0.052408315 0.2219458 -0.093573414 -0.012717692 0.36690366
0.21778043 0.07733318 -0.00029473566 0.08501404 -1.5921628 0.06701392 -0.22851272 -0.35226402
0.13098809 0.2897957 -0.079446375 0.06301471 -0.2609058 0.0012710491 -0.091499396 -0.27431318
0.18218544 -0.495317 -0.19859506 0.48590428 0.12302563 0.087356634 -0.18110251 -0.08828965
-0.0063932166 -0.20991167 -0.074220486 -0.06461601 -0.083580315 0.03509021 -0.27603438 0.09534558
-0.3785628 -0.024812892 -0.0042739436 -0.44119814 -0.5245528 -0.107397795 -0.0968753 0.28104165
0.12740923 -0.17692307 -0.09829039 0.14129762 0.1848311 -0.0030565513 -0.27280626 0.2930403
-0.27914184 0.5189649 -0.0961666 -0.35592052 0.1402306 0.77223766 -0.35988584 0.19356261
0.22017112 -2.3303676 -0.46153492 -0.44829246 -0.0004852225 -1.0960981 -0.24526179 -0.13369387
-0.03509374 -0.32947987 -0.0007428077 0.33228064 0.24122682 0.2980167 0.049838137 -0.4359372
0.3384256 0.40229633 -0.27595863 -0.43546984 -0.36173904 -0.0061649913 -0.08130192 -0.5000436
00000000: b57f 8dbe f718 e5bd 0b82 b73e 5c51 153e
00000010: eda0 ca3c 7c10 d23e 8f5a 053e ae65 b73e
00000020: 2d6a b33e 0703 a8bd 5e85 9b3e fed6 aa3d
00000030: 65bb 2b3e 668d a53e 5f33 cc3c 2820 55be
00000040: e5fe 013d d9ef fc3c b04c a23a 0f39 04be
00000050: 9490 b1bd afb2 333e 8274 bdbe 266c 893e
00000060: 6498 d9be c3ce ddbe 350d 933d 7dd7 2bbe
00000070: 38f6 d4bd 4a36 82ba 53c0 56bd 4491 18be
00000080: 93d9 6abe 1dd4 7a3e acef 743e f588 e4bd
00000090: 0cdf 9abe 6c96 943e 638e 8c3e 4be4 403e
000000a0: 2e81 14be 25cf 0a3f 5950 cabe 301a 593e
000000b0: 571d a0be f117 99be 8376 e8be d9c8 04bd
000000c0: 265a 92be 2b59 2abd d306 60bb 13c2 50be
000000d0: e782 ec3e 4dc5 63be c6a2 ba3e 306e 6d3d
000000e0: 812d 57be 3908 a2bd ddaf ec3e e256 e4bd
000000f0: 748e 5ebe 1214 edba d72d 7dbe 8a7c c9bd
00000100: 105e 1abe d38a 71be dcdb 623d a42f 733e
00000110: 733a 953e 3302 883d ed0b 293e 8079 ffbd
00000120: ab56 c8bd 9a3e 88be e36d 0f3d 8dd7 763e
00000130: 1af0 b53d 6e56 ae3e 6d55 e03d ed63 133e
00000140: ae5e 68be 848f 88bd 86d5 553b 1771 92be
00000150: 70f8 d63d da8f 113e ce73 f5bd 344d 64be
00000160: b64a 343d 2199 62be 8ed8 823d 931b 5d3e
00000170: 845b 5ebe a1fb cfba d24e ae3e c556 643d
00000180: c047 053d ad7b 7bbe da1f 56be 4472 1cbe
00000190: cbdb e83d 491d 26c0 7853 96be dc09 53be
000001a0: d509 45be 87ad e03e 7b92 67bd dbe8 e03c
000001b0: 5fdf 943d d705 12be 8af3 443e 81da 043e
000001c0: 94bc b2bd 1e31 853e 6745 a4b9 1df5 493e
000001d0: c92c edbe f228 e4bd 0109 9bbc f14a 5cbd
000001e0: 9bc0 28bc b329 893c 8d85 b8be 9466 2b3e
000001f0: 7c99 9ebc 178b 463b b735 363d 604a a23e
00000200: 5a13 8d3d 387c 05be 931d 763e 1725 37bd
00000210: f576 ad3e f859 84c0 67e5 f9be 76f6 59be
00000220: e7f6 8abe 4b4f b5bf b9f2 8abe 0944 5ebe
00000230: 7cc1 ab3e b59c 563b a4b3 36be b6a1 1fbe
00000240: ffad 3abe d0bf 8dbe 6ec3 a13b de92 413d
00000250: 845a ef3d 5cc2 16be d8ee cf3d ccaf 7dbe
00000260: 516c b6bd ab1b febd 7c4f 203e 2a0d a8be
00000270: 1aab dd3e 0a43 ba3b 20de 153d c83f 2c3e
00000280: 67cb 2e3e 0262 be3c ebe6 f2be 0428 51be
00000290: 824f 90bd 4833 25be 8e8a 88be f5ff 9b3b
000002a0: 7bd6 ebbc ed49 843c fd9f e93c 1aaa 563d
000002b0: c345 633e 6ba3 bfbd de5d 50bc ccda bb3e
000002c0: d501 5f3e dc60 9e3d c086 9ab9 d71b ae3d
000002d0: fecb cbbf 983e 893d 3dff 69be f35b b4be
000002e0: be21 063e 1a60 943e c8b4 a2bd db0d 813d
000002f0: 7295 85be 5599 a63a 0964 bbbd c772 8cbe
00000300: d28e 3a3e 319a fdbe 815c 4bbe 72c8 f83e
00000310: ddf4 fb3d 09e8 b23d f072 39be 34d1 b4bd
00000320: 307e d1bb 16f3 56be e900 98bd 6655 84bd
00000330: 282c abbd c1ba 0f3d 6154 8dbe 8b44 c33d
00000340: fcd2 c1be 6844 cbbc 700c 8cbb b9e4 e1be
00000350: 1849 06bf 60f3 dbbd 8f66 c6bd b1e4 8f3e
00000360: 9177 023e 522b 35be 794c c9bd 53b0 103e
00000370: 5d44 3d3e 6c50 48bb 43ad 8bbe 6109 963e
00000380: aeeb 8ebe e2da 043f fff2 c4bd 373b b6be
00000390: 9c98 0f3e 5eb1 453f f542 b8be 4735 463e
000003a0: 8a74 613e be24 15c0 4e4e ecbe 9786 e5be
000003b0: 7665 feb9 f14c 8cbf e825 7bbe 0ce7 08be
000003c0: 74be 0fbd 96b1 a8be fbb8 42ba b020 aa3e
000003d0: 2a04 773e a595 983e 1323 4c3d 2933 dfbe
000003e0: 1f46 ad3e c9f9 cd3e 734a 8dbe e7f5 debe
000003f0: dc35 b9be b203 cabb 9f81 a6bd db02 00bf

dense2.bias f4 [10]
-0.08408222 -0.9579018 0.51881444 -0.07826469 0.96383095 0.01443685 -0.16319111 -0.3864873
0.53577733 -0.5148593
00000000: 4d33 acbd 0d39 75bf 06d1 043f 3d49 a0bd
00000010: a0bd 763f 8a88 6c3c 921b 27be aae1 c5be
00000020: b428 093f d2cd 03bf
