ResidualLoss/CNN-Train/CIFAR_17/epoch-1175.pt (torch, 27135 bytes, 10 tensors)

conv1.0.weight f4 [8, 3, 3, 3]
0	0xbe783895	-0.24240334
1	0xbda008b3	-0.07814159
2	0xbe75846a	-0.23976293
3	0xbec42cf2	-0.3831554
4	0xbe01ac1c	-0.12663311
5	0x3e917bfe	0.2841491
6	0x3eed4f35	0.46349493
7	0x3ea79fa8	0.32738996
8	0xbdb0f605	-0.086406745
9	0xbe767106	-0.24066553
10	0x3dd62234	0.104557425
11	0xbcdaec33	-0.026723957
12	0xbea30db1	-0.31846383
13	0x3d37c49c	0.044865236
14	0x3eadbe94	0.33934462
15	0x3e8d9522	0.27652842
16	0xbbbcf024	-0.0057659317
17	0xbebd68e0	-0.36994076
18	0x3dd15f5d	0.10223267
19	0x3dd3cfbe	0.10342358
20	0xbd5bbd60	-0.0536474
21	0xbe98bd4a	-0.29831916
22	0xbc919cbf	-0.017774938
23	0x3e69b2d1	0.2282212
24	0x3e6b1edb	0.22960989
25	0x3d94da8b	0.07268246
26	0xbeb27348	-0.34853578
27	0xbeb91635	-0.36149755
28	0x3e441d5e	0.19151828
29	0x3e271eb4	0.16320306
30	0x3e2ac4d1	0.16676642
31	0xbe6f0f9c	-0.23345798
32	0x3e34acd1	0.17644049
33	0x3ec002e2	0.375022
34	0xbdb7a8db	-0.089677535
35	0xbee06460	-0.4382658
36	0xbe6b84fb	-0.22999947
37	0x3daf4435	0.08557931
38	0x3e5c227c	0.2149753
39	0xbd4800c5	-0.04882886
40	0xbe964fdb	-0.293578
41	0x3e43af25	0.19109781
42	0x3e8b70d2	0.27234513
43	0xbe035db2	-0.1282871
44	0xbdffd1c3	-0.12491181
45	0xb9b5c6ac	-0.00034671032
46	0x3dada9de	0.08479665
47	0xbdcaa406	-0.09894566
48	0x3e0e972c	0.13924855
49	0xbecbad39	-0.39780596
50	0x3d839e9f	0.06426739
51	0x3f18a760	0.59630394
52	0xbd8df289	-0.069310255
53	0xbea7af8f	-0.32751128
54	0x3d32811e	0.043580167
55	0xbeb32b89	-0.34994152
56	0x3e0d2575	0.1378382
57	0xbec56d17	-0.3855979
58	0x3e002b74	0.12516576
59	0x3ebb1495	0.3653914
60	0xbdb3990a	-0.08769424
61	0x3eb4c04a	0.35302955
62	0xbdf3a75a	-0.11897154
63	0x3e8de888	0.2771647
64	0xbebcc08f	-0.3686566
65	0xbcc605fe	-0.02417278
66	0xbe34d613	-0.17659788
67	0xbdb24192	-0.08703913
68	0x3e6cf3d5	0.2313989
69	0xbe4d57ae	-0.20052978
70	0x3e282a4d	0.16422386
71	0xbd86460d	-0.0655633
72	0x3ad36181	0.0016127081
73	0xbe453179	-0.19257154
74	0x3e823fae	0.2543921
75	0xbee3bf7c	-0.44482028
76	0x3d3a6b32	0.045512386
77	0x3e5d0137	0.21582495
78	0xbe10c91e	-0.1413922
79	0x3e9e5de1	0.30931
80	0x3d3becbf	0.045880076
81	0x3da5b52c	0.080911964
82	0x3e466ea6	0.19378147
83	0x3dc83b94	0.097769886
84	0xbeb9e95e	-0.36310858
85	0xbe9a749f	-0.301671
86	0x3d8eb10c	0.06967363
87	0x3e0baef7	0.13640963
88	0x3d1cb23e	0.038255922
89	0x3eb11fe9	0.34594658
90	0x3d66113e	0.056168787
91	0x3ebccad4	0.36873496
92	0xbe10fdee	-0.14159366
93	0xbeb1aac7	-0.34700605
94	0x3d69e198	0.05709991
95	0xbd663ee0	-0.056212306
96	0xbda98f39	-0.08279271
97	0xbe37f723	-0.17965369
98	0xbc04412e	-0.008072181
99	0x3d14ff4a	0.036376275
100	0x3e51afde	0.20477244
101	0x3e8f213e	0.2795505
102	0xbeacc790	-0.33746004
103	0x3d414620	0.047186017
104	0x3e7bd534	0.2459305
105	0xbd714897	-0.058907118
106	0xbeb171f7	-0.3465726
107	0x3d655a8c	0.055994555
108	0x3ee7f8ef	0.4530711
109	0x3e2316ec	0.15926713
110	0x3f120432	0.5703765
111	0x3e22203e	0.15832612
112	0xbe8eb4f7	-0.2787244
113	0x3e76ec89	0.24113669
114	0xbde29b6b	-0.110648
115	0xbec4625e	-0.38356298
116	0xbeb112cb	-0.3458465
117	0xbef1f45e	-0.4725675
118	0xbe895c99	-0.2682846
119	0xbd588038	-0.052856654
120	0xbe66df9b	-0.22546236
121	0xbee16f6a	-0.44030315
122	0x3e04814d	0.1293995
123	0xbe2ab420	-0.16670275
124	0xbd7687b8	-0.060188025
125	0xbe7c2c29	-0.24626221
126	0xbe353acc	-0.1769821
127	0xbdf24dfa	-0.11831279
128	0xbe742c15	-0.23844941
129	0x3c9b90bd	0.018989915
130	0xbe185a7b	-0.14878266
131	0x3db5e1ca	0.088809565
132	0x3ec5f135	0.3866059
133	0x3dd51aac	0.10405478
134	0x3e19f073	0.1503313
135	0xbdf69a98	-0.12041205
136	0xbe5c58d1	-0.21518256
137	0x3d6e1eb4	0.05813475
138	0xbdef3413	-0.11679854
139	0xbf310b3e	-0.6915778
140	0xbf27de32	-0.6557342
141	0x3c843fb4	0.016143657
142	0xbcdc85cd	-0.02691927
143	0x3d56b733	0.052420806
144	0xbe0eb549	-0.13936342
145	0x3d7eaf21	0.062178735
146	0xbd361565	-0.044453997
147	0x3deefabe	0.11668919
148	0x3d4578d1	0.048210923
149	0xbdd996c0	-0.106244564
150	0x3d3d5866	0.04622688
151	0x3da114c8	0.07865292
152	0x3e67d06c	0.226381
153	0xba44f23f	-0.0007512904
154	0x3d986eba	0.074429944
155	0x3e161672	0.14657
156	0x3d917caa	0.07103856
157	0x3eb09c58	0.3449428
158	0x3f12ce6d	0.5734623
159	0x3d457842	0.04821039
160	0x3dfbfa80	0.123036385
161	0x3d6bd051	0.057571713
162	0x3d89f3fb	0.06735989
163	0x3f0e55aa	0.55599463
164	0x3ed9503c	0.42444026
165	0xbdb9e3f0	-0.09076679
166	0xbe828521	-0.25492194
167	0xbf015f75	-0.5053628
168	0x3d3ff334	0.046862796
169	0xbe12a0b7	-0.1431912
170	0xbc36d82e	-0.01115994
171	0xbe3a452e	-0.18190452
172	0x3e43fd05	0.19139488
173	0x3d4d46d1	0.050116364
174	0x3d024ee5	0.03181352
175	0x3dd8458d	0.10560141
176	0xbecd3f11	-0.40087178
177	0x3d2713c9	0.040790353
178	0xbe551d86	-0.20812044
179	0x3e895bc9	0.2682784
180	0xbe7071f9	-0.23480977
181	0x3e8a444a	0.27005225
182	0xbdae2cf4	-0.08504668
183	0x3e3953d2	0.18098381
184	0xbd69cff5	-0.05708309
185	0xbde81482	-0.113320366
186	0x3da0114e	0.078158006
187	0xbded0a9e	-0.11574291
188	0x3ddfaadc	0.10921261
189	0x3da32336	0.079657
190	0x3e18ea26	0.1493307
191	0xbd5345b9	-0.051580165
192	0xbe5e23c3	-0.2169333
193	0x3e1bcb4d	0.15214272
194	0xbdc72d56	-0.09725444
195	0xbe13b43c	-0.14424223
196	0x3ec989cc	0.39362943
197	0xbead50a4	-0.33850586
198	0xbdf217c2	-0.11820938
199	0x3e526a66	0.205484
200	0xbe187650	-0.14888883
201	0xbe818a19	-0.25300673
202	0x3ed6eb03	0.41976175
203	0xbe237f06	-0.15966424
204	0xbe747c4f	-0.23875545
205	0x3f060a35	0.52359325
206	0xbe581dc8	-0.2110511
207	0x3bd85223	0.0066015883
208	0x3d7348fe	0.059395783
209	0x3d3bc1e0	0.04583919
210	0xbe00560c	-0.12532824
211	0x3e32bb8d	0.17454357
212	0xbe453c00	-0.1926117
213	0xbe68cebd	-0.22735114
214	0x3eab85ba	0.33500463
215	0xbddd1888	-0.107956946

conv1.0.bias f4 [8]
0	0x3ed0dcaf	0.40793368
1	0x3dc314c5	0.09525446
2	0x3d99de46	0.075130984
3	0x3ce75fb1	0.028243871
4	0x3ea1ef9a	0.31628114
5	0x3f1cde99	0.6127716
6	0xbd8e0e87	-0.069363646
7	0x3e26a5b7	0.16274153

conv2.0.weight f4 [8, 8, 3, 3]
0	0x3dfc2e49	0.12313516
1	0x3e44198f	0.19150375
2	0x3d286823	0.041114938
3	0x3de106cb	0.10987624
4	0x3ea2d647	0.31804106
5	0x3daae4f1	0.08344448
6	0x3d6d6342	0.057955988
7	0xbc7dc182	-0.01548803
8	0x3e8ee6bb	0.27910408
9	0x3ddb0f6b	0.106963
10	0xbd25f4b8	-0.040516585
11	0x3e8f065e	0.27934545
12	0x3d62d04b	0.055374425
13	0xb91fb5e9	-0.00015231188
14	0x3d7d7795	0.06188162
15	0x3e2d4bb1	0.16923405
16	0x3e6d3d16	0.23167834
17	0x3cc76df9	0.024344431
18	0xbc3a5192	-0.011371987
19	0xbd6eb53f	-0.05827832
20	0xbc7aedd1	-0.015315489
21	0xbe6addb1	-0.22936131
22	0xbe759503	-0.23982625
23	0xbd8637a6	-0.06553583
24	0xbd853f40	-0.065062046
25	0xbe4c0886	-0.19925126
26	0xbc5cb691	-0.013471262
27	0xbd04cfa5	-0.032424588
28	0x3df0d0f8	0.117586076
29	0x3dcc7528	0.09983283
30	0x3e3d939c	0.1851334
31	0xbd8995f6	-0.06718056
32	0x3d01b7e6	0.03166952
33	0x3e12bbfb	0.14329521
34	0x3e3e2f84	0.18572813
35	0xbe88a2bf	-0.26686665
36	0x3daf049d	0.08545802
37	0xbb0f2d4a	-0.0021847063
38	0xbd774545	-0.060368795
39	0xbdae89a2	-0.08522345
40	0x3ce6be3a	0.028166879
41	0x3c5d7976	0.013517728
42	0x3e8a6b81	0.27035144
43	0xbd879e87	-0.066220336
44	0xbe88109d	-0.26575175
45	0xbe878917	-0.2647178
46	0xbd468952	-0.048470803
47	0x3e880c5e	0.26571935
48	0x3e9545a7	0.29154703
49	0xbe02867a	-0.12746611
50	0xbe8fc511	-0.28080037
51	0x3d72571f	0.059165116
52	0x3d2cd684	0.042196766
53	0x3dff6df2	0.12472142
54	0xbd149e58	-0.03628382
55	0x3d8691dd	0.0657079
56	0x3d821bbe	0.06352948
57	0x3dac1e71	0.08404244
58	0x3dc2aca2	0.09505583
59	0x3cf0c50f	0.02939084
60	0x3e0740e9	0.13208355
61	0xbf028c42	-0.50995266
62	0x3e8def1e	0.27721494
63	0xbe201fac	-0.15637082
64	0xbf000b3a	-0.5001713
65	0xbe9a8e34	-0.30186617
66	0xbe9ae4ce	-0.3025269
67	0xbf147207	-0.5798649
68	0xbf0ad72f	-0.54234594
69	0x3e8b0d96	0.27158803
70	0x3da0af8e	0.078459844
71	0x3d0deb8f	0.034648474
72	0xbda69176	-0.08133213
73	0x3d23cfef	0.039993223
74	0x3e556f69	0.20843281
75	0xbc210f92	-0.009830372
76	0x3e99f3b3	0.3006874
77	0xbe0c249f	-0.13685845
78	0x3e5ca1fd	0.21546169
79	0xbdc9a0d1	-0.098451264
80	0x3d6a0036	0.057129107
81	0x3ec0cd33	0.37656555
82	0xbea79eb1	-0.3273826
83	0x3ddde0b0	0.10833871
84	0xbeab7e3e	-0.33494753
85	0x3e036369	0.1283089
86	0x3d91af41	0.07113505
87	0x3ba5e482	0.0050626406
88	0x3e18f89b	0.14938585
89	0x3d3a796a	0.045525946
90	0x3e85e715	0.26152864
91	0x3ee88ef4	0.45421565
92	0x3e78369c	0.24239582
93	0x3ef44285	0.47707
94	0x3e70d3c8	0.23518288
95	0x3e3391cf	0.1753609
96	0x3e4852e5	0.19562872
97	0x3e00151a	0.1250805
98	0x3e9957da	0.29949838
99	0xbe856edf	-0.2606115
100	0xbd2d59b0	-0.04232186
101	0xbd8f3cd7	-0.06994026
102	0xbd25d342	-0.040484674
103	0xbe5991b1	-0.21246983
104	0xbecc4195	-0.39893785
105	0xbe0b555c	-0.13606781
106	0xbe8697f2	-0.262878
107	0xbe583b44	-0.21116358
108	0xbe8a3b34	-0.26998293
109	0x3dc7ed41	0.097620495
110	0xbdb46070	-0.088074565
111	0x3de9f139	0.11422963
112	0xbdb548dd	-0.08851788
113	0x3c759706	0.01498962
114	0x3cb86503	0.022509104
115	0xbc78caae	-0.015185041
116	0x3e79065b	0.2431883
117	0xbe728182	-0.23682216
118	0x3e06a8f6	0.13150391
119	0xbd8cdfd5	-0.0687863
120	0xbbcdedd6	-0.006284456
121	0xbe10e195	-0.14148553
122	0x3dc06e6a	0.0939606
123	0xbe2e8938	-0.17044532
124	0xbdeb26cc	-0.11482009
125	0x3e552106	0.20813379
126	0x3f33bf8e	0.70214164
127	0x3d7d8ffe	0.0619049
128	0xbde8317e	-0.11337565
129	0x3eae6b59	0.34066275
130	0xbd56e243	-0.052461874
131	0x3e4c8be6	0.19975242
132	0xbdf22a38	-0.11824459
133	0x3f054e8b	0.5207297
134	0x3d9fdae2	0.078054205
135	0x3e5e5182	0.2171078
136	0x3e3d5ab0	0.18491626
137	0x3cca6fa4	0.024711438
138	0xbbe13937	-0.0068732756
139	0x3def7844	0.11692861
140	0x3b93407c	0.004493771
141	0xbe561c28	-0.20909178
142	0xbf058c46	-0.52167165
143	0xbd94bff8	-0.07263178
144	0xbdd4c47a	-0.103890374
145	0xbcf89237	-0.030343158
146	0xbd8fc24f	-0.07019483
147	0x3dbe0620	0.09278512
148	0xbe092064	-0.13391262
149	0xbda706c7	-0.081555896
150	0x3e0c1eee	0.13683674
151	0xbe0b1b8e	-0.1358473
152	0xbea34d1d	-0.3189477
153	0xbe210897	-0.15725933
154	0xbead6221	-0.3386393
155	0xbccf9c1b	-0.025342992
156	0xbeece162	-0.46265703
157	0xbde191e6	-0.11014156
158	0x3e79c6fe	0.24392316
159	0xbe85c284	-0.26124966
160	0xbd920bff	-0.07131194
161	0x3e7e8c9a	0.24858323
162	0x3e0ad36f	0.13557218
163	0x3e1bf15a	0.15228787
164	0x3e70abc8	0.2350303
165	0x3dd890d8	0.10574502
166	0x3e61d72e	0.22054741
167	0x3d9bedbf	0.07613706
168	0x3e1bec04	0.15226752
169	0xbd3cd490	-0.046101153
170	0x3df2541d	0.118324496
171	0xbda635e2	-0.08115746
172	0x3e2f96ae	0.17147323
173	0xbcf9d1b9	-0.030495511
174	0x3d9e579a	0.077315524
175	0x3e0858f9	0.1331519
176	0xbe0ddc0a	-0.1385347
177	0xbd0abd52	-0.033871956
178	0x3d97549f	0.07389187
179	0xbe0e6a5e	-0.13907763
180	0x3d8e4115	0.06946007
181	0x3e7f48a2	0.24930051
182	0xbdd31c4b	-0.10308131
183	0x3d922143	0.071352504
184	0xbcdc5774	-0.02689717
185	0xbc9ea014	-0.01936344
186	0xbb4e873d	-0.0031513714
187	0x3df60d8f	0.12014305
188	0x3cdea895	0.027179996
189	0xbe40c57d	-0.18825336
190	0x3ea93c84	0.33053982
191	0xbe23219a	-0.15930787
192	0x3d1851a7	0.037187245
193	0x3f07c843	0.5303995
194	0xbc0c2f7c	-0.008556243
195	0x3e9d9b62	0.3078261
196	0x3e8e88db	0.27838787
197	0xbee4b7a9	-0.44671372
198	0xbe5400b4	-0.20703393
199	0xbe67a116	-0.22620043
200	0xbe5eb385	-0.21748169
201	0xbd8efde3	-0.06982019
202	0xbe0434c5	-0.12910755
203	0xbd929ddf	-0.07159018
204	0xbed6f7a8	-0.41985822
205	0x3d9463c9	0.07245595
206	0xbe825b0b	-0.25460085
207	0xbd940bcf	-0.07228815
208	0x3df37c31	0.11888922
209	0x3d6e175d	0.05812775
210	0xbe04fc40	-0.1298685
211	0xbd71b25d	-0.05900799
212	0x3d3b373b	0.04570697
213	0x3d7ac6d7	0.061224785
214	0x3e26d659	0.16292705
215	0xbd9ef78d	-0.0776206
216	0x3e0f7ae3	0.14011721
217	0x3da36c8c	0.07979688
218	0x3dc8dce9	0.0980776
219	0x3e24e5e0	0.16103315
220	0x3e16a54c	0.14711493
221	0x3e231e75	0.15929587
222	0xbcf674b7	-0.03008495
223	0xb9a4b301	-0.00031413886
224	0xbbd0fc8f	-0.0063777636
225	0x3cc2d4f4	0.023783185
226	0xbe090ac2	-0.1338301
227	0xbcafaef7	-0.021445734
228	0xbe880b2f	-0.26571032
229	0xbec7f2d0	-0.3905244
230	0x3d7314b7	0.059345927
231	0xbe4cd835	-0.20004351
232	0xbefba5c7	-0.49149916
233	0xbe489d3e	-0.19591233
234	0x3d534d33	0.051587295
235	0xbc89dc6e	-0.016828742
236	0xbdab8df7	-0.08376687
237	0xbd90e76c	-0.0707539
238	0xbd92d256	-0.07169025
239	0x3d9dd319	0.07706279
240	0xbe90099a	-0.28132325
241	0xbed357da	-0.41277963
242	0xbd5bc051	-0.053650204
243	0x3e85a8e4	0.26105416
244	0x3e8d9fb0	0.27660894
245	0x3e771138	0.24127662
246	0x3e89ed67	0.26938936
247	0x3da65a24	0.08122662
248	0x3caf06e6	0.021365594
249	0x3a78b18c	0.0009486906
250	0x3df10997	0.11769407
251	0x3dd28844	0.10279897
252	0xbe23d2eb	-0.15998428
253	0xbe1aaf78	-0.15105999
254	0x3d0f3289	0.034960303
255	0xbdb014b1	-0.085976966

conv2.0.bias f4 [8]
0	0x3ed09f16	0.40746373
1	0x3ddb0d15	0.106958546
2	0x3e941944	0.28925526
3	0xbd091e09	-0.03347591
4	0x3f72fff0	0.9492178
5	0x3ee276c2	0.4423123
6	0x3cf9f8a4	0.030514069
7	0xbe74221b	-0.23841135

conv3.0.weight f4 [8, 8, 3, 3]
0	0xbe0511a1	-0.12995006
1	0x3def4fca	0.116851404
2	0x3e981c89	0.2970927
3	0x3d89b1df	0.06723379
4	0xbe992ee9	-0.29918602
5	0x3e28d5d8	0.16487825
6	0xbe378d60	-0.17925024
7	0xbe807c71	-0.2509494
8	0x3e701fb0	0.23449588
9	0x3e8c3267	0.27382204
10	0x3dc9e62a	0.098583534
11	0x3c9978db	0.018734386
12	0x3eaad4e2	0.33365542
13	0x3ea71876	0.3263585
14	0x3dfb3b71	0.12267197
15	0x3d22fa6d	0.039789606
16	0x3ddb0106	0.106935546
17	0x3e0524b4	0.13002282
18	0x3da0851f	0.07837891
19	0x3e413dd3	0.1887124
20	0x3e9f4a92	0.3111158
21	0xbd70fe1f	-0.0588361
22	0xbdd46b99	-0.10372085
23	0xbe19314a	-0.14960209
24	0x3d81af90	0.06332314
25	0xbe21c67e	-0.15798375
26	0xbe0a5a04	-0.135109
27	0x3ec7b9a4	0.3900882
28	0x3eaee4e5	0.34159008
29	0x3e02d0bd	0.1277494
30	0x3ea4e44f	0.32205436
31	0x3ea31457	0.31851456
32	0x3ca331e2	0.019921247
33	0x3f0ddd5d	0.554159
34	0x3e917463	0.2840911
35	0x3d3dd1c6	0.046342634
36	0xbdcea015	-0.10089127
37	0xbdbb1863	-0.09135511
38	0xbe9daadd	-0.3079442
39	0xbd88d701	-0.06681634
40	0xbcd047d6	-0.025424879
41	0xbe4f82aa	-0.20264688
42	0xbe7dbaf8	-0.24778354
43	0xbda6d8c0	-0.081468105
44	0x3db40da7	0.087916665
45	0xbd9f4998	-0.07777709
46	0xbea51247	-0.32240507
47	0xbe878d97	-0.26475212
48	0xbed8339b	-0.42226872
49	0xbe9cb179	-0.3060415
50	0xbebad5e2	-0.36491305
51	0xbe725121	-0.2366376
52	0xbe7f4d4d	-0.24931832
53	0xbd69df22	-0.05709756
54	0xbe01172a	-0.12606493
55	0xbe23a526	-0.15980968
56	0x3cbbe52c	0.022936426
57	0xbd303d0e	-0.043026976
58	0x3db01912	0.08598532
59	0x3df80632	0.12110557
60	0x3e24fdbf	0.16112421
61	0x399d9ad3	0.00030060727
62	0x3d0250a9	0.031815205
63	0x3d1f5cf0	0.03890699
64	0xbdaca18c	-0.0842925
65	0x3c5fd780	0.013662219
66	0xbe108f5a	-0.14117184
67	0x3c4b575b	0.012410964
68	0xbbd04265	-0.006355571
69	0x3e0e5bda	0.13902226
70	0xbcd479b4	-0.025936939
71	0xbd2e7c12	-0.04259879
72	0x3e0e92f0	0.1392324
73	0xbeaa409e	-0.33252424
74	0xbd110e35	-0.03541394
75	0x3efc640b	0.49295077
76	0x3e9ef388	0.31045175
77	0x3de02e71	0.10946358
78	0x3eadeb18	0.33968425
79	0x3dfaadb3	0.12240162
80	0xbd5db4de	-0.054127567
81	0x3d4b64e9	0.049656782
82	0x3c8d0c04	0.017217644
83	0x3dcfa812	0.10139479
84	0xbd82d16f	-0.063876025
85	0xbc568449	-0.013093063
86	0x3cf83ee8	0.030303434
87	0x3d1d29d4	0.03836997
88	0xbf0fdfec	-0.5620105
89	0x3d843af4	0.06456557
90	0xbe01556f	-0.12630247
91	0xbcf73419	-0.03017621
92	0xbd3f1565	-0.046651263
93	0x3dcf43b4	0.10120335
94	0xbe04fba6	-0.12986621
95	0x3d471538	0.04860422
96	0x3d8f6eef	0.07003581
97	0xbe0efae6	-0.13962898
98	0xbd452ecd	-0.048140336
99	0x3e126e90	0.14299989
100	0x3e182b6f	0.14860319
101	0x3c39ba5b	0.0113359345
102	0x3e8eb66e	0.27873558
103	0x3e811780	0.25213242
104	0xbc9851ee	-0.018593755
105	0x3db81f92	0.089903966
106	0x3e049e5b	0.12951033
107	0x3d1fbb19	0.03899679
108	0xbe661b8f	-0.2247145
109	0xbdf1ed4a	-0.118128374
110	0xbe12ed1e	-0.14348266
111	0xbefe0b08	-0.4961779
112	0xbeb3fcbe	-0.35153764
113	0x3dfdaaec	0.123861164
114	0x3d2f7b02	0.04284192
115	0xbe93da50	-0.28877497
116	0x3e603d36	0.2189835
117	0x3e31c249	0.1735927
118	0x3e4db812	0.20089749
119	0x3e323496	0.17402872
120	0x3e647eb0	0.22313952
121	0x3c806cf0	0.015676945
122	0xbc91b4f5	-0.017786482
123	0x3f32bcbd	0.6981924
124	0xbe8bd924	-0.27314103
125	0xbcd4ec6d	-0.025991643
126	0x3df60685	0.12012962
127	0x3e10a970	0.14127135
128	0x3ca43edb	0.020049503
129	0xbe897d6c	-0.26853502
130	0xbe5bdaaf	-0.2147014
131	0xbe073704	-0.1320458
132	0xbe859383	-0.26089105
133	0xbdb35ee2	-0.08758332
134	0x3eaa7bed	0.33297673
135	0x3e06dd8e	0.13170454
136	0x3d86baa6	0.06578569
137	0x3d342b3f	0.043986555
138	0x3d3ba0e7	0.045807745
139	0xbe249780	-0.16073418
140	0xbdae2e92	-0.08504976
141	0x3d883737	0.066511564
142	0xbd653503	-0.05595876
143	0x3d04f686	0.032461666
144	0x3e434cbf	0.19072245
145	0x3d2b4eb5	0.041823108
146	0xbd7564f0	-0.059910715
147	0x3dc1b913	0.09459128
148	0xbdb3f3fe	-0.08786772
149	0xbd3387e1	-0.043830756
150	0xbd12087f	-0.035652634
151	0xbcc6636e	-0.024217334
152	0x3d9718d5	0.07377783
153	0x3e2860b2	0.16443136
154	0x3eb3840c	0.3506168
155	0x3e5afb0a	0.21384826
156	0x3e45d396	0.19318995
157	0x3e88ca21	0.26716712
158	0x3e0cadb2	0.13738135
159	0x3e260820	0.16214037
160	0x3dd09553	0.10184731
161	0x3da868be	0.08223103
162	0xbe4b312c	-0.19842976
163	0xbd50c10b	-0.05096535
164	0xbc6e4d73	-0.0145448325
165	0x3d8143a1	0.06311727
166	0xbd867eb3	-0.06567135
167	0xbcca86fc	-0.024722569
168	0xbe8485bf	-0.2588329
169	0xbd8d966a	-0.06913455
170	0x3cf6cfe6	0.03012843
171	0x3d2e3d42	0.04253889
172	0x3db76043	0.08953907
173	0xbe0932b1	-0.13398243
174	0x3d845447	0.06461387
175	0xbe442698	-0.19155347
176	0xbe9383e2	-0.28811556
177	0xbd873b28	-0.0660308
178	0xbe14c054	-0.14526492
179	0xbe0a8a32	-0.1352928
180	0x3e8550c7	0.2603819
181	0x3d0033dc	0.031299457
182	0x3e21d107	0.15802394
183	0x3bc9a78c	0.0061540063
184	0x3c2ecaea	0.010668496
185	0xbdf44db1	-0.11928881
186	0x3e945227	0.28968927
187	0x3d4ced1c	0.050030813
188	0x3dbd7d57	0.09252422
189	0x3ea0120c	0.3126377
190	0x3e54bf4d	0.207761
191	0x3ddf9f59	0.10919065
192	0x3dd2fd20	0.10302186
193	0x3ea4a963	0.32160482
194	0x3c841b96	0.016126435
195	0x3e9c1110	0.30481768
196	0xbdb68134	-0.08911362
197	0xbce3d6c0	-0.027812362
198	0x3d27f239	0.041002486
199	0x3d82e86d	0.06391988
200	0x3d5c1a90	0.05373627
201	0xbd6146cb	-0.054999154
202	0x3de34f64	0.11099127
203	0xbc8473be	-0.016168471
204	0x3e094f73	0.13409214
205	0x3d4315b8	0.047628134
206	0x3d65f5ee	0.05614274
207	0xbbf4cb04	-0.0074704904
208	0xbd6e1448	-0.05812481
209	0xbe45bb48	-0.19309723
210	0xbc0c50f6	-0.0085642245
211	0xbdf5d69f	-0.12003826
212	0xbe489399	-0.19587554
213	0xbbb257ae	-0.005442581
214	0xbd9f0bf5	-0.077659525
215	0x3b04a8c0	0.0020242184
216	0x3e4e80cf	0.20166324
217	0x3e296579	0.16542615
218	0x3d617dbe	0.055051558
219	0x3ee6f0a1	0.4510546
220	0x3e96685e	0.293765
221	0x3f0e8304	0.55668664
222	0x3f2d9b66	0.67815244
223	0x3ed8adc5	0.42320076
224	0x3efec905	0.4976274
225	0x3deaa2e0	0.11456847
226	0x3e021a0b	0.12705247
227	0x3d7c570e	0.06160646
228	0xbe5853be	-0.21125695
229	0xbe319dc1	-0.17345335
230	0xbdc40349	-0.09570939
231	0x3c513611	0.012769238
232	0xbe3b5cb4	-0.18297082
233	0xbe31540d	-0.17317219
234	0xbefaddba	-0.4899729
235	0xbe9b6a2e	-0.30354446
236	0x3dfdce1d	0.123928286
237	0xbebdd936	-0.3707978
238	0xbf0cad41	-0.54951864
239	0xbe1cd9f0	-0.15317512
240	0xbd01ca3b	-0.031687003
241	0xbe4d9675	-0.20076926
242	0xbe51aa09	-0.2047502
243	0xbd901248	-0.07034737
244	0x3d658ea1	0.056044225
245	0x3d15e26f	0.036592897
246	0x3e022166	0.12708053
247	0x3dddbca3	0.10826995
248	0x3e01049b	0.12599413
249	0xbdf3f6cc	-0.11912307
250	0x3e14cc93	0.14531164
251	0xbdeeefc5	-0.11666826
252	0x3eeb881f	0.4600229
253	0x3db02a36	0.08601801
254	0xbe849b30	-0.2589965
255	0x3e7c27c3	0.24624543

conv3.0.bias f4 [8]
0	0x3d5d6f8a	0.05406145
1	0x3f17a3dc	0.59234405
2	0x3f1a06c7	0.6016659
3	0xbccc6d90	-0.024954587
4	0xbc8cae25	-0.017172882
5	0x3ce8eaf0	0.02843234
6	0xbeba3e3e	-0.36375612
7	0xbed6179f	-0.41814896

dense1.0.weight f4 [32, 128]
0	0xbe040993	-0.12894277
1	0x3cf3512c	0.029701792
2	0x3c8cb612	0.017176662
3	0x3e3cf651	0.18453337
4	0x3e09a0bb	0.1344022
5	0xbdff3dc1	-0.124629505
6	0xbc6663de	-0.014061896
7	0x3cb3ed54	0.021963753
8	0x3c5a2c62	0.013316246
9	0x3cd1b838	0.025600538
10	0x3e1b047f	0.15138434
11	0xbdc0b5bb	-0.09409662
12	0x3d817440	0.06321001
13	0x3e0468ba	0.12930575
14	0x3e525aa8	0.20542395
15	0xbbb63241	-0.00556019
16	0x3d24c820	0.040229917
17	0xbca28c16	-0.019842189
18	0xbc04fae8	-0.008116461
19	0xbd8488e3	-0.064714216
20	0x3dab2958	0.08357495
21	0xbeb1c251	-0.34718564
22	0xbdaf6b79	-0.08565421
23	0x3d9e3357	0.07724636
24	0x3de756a7	0.112958245
25	0xbd28fe50	-0.041258156
26	0xbdf55bb9	-0.11980385
27	0xbdf26c95	-0.11837117
28	0xbe3667fa	-0.17813101
29	0x3e93fdaa	0.28904468
30	0x3e6a952b	0.22908466
31	0x3c7f44df	0.015580385
32	0xbd76ef0d	-0.06028657
33	0xbcfdf9a7	-0.031002833
34	0xbd503acc	-0.050837323
35	0x3dd28072	0.10278405
36	0xbc61f774	-0.013791908
37	0xbcb45d67	-0.022017194
38	0x3d088c83	0.033337127
39	0x3c0c2168	0.008552887
40	0x3cd0416e	0.025421824
41	0x3daa89f8	0.08327097
42	0x3d75ce20	0.06001103
43	0x3e4eae8f	0.20183776
44	0xbd469351	-0.048480336
45	0x3e135db3	0.14391212
46	0x3e924020	0.28564548
47	0xbe19cddf	-0.1501994
48	0x3e28adda	0.16472569
49	0xbd2914d8	-0.041279644
50	0xbe38b65f	-0.18038319
51	0x3df24d77	0.118311815
52	0xbd29fe3e	-0.04150223
53	0xbe127e94	-0.14306098
54	0xbd1f61b0	-0.03891152
55	0xbe528dc5	-0.20561893
56	0xbe677bdf	-0.22605847
57	0xbe20c98b	-0.15701883
58	0xbcb29920	-0.021801531
59	0x3dd49e67	0.10381775
60	0x3e634088	0.22192585
61	0xbc94dccc	-0.01817169
62	0xbd8395eb	-0.06425079
63	0xbe04de95	-0.12975533
64	0xbd93511e	-0.07193206
65	0xbe4d00fb	-0.20019905
66	0x3c9b7f3a	0.018981565
67	0x3dbb8002	0.09155275
68	0x3d895748	0.06706101
69	0x3e2e1034	0.16998369
70	0x3e0d3da1	0.13793041
71	0x3d0a317a	0.03373859
72	0xbdef0416	-0.11670701
73	0xbde667ea	-0.11250289
74	0xbe5311ef	-0.2061231
75	0xbe158d97	-0.14604793
76	0x3da8fca3	0.08251312
77	0xbe7aadb8	-0.24480331
78	0x3c3580d1	0.0110780755
79	0x3e8ba28d	0.27272454
80	0xbd9ac369	-0.07556803
81	0x3debe46b	0.11518177
82	0xbe2418df	-0.16025113
83	0xbd3d13fe	-0.046161644
84	0xbdc5efff	-0.09664916
85	0xbcc7dc9c	-0.024397187
86	0xbd14f26e	-0.03636401
87	0x3d40b0da	0.04704366
88	0x3e282099	0.16418685
89	0x3df823b4	0.12116185
90	0xbc0f179d	-0.008733657
91	0xbe26b28b	-0.16279046
92	0x3e822b84	0.25423825
93	0x3e8037c3	0.25042543
94	0xbd154c91	-0.036449973
95	0xbddaf1d9	-0.1069066
96	0x3e55768e	0.20846006
97	0x3e013547	0.1261798
98	0xbe49eb0d	-0.19718571
99	0x3d741a29	0.05959526
100	0xbd82366a	-0.06358035
101	0x3d262553	0.04056294
102	0xbdddf59a	-0.108378604
103	0xbde06a4f	-0.10957777
104	0xbd00d19b	-0.031449895
105	0x3d860989	0.065447874
106	0x3e047f42	0.1293917
107	0xbdaa1d79	-0.08306403
108	0xbe06838f	-0.13136123
109	0xbe29b3e9	-0.16572537
110	0x3ddf6c40	0.10909319
111	0xbcd33a36	-0.025784593
112	0xbc9ccfb1	-0.019142004
113	0x3dcc3e6e	0.09972845
114	0xbcf3b27b	-0.029748192
115	0xbe220785	-0.15823181
116	0xbe0a31ae	-0.13495514
117	0xbd24bf39	-0.040221427
118	0x3e0c9a9c	0.13730854
119	0x3dcad1e4	0.09903315
120	0xbc998cd9	-0.01874392
121	0xbd91d2ee	-0.0712031
122	0x3dda3ebf	0.10656499
123	0xbd8ece78	-0.069729745
124	0x3cc52266	0.024064254
125	0xbd8ec3ab	-0.069709145
126	0x3d9176ad	0.07102714
127	0xbcbbf9b5	-0.022946218
128	0x3e08580e	0.1331484
129	0x3d19bc04	0.03753282
130	0x3bc48263	0.0059969886
131	0x3d917de0	0.07104087
132	0x3e02842c	0.12745732
133	0xbec7032f	-0.38869616
134	0xbd9a5346	-0.075354144
135	0x3d99631d	0.074896075
136	0x3e7a0420	0.24415636
137	0xbddfa03f	-0.109192364
138	0xbde7d93f	-0.11320733
139	0x3d812084	0.0630503
140	0x3e10eb51	0.14152266
141	0xbd9dd1b9	-0.07706017
142	0x3d81c47b	0.06336304
143	0x3e14ce67	0.14531861
144	0x3d154a43	0.036447775
145	0x3d948f84	0.07253936
146	0xbc9f52e4	-0.019448705
147	0x3e0cd94d	0.13754769
148	0x3d9bbb3f	0.07604074
149	0xbe02bba8	-0.12766898
150	0xbe25faa3	-0.16208892
151	0xbcc4f7ee	-0.024044003
152	0xbe21d25d	-0.15802903
153	0xbee7541a	-0.45181352
154	0xbeb7af23	-0.35875806
155	0xbe83fbd2	-0.2577806
156	0xbc3454e7	-0.01100657
157	0x3d9ae6f5	0.07563583
158	0x3bad21ff	0.0052835937
159	0x3d952623	0.072826646
160	0x3d5625a8	0.052282006
161	0x3d79375f	0.06084382
162	0x3cba3cbb	0.022734037
163	0x3d5a7bc2	0.05334068
164	0xbd8ed2af	-0.069737785
165	0x3de35055	0.110993065
166	0x3d56783a	0.05236075
167	0x3df435bf	0.11924314
168	0xbddb11cc	-0.10696754
169	0xbd3fd8ff	-0.046837803
170	0x3dd144ee	0.102182254
171	0xbd75dee2	-0.06002701
172	0x3c24938b	0.010044943
173	0xbd877a94	-0.06615177
174	0x3e03c61c	0.12868541
175	0x3c9e988c	0.01935985
176	0xbdb7fadb	-0.08983394
177	0xbcc40b16	-0.023931067
178	0x3ddc3ba1	0.10753561
179	0xbd488749	-0.048957143
180	0x3d4285d0	0.047490895
181	0xbd43e07f	-0.047821518
182	0x3e22d3a9	0.15901054
183	0xbe5935c9	-0.21211924
184	0xbdf25ec6	-0.11834483
185	0xbcd25584	-0.025675543
186	0x3e573f85	0.21020325
187	0xbd9481ff	-0.07251357
188	0x3d895ff9	0.067077585
189	0xbc5da2a4	-0.013527546
190	0x3df0372f	0.117292754
191	0x3e59c891	0.21267916
192	0x3c27783c	0.010221537
193	0x3d91fd46	0.07128386
194	0xbdc63ae2	-0.096792
195	0x3ceecf6f	0.029151646
196	0x3dbd3102	0.09237863
197	0xbdb889c9	-0.090106554
198	0xbe5440c8	-0.20727837
199	0xbd9a7469	-0.07541735
200	0x3e25c9eb	0.16190307
201	0xbdcda45a	-0.10041113
202	0xbd2eb1a8	-0.042649895
203	0xbc8a0966	-0.016850185
204	0xb9659e39	-0.00021898084
205	0xbd4dd726	-0.05025401
206	0x3d2a89c9	0.04163531
207	0xbe23279b	-0.15933077
208	0x3dbbb460	0.09165263
209	0x3ccf4c1a	0.025304843
210	0xbd39a93f	-0.04532742
211	0xbcf051df	-0.029335914
212	0x3db5b9ad	0.088733055
213	0x3cbe67a3	0.023242777
214	0x3c9e37a2	0.019313637
215	0xbc6d6332	-0.014488982
216	0xbe2bde2f	-0.16783975
217	0x3d2e6a7d	0.042582024
218	0xbb5d94af	-0.0033810546
219	0xb81fd45f	-3.810634e-05
220	0xbe955028	-0.29162717
221	0x3c5a1ec7	0.013313002
222	0xba6374a1	-0.0008676742
223	0x3c000efd	0.0078160735
224	0x3d27fcf1	0.041012708
225	0xbe196921	-0.1498151
226	0xbd9e71cf	-0.07736551
227	0x3d4da81a	0.050209142
228	0xbd3af2fb	-0.04564188
229	0xbcd872cb	-0.026421925
230	0x3dcac581	0.09900952
231	0xbde6ca49	-0.112690516
232	0xbb8de696	-0.0043304665
233	0xbdf75db8	-0.12078422
234	0x3db1a51f	0.086740725
235	0x3d96a584	0.07355788
236	0x3c041137	0.008060745
237	0x3d94167a	0.072308496
238	0xbe577545	-0.21040829
239	0xbb86a82e	-0.004109404
240	0x3e1f8f26	0.1558195
241	0x3e0121ba	0.12610522
242	0xbd008864	-0.031380072
243	0x3d176431	0.036960784
244	0xbcbfd1f2	-0.02341554
245	0xbdff6aba	-0.12471528
246	0xbd213710	-0.039359152
247	0x3d850daf	0.064967506
248	0x3db23e78	0.08703321
249	0xbd93d19f	-0.072177164
250	0xbd258724	-0.040412083
251	0xbdb12d7c	-0.086512536
252	0x3dd29b0d	0.1028348
253	0x3cd83af7	0.026395304
254	0x3e5526a2	0.20815518
255	0x3d1e591b	0.038659196

dense1.0.bias f4 [32]
0	0xbeb125b5	-0.3459908
1	0xbedfdd30	-0.4372344
2	0x3f124239	0.571323
3	0x3eac6808	0.3367312
4	0xbeecf1d7	-0.4627826
5	0x3f8ac4c5	1.0841299
6	0x3eec061b	0.46098408
7	0xbf16337a	-0.58672297
8	0x3ec885a1	0.3916445
9	0x3e8a6ce1	0.27036193
10	0x3ebddff7	0.37084934
11	0xbf3f601c	-0.74756026
12	0x3eb39cd4	0.35080588
13	0xbf379af2	-0.717208
14	0xbf616df6	-0.8805841
15	0x3ef2337c	0.47304904
16	0xbd8bb28b	-0.06821164
17	0x00032127	2.874e-40
18	0x3ea04bda	0.3130787
19	0x3e87e52f	0.2654204
20	0x3f00a463	0.50250834
21	0xbd7b48ca	-0.061348714
22	0xbf3ac8ac	-0.7296245
23	0x3ee5b047	0.4486105
24	0x3e62ac46	0.2213603
25	0xa180f788	-8.739138e-19
26	0xbf291e12	-0.6606151
27	0xbb53f103	-0.00323397
28	0x3fe21b5e	1.7664602
29	0x3efc3939	0.49262407
30	0xbe191301	-0.14948656
31	0x3effbac5	0.4994718

dense2.weight f4 [10, 32]
0	0xbc9b61de	-0.018967565
1	0x3e57b4be	0.21065041
2	0xbeef491c	-0.46735466
3	0xbec5011c	-0.3847741
4	0x3ea8a963	0.32941732
5	0xbea06274	-0.31325114
6	0xbc50c3cd	-0.012741995
7	0xbd927448	-0.07151085
8	0x3d12cf15	0.03584202
9	0xbe958a29	-0.2920697
10	0x3ef1d0f9	0.47229746
11	0x3e88012a	0.26563388
12	0x3e058fb1	0.13043095
13	0x3e0c4460	0.13697958
14	0xbe801e9c	-0.25023353
15	0xbd36c44c	-0.044620797
16	0x3dd3a200	0.103336334
17	0x35329fb7	6.6542583e-07
18	0x3ebc8e4e	0.3682732
19	0x3d3a96e3	0.045554053
20	0x3c8ca6ec	0.017169438
21	0x3e3b8ec8	0.18316185
22	0x3e77b4f1	0.24190117
23	0x3efc120a	0.49232513
24	0x3e6b866e	0.230005
25	0xbb21bced	-0.002467926
26	0x3f1824c3	0.59431094
27	0xbb4b1567	-0.0030988099
28	0xbd0b6932	-0.03403587
29	0x3e7fca8f	0.24979614
30	0xbe0f52e7	-0.13996468
31	0x3f061f16	0.52391183
32	0x3e6423d1	0.22279288
33	0xbebbad09	-0.36655453
34	0xbe226608	-0.15859234
35	0x3dba3078	0.09091276
36	0x3e59c2be	0.21265694
37	0xbdbd36d7	-0.092389755
38	0x3dab1d6f	0.083552234
39	0xbec4c4be	-0.38431352
40	0xbd655941	-0.055993322
41	0x3e89a287	0.2688181
42	0xbebde795	-0.37090746
43	0x3dfc3bdd	0.123161055
44	0xbe790eee	-0.24322101
45	0xbefd764b	-0.49504313
46	0x3ed2673b	0.41094384
47	0x3d0d539e	0.03450357
48	0x3e1a2d3e	0.15056321
49	0xb4d9b398	-4.055007e-07
50	0x3dbb8c5b	0.0915763
51	0x3e9122ef	0.28346965
52	0xbf219183	-0.6311266
53	0xbe998848	-0.29986787
54	0x3f2295be	0.6350974
55	0xbd9d0bbd	-0.076682545
56	0x3df8e760	0.12153506
57	0x3b4e9265	0.0031520363
58	0xbe50eb7b	-0.20402329
59	0xba0ce91a	-0.0005375311
60	0xbd6b3745	-0.057425756
61	0xbe85958f	-0.26090667
62	0x3f138b6b	0.5763461
63	0xbe49afa0	-0.19695902
64	0x3b790279	0.0037995859
65	0x3e91c447	0.2847006
66	0x3d8f48d5	0.069963135
67	0xbeb810d3	-0.35950336
68	0xbdf087c4	-0.11744645
69	0x3e44cae6	0.19218025
70	0xbe95b898	-0.29242396
71	0x3d73ab99	0.05948982
72	0xbce28557	-0.027651472
73	0x3e3f1aa4	0.18662506
74	0x3e3bbe66	0.1833435
75	0x3db6e996	0.08931272
76	0xbea21a6f	-0.31660792
77	0x3ec5e3b6	0.38650292
78	0x3e9cc51b	0.3061913
79	0xbaf3ce99	-0.0018601
80	0x3d4ae95e	0.049538963
81	0xb6a815e1	-5.009337e-06
82	0x3ed8673f	0.4226627
83	0xbeb31e6c	-0.34984148
84	0x3e521d20	0.20518923
85	0xbe17d1aa	-0.14826074
86	0x3f00dd01	0.50337225
87	0x3d803c04	0.06261447
88	0x3ef0a26d	0.4699892
89	0x3b195099	0.0023393987
90	0x3ed818d8	0.42206454
91	0xbbb5d333	-0.0055488585
92	0xbda839a9	-0.08214123
93	0x3e0c21f4	0.13684827
94	0xbea00813	-0.3125616
95	0xbd8cca46	-0.06874518
96	0x3d3d7911	0.046258036
97	0x3e17ff04	0.14843374
98	0x3de8ccae	0.113671646
99	0xbc9c5ed2	-0.019088183
100	0x3cd2f4b8	0.025751457
101	0xbcd42115	-0.025894681
102	0xbdd0fa0a	-0.10203941
103	0x3e7f6e10	0.2494433
104	0xbec84a13	-0.39119014
105	0xbe641c13	-0.22276334
106	0xbd9c25b7	-0.07624381
107	0xbe1978c5	-0.14987476
108	0x3e517582	0.20454982
109	0x3e4fb6cb	0.20284574
110	0xbdeadc89	-0.11467845
111	0xbcf980c4	-0.030456908
112	0x3e8b9454	0.27261603
113	0xb45532c9	-1.9855646e-07
114	0xbddfdc22	-0.10930659
115	0x3cd81066	0.026375007
116	0xbe0a62a4	-0.13514191
117	0xbe2eb610	-0.17061639
118	0xbe8c3e48	-0.27391267
119	0x3dab6790	0.08369362
120	0x3dee7bf8	0.11644739
121	0xbb92506e	-0.0044651544
122	0x3da04487	0.078255706
123	0x3b4c2c60	0.003115438
124	0xbe22052b	-0.15822284
125	0xb96302e3	-0.00021649482
126	0xbeb71971	-0.35761598
127	0xbd83d79e	-0.0643761
128	0xbe57a900	-0.21060562
129	0xbec75721	-0.38933662
130	0x3e8d5529	0.27604035
131	0xbe897a4e	-0.26851124
132	0xbeaf8b7d	-0.3428611
133	0x3f045505	0.5169223
134	0x3e866b9d	0.26253977
135	0xbdf226a4	-0.11823776
136	0x3d80747e	0.06272219
137	0xbdb4ffbe	-0.088378415
138	0x3d9192f7	0.071081094
139	0xbedae78a	-0.42754775
140	0xbe851256	-0.25990552
141	0xbd0abb8e	-0.033870272
142	0xbd8898a4	-0.06669739
143	0x3f271430	0.6526518
144	0xbe1b06aa	-0.15139261
145	0xb60134c2	-1.9253207e-06
146	0xbe911572	-0.28336674
147	0x3d34f9a6	0.044183396
148	0x3e5b1d41	0.21397878
149	0xbd36c989	-0.044625793
150	0xbee4f7f4	-0.44720423
151	0xbe9bfa42	-0.3046437
152	0x3bf20450	0.007385768
153	0xb9c8a3de	-0.00038269063
154	0xbf6826cf	-0.9068422
155	0x384a0ec3	4.81743e-05
156	0xbd460d2a	-0.048352398
157	0x3e9b4a72	0.30330235
158	0xbed3a453	-0.41336307
159	0x3e88a2f9	0.26686838
160	0xbbaf0358	-0.005340975
161	0xbce44c9f	-0.027868567
162	0xbd9c4ba6	-0.07631616
163	0x3e10a00d	0.14123555
164	0xbd90ec90	-0.07076371
165	0xbe05e601	-0.13076021
166	0xbd93795d	-0.072008826
167	0x3e9091d6	0.28236264
168	0xbeb70349	-0.35744694
169	0xbd448429	-0.0479776
170	0xbe675dbe	-0.22594354
171	0x3db8da92	0.09026064
172	0xbe6961eb	-0.22791259
173	0x3ec98057	0.39355728
174	0xbebca7ee	-0.3684687
175	0xbe29113e	-0.16510484
176	0xbbb6ad3b	-0.00557485
177	0x393d270c	0.0001803899
178	0xbe3c9339	-0.18415536
179	0x3e1fa8e4	0.1559177
180	0xbc872490	-0.016496927
181	0x3e1ddb09	0.15415587
182	0xbe4f610f	-0.20251869
183	0x3e8096f2	0.25115162
184	0xbdc5b979	-0.09654517
185	0x3afa2d5c	0.0019087004
186	0xbb1bcc51	-0.0023772905
187	0xb9d4f411	-0.00040617635
188	0xbe789f7e	-0.24279591
189	0xbd71099f	-0.058847066
190	0xbec6f286	-0.38856906
191	0x3dd01a71	0.10161293
192	0xbd2ef144	-0.042710558
193	0x3e43162b	0.19051425
194	0x3da77b51	0.081778176
195	0x3e130dff	0.14360808
196	0x3e60a633	0.219384
197	0x3e8791e9	0.26478508
198	0x3e447afa	0.19187537
199	0x3e888551	0.26664212
200	0x3f1f31ae	0.6218518
201	0x3e19d011	0.15020777
202	0x3f1916cc	0.5980041
203	0xbd8b1eae	-0.06792961
204	0x3d28b5d2	0.041189022
205	0xbe9825d5	-0.29716364
206	0xbce669bb	-0.028126588
207	0xbf0b0c8e	-0.5431603
208	0xbe23bec6	-0.15990743
209	0x314a1ba0	2.9410572e-09
210	0x3ea56d6e	0.3231005
211	0xbf0568c4	-0.52112985
212	0xbd8f4dc5	-0.06997255
213	0xbe858db1	-0.26084664
214	0xbe5ada79	-0.21372403
215	0x3d3dd463	0.046345126
216	0x3deca624	0.11555126
217	0xba6e695c	-0.0009094679
218	0x3e244b71	0.16044404
219	0x3b0e3274	0.0021697553
220	0x3e105448	0.14094651
221	0xbf15ce1b	-0.58517617
222	0xbeafc5ed	-0.34330693
223	0xbe8f5726	-0.27996176
224	0x3c9d0596	0.019167703
225	0xbeb792ca	-0.3585418
226	0xbdb2daa9	-0.08733112
227	0x3bfe32ef	0.0077575366
228	0x3de08f57	0.1096484
229	0xbdbbc41f	-0.091682665
230	0xbd8809a1	-0.066424616
231	0x3e230c68	0.15922701
232	0xbe0cb31c	-0.137402
233	0xbef7dbd2	-0.48409897
234	0xbeb22658	-0.3479488
235	0xba7d48eb	-0.00096620497
236	0xbdf42940	-0.1192193
237	0xbd07c5c1	-0.033147577
238	0x3e9fe31d	0.3122796
239	0xbe7baf5e	-0.24578616
240	0xbed5fa68	-0.41792607
241	0xb5426cd6	-7.242901e-07
242	0xbe882387	-0.26589605
243	0x3e9b45e3	0.30326757
244	0x3e69a90c	0.22818393
245	0x3f672305	0.9028781
246	0xbec47fde	-0.38378805
247	0xbf3dacbe	-0.7409171
248	0xbeab803f	-0.33496282
249	0x3ac60a34	0.0015109242
250	0xbef07a90	-0.46968508
251	0xbb097d16	-0.0020979098
252	0xbecd9717	-0.40154335
253	0xbe06953c	-0.13142866
254	0xbeb48b46	-0.35262507
255	0x3e26a1e8	0.162727

dense2.bias f4 [10]
0	0xbd786b6b	-0.060649317
1	0xbee5731c	-0.44814384
2	0xbf6bfa6c	-0.9217899
3	0xbbd8bbf1	-0.0066142012
4	0x3f9ad8f6	1.2097461
5	0x3eb8ceb7	0.3609521
6	0xbe972f2e	-0.29528183
7	0xbf331c81	-0.6996537
8	0x3f36e74f	0.714467
9	0x3d6a31a7	0.05717626
