ResidualLoss/CNN-Train/CIFAR_17/epoch-2350.pt (torch, 27135 bytes, 10 tensors)

conv1.0.weight f4 [8, 3, 3, 3]
00000000: 1560 a4be 5003 43bd 013b 71be 0498 ddbe
00000010: 567b 21be f631 373e 33af df3e e2b1 703e
00000020: 8409 013d fed0 70be a548 773e 6a74 2ebd
00000030: 8f41 8bbe 8b23 f83d 18db 773e 51ae d43e
00000040: eb2b 623c 2181 a6be e637 7d3e 6a04 553e
00000050: dc0e 3abe 474f e3be 0c10 fdbd 7029 423e
00000060: 2b17 7e3e 1cf4 0cbd 2c24 1ebe 7662 dcbe
00000070: 085c 943e 6c00 c73c 8edf 593e 727f aabe
00000080: fc65 563e c7ed d43e bde2 5bbd 66e0 cfbe
00000090: 89c0 6bbe 245b 303e 7679 153e 492a 8f3c
000000a0: 1c6c bebe 8203 953e c840 3f3e 3496 23be
000000b0: 8c43 3abd 814f 2cbd fc59 1e3e 93a4 b7bd
000000c0: 2151 283e a797 e9be 57d0 cd3d 97be 073f
000000d0: 692c 00bd df0b abbe db30 bc3d 0478 d4be
000000e0: 586c 9d3d 8450 dbbe 6ab1 1e3e 5f70 c03e
000000f0: 0ea1 87bd 9acc c73e d987 56be 2914 9e3e
00000100: 3fa6 9cbe 0a2d 54bb 1d79 58be bffd 24bd
00000110: ebc7 563e 067a 3fbe 274a 553e 4f9b 4cbd
00000120: e1e9 49bc 0b60 31be c6a4 893e ce1d dabe
00000130: 9e25 503d bb29 203e 9493 52be 83bf 833e
00000140: 1df2 e13d cef3 773e 25a3 8c3e 2526 2c3e
00000150: 6fca dfbe 7868 d4be 0d2a 36bc 95a2 403e
00000160: 58e4 49bc 90f6 763e e1ad 513d 7f09 c43e
00000170: 6d7d 29be 5cab c2be ae08 7abb 148a f13a
00000180: d60c a83d dae6 55be cec7 243d 8596 263d
00000190: ba47 633e 1176 253e 5c93 adbe e2cb 923d
000001a0: 2949 8f3e 1ddf dbbd 1f04 afbe 5ece 653d
000001b0: d070 e43e 8c5f 513e e1b9 0b3f 389f a13d
000001c0: a8e2 0ebe 1da9 713e 905b 95be 20de 82be
000001d0: 6d58 c0be 7e29 fbbe cf0b d9be 9136 66bd
000001e0: b188 babd 6d3f debe 99cb 203e 4b5f 41be
000001f0: f6a3 63bd 7d56 a7bd e4bf 23be ab03 413b
00000200: 728f 5dbe 83d8 cf3d ad8d 10be d04e e6bd
00000210: f89f dc3e 9af5 153e 0e78 083e 03bc bcbd
00000220: 4b5d c8bd 912d c03d 555b 2fbe dde5 50bf
00000230: ae29 38bf 2878 173e 929b 293b 1cd3 ab39
00000240: 80ac 31be 2bf3 f33d 8663 92bc c14c 283e
00000250: c38e 8a3d 742d 9bbd 5f0b 97bd 532b d03d
00000260: 5b58 833e 9ff8 59bc 27de 493d 3622 923c
00000270: 849d de3d 79f3 b33e 5777 333f cdab f33b
00000280: 685d 173e 4c00 31bc 8ad4 4dbc 42ed f83e
00000290: 7e25 ec3e dfff 1cbc 3697 81be a56f 11bf
000002a0: 7a08 d13d 7ab4 62bd 871e 97bc dffb 08be
000002b0: c240 843e f8b4 08bc ff24 a23d dd4b bd3d
000002c0: 0fa9 cebe d2cf c9bd e7f1 8bbe e53b aa3e
000002d0: 68ff 7cbe 4f02 9b3e 1f7f 643c 2cbd 2d3e
000002e0: bf3c 5dbd 39c2 38be 611e c63d 95fc 12be
000002f0: ee0c ac3d 95aa 6f3d 16ba 8e3d 992f 66bd
00000300: a516 23be 47f3 5b3e f1b6 63bd 53ad 50be
00000310: 64f4 c33e 21fb a6be 3e06 0bbe 77ae 963e
00000320: 998c 17be dcb2 97be f2e6 d43e fb31 79be
00000330: e7af 3bbe 5d68 123f f6d1 6abe e863 8fbb
00000340: d52d 9f3d 3314 513c 416e 06be e4ec 513e
00000350: c9cf 2cbe e5db 76be f155 ae3e 50c1 04be
-0.32104555 -0.04761058 -0.23557664 -0.4328004 -0.15769705 0.17890152 0.43688354 0.23505357
0.031503215 -0.23517224 0.24148805 -0.04259149 -0.27198455 0.12116154 0.24204671 0.41539243
0.013804416 -0.32520393 0.24728355 0.20802465 -0.18169731 -0.4439642 -0.12356576 0.1896112
0.24813525 -0.03441249 -0.15443486 -0.4304387 0.28976464 0.024292193 0.21276686 -0.33300358
0.20937341 0.4158766 -0.05368303 -0.4060089 -0.23022665 0.17222267 0.14597115 0.017476218
-0.37191856 0.2910424 0.18677056 -0.15975267 -0.045474574 -0.04206801 0.15464014 -0.08966937
0.16437198 -0.45623514 0.10049503 0.5302519 -0.031292353 -0.33407494 0.09189006 -0.41497815
0.076866806 -0.42834866 0.15497366 0.37585732 -0.066225156 0.39023286 -0.2095026 0.30874756
-0.30595586 -0.0032375478 -0.21139951 -0.040281054 0.209747 -0.18698892 0.20829068 -0.0499528
-0.0123238275 -0.17321794 0.26883525 -0.42600864 0.050817125 0.15640919 -0.20564109 0.2573205
0.110325076 0.24214098 0.2746822 0.16811426 -0.43709132 -0.41485953 -0.011118424 0.1881202
-0.012322508 0.24117494 0.051191214 0.38288495 -0.16551752 -0.38021362 -0.0038152146 0.0018427991
0.08205573 -0.20888844 0.04022961 0.04067089 0.2219533 0.1615832 -0.3390149 0.07167794
0.27985504 -0.10735915 -0.34182832 0.05610501 0.4461732 0.20446604 0.54580504 0.07891697
-0.1395365 0.23599668 -0.2917142 -0.25560093 -0.37567464 -0.49055094 -0.42391822 -0.056204382
-0.09108103 -0.43407765 0.15702666 -0.18884008 -0.055576287 -0.08170793 -0.15991169 0.002945165
-0.21636751 0.10148718 -0.14116545 -0.11245501 0.43090796 0.14644471 0.13327047 -0.09215548
-0.09783419 0.09383691 -0.17124684 -0.81600744 -0.719386 0.1479193 0.002588008 0.0003277295
-0.1735096 0.11911615 -0.017869722 0.1643553 0.06765511 -0.07577029 -0.07375216 0.101645134
0.25653347 -0.013303905 0.049284127 0.017838579 0.108698875 0.35146692 0.70103973 0.0074362517
0.14781725 -0.010803293 -0.01256288 0.48618513 0.46122354 -0.009582489 -0.25310677 -0.5681098
0.10206695 -0.055347897 -0.018447174 -0.13377331 0.25830656 -0.008343928 0.07917213 0.092429854
-0.40363356 -0.09854092 -0.27332994 0.3324882 -0.24706805 0.302752 0.013946324 0.16966695
-0.05401301 -0.1804284 0.09673763 -0.14354165 0.08400904 0.05851229 0.06969087 -0.056197736
-0.15926607 0.21479522 -0.05559439 -0.20378618 0.38272393 -0.3261347 -0.135766 0.2942998
-0.14799727 -0.29628646 0.41582447 -0.24335472 -0.1832882 0.57190496 -0.22931656 -0.0043759234
0.07772414 0.0127611635 -0.13127996 0.20500523 -0.16876139 -0.2410732 0.34049943 -0.12964368

conv1.0.bias f4 [8]
00000000: 9de7 ab3e db62 013d 317f bd3c 113a 1f3d
00000010: 64b0 943e 8355 273f f129 92bc 03ad 493d
0.33575144 0.031588417 0.023131939 0.038873736 0.29040825 0.65364856 -0.017842265 0.049237262

conv2.0.weight f4 [8, 8, 3, 3]
00000000: bee9 d13d 6185 2e3e 8002 68bd d1b2 ab3d
00000010: 3980 533e 8f3b 543e 3e4c cbbc 661f 09bd
00000020: 8239 873e ae9a da3d 853d 5dbd 1b74 c03e
00000030: 76f7 3d3d 8653 463d 8299 4f3d eac5 263e
00000040: 4e8f a73e 813b 103d e0d2 853b 2e52 c1bb
00000050: bba1 b23c 3804 33be d455 89be b9f1 1dbe
00000060: d846 a6bd 4d2d 00be a020 2bb9 e46c 8fbc
00000070: d9c3 283e 25fe b93d 867b 503e ee19 3e3c
00000080: ea85 973d 8124 3e3e aab8 3a3e 85d7 48be
00000090: 5a7f 163e 65e7 073b d24a 6f3b 57b9 1cbe
000000a0: e8db babb 7db5 ab3c 36d3 a23e f2be 98bd
000000b0: 9b81 77be 4d2a 7bbe ff89 7fbd bb97 9c3e
000000c0: 1020 9d3e 0afb 42be 68df 9cbe 3151 693c
000000d0: d35d a73d 365c c83d 01ea 01be 3b9a 863d
000000e0: a112 d3bc 3ee0 cbbc 6cc7 ee3a c12e 283d
000000f0: 1597 8a3d 2169 07bf 1c33 953e 2333 cabd
00000100: 54ef 0ebf 7230 87be 117d cbbe 0aab 2dbf
00000110: 24fc 38bf 9d16 433e 9edf a23c 86f6 3c3c
00000120: d6cd 32bc 7823 c3bd 1b7d 723e 22b3 253d
00000130: fe41 7f3e 2874 28be c6e9 103e f567 70bd
00000140: 0247 84bd 4762 a53e 468d 57be d96a e73d
00000150: c3aa 9cbe f559 593d f05b 0e3e 0a79 c6bc
00000160: 260b 1a3e 50f7 f53d be2f 303e 5d1c 143f
00000170: a578 883e b07c cd3e fc13 3d3c 8d2d 8b3e
00000180: 2320 4d3e 2ab6 863e 518a 7f3e bda5 8ebe
00000190: d891 6c3d f15a 1abe ee7c 9d3d f8d1 90be
000001a0: cf13 06bf c4ff 18be 700e c2be 5c39 54be
000001b0: c85c 0dbe 07bb 233e 3ff5 92bd 06a6 c73d
000001c0: a8e4 c1bd 8bdb 1fbd c0d5 093d 708d 43bd
000001d0: b1c2 793e b650 6abe 83f1 213d 5793 f7bd
000001e0: d3a2 173d f011 1ebe e289 ce3d 7541 2fbe
000001f0: 75e4 0ebe b3a8 a03e a8cf 393f b504 27bc
00000200: 454c 19be 9ca9 cb3e 6fc8 553e f307 433e
00000210: 82fa 823d db0b 0e3f 827b 4d3e 8b87 b13d
00000220: 5454 b43d 5231 9dbd 8c6e 86bd 5f83 bcbc
00000230: 1aff 8cbd 2503 a3be 9e5e 14bf d18c e3bd
00000240: 9be5 16be af52 0cbe 278c 34bd d247 183e
00000250: 9054 51be 7fb2 e0bd 2b3d 503e 33eb 8fbe
00000260: c668 90be 9f46 17be f4f3 96be ec4b 50bd
00000270: fab7 09bf 095f 18be 9ee1 773e 7c9f 29be
00000280: 3f78 0cbd aa27 6a3e 9bd8 323e c705 6e3e
00000290: c689 f23d 11dd 683d 892b 963e 3940 833e
000002a0: 9751 ca3d 7ec0 16be f7b8 c63d 00e0 dfbd
000002b0: 7741 4a3e 457e 09be 91ef 063d ea91 d93d
000002c0: d79f 9abd 47c6 c53d 6902 153e ba81 a6be
000002d0: d871 4f3d 1e59 993e b253 b0bd d0e0 d63d
000002e0: 3b8f 65bb 5985 dbbd 54ba a4bd 56dc a23d
000002f0: e16b 353d 05cc fcbd b390 9a3e bc50 f0bd
00000300: 3123 89bc 7698 0c3f 5199 22bd e6ee d13e
00000310: faa9 703d 2675 ffbe 3677 38be 9cf9 3cbe
00000320: 0ba8 31be 3bca cd3a da50 30be 407c 38bd
00000330: ce58 c9be 0c82 a13d 226e 29be c550 1f3d
00000340: 3337 3a3e 587c a03d 4823 7fbe 7200 bcbd
00000350: ea97 8c3d 11d6 c83b 9f68 253e 0694 c3bd
00000360: 6388 bf3d 9b52 68bd 71ea a23d 9dda 423e
00000370: bcb0 423e c689 f03d 9b29 4abc 9ee0 f33d
00000380: eb10 2abd c655 3fbd dcd5 d5bd e74e 8ebd
00000390: ae57 a5be 1ff3 febe 9d21 6c3d a150 9cbd
000003a0: e9b4 f3be c506 d7bd 7e72 b03d 39ee 833d
000003b0: 246d 29bd a92d 62bd 2a42 55bd 983a 503d
000003c0: cdae a2be ed09 10bf 8ce1 603c c61b 733e
000003d0: 0f60 9f3e 6dfb 663e cdc7 843e 3b06 153c
000003e0: 0fb0 13bd d260 8bbd 8dcd bd3d 2bbd 073d
000003f0: 0a3c 42be 2b91 f9bd cd54 8fb8 c067 a8bd
0.10249661 0.17043068 -0.05664301 0.08383716 0.20654382 0.20725845 -0.024816629 -0.03347721
0.26411062 0.10674034 -0.054013748 0.3758858 0.046378575 0.048419498 0.050683506 0.16286436
0.3272652 0.035212997 0.004083976 -0.005899689 0.021805635 -0.17482078 -0.26823294 -0.15424241
-0.08118981 -0.12517281 -0.00016319985 -0.017507978 0.1648096 0.09081677 0.2035962 0.011602862
0.07398589 0.18568613 0.18234506 -0.19613464 0.14697018 0.0020737287 0.0036513102 -0.15305077
-0.0057024844 0.020960564 0.31801766 -0.07458295 -0.24170534 -0.24527855 -0.062387463 0.3058451
0.30688524 -0.19041076 -0.30639195 0.014240549 0.081721924 0.09783213 -0.12686922 0.06572386
-0.025765719 -0.0248872 0.0018217391 0.041060213 0.06767098 -0.5289479 0.29140556 -0.09873035
-0.55833936 -0.26404148 -0.39743856 -0.6783911 -0.72259736 0.19051595 0.01988202 0.011533385
-0.010913333 -0.095282495 0.23680536 0.040454037 0.24927518 -0.1645056 0.14151677 -0.05869289
-0.06458856 0.32301542 -0.21049985 0.112996764 -0.3059903 0.053064305 0.13902259 -0.024227638
0.15043315 0.12010062 0.17205712 0.5785578 0.26654544 0.40134192 0.011540409 0.2718319
0.2003179 0.26310855 0.24955107 -0.27860823 0.057756275 -0.15073754 0.07689844 -0.28285193
-0.52373976 -0.14941317 -0.3790164 -0.20725006 -0.13804924 0.15989314 -0.07175683 0.09748463
-0.09467441 -0.039027732 0.033651114 -0.047742307 0.24390675 -0.22882351 0.039536964 -0.1208865
0.037020516 -0.1543653 0.10084893 -0.17114814 -0.13954337 0.31378707 0.72582483 -0.010193993
-0.14970501 0.3977784 0.2087724 0.19046001 0.06395437 0.5548684 0.20066646 0.08668431
0.08805147 -0.07675423 -0.06564054 -0.023011861 -0.06884594 -0.31838337 -0.57956874 -0.11110843
-0.14736025 -0.13703416 -0.044078972 0.14871147 -0.20442414 -0.109715454 0.20335834 -0.2810913
-0.28204936 -0.14773034 -0.29482996 -0.050853655 -0.5379635 -0.14880003 0.2420716 -0.16564745
-0.034294363 0.22866693 0.17465441 0.23244391 0.118426844 0.05685145 0.2933009 0.25634935
0.09878843 -0.14721867 0.09703248 -0.109313965 0.19751535 -0.13427074 0.032943312 0.10623534
-0.07550018 0.09656959 0.145517 -0.3252085 0.05064568 0.29950804 -0.086097136 0.10492098
-0.0035028 -0.107187934 -0.08043352 0.07952182 0.044292334 -0.12343601 0.30188522 -0.11734149
-0.016740413 0.54920137 -0.039696995 0.41002578 0.058755852 -0.49894065 -0.18014225 -0.18454593
-0.1734926 0.0015700528 -0.17218342 -0.04504037 -0.39325565 0.078861326 -0.16545919 0.038895387
0.1818512 0.07836217 -0.24915802 -0.091797724 0.06864913 0.0061290343 0.16153191 -0.095497176
0.093521856 -0.056719404 0.079548724 0.19028707 0.19012731 0.11745028 -0.012339021 0.11908077
-0.04152004 -0.04671266 -0.10441181 -0.06948643 -0.32293457 -0.49794862 0.057649244 -0.07632566
-0.4759896 -0.10499338 0.08615588 0.06441922 -0.04136385 -0.055219326 -0.052065052 0.05083713
-0.31773987 -0.56265146 0.01372565 0.23741063 0.31127974 0.22556849 0.25933686 0.009095724
-0.036056574 -0.068055764 0.09267721 0.03313939 -0.18968216 -0.12185892 -6.834567e-05 -0.08222914

conv2.0.bias f4 [8]
00000000: f41f 083f 956a c13e 3846 b73e d427 dabc
00000010: 25b3 953f 1246 ed3e 6543 273e 17af b7be
0.53173757 0.37776628 0.3579576 -0.02663032 1.1695296 0.46342522 0.16334303 -0.3587577

conv3.0.weight f4 [8, 8, 3, 3]
00000000: 0d52 03bc 216b 5c3b 7a0c a73e 8ad5 51bd
00000010: ab65 6abe 3cd0 203e 8c41 56be 72cf 9bbe
00000020: 6736 103e 9ec3 9c3e 6675 573d 3e7e b2bb
00000030: 906f ac3e 2a23 c23e 5e4e 703d b3b6 0abc
00000040: c025 0a3d d5e5 1d3e cd4b b63c 2675 133e
00000050: 43c3 953e cd03 783c 288b 31bd dd06 d6bd
00000060: 8c16 d13d 89c9 3bbe eab7 27be 1ffb c63e
00000070: 126f df3e b3a4 0a3e f319 b43e 9d4c d03e
00000080: fb16 593e c66b 2c3f b2f3 b83e 3f8c 9a3d
00000090: b112 41be 1d45 13be 7a7e a8be c59d 03be
000000a0: 1f40 203d ab4d 80be 8bae 65be dfe1 cabb
000000b0: 1a27 a23d 52e1 85bd d59e adbe 3c84 8ebe
000000c0: 1341 0cbf be11 f3be 5015 abbe 9acf 61be
000000d0: 3e63 a1be 78d8 4fbe 9898 a1bd 317e 07be
000000e0: da87 263d 5633 bbbd d3b2 be3d 35e6 ba3d
000000f0: 19d2 3a3e 81e9 18bc fcb1 c63d b7e3 823d
00000100: aff9 08be d3ad 0bbd 212a 45be d09b b5bc
00000110: ed5b 283c f2c0 163e ba8b a4bc 47a6 3abe
00000120: dd7a 1e3e e4c2 bdbe d40c f3bd f6d0 f23e
00000130: d801 ff3e bcaf 873e 4c39 953e 2f15 403e
00000140: e369 11be 9093 e93c 2fa7 37bd 8062 b83d
00000150: d008 bebd b6a6 0ebb ed27 eebc bc9f b63c
00000160: 05eb 0abf f0db 0dbd e417 4cbe baa8 2ebd
00000170: 6a73 5fbd 472a a23d 7f88 1dbe 628f edbc
00000180: 4517 fc3c 8694 2abe 298e 5abd f84d 213e
00000190: 9b6d 423e b582 443c 2ab4 863e e09b 483e
000001a0: 8407 fc3c a1c3 2c3d 2ffe 3c3e 1e2a 86bd
000001b0: 8010 5fbe bb2e 49be 5d76 b7bd 97fb cebe
000001c0: 491c a6be 81f4 2c3e 7b53 45bd 8424 71be
000001d0: 0ce9 403e db16 473e fe23 4f3e ba1e 073e
000001e0: 1f29 b33e 4d42 193e fa9c b8bc ba22 583f
000001f0: 1a3d a8be a25c a13a c5cd 193e 124a 363e
00000200: 92e8 bb3c 8b3d abbe 3c81 52be 60ea cdbd
00000210: 72cd 5cbe 21c6 27be 0a17 aa3e e4fe 2d3e
00000220: 94ba 983d fd7e 22bc 195b 5a3d 5ee1 6dbe
00000230: d97a 15be 131b 103e 7fce 87bd a08c 103e
00000240: 89c5 533e 79c9 2ebd 1804 17be 3b70 de3d
00000250: 4458 43be 771c 3ebe 5f77 a5bc 0cce 64bc
00000260: e854 163e 369a 5a3e 1c0c d93e 1f3a 853e
00000270: 5ecf 803e 9949 743e 1cf3 413e 421f 213e
00000280: 5afd 513e 644e 2e3d 499a 5dbe 57ee 12be
00000290: 4d3e 6a3c 2438 823d e536 f6bd b470 3bbe
000002a0: 6812 86be f311 debd 7287 0b3d d1d7 07bc
000002b0: caec f93d f8cd 0abe 1469 e9bc aa73 5bbe
000002c0: 2f12 a0be fb2d bbbd 9afa 1abe 314c ecbd
000002d0: 3ed7 8d3e b9c1 0c3d 8c73 cb3d 1b12 8a3d
000002e0: b004 b53d 2e40 84bd f70e b83e 26d8 aa3d
000002f0: 2dc3 ce3d 0995 573e 43ca 433e f3c5 9b3d
00000300: 14ae fd3d f28b 4e3e 259c bc3c 610e 913e
00000310: 810c 52bd 30f7 88bd 56fc c93d af19 663d
00000320: c9c4 c53c 7a08 d3bc 33df 1a3e ad5e 22bd
00000330: d7ca dd3d e6db 603c 0e73 633d b278 9abd
00000340: 2d05 babd ddc8 2fbe 4f64 623c ddd0 09be
00000350: f1b9 3ebe b752 beba b9e1 cbbd 5d4c c43c
00000360: 5220 393e 3c0b a63d 6ed8 633e 076c 083f
00000370: 8223 993e 8a54 d63e f68c 0b3f 4226 063f
00000380: 286f d93e a802 a63d df12 043e 186f eb3d
00000390: 86e5 eabd f156 48be 4eb9 89bd bcb9 9d3c
000003a0: 1aef 5cbe 9f6d 43be b4d3 05bf e050 b0be
000003b0: 1741 d2ba 2818 aebe 332d 25bf cc3b 46be
000003c0: 0349 d3bd b782 26be a8ef 3bbe 2b73 0ebc
000003d0: fcf1 563d 059e 703c 35d1 fa3c e505 0c3e
000003e0: ba08 db3d f103 e7bd 3529 df3d 46d6 d7bd
000003f0: 604b 0c3f 5047 a63d f42f 39be 34ac 5e3e
-0.008015168 0.003363319 0.32626706 -0.051229037 -0.22890346 0.15704435 -0.20923442 -0.30431706
0.14083253 0.30617994 0.052602194 -0.005447178 0.33678865 0.37917453 0.058668487 -0.00846641
0.033727407 0.15419705 0.022252942 0.14400157 0.29250535 0.015137625 -0.0433456 -0.10450528
0.102093786 -0.18338598 -0.16378751 0.38863465 0.43639427 0.1353939 0.35176048 0.4068345
0.21200173 0.6735195 0.36123425 0.07546281 -0.18854786 -0.14381833 -0.32908994 -0.12853153
0.03912365 -0.25059256 -0.22429864 -0.0061914767 0.07917614 -0.06537117 -0.33910242 -0.27835262
-0.54786795 -0.47474474 -0.33414698 -0.2205185 -0.31521028 -0.2029742 -0.07890433 -0.13231732
0.040656902 -0.09140651 0.09311452 0.0912594 0.18244208 -0.009333015 0.097019166 0.063910894
-0.13376497 -0.03410132 -0.19254352 -0.022169024 0.010275823 0.1472204 -0.020086158 -0.18227492
0.15476556 -0.37062752 -0.11867681 0.4742505 0.49806094 0.26501262 0.29145277 0.18758081
-0.14200549 0.028512746 -0.044837173 0.090031624 -0.092790246 -0.0021766848 -0.029071772 0.022292964
-0.5426486 -0.034633577 -0.19930989 -0.04264138 -0.054553427 0.0791822 -0.153841 -0.028999034
0.030772815 -0.1665822 -0.05335823 0.15752399 0.18987124 0.011994054 0.2630933 0.19590712
0.030765302 0.042178754 0.18456338 -0.06551002 -0.21783638 -0.19646733 -0.08958123 -0.40426323
-0.32443455 0.16890146 -0.048175316 -0.23549086 0.188389 0.19442312 0.20228574 0.13195315
0.3499231 0.14966698 -0.02253579 0.8442799 -0.32859117 0.0012310932 0.15019901 0.17801693
0.022938047 -0.3344539 -0.20557112 -0.10054469 -0.21562746 -0.16384174 0.33220702 0.16991764
0.07457462 -0.009917972 0.053309534 -0.23230502 -0.14597644 0.14072828 -0.06631183 0.14116144
0.20680822 -0.042672608 -0.14747655 0.1086125 -0.1907664 -0.18565546 -0.020198522 -0.013965141
0.14680827 0.2134789 0.4239205 0.26020905 0.2515821 0.238562 0.18940395 0.1573458
0.20506802 0.042555228 -0.21640886 -0.14348732 0.01429708 0.06358364 -0.12022189 -0.18304712
-0.26185918 -0.10843267 0.034064718 -0.008291201 0.12203367 -0.13555133 -0.028492488 -0.21430841
-0.31263873 -0.091396295 -0.1513466 -0.1153797 0.2770328 0.034364436 0.09934148 0.067417346
0.08838785 -0.06457554 0.35948917 0.08342008 0.100958206 0.21052946 0.19120125 0.07606115
0.123867184 0.20170572 0.023023674 0.28331283 -0.051281456 -0.06687772 0.098625824 0.056176838
0.024141686 -0.025760878 0.15124206 -0.03964107 0.10829704 0.013724303 0.055529647 -0.07542552
-0.090830185 -0.17166467 0.013817861 -0.13458581 -0.18625619 -0.00145205 -0.099551626 0.023962194
0.18078735 0.081076115 0.2225053 0.53289837 0.29909903 0.41861373 0.54511964 0.52402127
0.42467618 0.081059754 0.12897824 0.11495799 -0.11469559 -0.19564416 -0.06724797 0.019253604
-0.21575585 -0.19084786 -0.5227616 -0.34436703 -0.0016041127 -0.34002805 -0.64522094 -0.19358748
-0.1031666 -0.16260801 -0.1835314 -0.00869445 0.052476868 0.014686112 0.030617336 0.13674124
0.10695024 -0.11280049 0.108965315 -0.10538916 0.54802513 0.081190705 -0.18084699 0.21745378

conv3.0.bias f4 [8]
00000000: 9a8c 703e 79dc 463f b44a 303f 75be 45be
00000010: e5e4 95be e090 76be 9964 8ebe 3e76 01bf
0.23491135 0.77680165 0.6886399 -0.19310935 -0.29276195 -0.24078703 -0.27811125 -0.5057105

dense1.0.weight f4 [32, 128]
00000000: 7028 5dbd 587c d43b 6a4c b83d 9844 6b3e
00000010: 2f5b a43d 7275 25be bc46 24be 1245 063d
00000020: 4c65 eb3c 9c6c 733d d770 453e ed9e 1cbe
00000030: d0f2 863c 938f e93d bfa4 563e c2f5 60bc
00000040: f05e acba 2e9d 763b 4cb3 a8bc 4a91 93be
00000050: ffcb bfbb 12fa a7be e976 adbc 8eec 473d
00000060: b2ae 453e 4515 27be 6268 8ebd be96 6abd
00000070: 0fa4 8bbe 494b bd3e 10c7 4a3e 0c4c 303c
00000080: b142 9dbd f991 153d 5cb3 bdbd 6ef0 063c
00000090: c474 08bd ede7 8ebd 9d58 3d3d 928d 9cbb
000000a0: 74ea 043e b9a1 b53d 4f35 263e 5984 5a3e
000000b0: a92a b9bd cc82 d13d ca64 6d3e 0df4 1fbe
000000c0: 4a96 6e3e 1898 15bd b889 4fbe 5186 4b3e
000000d0: fbda 76bd 6aab 19be 312f 693c 81d3 4abe
000000e0: ef5d 92be 66d7 f7bd 97ae 07bd ecfa 003e
000000f0: 6279 833e 0733 edbb 1191 ecbd 3117 9cbd
00000100: dc24 22be 5d13 26be d98f fa3d b133 bb3d
00000110: 7abc c93d bf6c 013e bb28 3b3e 454b 173d
00000120: ca45 2abe 7945 eebc 9d65 7dbe 9816 38be
00000130: 7e48 3c3e be2a a9be 43a3 e13d cb28 993e
00000140: 1954 21bd b031 2e3e ed0c 05be 755d 2f3c
00000150: 5113 ccbd 3fb0 353c 5969 92bd adda 5abc
00000160: 3443 363e 2547 ad3c 0a9b 1abd 7662 12be
00000170: 522f 863e be3d 263e cc10 28bd db41 febd
00000180: b0e0 7d3e 2659 023e 8e45 86be 02f1 573b
00000190: bf4c fbbd cf16 8c3d dbc6 0bbe 20db b8bd
000001a0: ac11 ba3b bee0 863d 2ec0 513e 767f fcbb
000001b0: d1d3 38be 20ad f6bd fe8c b03d 1752 9bbd
000001c0: 5c66 453d d82b cabc 6279 e13d 29bf e2bd
000001d0: d6bc 2dbe a4d3 29be 1228 113e 75f5 323d
000001e0: 8226 903d 56d5 86bd 2bda 073e 197e e5bd
000001f0: d1c8 cbbc d628 13bd 3ec8 893d b8b9 d6bd
00000200: aca0 143e e8c4 523d ee5a 5cbd cf42 fb3c
00000210: b0e2 1e3e e410 02bf 0c15 50bd fac7 fd3d
00000220: 83d7 743e f987 44be 9944 51bd b7e6 8fbd
00000230: ec6b c33d d446 94bd dcbc 303e 9c20 7b3d
00000240: 12cc 2dbd 8dc6 c63c c117 c1bd 2392 2c3e
00000250: 6626 aa3c 7e53 803c 90f6 abbd be53 7c3c
00000260: 73fd 01be 82c5 a3be 1882 53be 1862 49be
00000270: 6c4e 93bd d3a6 f53d ac5c 043d c44c 2cbc
00000280: ae41 513d 08b2 483a b4ef 24bd 6c22 943d
00000290: c001 a8bd 330c 2f3e b91a 2e3e 231b 4c3e
000002a0: 1737 20be 8b5f 81bd 0c62 713d 15f5 03be
000002b0: a7b5 c33c fda9 9c3a 86fc a33d ca85 873d
000002c0: 5106 a2bd f08b 9bbc 1da5 493d f911 543c
000002d0: 92b2 703d 16cc efbd de30 7b3e 1e38 91be
000002e0: 185f 06be 6d01 25bc 3f46 343e 07af 24be
000002f0: 8fee 083e 37f8 51bd 25ee 0c3e 6dfc 523e
00000300: 3dc8 893d db6c b93d 397f 05be a7f2 cf3d
00000310: b45c 30bd fe13 bfbd 27a5 83be 1912 97bd
00000320: b576 303e e0be 6dbe 8cf7 9fb9 1b0e 873d
00000330: da9b 8f3d e93d a2bc 48b5 c73d 64f2 2abe
00000340: c8a7 0e3d 819f 303d ca61 cebc 3766 a4bd
00000350: f43c af3d 41fa a83d 34ea 0a3e a3bd 1ebd
00000360: 92da 02be 0395 3abc 6c67 843d 6cea 87bd
00000370: f413 bdbe f49d 10bc aced b1bd b9f9 773d
00000380: aeb5 f63c e3ed c6bd 4f2e a5bd f735 453d
00000390: 7cbd 78bd db62 3d3c 42aa 1f3e fb4d 3ebe
000003a0: 1b7c e83c f185 23be 859c 053e 5cb3 c03d
000003b0: 759b b33d 07e3 b33d 4f4a a5be 1357 44bd
000003c0: 232e 483e d7a7 bc3d 61f0 1ebd 2a9a f53d
000003d0: 01d9 83bc e9d1 81be fb9f 36bd 0013 ec3d
000003e0: dc30 253e 8b7a 0dbe 93c9 3fbd 5e5c a33d
000003f0: 97d5 5b3c 0737 d63d 3c3e 823e b89a ba3c
-0.053993642 0.0064845495 0.0899895 0.22975385 0.080252044 -0.16158083 -0.16042608 0.032780714
0.028734826 0.05942975 0.19281326 -0.15295 0.016473204 0.11404338 0.20961283 -0.013730468
-0.0013150852 0.0037630307 -0.020593308 -0.28821784 -0.0058531757 -0.32807976 -0.021174865 0.04880958
0.19304922 -0.16316707 -0.06953503 -0.057272665 -0.27273604 0.369715 0.19802499 0.0107603185
-0.07678736 0.036516163 -0.09262726 0.008236034 -0.03331448 -0.0697783 0.046227086 -0.0047776187
0.12980062 0.08868737 0.16231273 0.21339549 -0.0904134 0.10230026 0.23182979 -0.15620442
0.23299518 -0.036522 -0.2026738 0.19875456 -0.06026743 -0.15006796 0.014232443 -0.19807245
-0.2858729 -0.12101631 -0.033125486 0.12595719 0.25678545 -0.007238749 -0.11551107 -0.07621611
-0.15834373 -0.16218324 0.12234468 0.09140719 0.09850402 0.1263914 0.18277256 0.036937017
-0.16628185 -0.029085862 -0.24745794 -0.17977369 0.18387029 -0.33040422 0.11017468 0.29913935
-0.039386842 0.17011142 -0.12993212 0.010703434 -0.09964622 0.011089384 -0.07149 -0.0133578
0.17799073 0.021152088 -0.037745513 -0.14295372 0.26207978 0.1623449 -0.041031644 -0.12414905
0.24792743 0.1272932 -0.2622494 0.0032950048 -0.122704975 0.06840288 -0.13650076 -0.0902617
0.005678376 0.06585835 0.20483467 -0.007705624 -0.18049552 -0.1204474 0.08620642 -0.07584017
0.04819332 -0.02467911 0.1100948 -0.11071617 -0.16966566 -0.1658464 0.14175442 0.043691117
0.07038595 -0.06583659 0.13266818 -0.11205692 -0.02487603 -0.035927616 0.06727646 -0.10484642
0.14514416 0.051457316 -0.053797655 0.030671505 0.15516162 -0.50807023 -0.050801322 0.12391658
0.23910336 -0.19192494 -0.05109081 -0.07026427 0.09542069 -0.07240072 0.17259544 0.061310396
-0.042430945 0.024264598 -0.09428359 0.16852622 0.020770263 0.015664812 -0.083966374 0.015400825
-0.1269434 -0.31986624 -0.20655096 -0.19666326 -0.07192692 0.1199471 0.03231494 -0.010516349
0.051088028 0.0007655923 -0.04026766 0.07233128 -0.08203459 0.17094497 0.17002381 0.19932227
-0.15646015 -0.063170515 0.058931395 -0.1288646 0.02389033 0.0011952516 0.080071494 0.06617315
-0.07911361 -0.018987626 0.04922973 0.012943738 0.058764048 -0.11708848 0.2453036 -0.28363127
-0.13122213 -0.010071141 0.17604922 -0.16082393 0.13372253 -0.051262107 0.1376272 0.20604105
0.067276455 0.09053966 -0.13036813 0.10153704 -0.04305716 -0.09329985 -0.2571194 -0.07376499
0.17232783 -0.23217344 -0.0003051128 0.06594487 0.07012148 -0.019804912 0.097513735 -0.16694027
0.034827977 0.043120865 -0.025193114 -0.080273084 0.08556548 0.08250857 0.13565904 -0.03875507
-0.1277869 -0.011388066 0.06465039 -0.06636509 -0.36929286 -0.008826721 -0.086879104 0.06054089
0.030115929 -0.09713342 -0.08065473 0.048147168 -0.06072758 0.0115592135 0.15592292 -0.18584435
0.02837949 -0.15969063 0.13047989 0.0940921 0.087698855 0.087835364 -0.32283255 -0.047934603
0.1954885 0.092117004 -0.038803462 0.11992295 -0.016094686 -0.2535546 -0.044586163 0.115270615
0.1613192 -0.13816278 -0.046823096 0.07976602 0.013417623 0.104597144 0.25438106 0.022778854

dense1.0.bias f4 [32]
00000000: 616c 18bf 7e23 17be 66aa 363f d1da d53e
00000010: 2aaf 4dbf 0826 be3f 33eb 013f 43a6 28bf
00000020: 46cf 9a3e 1ba3 bb3d c479 f53e a021 59bf
00000030: 617a 2e3f 52be 3bbf 7a50 65bf 7e43 843f
00000040: 0141 123e 6613 393e 84f7 ba3e 0004 433e
00000050: c305 7e3f 527c 3b3f f171 76bf 0c61 1b3f
00000060: c9a8 ab3e ffdc c49c ebe5 83bf aca3 51b6
00000070: d3a8 0f40 dfef 513f b963 0fbf d42f a83e
-0.59540373 -0.14759633 0.7135376 0.41768506 -0.80345404 1.4855356 0.5074951 -0.65878695
0.30236262 0.09161969 0.47944462 -0.8481693 0.68155485 -0.7333728 -0.8957592 1.0333097
0.1428261 0.18073806 0.36516964 0.19044495 0.9922754 0.7323657 -0.9626761 0.60694957
0.3352721 -1.3027318e-21 -1.030454 -3.1238696e-06 2.2446792 0.8200664 -0.5601154 0.3284899

dense2.weight f4 [10, 32]
00000000: 019c a1bd 1a73 3b3e 0e6d 17bf db2a b9be
00000010: d87e 8b3e e3dd b7be 6ad8 54bd 5f84 56bd
00000020: 30d7 2bbd b34c a0be 3947 3a3f 3cea 993e
00000030: 4e7f 2d3e cdaa 103e 0987 b9be 8361 27be
00000040: caa4 583d 6ff1 a53e a34d 953e cbdb 043e
00000050: c06b d63d fb3d 563e 995e 5e3e 834e df3e
00000060: 4510 7c3e 3ead 78b7 bcc7 323f 878d 413b
00000070: 6346 adbd c0bd 803e 8a80 cfbd a37e 0d3f
00000080: a62b 6a3e 945f c0be 8536 2cbd 3f7b 59bd
00000090: 569f 883e 0626 91bd 961c 863d 20dd ddbe
000000a0: ed7a 803d e2f2 a33e 7878 16bf 27b0 143e
000000b0: 96ed 37be d41f 1dbf d406 013f e727 e43b
000000c0: 62c7 243e 7851 4cbe 102b 273e ff93 8b3e
000000d0: daf3 3cbf a228 b1be 890b 593f 54b3 2fbe
000000e0: 01ee aa3d 5065 fcb9 647c 4dbe 550d 52ba
000000f0: 2cf1 8dbd 3bf0 c5be 492a 1f3f a4d2 75be
00000100: 476e ed3c d2b7 cf3e 9808 773d 9fb4 b8be
00000110: 3d68 d8bd abd4 4b3e d3e1 9abe a7f5 bc3d
00000120: cb7e 86bd a04d 2a3e e727 6a3e 5a03 b93d
00000130: 4ea8 83be 9524 e03e 67e4 743e 77b7 06be
00000140: fc2a 843d bc57 0f3e 73a8 d63e 15af b7be
00000150: 440f 243e 38ef 70be 9d4d cd3e f9cd 383d
00000160: a8b2 123f 2bf6 ae3a aee7 c63e cd02 9c3a
00000170: f879 38bd 60d9 383e 7eef c5be 8e32 29bd
00000180: 898d 4f3d 82da 083e ce17 c53d 8340 d23d
00000190: 2b2d 7039 0bb5 68bb 8432 9cbd 0a9d 953e
000001a0: 751f babe f237 acbe 5c67 07be b259 8dbd
000001b0: 99ac 583e 020c 613e 3b8e 1fbe 21d2 10bd
000001c0: 15e2 8e3e 15e9 aebe 29a5 d1bd 4c52 243c
000001d0: b482 1cbe cbea 03be 11f8 99be 8f7c ed3d
000001e0: be15 b93d a80b 3bba 2685 0dbd 1c9c b03b
000001f0: 3ee5 23be 347d 833d 8e78 bdbe 984f 94bd
00000200: 9912 67be 64fa d8be a3ef a93e 6f41 92be
00000210: 10bb c3be 0f25 0c3f d07b 843e 09cc 36be
00000220: 2ff7 5abe 3ee4 06be d0aa 933d 3f17 0dbf
00000230: a965 bebe fd1d 01bd b683 09bc cb83 483f
00000240: 4b86 46be 0fa5 393e 20d1 94be e9df 923d
00000250: 971f 413e 9124 b9bd c4ab b2be 3941 a4be
00000260: 825b b33c 1307 c5ba af59 58bf c690 91ba
00000270: 167d a8be eed5 b83e c3ea dcbe d045 9b3e
00000280: 748b bbbc 787f a23c dd30 c6bd 68cf 843e
00000290: 6261 edbd 78b8 14be b404 0dbe eca5 a43e
000002a0: 318a dcbe 10b2 1cbe 2d8e 67be 0786 b53d
000002b0: 2c0b 97be da5f e23e e690 afbe 8eb2 ddbd
000002c0: 1a32 7abd 83f0 96be d1d1 67be a94e 453e
000002d0: f6eb 6fbc af3b d83d c8c6 52be 638b 8f3e
000002e0: 673b 4ebe 2a32 53bb 0b4c d6bd 9dd0 77bb
000002f0: 4546 99be b2ac 893a 30b7 c7be 4dfb 983d
00000300: 088a eabc 1243 2e3e 036f b23d b016 1f3d
00000310: d8a7 a13e 2233 623e 1d6a 993e 11a8 883e
00000320: ec17 4c3f 95ce 363e 178a 143f d12e 0b3b
00000330: d538 d73d 11d0 c4be 12b4 5dbd 096e e8be
00000340: 9304 b8bd d473 873e 8bf1 903e c372 1abf
00000350: 84d0 7abd 32e0 8ebe d7b7 b9be 168d 3b3d
00000360: 75b7 d4bb 0fbc 4f3b e23e 443d a181 e6b9
00000370: eb92 3d3e 2cda eebe 64d9 c5be 913c 9abe
00000380: b994 043c 0bec f1be f0bf c7bd c340 2fbe
00000390: 4645 023e 4b7a 5abd 300b 2bbd aaf6 e73d
000003a0: d206 3cbe 45d6 e1be 1760 a8be 50b5 b6bd
000003b0: 989f 74be 92ac 1a3a 064b bc3e e106 68be
000003c0: 679d febe 4620 7dbe e605 9bbe 874a ad3e
000003d0: 8a6f a73e d1db 713f 0a82 e9be 03fb 2ebf
000003e0: 2900 94be 498a 293b 8c86 09bf ff95 c839
000003f0: 994b e1be 7bd1 52be 854f cfbe 5f1b 2b3e
-0.078910835 0.18305627 -0.5915078 -0.3616551 0.27245212 -0.35911474 -0.0519642 -0.052372333
-0.041953266 -0.31308517 0.7276493 0.3006152 0.16943094 0.14127655 -0.36235836 -0.16345792
0.05289153 0.32410762 0.29160795 0.1297447 0.104697704 0.20922081 0.21715774 0.43614587
0.24615581 -1.4822288e-05 0.6983602 0.002953382 -0.08460691 0.25144768 -0.10131939 0.5527136
0.22868213 -0.3757292 -0.04204418 -0.053096052 0.26684064 -0.070873305 0.06548421 -0.43332767
0.06273446 0.32021242 -0.5877757 0.14520322 -0.17961726 -0.6137669 0.50401044 0.0069627645
0.16091684 -0.19952953 0.16325021 0.2726135 -0.7380959 -0.34601313 0.84783226 -0.17158252
0.08346177 -0.0004814067 -0.20066983 -0.0008012851 -0.069307655 -0.38659844 0.621739 -0.24006134
0.028983248 0.4056993 0.06031093 -0.36075303 -0.10566757 0.19905345 -0.30250415 0.09226542
-0.065671526 0.16631174 0.22866784 0.090338424 -0.25714344 0.4377791 0.23915254 -0.13155924
0.06453511 0.13998312 0.41925392 -0.35875764 0.16021448 -0.23528755 0.40098277 0.045118306
0.5730386 0.001334851 0.38848633 0.001190269 -0.045038193 0.18051672 -0.3865928 -0.04130798
0.050672088 0.13364604 0.09623681 0.10266211 0.0002290501 -0.00355083 -0.076268226 0.29221374
-0.36352125 -0.33636433 -0.13223022 -0.06901874 0.21159591 0.21977237 -0.155816 -0.035356645
0.27906862 -0.34162202 -0.1023658 0.010029387 -0.15284234 -0.12882535 -0.30072072 0.11596023
0.0903735 -0.0007135221 -0.03455081 0.0053897034 -0.16005418 0.06420365 -0.37006038 -0.07241744
-0.22565688 -0.42378533 0.3319064 -0.28565547 -0.38228655 0.54744047 0.2587571 -0.1785127
-0.21383356 -0.13173005 0.07210314 -0.55113596 -0.37186936 -0.03152274 -0.008393219 0.783261
-0.19387166 0.18129371 -0.290658 0.07171614 0.18859707 -0.090401776 -0.34896672 -0.3208101
0.02189422 -0.0015032016 -0.84511846 -0.0011105768 -0.32907933 0.36100715 -0.4314786 0.303267
-0.022893645 0.019836172 -0.09677289 0.25939488 -0.1159084 -0.14523494 -0.13771325 0.32157838
-0.43074182 -0.153023 -0.2261283 0.08863454 -0.2950071 0.44213754 -0.34290236 -0.10825072
-0.061082937 -0.2948037 -0.22638632 0.19268288 -0.01464366 0.10558259 -0.20583642 0.2803603
-0.20139848 -0.0032225945 -0.10463723 -0.0037813552 -0.29936424 0.0010503738 -0.39006948 0.07469807
-0.028630272 0.17017773 0.0871258 0.038839996 0.31573367 0.22089818 0.2996377 0.26690724
0.79724 0.17852242 0.5802321 0.0021237622 0.10508887 -0.38439992 -0.054126807 -0.4539645
-0.089852475 0.26455557 0.28309283 -0.6033136 -0.061234012 -0.27905422 -0.3627307 0.045788847
-0.0064915963 0.0031697785 0.047911532 -0.000439656 0.18513076 -0.46650827 -0.38642418 -0.30124334
0.008092099 -0.472504 -0.09753406 -0.17114548 0.12721738 -0.053339284 -0.041758716 0.11326344
-0.18361977 -0.44108787 -0.3288581 -0.08921301 -0.23889005 0.0005900349 0.36775988 -0.22658874
-0.49729463 -0.24719343 -0.30277938 0.33845922 0.32702285 0.9447604 -0.45607024 -0.68351763
-0.28906372 0.0025869778 -0.5372093 0.00038258728 -0.4400299 -0.20587723 -0.40490356 0.1670966

dense2.bias f4 [10]
00000000: 490e 4cbe 5f7e 46bf 661d 2abf 5178 02be
00000010: baca be3f 2373 da3e 5d26 e9be 00d9 58bf
00000020: d7bf 4b3f 0199 1d3e
-0.19927324 -0.77536577 -0.6645111 -0.1274121 1.4905617 0.42665967 -0.4553708 -0.84706116
0.795896 0.15390398
