ResidualLoss/CNN-Train/CIFAR_17/epoch-3825.pt (torch, 27135 bytes, 10 tensors)

conv1.0.weight f4 [8, 3, 3, 3]
0	0xbe92ddf9	-0.28684977
1	0xbd4c98c7	-0.049950387
2	0xbe4fdbc2	-0.20298675
3	0xbee7c959	-0.45270804
4	0xbe026809	-0.12734999
5	0x3dd3fd81	0.103510864
6	0x3ec0a88f	0.376286
7	0x3e539dcb	0.20665662
8	0x3debaf63	0.11508062
9	0xbe941664	-0.28923333
10	0x3e8fced6	0.2808749
11	0xbd1567a5	-0.036475796
12	0xbe5d3ec7	-0.21605979
13	0x3e8c24e0	0.27371883
14	0x3e60d0da	0.2195467
15	0x3ebc5c9c	0.36789405
16	0xbcc097ab	-0.02350982
17	0xbeb39cd4	-0.35080588
18	0x3ec43e9d	0.3832902
19	0x3e197f6f	0.14990018
20	0xbe6c5370	-0.23078704
21	0xbefa8407	-0.48928854
22	0xbe71c7bc	-0.23611349
23	0x3e2d159b	0.16902773
24	0x3ea817b5	0.32830587
25	0xbdcd3c31	-0.10021246
26	0xbd05d09f	-0.03266966
27	0xbeec2488	-0.4612162
28	0x3e9aac54	0.302096
29	0x3c17a096	0.009254595
30	0x3e6af8f1	0.22946526
31	0xbeccb9c3	-0.39985475
32	0x3e76aebd	0.24090095
33	0x3ed25660	0.41081524
34	0xbd172ab8	-0.036905974
35	0xbeb645e7	-0.35600206
36	0xbe669099	-0.22516097
37	0x3e478194	0.19483024
38	0x3de9f1f5	0.11423103
39	0x3da92fd1	0.082610734
40	0xbec1aeae	-0.37828583
41	0x3e94fe26	0.2910015
42	0x3e1bd2ab	0.15217082
43	0xbe3d7be1	-0.18504287
44	0xbd2f818c	-0.042848155
45	0xbd83ef78	-0.064421594
46	0x3e2fb302	0.1715813
47	0xbd442fd8	-0.04789719
48	0x3e219548	0.15779603
49	0xbef89de1	-0.48557952
50	0x3dd0efd0	0.102019906
51	0x3effd6dc	0.49968612
52	0x3d2b7e83	0.041868698
53	0xbec5b1f2	-0.38612324
54	0x3e159082	0.14605907
55	0xbeecf15e	-0.462779
56	0x3d008bfe	0.031383507
57	0xbee768aa	-0.4519704
58	0x3e29738c	0.16547984
59	0x3ee0f09a	0.43933564
60	0xbd6ea337	-0.058261123
61	0x3ec5e0ae	0.3864798
62	0xbe7d11e8	-0.24713862
63	0x3ea0a1fa	0.31373578
64	0xbe7c00a1	-0.24609615
65	0x3c8bca4a	0.017064232
66	0xbe876405	-0.26443496
67	0xbcaea139	-0.021317111
68	0x3e459922	0.19296697
69	0xbe1ac8f3	-0.15115719
70	0x3e5aeb8d	0.21378918
71	0xbd7ca7fb	-0.061683636
72	0xbd4501d6	-0.048097454
73	0xbe205e59	-0.15660991
74	0x3e742eb3	0.2384594
75	0xbebbe237	-0.36696026
76	0x3d5863b2	0.05282945
77	0x3dadbaa9	0.08482868
78	0xbe50ec6b	-0.20402686
79	0x3e627ebe	0.22118661
80	0x3e2c8563	0.16847758
81	0x3ea4d9b0	0.32197332
82	0x3e860e06	0.26182574
83	0x3e2fcbf4	0.17167646
84	0xbee2eaaf	-0.44319674
85	0xbeda557d	-0.42643347
86	0xbc048225	-0.0080876695
87	0x3e0d7da8	0.13817465
88	0x3c19fb9e	0.009398369
89	0x3e3ae550	0.18251538
90	0x3d350d03	0.044201862
91	0x3ed8d3cf	0.42349097
92	0xbe00a635	-0.12563403
93	0xbed1c3bb	-0.40969643
94	0xbd5b3a44	-0.053522363
95	0xbb497f8b	-0.0030746188
96	0x3e2ad624	0.1668325
97	0xbe79d67c	-0.24398226
98	0x3d783909	0.060601268
99	0x39fd480f	0.00048309608
100	0x3e8116af	0.2521262
101	0x3dd9dd09	0.10637862
102	0xbeb19bc3	-0.3468915
103	0x3daf93aa	0.085730866
104	0x3e8905c1	0.26762202
105	0xbdbe4280	-0.092900276
106	0xbe97fdbd	-0.29685774
107	0x3cb9600b	0.022628805
108	0x3ecc67fe	0.3992309
109	0x3e8d08f1	0.27545884
110	0x3f0d3fc4	0.55175424
111	0xbdaa0528	-0.08301765
112	0xbdc3a686	-0.09553246
113	0x3e20870a	0.15676513
114	0xbe874d8d	-0.26426354
115	0xbe0d58b5	-0.1380337
116	0xbebb2b60	-0.3655653
117	0xbed7f52b	-0.42179236
118	0xbf0d7547	-0.55257076
119	0x3cda528b	0.026650688
120	0x3d924158	0.071413696
121	0xbee07921	-0.43842414
122	0x3e74b859	0.23898448
123	0xbe830bf0	-0.25595045
124	0xbe49d937	-0.19711767
125	0xbc81eac7	-0.01585902
126	0xbe2fa986	-0.17154512
127	0x3d2ea2de	0.04263579
128	0xbea1c661	-0.31596664
129	0x3e0436c5	0.12911518
130	0xbe261a33	-0.16220932
131	0xbe0fa25f	-0.14026783
132	0x3ef19a60	0.4718809
133	0x3e2a67b4	0.16641122
134	0x3e390a34	0.18070298
135	0xbd25277c	-0.04032086
136	0xbd2ced99	-0.04221878
137	0x3e23d89c	0.16000599
138	0xbe4adff1	-0.1981199
139	0xbf65a0b4	-0.8969834
140	0xbf3f2805	-0.7467044
141	0x3e590b08	0.21195614
142	0x3d9aef66	0.07565193
143	0x3c9e93fd	0.019357676
144	0xbe5cb88c	-0.21554774
145	0x3db80711	0.08985723
146	0xbc5cdf6f	-0.013481005
147	0x3e58754f	0.211385
148	0x3e26017d	0.16211505
149	0xbc3061ab	-0.010765473
150	0xbe4b0a01	-0.19828035
151	0x3dda4e18	0.106594265
152	0x3e467088	0.19378865
153	0xbce7c1b1	-0.028290601
154	0x3dbb7706	0.09153561
155	0xbd76969b	-0.060202222
156	0x3da33b49	0.07970292
157	0x3e9dfc54	0.30856574
158	0x3f2fbd0e	0.6864785
159	0x3d75c301	0.060000423
160	0x3dca959b	0.09891816
161	0x3c61d7da	0.013784373
162	0xbd3bdd91	-0.0458656
163	0x3ee9d4c5	0.45670143
164	0x3ef85487	0.4850199
165	0x3d0d66be	0.03452181
166	0xbe677c19	-0.22605933
167	0xbf1ad52c	-0.60481524
168	0x3df46c74	0.11934748
169	0xbd53b95d	-0.051690448
170	0xbc6f387d	-0.01460087
171	0xbd80159a	-0.0625412
172	0x3e947361	0.28994277
173	0xbda4ace6	-0.0804079
174	0x3dbe6104	0.09295848
175	0x3d61a36b	0.05508749
176	0xbec8af02	-0.3919602
177	0xbe3c85d8	-0.18410432
178	0xbe86b4ab	-0.26309714
179	0x3ec50585	0.38480774
180	0xbe832158	-0.25611377
181	0x3e90b8e1	0.2826605
182	0x3dd89506	0.10575299
183	0x3e07b532	0.13252714
184	0xbd7d8eb9	-0.06190369
185	0xbe5934ed	-0.21211596
186	0x3df6aae4	0.120443135
187	0xbe028923	-0.12747626
188	0x3d31210f	0.043244418
189	0x3d8e6093	0.06952014
190	0xbc1f7964	-0.009733532
191	0xbd601f27	-0.05471721
192	0xbde7be20	-0.1131556
193	0x3e8367bd	0.25665084
194	0xbc487804	-0.012235645
195	0xbe84683c	-0.25860775
196	0x3ec55307	0.38539907
197	0xbeac61f4	-0.33668482
198	0xbe3e4720	-0.1858182
199	0x3ebbd4af	0.36685702
200	0xbe0b7603	-0.13619237
201	0xbea9a962	-0.3313704
202	0x3ed51535	0.41617742
203	0xbe8ce458	-0.27517962
204	0xbe0d942a	-0.13826051
205	0x3f1151f1	0.5676566
206	0xbe709ca0	-0.23497248
207	0x3b13eeeb	0.0022572826
208	0x3de24451	0.110481866
209	0xbd031ed9	-0.03201184
210	0xbe0eb074	-0.13934499
211	0x3e4e35be	0.20137689
212	0xbe224df1	-0.15850045
213	0xbe78501b	-0.24249308
214	0x3eacae39	0.3372667
215	0xbdf81cd8	-0.121148765

conv1.0.bias f4 [8]
0	0x3e842283	0.2580758
1	0x3c4d2e4d	0.012523246
2	0x3c9257c7	0.017864121
3	0x3d38be00	0.045103073
4	0x3e2a0a59	0.1660551
5	0x3f158ff4	0.5842278
6	0x3ad1ca93	0.0016005806
7	0x3cfc3e78	0.030791506

conv2.0.weight f4 [8, 8, 3, 3]
0	0x3e02e324	0.1278196
1	0x3e4c5e5b	0.19957869
2	0xbe04b411	-0.12959315
3	0x3d8ff2e1	0.07028747
4	0x3e3fb1bf	0.18720149
5	0x3e813b01	0.2524033
6	0x3caec6f9	0.021335112
7	0xbdbb2e35	-0.09139673
8	0x3e70b5b8	0.2350682
9	0x3d57a5c0	0.052648306
10	0xbd02b9bd	-0.031915415
11	0x3ec62aa3	0.38704404
12	0x3d2b4f3b	0.041823607
13	0x3db97ecb	0.09057387
14	0x3df4d82b	0.11955293
15	0x3e4730e5	0.19452246
16	0x3ea8633b	0.32888207
17	0x3ceda761	0.029010477
18	0x3d080e83	0.033216964
19	0x3c6d4b2c	0.014483254
20	0x3cbd06c1	0.02307451
21	0xbe5c9214	-0.215401
22	0xbe81c87d	-0.25348273
23	0xbe27f5dc	-0.16402382
24	0xbdd8daa6	-0.10588579
25	0xbd7d4fe3	-0.061843764
26	0xbd37fd5d	-0.04491936
27	0x3d0c8c55	0.03431352
28	0x3ddf5f3b	0.10906836
29	0x3db5f109	0.088838644
30	0x3e615c14	0.22007781
31	0x3e34b416	0.17646822
32	0x3d8dd8e6	0.06926136
33	0x3e2b57ff	0.16732787
34	0x3e145132	0.14484099
35	0xbe2cbed9	-0.16869678
36	0x3e453f40	0.19262409
37	0xbca1eeaf	-0.019767134
38	0x3d3c596f	0.045983728
39	0xbe76f4c3	-0.24116807
40	0x3b90138d	0.004396862
41	0xbb04d787	-0.0020270066
42	0x3eb7d666	0.3590576
43	0xbddd13dd	-0.10794804
44	0xbe819cac	-0.25314844
45	0xbe782ec1	-0.24236585
46	0xbddc225f	-0.10748743
47	0x3e9868a1	0.29767326
48	0x3e944e8e	0.28966182
49	0xbe906700	-0.28203583
50	0xbe6dddb1	-0.232291
51	0x3c17a2f7	0.009255162
52	0x3e1de1a3	0.15418105
53	0x3d644e02	0.055738457
54	0xbe11c79d	-0.14236303
55	0x3dddbb41	0.108267315
56	0xbdd5a921	-0.104326494
57	0xbe37814e	-0.1792042
58	0xbda574ce	-0.08078919
59	0xbccc0acd	-0.024907494
60	0x3d33b08c	0.04386954
61	0xbef2a58f	-0.47391936
62	0x3e8996b5	0.26872793
63	0xbe0bfdbc	-0.1367101
64	0xbf1b950f	-0.6077432
65	0xbe2e0e77	-0.16997705
66	0xbec83200	-0.39100647
67	0xbf2b4fa1	-0.6691838
68	0xbf4a8d7d	-0.79122144
69	0x3e4aff35	0.19823916
70	0xbce06b62	-0.027394954
71	0xbcb2a8d9	-0.021809028
72	0x3d04d7bf	0.032432314
73	0xbe4788bf	-0.19485758
74	0x3e4f0dfe	0.20220181
75	0x3d6b76c0	0.057486296
76	0x3e5127fd	0.2042541
77	0xbdf067ee	-0.11738573
78	0x3db10ad7	0.08644646
79	0x3c80a35b	0.015702894
80	0xbdbe85d5	-0.0930287
81	0x3ea5f3f6	0.3241269
82	0xbe0fe64c	-0.14052695
83	0x3dd55227	0.1041606
84	0xbe8722c4	-0.26393712
85	0x3d83f225	0.0644267
86	0x3da8e824	0.08247402
87	0xbbb9bc53	-0.005668202
88	0x3e08b180	0.13348961
89	0x3e0c3b54	0.13694507
90	0x3e238e6a	0.15972295
91	0x3f191873	0.5980293
92	0x3e801260	0.2501402
93	0x3eb65aa0	0.35616016
94	0x3d06da05	0.032922763
95	0x3e8bd4b3	0.27310714
96	0x3e5978fa	0.21237555
97	0x3e91b131	0.284555
98	0x3e39e3c0	0.18153286
99	0xbe7128e3	-0.23550753
100	0x3c2e4a3d	0.010637817
101	0xbe1fad97	-0.15593563
102	0x3e097b69	0.13425983
103	0xbed0543c	-0.40689266
104	0xbee94920	-0.45563602
105	0xbddcb5ba	-0.10776849
106	0xbecf03f3	-0.404327
107	0xbe3e8aa8	-0.1860758
108	0xbe28ede2	-0.16496995
109	0x3e2ae1a0	0.16687632
110	0xbda9a732	-0.08283843
111	0x3e455a77	0.19272791
112	0xbdee8ab4	-0.11647549
113	0xbd61368b	-0.054983657
114	0xbc68e250	-0.014214113
115	0xbd2e808f	-0.04260307
116	0x3e6768af	0.22598527
117	0xbe40e8f5	-0.18838866
118	0x3d902144	0.07037595
119	0xbe210ca8	-0.15727484
120	0x3dad10e4	0.08450487
121	0xbe417816	-0.18893465
122	0x3d498f37	0.049208846
123	0xbe3fe067	-0.18737946
124	0xbe337bb9	-0.17527665
125	0x3eb538d9	0.35394934
126	0x3f3601f4	0.7109673
127	0xbcbed0e5	-0.023292968
128	0xbdb0e1b5	-0.086368
129	0x3ebac909	0.36481503
130	0x3e2e1672	0.1700075
131	0x3e712574	0.23549443
132	0x3ded4703	0.1158581
133	0x3f049f65	0.51805717
134	0x3e745963	0.23862223
135	0x3d6c7c43	0.057735693
136	0x3dd2d037	0.1029362
137	0xbe012743	-0.12612633
138	0xbe2ef37c	-0.1708507
139	0xbd8c2879	-0.06843657
140	0xbd961fd8	-0.073302925
141	0xbe9e7a6e	-0.3095278
142	0xbf16a962	-0.5885221
143	0xbdc30f0a	-0.09524353
144	0xbe4f88ce	-0.2026703
145	0xbe32f591	-0.17476489
146	0xbd71f859	-0.059074733
147	0x3e6f1dca	0.23351207
148	0xbe70dff6	-0.23522934
149	0xbe25ea62	-0.16202691
150	0x3e3eb201	0.1862259
151	0xbec84d79	-0.39121607
152	0xbe862424	-0.26199448
153	0xbe19e884	-0.15030104
154	0xbe983d52	-0.29734284
155	0xbcbd5a4a	-0.023114342
156	0xbf08aaa9	-0.53385407
157	0xbe2525d6	-0.16127715
158	0x3e778204	0.24170691
159	0xbe00f90b	-0.12595002
160	0x3dad83d6	0.08472411
161	0x3e2bc48a	0.16774192
162	0x3e44fd5c	0.19237274
163	0x3e633eba	0.22191897
164	0x3e0b8461	0.13624717
165	0x3845701d	4.7072874e-05
166	0x3e974f4f	0.29552695
167	0x3e7f44ef	0.2492864
168	0x3dbc6375	0.091986574
169	0xbe25ecde	-0.16203639
170	0xbbdacd04	-0.006677272
171	0xbdce0cf5	-0.10061065
172	0x3e558f69	0.20855488
173	0xbe212f40	-0.1574068
174	0xbc8f3aba	-0.017484058
175	0x3d4df9e4	0.050287142
176	0x3d976e40	0.073940754
177	0x3dc5b1af	0.09653031
178	0x3e6d5914	0.23178512
179	0xbeb0d949	-0.34540775
180	0x3c286588	0.010278113
181	0x3eb15d17	0.34641334
182	0xbc18502e	-0.00929646
183	0x3e05e2a6	0.13074741
184	0xbc6f3016	-0.014598867
185	0xbe29a0e2	-0.16565278
186	0xbd9524f6	-0.0728244
187	0x3d9182a2	0.07104994
188	0x3be14e5f	0.0068757976
189	0xbdded802	-0.10881044
190	0x3eb1c502	0.34720618
191	0xbd88b699	-0.06675453
192	0x3a95f02b	0.0011439373
193	0x3f0a2fa7	0.5397896
194	0xbe14bb24	-0.14524513
195	0x3efe1923	0.49628553
196	0xbdb7174b	-0.0893999
197	0xbefec014	-0.4975592
198	0xbe44ffb2	-0.19238165
199	0xbe187f01	-0.14892198
200	0xbdaa641e	-0.08319877
201	0x3d0f3d76	0.034970723
202	0xbe7cc9b6	-0.24686322
203	0xbd908420	-0.07056451
204	0xbecabc6f	-0.39596888
205	0x3d6d53b3	0.05794115
206	0xbdddf375	-0.10837451
207	0x3d7456d2	0.05965311
208	0x3e067ac1	0.13132764
209	0x3d12a728	0.035803944
210	0xbe3e2d5e	-0.18571994
211	0xbd1ad086	-0.03779652
212	0x3d86d4db	0.06583568
213	0xbb66cb7e	-0.0035216506
214	0x3dffcda1	0.124903925
215	0xbdbc01ae	-0.09180008
216	0x3e02bb2a	0.1276671
217	0xbe07e62c	-0.13271397
218	0xbc336775	-0.010949959
219	0x3e899be8	0.2687676
220	0x3e66ec01	0.22550966
221	0x3da068e4	0.07832506
222	0xbd76ec54	-0.060283974
223	0x3e259eb9	0.16173829
224	0xbc8ea69b	-0.017413428
225	0xbd81efd8	-0.06344575
226	0xbde33836	-0.11094706
227	0xbd7f03e6	-0.062259577
228	0xbe9144f8	-0.2837293
229	0xbf086f10	-0.5329447
230	0x3d14b588	0.036305934
231	0xbd87455f	-0.06605028
232	0xbeef5382	-0.467434
233	0xbda40a1e	-0.08009742
234	0x3d96b4e3	0.0735872
235	0x3dd76050	0.10516417
236	0xbc60ea3f	-0.013727724
237	0xbd9f305b	-0.07772895
238	0xbd406a1e	-0.0469762
239	0x3d7669ab	0.060159367
240	0xbe97f389	-0.2967799
241	0xbf1cd6b1	-0.61265093
242	0x3cc57f47	0.024108542
243	0x3e7e60e4	0.24841648
244	0x3e8e0251	0.27736142
245	0x3e65b82a	0.22433534
246	0x3e9c5841	0.30536082
247	0xbbe93f9b	-0.007118178
248	0xbd8ca955	-0.06868235
249	0xbd947510	-0.072488904
250	0x3de8609e	0.11346553
251	0x3d0eb145	0.034837026
252	0xbe8a8e18	-0.27061534
253	0xbcc2d806	-0.023784649
254	0xbd85b933	-0.065294646
255	0xbd8caf79	-0.06869406

conv2.0.bias f4 [8]
0	0x3f28fda6	0.66012037
1	0x3ee452f0	0.44594526
2	0x3ebe0aca	0.37117606
3	0xbd4b07ae	-0.04956787
4	0x3fa1acbd	1.263084
5	0x3ef60e0e	0.48057598
6	0x3e915b71	0.28390077
7	0xbe4d5a85	-0.20054062

conv3.0.weight f4 [8, 8, 3, 3]
0	0x3db20cc6	0.086938426
1	0xbd20ef8d	-0.039290953
2	0x3ecee293	0.40407237
3	0xbda12226	-0.078678414
4	0xbe8bdf63	-0.27318868
5	0x3d975526	0.07389288
6	0xbe8d2053	-0.27563724
7	0xbe83b649	-0.2572501
8	0x3e3dbac4	0.18528277
9	0x3e953256	0.29139966
10	0x3d8efb1b	0.06981488
11	0x39e55b2f	0.0004374622
12	0x3ea0f9b1	0.314405
13	0x3ec107d3	0.37701282
14	0x3d90f77a	0.070784524
15	0xbcb09c8f	-0.021559028
16	0x3c812f24	0.015769549
17	0x3e0f7d54	0.14012653
18	0xbb945602	-0.0045268545
19	0x3e309130	0.17242885
20	0x3e9e5697	0.30925438
21	0x3d770073	0.060303163
22	0xbdde89d7	-0.108661346
23	0xbda6b7cc	-0.08140525
24	0x3dff737a	0.12473197
25	0xbdf3739e	-0.118872866
26	0xbe64ade9	-0.22331966
27	0x3eb9efae	0.36315674
28	0x3edc91b2	0.43079907
29	0x3e202557	0.15639244
30	0x3eacde82	0.3376351
31	0x3eccb122	0.39978892
32	0x3e8d232e	0.27565902
33	0x3f25afac	0.6472118
34	0x3ed7c4c4	0.42142308
35	0x3de01b07	0.10942655
36	0xbe82e1cf	-0.25562903
37	0xbe5fcd4c	-0.21855658
38	0xbec42517	-0.38309547
39	0xbe3f2e1b	-0.18669932
40	0x3dd43a28	0.10362655
41	0xbe8028a8	-0.25031018
42	0xbe28d646	-0.16487989
43	0xbd0ce140	-0.034394503
44	0x3db3f80c	0.087875456
45	0xbd0d4834	-0.034492686
46	0xbea08914	-0.31354582
47	0xbe9216c7	-0.28533003
48	0xbef8b616	-0.4857642
49	0xbf06a8c3	-0.5260126
50	0xbe77aafe	-0.24186322
51	0xbe1a14b6	-0.15046963
52	0xbe784df4	-0.24248487
53	0xbe8150b4	-0.25256884
54	0xbc5f7679	-0.013639086
55	0xbdabdb32	-0.083914176
56	0x3c4e6bd8	0.012598954
57	0xbd4ff158	-0.050767273
58	0x3d0ff662	0.03514708
59	0x3e0bbb41	0.1364565
60	0x3e1d6577	0.15370737
61	0xbaf367e2	-0.0018570388
62	0x3ddac3b9	0.106818624
63	0x3d87f986	0.0663939
64	0xbe272588	-0.16322911
65	0xbb140fef	-0.0022592505
66	0xbe839b59	-0.25704458
67	0xbd1ecf03	-0.03877164
68	0x3d14bc08	0.036312133
69	0x3e1d61f3	0.15369396
70	0x3d46f248	0.0485709
71	0xbe695b3d	-0.22788711
72	0x3e1d1c0f	0.15342735
73	0xbec9d096	-0.3941695
74	0xbdf2eed9	-0.11861963
75	0x3ef8eb0a	0.4861682
76	0x3f148351	0.5801287
77	0x3eaa4e23	0.3326274
78	0x3e71f215	0.23627503
79	0x3e8fad94	0.28062117
80	0xbe75b5cf	-0.23995136
81	0xbd039a19	-0.03212938
82	0xbc5bb611	-0.013410107
83	0x3d41539f	0.047198888
84	0xbdd6e2bb	-0.10492464
85	0xbbf4f124	-0.0074750353
86	0xbca20d8a	-0.019781847
87	0xbdd05803	-0.10173037
88	0xbeef4318	-0.46730876
89	0xbd5f9648	-0.05458668
90	0xbe5f5911	-0.2181132
91	0xbdaf1d88	-0.085505545
92	0xbd80ff3d	-0.06298683
93	0x3dbccb32	0.09218444
94	0xbe3ac2ab	-0.18238322
95	0xbd839c33	-0.06426277
96	0x3d13b1de	0.0360583
97	0xbe50a620	-0.20375872
98	0xbd4ea813	-0.050453257
99	0x3e25f744	0.16207606
100	0x3e5f7a80	0.21824074
101	0xbbd9159a	-0.0066248896
102	0x3e2f2e0f	0.17107414
103	0x3e5516be	0.20809457
104	0x3d4cb38d	0.04997592
105	0x3d82be9b	0.06384011
106	0x3e8c5e63	0.2741576
107	0xbdc3d531	-0.095621474
108	0xbe308c44	-0.17241007
109	0xbe6fd7ae	-0.23422119
110	0xbd80c5f7	-0.06287759
111	0xbee5aec5	-0.448599
112	0xbe9b80d0	-0.30371714
113	0x3df43a4a	0.1192518
114	0x3d5d2950	0.053994477
115	0xbe73797d	-0.23776813
116	0x3d95de37	0.07317775
117	0x3e8abf03	0.27098855
118	0x3e3069f5	0.1722792
119	0x3d5ef107	0.05442908
120	0x3eaac0e0	0.33350277
121	0x3e4c44bc	0.19948095
122	0x3dd30960	0.103045225
123	0x3f7180cd	0.9433716
124	0xbe754b96	-0.23954615
125	0xbd7b33ec	-0.061328813
126	0x3e2d44be	0.16920754
127	0x3e655b08	0.22398007
128	0x3d0e4cfa	0.03474138
129	0xbe9b05e9	-0.30277947
130	0xbe87cccf	-0.26523444
131	0xbdbf37bf	-0.093368046
132	0xbe615618	-0.22005498
133	0xbe3b4e95	-0.18291695
134	0x3ea52d21	0.32260993
135	0x3e1c9d16	0.15294299
136	0x3d995511	0.07486928
137	0xbd5719ad	-0.05251472
138	0x3d2f5fa4	0.04281582
139	0xbe6e9924	-0.23300606
140	0xbdf5e72f	-0.120069854
141	0x3e06d778	0.13168132
142	0xbdb1a265	-0.086735524
143	0x3e6699dc	0.2251963
144	0x3e44ab64	0.19206005
145	0xbd46c207	-0.048524883
146	0xbe3e0b0f	-0.18558906
147	0x3e02ea6c	0.12784737
148	0xbe8a5a0f	-0.27021834
149	0xbe52ee4b	-0.20598714
150	0xbd0a714a	-0.033799447
151	0xbcfbd99a	-0.030743409
152	0x3defb562	0.11704518
153	0x3e66e2ab	0.22547404
154	0x3edadb91	0.4274564
155	0x3e9b0de9	0.3028405
156	0x3e8e1ed3	0.27757892
157	0x3e85af46	0.26110286
158	0x3e2f325f	0.17109059
159	0x3e2658cf	0.16244815
160	0x3e6bb46b	0.23018043
161	0x3d58b7e2	0.05290974
162	0xbe4de818	-0.20108068
163	0xbe23122f	-0.15924905
164	0xbbc4f91d	-0.006011142
165	0x3d89f227	0.0673564
166	0xbe038618	-0.12844121
167	0xbe262b6a	-0.16227499
168	0xbe6de14d	-0.23230477
169	0xbe063e25	-0.13109644
170	0x3cc16292	0.023606572
171	0xba2cee37	-0.0006596776
172	0x3e170b3e	0.14750382
173	0xbe1781e4	-0.14795643
174	0xbd66bf08	-0.056334525
175	0xbe88a916	-0.26691502
176	0xbe9619c8	-0.29316545
177	0xbdf91824	-0.121628076
178	0xbe1dd428	-0.15412962
179	0xbde4de7e	-0.111752495
180	0x3e6356cf	0.22201084
181	0x3d9e45ce	0.07728158
182	0x3d9776fa	0.0739574
183	0x3d709696	0.05873736
184	0x3dec6f21	0.11544634
185	0xbceed427	-0.029153896
186	0x3eb1581b	0.34637532
187	0x3d64756e	0.055776052
188	0x3d00d06e	0.031448774
189	0x3e09a545	0.13441952
190	0x3df82691	0.12116731
191	0x3d23cfe6	0.03999319
192	0x3da9853e	0.08277367
193	0x3e53eea6	0.20696506
194	0x3c6eecb4	0.014582802
195	0x3e6b78f3	0.22995357
196	0xbd8491a5	-0.06473092
197	0x3bc1f36f	0.005918912
198	0x3dcf17e2	0.10111977
199	0x3d32f606	0.043691657
200	0x3cd9f8dc	0.026607923
201	0xbd3ff9f6	-0.04686924
202	0x3e1bc59a	0.15212098
203	0xbd2f8029	-0.042846832
204	0x3e1a336c	0.15058678
205	0xbb450ebd	-0.00300686
206	0x3ccfdf69	0.025375085
207	0xbdc00659	-0.09376211
208	0xbdb48317	-0.08814066
209	0xbe1c6695	-0.15273507
210	0x3ce24207	0.027619375
211	0xbe2ca2ba	-0.1685895
212	0xbe33bdb2	-0.17552832
213	0xbd1f83f7	-0.03894421
214	0xbd8aeb2d	-0.067831375
215	0x3d5d162b	0.05397622
216	0x3de30d6f	0.11086547
217	0x3d7fd762	0.062461264
218	0x3e5dcff8	0.21661365
219	0x3f071a83	0.5277483
220	0x3e90ec5b	0.28305325
221	0x3eabdec6	0.335684
222	0x3ee9a79c	0.45635688
223	0x3ef4cbbf	0.47811696
224	0x3edb729e	0.42860883
225	0x3d430c7f	0.04761934
226	0x3e1c0e93	0.15239935
227	0x3e191045	0.14947613
228	0xbdaafc15	-0.08348862
229	0xbe444bb1	-0.19169499
230	0xbd301b2e	-0.04299467
231	0x3c8c9734	0.017161943
232	0xbe089938	-0.13339698
233	0xbe265401	-0.16242982
234	0xbef018c2	-0.4689389
235	0xbecc3aa8	-0.398885
236	0xbc52685c	-0.012842264
237	0xbec808e6	-0.3906929
238	0xbf10880f	-0.5645761
239	0xbe8bfb7b	-0.27340302
240	0xbdfabeae	-0.122434005
241	0xbe729d74	-0.23692876
242	0xbe15ad27	-0.14616834
243	0xbd8b8869	-0.068131275
244	0x3d9d5aff	0.07683372
245	0x3d14718b	0.036241096
246	0x3c55f8fa	0.013059849
247	0x3e191964	0.14951092
248	0x3dc6be20	0.09704232
249	0xbe17dbf5	-0.1483
250	0x3e04a01a	0.12951699
251	0xba36de85	-0.0006975907
252	0x3f132697	0.5748076
253	0x3dfd1d72	0.12359132
254	0xbe49e549	-0.19716372
255	0x3e859dc7	0.26096937

conv3.0.bias f4 [8]
0	0x3edb298c	0.42805135
1	0x3f7f0189	0.9961172
2	0x3f473b8d	0.7782524
3	0xbe5abb74	-0.2136057
4	0xbf19c8a8	-0.600718
5	0xbf0516b5	-0.51987773
6	0xbe9b9f8e	-0.30395168
7	0xbefd5874	-0.49481547

dense1.0.weight f4 [32, 128]
0	0x3d838f3b	0.064238034
1	0xbc84df7c	-0.016219847
2	0x3d490f3b	0.04908679
3	0x3e8e6d0a	0.27817565
4	0x3c63d167	0.013904906
5	0xbe564a72	-0.20926836
6	0xbe5bbd7e	-0.21459004
7	0x3ba2a807	0.004963878
8	0x3b80fc96	0.0039363606
9	0x3ddf1959	0.108935066
10	0x3e844dc8	0.25840592
11	0xbe31731e	-0.1732907
12	0xbc093c23	-0.008376154
13	0x3df12063	0.117737554
14	0x3e3c5f75	0.18395789
15	0xbc1c7d0c	-0.009551298
16	0x3cf12ac8	0.029439345
17	0xbd527ea4	-0.051390305
18	0x3d2bdb06	0.041956924
19	0xbe5f7228	-0.21820891
20	0xbd645a48	-0.05575016
21	0xbe899d6d	-0.2687792
22	0xbc813060	-0.015770137
23	0x3db1c553	0.08680215
24	0x3e8cb395	0.2748076
25	0xbe86b559	-0.26310232
26	0xbe02cda4	-0.12773758
27	0x3c8aa0e2	0.016922418
28	0xbecb302e	-0.39685196
29	0x3ecb2712	0.39678246
30	0x3e423f74	0.18969518
31	0x3c2f4200	0.010696888
32	0xbb7f7423	-0.0038979135
33	0x3cfb404f	0.030670313
34	0xbdad4ea3	-0.084622644
35	0x3cd4045c	0.025880985
36	0xbd54737c	-0.051867947
37	0xbd3ecf3f	-0.046584364
38	0x3caa0935	0.020756343
39	0x3d287bad	0.04113357
40	0x3dd74324	0.10510853
41	0x3d92305a	0.071381286
42	0x3e4238e7	0.18967019
43	0x3e5223d9	0.20521487
44	0xbe1f4032	-0.15551832
45	0x3e3ed65f	0.18636464
46	0x3e4b95cd	0.19881363
47	0xbe51a192	-0.2047179
48	0x3e8b64ed	0.27225438
49	0x3c11281d	0.008859661
50	0xbe81ae47	-0.25328276
51	0x3e770163	0.24121623
52	0xbda10f89	-0.07864291
53	0xbe3fe94e	-0.18741342
54	0xba44782e	-0.0007494715
55	0xbe3b12ff	-0.18268965
56	0xbeafb0a5	-0.34314457
57	0xbe12da12	-0.14341
58	0x3c60476e	0.013688905
59	0x3c169550	0.009190872
60	0x3ea55f8b	0.32299456
61	0xbb9ea157	-0.0048410106
62	0xbdccfa4a	-0.10008676
63	0xbc61ec3a	-0.013789231
64	0xbe4a905a	-0.19781628
65	0xbd988b1d	-0.07448409
66	0x3d7c7b39	0.06164095
67	0x3e29d89c	0.16586536
68	0x3e306e6f	0.17229627
69	0x3d8db30a	0.069189146
70	0x3e4129a7	0.18863545
71	0x3c54b4f9	0.0129826
72	0xbe204b88	-0.15653813
73	0xbc875e03	-0.01652432
74	0xbea90b32	-0.33016354
75	0xbe39437d	-0.18092151
76	0x3e593188	0.21210301
77	0xbed6979f	-0.41912553
78	0x3df51f4a	0.119688585
79	0x3eb706fa	0.3574751
80	0x3d0808fe	0.0332117
81	0x3e65a8c8	0.22427666
82	0xbe351b3a	-0.17686167
83	0x3db2ca09	0.087299414
84	0xbdf2d12c	-0.118563026
85	0xbc6470ea	-0.013942936
86	0xbe010455	-0.12599309
87	0xbd84b94c	-0.06480655
88	0x3defd110	0.117097974
89	0xbd5c0afe	-0.05372142
90	0xb897a4b3	-7.230919e-05
91	0xbdbab00b	-0.09115609
92	0x3e81bca7	0.25339243
93	0x3e5e54e8	0.21712077
94	0xbc5acab9	-0.013353997
95	0xbe47a861	-0.19497825
96	0x3e27e4e7	0.16395913
97	0x3d875c75	0.06609432
98	0xbe7322c5	-0.23743732
99	0xbe024f07	-0.12725459
100	0xbe15c41c	-0.14625591
101	0x3e22ea49	0.15909685
102	0xbd8e8807	-0.06959539
103	0xbdac6807	-0.08418279
104	0x3da4971b	0.080366336
105	0x3cab94d3	0.020944988
106	0x3e6516e9	0.22372021
107	0x3d95b59f	0.07310032
108	0xbe78a5b3	-0.24281959
109	0xbdc81c7c	-0.09771058
110	0x3e06d4c8	0.13167107
111	0xbdeaa0ed	-0.114564754
112	0xbcbc73ea	-0.02300449
113	0x3d8eadb5	0.06966726
114	0x3d887576	0.06663029
115	0x3c8664ea	0.016405541
116	0xbe36609d	-0.17810293
117	0xbe6f9a96	-0.23398814
118	0x3e692875	0.2276934
119	0xbd738502	-0.059453018
120	0x3dcbf913	0.099596165
121	0xbd83d395	-0.064368404
122	0x3e0de030	0.13855052
123	0xbd8cb2e5	-0.06870059
124	0xbc7ab879	-0.015302771
125	0xbab4f005	-0.0013804442
126	0x3dcf609e	0.1012585
127	0xbe2644df	-0.1623721
128	0x3e3a366a	0.1818482
129	0x3d233d91	0.039853636
130	0xbdd2c8d3	-0.102922104
131	0x3d0fef14	0.035140112
132	0x3e14ca3d	0.14530273
133	0xbf0a8259	-0.54105145
134	0xbdf694d4	-0.120401055
135	0x3e896bea	0.26840144
136	0x3e8717d9	0.26385382
137	0xbe86ced7	-0.2632968
138	0xbd3f9258	-0.046770424
139	0xbd02d16e	-0.03193801
140	0x3d95355f	0.0728557
141	0xbde499e2	-0.11162163
142	0x3e80b7d8	0.25140262
143	0x3c9bb4bb	0.019007077
144	0xbc86cf1f	-0.016456185
145	0x3cabce8d	0.020972515
146	0xbe40f1c6	-0.18842229
147	0x3e1e62d0	0.15467381
148	0x3c971e0f	0.01844695
149	0x3dc19423	0.09452083
150	0xbd93398a	-0.07188709
151	0x3c00c0e2	0.007858487
152	0xbdd5d0ba	-0.10440202
153	0xbe5c85c9	-0.2153541
154	0xbdd64c61	-0.10463787
155	0xbe8bc506	-0.27298754
156	0xbe0efe7f	-0.1396427
157	0x3e5954dc	0.21223778
158	0xbd8accbc	-0.06777331
159	0xbba9da48	-0.005183492
160	0x3d37c605	0.04486658
161	0xbd015c6b	-0.031582277
162	0xbe10da22	-0.14145711
163	0x3dbdcae3	0.09267213
164	0xbd02c83c	-0.03192924
165	0x3e63c52d	0.22243185
166	0x3e3569d8	0.17716157
167	0x3e674639	0.22585382
168	0xbe5fd201	-0.21857454
169	0xbd5cc9b8	-0.05390331
170	0x3dc55394	0.09635082
171	0xbe55bc7e	-0.20872685
172	0xbc44e0c8	-0.012016483
173	0x3dea1b4b	0.11430987
174	0xbc3fb17a	-0.011700029
175	0x3e2d82ed	0.16944475
176	0xbd7b54fb	-0.06136034
177	0x3c221280	0.009892106
178	0x3bd5e250	0.0065272227
179	0x3c95a2a2	0.018266026
180	0x3d21fea6	0.039549492
181	0xbde3d3cb	-0.11124381
182	0x3e9904da	0.29886514
183	0xbe9c2392	-0.30495888
184	0xbe3ed645	-0.18636425
185	0xbd2af761	-0.041739825
186	0x3e3c5ce7	0.18394814
187	0xbe4aec13	-0.19816618
188	0x3e09f950	0.13474011
189	0xbcdacf9f	-0.02671033
190	0x3dff7a76	0.124745294
191	0x3e5835d3	0.21114282
192	0x3d8c349e	0.068459734
193	0x3d0e2348	0.034701616
194	0xbdeaf657	-0.11472767
195	0x3e430597	0.19045101
196	0xbe0053bb	-0.1253194
197	0xbe539980	-0.20664024
198	0xbe2df44f	-0.16987728
199	0xbddabc08	-0.10680395
200	0x3e142842	0.14468482
201	0xbebb7a99	-0.36616972
202	0x3d01e163	0.031709086
203	0x3dd22e4c	0.10262737
204	0x3e037507	0.12837611
205	0xba904faa	-0.001101007
206	0x3de72db6	0.112880155
207	0xbdc17ec0	-0.09448004
208	0x3bf7cf9a	0.00756259
209	0xbdb6de69	-0.0892914
210	0x3bef80ea	0.007309069
211	0xbd7c9ee7	-0.06167498
212	0x3e0a7ac5	0.13523395
213	0x3dfe6045	0.12420706
214	0x3da5be6b	0.0809296
215	0xbd3b9ad8	-0.045801967
216	0xbe2b18cc	-0.16708678
217	0xbd5cec7b	-0.053936463
218	0x3e19226f	0.14954542
219	0xbdc6492b	-0.096819244
220	0xbec6e0e2	-0.38843447
221	0xbda6d671	-0.0814637
222	0xbd3ce261	-0.04611433
223	0x3cb96152	0.022629414
224	0xbc252517	-0.010079644
225	0xbcbd1d5d	-0.02308529
226	0xbe00cecd	-0.12578888
227	0xbbd5a9d4	-0.006520489
228	0xbdd3b99e	-0.10338138
229	0x3da57e5f	0.08080744
230	0x3e3e214a	0.18567386
231	0xbdff3268	-0.12460786
232	0x3d5b30be	0.05351328
233	0xbe0c70fc	-0.13714975
234	0x3d8fccfe	0.07021521
235	0x3dee49d2	0.11635174
236	0x3dbff190	0.09372246
237	0x3d8bce65	0.06826476
238	0xbea0dd3a	-0.31418782
239	0xbdd3b8d7	-0.1033799
240	0x3e5c18d2	0.21493843
241	0x3e0f09d7	0.13968597
242	0xbdacef5f	-0.08444094
243	0x3d8689fc	0.06569287
244	0x3e0f02a2	0.13965848
245	0xbea69703	-0.32537088
246	0xbd366c18	-0.04453668
247	0x3e6ec9e0	0.23319197
248	0x3e7210e3	0.23639254
249	0xbe2b5174	-0.1673029
250	0xbc4c6cf7	-0.012477151
251	0x3ccb8f95	0.024848739
252	0xbca733e4	-0.020410486
253	0x3de2f9f0	0.11082828
254	0x3ea03abc	0.3129481
255	0xbbd26525	-0.006420749

dense1.0.bias f4 [32]
0	0xbf16cea5	-0.58909065
1	0x3e44a0b3	0.19201927
2	0x3f4b3d74	0.79390645
3	0x3f1adfc4	0.6049769
4	0xbf798c7f	-0.97480005
5	0x3feeb3e5	1.864865
6	0x3ee7f022	0.45300394
7	0xbf4542c2	-0.7705499
8	0x3e383deb	0.1799237
9	0x3e86d864	0.26336968
10	0x3f2eaac4	0.6822932
11	0xbf55bdbe	-0.8349265
12	0x3f7f30f3	0.99684066
13	0xbf6a03e2	-0.91412175
14	0xbf3bc67a	-0.73349726
15	0x3fafbbeb	1.3729223
16	0x3ece604f	0.40307853
17	0x3ed48cdd	0.4151372
18	0x3f0f5464	0.55988145
19	0x3d720c89	0.059093986
20	0x3fb2a25e	1.39558
21	0x3fa424bf	1.2823714
22	0xbfa65493	-1.299456
23	0x3f25856d	0.64656717
24	0x3f1cb370	0.612113
25	0x3d6880cb	0.05676345
26	0xbf82fb0c	-1.0232863
27	0xa36f27a3	-1.2964609e-17
28	0x4036870f	2.8519933
29	0x3f604177	0.8759989
30	0xbf518791	-0.8184748
31	0x3d563167	0.052293207

dense2.weight f4 [10, 32]
0	0xbdb74384	-0.089484245
1	0x3e6dd048	0.23223984
2	0xbf2b03b5	-0.6680253
3	0xbeb3cde7	-0.3511803
4	0x3e493f27	0.19652997
5	0xbee1c051	-0.44092038
6	0xbdc6e26f	-0.097111575
7	0xbd12bb86	-0.035823368
8	0xbd822c24	-0.063560754
9	0xbea053c1	-0.313139
10	0x3f34bf7f	0.706047
11	0x3e8df78a	0.2772792
12	0x3e822751	0.2542062
13	0x3def52af	0.116856925
14	0xbed4e1d6	-0.4157855
15	0xbe79e264	-0.24402767
16	0xbc04db90	-0.008108988
17	0x3eae589f	0.34051988
18	0x3e7bc1c0	0.24585629
19	0x3e282274	0.16419393
20	0x3e66b595	0.22530206
21	0x3e5fe112	0.21863201
22	0x3e08a731	0.13345028
23	0x3ec911d3	0.3927141
24	0x3e68d6fc	0.2273826
25	0x3e0c2d75	0.13689215
26	0x3f25b6b2	0.64731896
27	0xb87814a0	-5.9147016e-05
28	0xbe51f913	-0.2050517
29	0x3e4e4b25	0.20145853
30	0xbe0df8a8	-0.13864386
31	0x3f083d06	0.53218114
32	0x3e89cade	0.26912588
33	0xbeabd67c	-0.33562076
34	0x3da207bb	0.07911631
35	0xbe35ee2b	-0.17766635
36	0x3eb4ccf9	0.35312632
37	0xbe6251e0	-0.22101545
38	0x3d4c6fa3	0.049911153
39	0xbef54f2b	-0.47911963
40	0x3dd99e0b	0.106258474
41	0x3eafdf36	0.34349984
42	0xbf12fd53	-0.5741779
43	0x3e2080f9	0.15674199
44	0xbe30d471	-0.1726854
45	0xbf2ef04f	-0.6833543
46	0x3f0a187a	0.539436
47	0x3d4a86ad	0.049444843
48	0x3e433f80	0.19067192
49	0xbe4d6b2c	-0.20060414
50	0x3e3a5ff4	0.18200666
51	0x3e925bcf	0.2858567
52	0xbf4d66f5	-0.80235225
53	0xbec04a74	-0.37556803
54	0x3f68ee68	0.9098878
55	0xbe2bbcfb	-0.16771309
56	0x3dc4b292	0.09604372
57	0xbf02244f	-0.5083665
58	0xbed0c923	-0.40778455
59	0xb6eb9ef6	-7.0220512e-06
60	0xbe3c4381	-0.18385126
61	0xbeeb937f	-0.46010968
62	0x3f31b55c	0.6941736
63	0xbeac7ee7	-0.3369057
64	0xba1635c1	-0.0005730056
65	0x3ed33fde	0.41259664
66	0x3d7ddf9f	0.06198084
67	0xbe9b8470	-0.3037448
68	0xbde803eb	-0.11328872
69	0x3e7aacd0	0.24479985
70	0xbe9a2f77	-0.30114338
71	0x3da935ad	0.08262191
72	0xbdb24837	-0.0870518
73	0x3e2eb305	0.17060478
74	0x3e83333d	0.2562503
75	0x3d9741cf	0.07385599
76	0xbe7b3719	-0.24532737
77	0x3ee91be2	0.45529085
78	0x3e5e022d	0.21680517
79	0xbe1a71d3	-0.15082483
80	0x3d955b05	0.07292751
81	0x3e0c5405	0.13703926
82	0x3ecca035	0.39965978
83	0xbec96169	-0.3933213
84	0x3e15e458	0.14637887
85	0xbe7f2785	-0.24917419
86	0x3ec3a841	0.38214305
87	0xbc00ac41	-0.0078535685
88	0x3f19cd3c	0.6007879
89	0xbe712b2d	-0.23551627
90	0x3ebc563a	0.36784536
91	0x3637dcd2	2.739766e-06
92	0xbcee9b8f	-0.02912691
93	0x3e74a175	0.23889716
94	0xbee08f24	-0.43859208
95	0xbd362d69	-0.0444769
96	0x3ccc0091	0.024902614
97	0x3df95c88	0.12175852
98	0x3e058a18	0.1304096
99	0x3e019df6	0.12657914
100	0x3a4a3a60	0.0007714387
101	0x3d86c930	0.06581342
102	0xbd90f50d	-0.0707799
103	0x3ea34fb1	0.31896737
104	0xbeac5ffa	-0.33666974
105	0xbebdf98f	-0.3710446
106	0xbe038db6	-0.12847027
107	0xbcc55b3e	-0.02409136
108	0x3e3b7e50	0.18309903
109	0x3e7ebd48	0.24876893
110	0xbe16b0fb	-0.1471595
111	0x3beec788	0.0072869696
112	0x3e85c863	0.26129445
113	0xbeb7b6a5	-0.35881534
114	0xbde18423	-0.11011531
115	0x3ba1d803	0.0049390807
116	0xbe3b81a6	-0.18311176
117	0xbe072ecc	-0.13201445
118	0xbe8ff4ec	-0.28116548
119	0x3dc7f85e	0.09764169
120	0x3d93668d	0.071972944
121	0xbece3217	-0.4027259
122	0xbda4ca0e	-0.080463514
123	0x11ea1ca4	3.6936342e-28
124	0xbdfc8b71	-0.12331284
125	0x3dbf9bcb	0.09355887
126	0xbebf1758	-0.37322497
127	0xbd5f7de7	-0.05456343
128	0xbe1e0259	-0.15430583
129	0xbef1ecfc	-0.47251117
130	0x3ec5aeb7	0.3860986
131	0xbeab0b25	-0.3340694
132	0xbed681c2	-0.41895872
133	0x3f150e6e	0.5822514
134	0x3e853496	0.26016682
135	0xbe49837a	-0.1967906
136	0xbe92b258	-0.2865169
137	0xbe0bfffd	-0.1367187
138	0x3d6160b7	0.055023875
139	0xbf206c96	-0.6266569
140	0xbec5534c	-0.38540113
141	0xbcead826	-0.02866752
142	0x3d7258b3	0.05916662
143	0x3f4a1f11	0.78953654
144	0xbe69e9ed	-0.22843142
145	0x3e46823d	0.1938562
146	0xbe9be5cd	-0.30448762
147	0x3cfd34cc	0.030908965
148	0x3e3fbeac	0.1872508
149	0xbdb80bc3	-0.08986618
150	0xbea07ccf	-0.3134522
151	0xbe867b95	-0.2626616
152	0x3d4dc3aa	0.050235428
153	0x3f049d91	0.5180293
154	0xbf2e3116	-0.6804365
155	0xb78b28e0	-1.6589125e-05
156	0xbecd63c7	-0.40115187
157	0x3ec34254	0.38136542
158	0xbee355ee	-0.44401497
159	0x3e991d9a	0.29905397
160	0xbd82ba4e	-0.06383191
161	0x3c773d74	0.015090335
162	0xbe013be3	-0.12620501
163	0x3ea40be5	0.32040325
164	0xbdc2362b	-0.09482988
165	0xbdd42079	-0.10357756
166	0xbe2924fb	-0.16518013
167	0x3ebaf344	0.36513722
168	0xbed8ba23	-0.4232951
169	0xbe3e4b51	-0.18583418
170	0xbe533847	-0.20626937
171	0x3dee90d6	0.11648719
172	0xbe9356a0	-0.28777027
173	0x3edf31e4	0.4359275
174	0xbeb1968b	-0.34685168
175	0xbd98f531	-0.074686415
176	0xbdeb4d36	-0.11489336
177	0xbeb01c61	-0.3439665
178	0xbe6a7215	-0.22895081
179	0x3e6d6786	0.23184022
180	0xbc8f8d8c	-0.01752355
181	0x3dc77522	0.09739138
182	0xbe5b1034	-0.213929
183	0x3e9951bc	0.2994517
184	0xbe6fde92	-0.23424748
185	0xbef43fb7	-0.4770486
186	0xbe2fb8de	-0.17160365
187	0x30bb5b6e	1.3632027e-09
188	0xbe975952	-0.29560333
189	0x3c61d5a1	0.013783843
190	0xbed2d231	-0.41175988
191	0x3dbf69b1	0.09346331
192	0xbd03bee7	-0.03216448
193	0x3e3c0d7c	0.18364519
194	0x3d1c67f8	0.03818509
195	0x3d16ef39	0.036849234
196	0x3eb5219f	0.35377213
197	0x3e4ce738	0.20010078
198	0x3ec72b9f	0.38900468
199	0x3e8b6933	0.27228698
200	0x3f4a4f5e	0.79027355
201	0x3e3013ba	0.17195025
202	0x3f126e78	0.5719981
203	0x3d88ce91	0.066800244
204	0x3dae3909	0.08506972
205	0xbecb2df6	-0.39683503
206	0xbdd2fcba	-0.1030211
207	0xbedae9ba	-0.42756444
208	0xbdd3b99d	-0.10338137
209	0x3e8ac748	0.27105165
210	0x3e845dc0	0.25852776
211	0xbf1e56ce	-0.61851203
212	0xbd8890d1	-0.066682465
213	0xbea0db7b	-0.3141745
214	0xbed8ffe0	-0.42382717
215	0x3d9e96fa	0.0774364
216	0xbe060895	-0.13089211
217	0xbed5f8d1	-0.41791394
218	0x3d0a2bbf	0.033733126
219	0xa20e1032	-1.9253162e-18
220	0x3e1b3772	0.1515787
221	0xbecd39cd	-0.4008316
222	0xbed33c38	-0.4125688
223	0xbe8fef58	-0.28112292
224	0xbd155bc1	-0.036464456
225	0xbf05b63a	-0.5223118
226	0xbe21c44e	-0.1579754
227	0xbe45a46e	-0.19301006
228	0x3da87ad4	0.082265526
229	0xbda4f63c	-0.08054778
230	0xbb96eec3	-0.0046060993
231	0x3dc2bc71	0.095085986
232	0xbe2fec28	-0.1717993
233	0xbefdf6be	-0.49602312
234	0xbe9eab17	-0.30989906
235	0xbdc1827b	-0.09448715
236	0xbe880ab8	-0.26570678
237	0x3d3469da	0.04404626
238	0x3eb9e36f	0.3630633
239	0xbe868395	-0.26272264
240	0xbef6e44b	-0.4822105
241	0xbe74f798	-0.23922575
242	0xbe953ddc	-0.29148757
243	0x3eb239d2	0.34809738
244	0x3eae5016	0.34045476
245	0x3f744a37	0.9542574
246	0xbeea36f5	-0.45745054
247	0xbf2696f2	-0.65074074
248	0xbe8df26e	-0.27724022
249	0x3ea7481f	0.32672212
250	0xbede41b1	-0.43409494
251	0x2f948e2e	2.7022068e-10
252	0xbed8ba86	-0.42329806
253	0xbe6cd05b	-0.23126356
254	0xbecfa530	-0.40555716
255	0x3e40027b	0.18750946

dense2.bias f4 [10]
0	0xbe9b12a1	-0.3028765
1	0xbf80c4a0	-1.0060005
2	0xbeb85d44	-0.36008656
3	0xbe7b6d46	-0.24553403
4	0x3fc87fed	1.566404
5	0x3ed0b8a3	0.40765867
6	0xbf160b2e	-0.5861081
7	0xbf59b1ec	-0.8503711
8	0x3f682d1b	0.90693825
9	0x3e637340	0.22211933
