ResidualLoss/CNN-Train/CIFAR_17/false_epoch-250.pt (torch, 27135 bytes, 10 tensors)

conv1.0.weight f4 [8, 3, 3, 3]
000000 e6 10 bf be 16 f8 d6 3d 57 2d 69 be ca ff 8b be
       -0.3731758 0.104965374 -0.22771202 -0.2734359
000010 6e e1 79 3d d6 3a a3 be d2 f4 7a 3e da 5c 6d 3e
       0.061006002 -0.31880826 0.24507454 0.23179951
000020 bb 29 25 3e 60 4d 86 bc f8 e3 85 3e bc a5 37 be
       0.161292 -0.016394317 0.2615049 -0.17934316
000030 d1 58 9d bc e4 95 82 3d 5e 92 5b be 45 f6 16 be
       -0.01920739 0.063762456 -0.21442553 -0.14742382
000040 85 d6 42 3e 92 9b e4 3d 32 8f 22 3e 7a 72 5f 3e
       0.19027145 0.11162485 0.15874937 0.21821013
000050 7a 9d 46 3e ad d2 c3 3a 9a 39 fd bd a6 32 1d 3e
       0.1939601 0.0014940106 -0.12364502 0.15351352
000060 39 fb 47 bc 0e d2 e9 bc ff 67 52 be a6 9f 54 3e
       -0.012205892 -0.028542545 -0.20547484 0.20764026
000070 ee d3 41 be 4d 83 80 be b4 88 77 be ee ac dd bd
       -0.18928501 -0.25100175 -0.24173242 -0.10823999
000080 57 ab 2c be 53 06 b7 be e5 9a 7b 3d ba bc 67 bd
       -0.16862236 -0.35747012 0.061427016 -0.056576468
000090 68 2a 65 be 50 f2 76 be 82 58 5c be 27 e1 68 3e
       -0.22379458 -0.24115872 -0.21518138 0.22742139
0000a0 8d 68 34 3d 13 a1 cb be 32 78 43 3d 32 20 11 3e
       0.04404502 -0.39771327 0.04772205 0.14172438
0000b0 de 63 0a be 2a 3a a8 3d 0e e0 fb bd 0e fb 9d be
       -0.13514659 0.08214219 -0.122985944 -0.30855602
0000c0 e7 04 37 3f ee 9d c1 3e fd fe 34 3d 37 1d 39 3f
       0.71491855 0.37815803 0.04418849 0.72310203
0000d0 16 ad 01 3f 33 8d ea 3e b9 ba ca 3e 56 52 e6 3e
       0.50654733 0.4581085 0.39595583 0.44984692
0000e0 05 a9 88 3c 41 72 d5 3e 56 81 a6 3e b9 80 97 3d
       0.016682157 0.4168873 0.3252055 0.07397599
0000f0 6f 43 2e 3d 94 3f b3 3d 51 1e 8b be 9d 80 31 3e
       0.04254478 0.08752361 -0.27171567 0.17334218
000100 84 16 65 3d 16 f2 ae be c7 a7 de 3d 13 aa 16 be
       0.055929676 -0.34169072 0.10871845 -0.14713316
000110 a2 fc d2 be 01 0a 9b be e0 d8 6b be 5c 84 10 bf
       -0.4120837 -0.3028107 -0.2303195 -0.56451964
000120 d3 bd cc 3e a3 61 4c 3e a7 a1 66 be f9 c2 ab 3e
       0.39988574 0.1995912 -0.22522603 0.3354719
000130 ba 68 c2 bd bf 02 98 be 73 15 8c bd 1b e3 fb bd
       -0.09492631 -0.29689595 -0.068400286 -0.12299176
000140 b7 52 37 be 39 55 ce be 0d 52 0b bf 15 c0 13 3e
       -0.17902647 -0.40299395 -0.54422075 0.14428742
000150 97 58 16 bd bc c9 65 3d 48 bf 07 3f a5 54 9a 3c
       -0.03670558 0.056100592 0.5302625 0.01883919
000160 a8 5d 28 3e 89 55 e3 3e 5c b1 0a bf 81 cc d4 be
       0.16441977 0.44401196 -0.5417688 -0.41562274
000170 b8 0e d6 bd 24 d2 4e 3d e0 d5 7d 3e b7 e0 b5 3e
       -0.10452026 0.050493374 0.24788618 0.35523006
000180 69 45 36 3d a7 b1 cc 3d a1 1b d0 3e 73 73 01 bf
       0.04449979 0.09994822 0.4064608 -0.50566787
000190 da 75 bd be ce bb 3c 3d c3 11 1e 3d 00 62 a5 3e
       -0.37003976 0.046077542 0.038591158 0.3230133
0001a0 39 66 60 3e a6 10 1e bd b6 d4 8b 3e dd d6 9f 3e
       0.21913995 -0.038590096 0.27310723 0.31218615
0001b0 f3 af 44 bc fa b6 be bd 75 db 5f bd f5 a7 bf be
       -0.01200484 -0.09312244 -0.05465265 -0.3743283
0001c0 e5 60 45 be 08 eb 83 3e d4 a5 87 be d0 b8 69 3d
       -0.19275244 0.25765252 -0.26493704 0.057061017
0001d0 8b a2 32 3d c0 d6 be 3e 60 23 5c bd d0 4d f0 bd
       0.043612044 0.37273216 -0.053744674 -0.117335916
0001e0 28 2a f6 bd 4b 4a 33 be 12 9a c0 3e f6 42 13 be
       -0.120197594 -0.1750881 0.37617546 -0.14381012
0001f0 3a 69 3c 3e d6 de 36 3e 6d d5 9c bd 6b ca ee bd
       0.18399516 0.17858443 -0.07657895 -0.11659702
000200 25 d0 a1 3d 6a fb 87 be cf 0a 14 be ba ea 6d 3e
       0.079010285 -0.26559 -0.14457248 0.23234072
000210 a2 3c 15 be bd aa 71 be 40 8a 11 3e 9a d9 58 bd
       -0.14573911 -0.23600288 0.14212894 -0.052941896
000220 25 9e 88 3e be a7 a2 bd 92 f7 b0 3d 99 8a 86 3e
       0.26683155 -0.079421505 0.0864097 0.26277617
000230 f9 39 03 3d f3 cb 1a 3e 4b 0c 30 be c7 27 a0 3d
       0.03203771 0.15116863 -0.1719219 0.07820087
000240 40 2e 30 be 20 52 a7 bd 65 b1 fd bd 82 6b 65 bd
       -0.17205143 -0.08169961 -0.12387351 -0.05601073
000250 75 1b a2 3e 71 f1 ba 3c e5 77 1f 3d 57 4c 22 3e
       0.31661573 0.022820206 0.0389327 0.15849434
000260 4e b3 69 3e 02 7c a8 3c 92 58 b1 3e 19 3c 9d 3e
       0.22822306 0.020566944 0.34637886 0.30709913
000270 1c 0a b7 3e 12 63 fe 3e 83 5e b4 3e 8e 6d aa 3e
       0.357499 0.4968496 0.35228357 0.3328671
000280 f6 a7 69 3e f3 f3 a3 3e 61 34 49 3e a0 15 3f 3d
       0.22817978 0.32022056 0.19648887 0.046651483
000290 ac da 07 bd c2 dc 25 bd 9f 8a f4 3c 0a 29 49 be
       -0.033167526 -0.040493734 0.029851256 -0.19644561
0002a0 ba c5 01 3d 39 84 29 3c ac 8a 61 be a0 84 29 be
       0.031682707 0.010346466 -0.22025555 -0.16554499
0002b0 f4 22 c7 be 0b 20 13 be 0a 83 6f be ed 32 97 be
       -0.38893855 -0.14367692 -0.23389831 -0.2953104
0002c0 95 c5 c3 be 2e 8f 80 be b8 63 01 bd 98 bb de be
       -0.3823668 -0.25109237 -0.03158924 -0.43502498
0002d0 83 a0 25 be b8 dd 9b be ff a8 42 be ff 8d 42 be
       -0.16174512 -0.30442595 -0.1900978 -0.1899948
0002e0 c1 6f 32 bc b6 90 8b be e0 25 06 3e 53 7f 8d 3d
       -0.010890902 -0.27258843 0.13100386 0.06909051
0002f0 ea 8f bb be b3 9a c2 3d f3 32 90 bd b4 05 c0 3d
       -0.36633235 0.09502163 -0.07040968 0.09376088
000300 18 cf bb be d6 7a 8e be e5 f7 a5 3d 80 63 49 be
       -0.36681437 -0.2782809 0.08103923 -0.19666862
000310 5a b2 f1 bd b7 13 21 3d 2e 97 d4 3e 72 26 93 3e
       -0.11801596 0.039325442 0.4152159 0.2874027
000320 16 31 c1 3e 02 96 50 be 6b 3e f9 bc 3d b9 21 3d
       0.37732762 -0.20369723 -0.030425271 0.039483298
000330 eb fb 87 bd d8 76 6b 3e 7c 71 48 3d f6 94 4c 3d
       -0.066398464 0.22994554 0.048936352 0.049946748
000340 da d6 f3 3d f9 c8 98 be 65 cf e0 3c 8b 47 0e 3e
       0.11906214 -0.2984083 0.027442643 0.13894479
000350 da a0 d3 be ba 66 56 3d c5 f9 94 3d 46 e5 a0 be
       -0.41333658 0.05234406 0.07274202 -0.31424922

conv1.0.bias f4 [8]
000000 32 e1 52 3d b1 72 d7 3d 1f 76 e8 3e 50 77 3d 3e
       0.051484294 0.105199225 0.4540262 0.18502545
000010 94 9e b4 3e 34 f8 44 3e 33 4f 6f be 3d a1 c5 bd
       0.35277236 0.19235307 -0.23370056 -0.096498944

conv2.0.weight f4 [8, 8, 3, 3]
000000 d1 fc d5 be fd 95 ce 3e 38 17 ab bd 7c 3e 3d bd
       -0.41794446 0.40348807 -0.08354038 -0.046202168
000010 36 07 3a 3e 50 b9 39 3d 3d b6 76 be 92 a7 f2 be
       0.18166813 0.045342743 -0.24092956 -0.4739347
000020 5f 2c a9 be 49 07 0f 3e c6 1b e6 3d 3a 43 eb 3d
       -0.33041665 0.13967623 0.11235766 0.11487432
000030 54 06 0e bd c3 0a 12 3e 95 f8 26 bc 1d ba 88 be
       -0.034674004 0.14261918 -0.0101911025 -0.26704493
000040 d5 89 ad bd a3 bc 1b 3e fc 26 fc 3a 7c 4a 40 bd
       -0.08473555 0.15208678 0.0019237692 -0.046946034
000050 e4 47 be 3d 12 dc 91 be 80 47 b7 3d 80 4a 51 3e
       0.09291056 -0.28488213 0.089491844 0.20438576
000060 2d 96 2b be 4d 01 1a bd 78 f7 e7 3d b0 ef 88 3d
       -0.16756506 -0.037598897 0.11326498 0.06686342
000070 60 9c 42 3e 3f 9f 6d be 09 d2 b0 3d c0 2b 84 3e
       0.19004965 -0.23205279 0.08633811 0.2581463
000080 43 61 53 be c7 85 16 3e 4e f0 6d bd 49 e6 55 be
       -0.20642571 0.1469947 -0.0580905 -0.20888628
000090 88 21 f2 3c e8 a8 53 be 74 c3 0e 3d 1a 2e 2c 3e
       0.029557005 -0.20669901 0.034854367 0.16814461
0000a0 02 d0 68 be 1b f8 34 bc 8c 08 84 3d 78 76 4f be
       -0.22735599 -0.011045481 0.06446943 -0.20260036
0000b0 38 94 f5 3c 24 2b 49 3e cf 4e 6b 3e 6f bc 1e bd
       0.029977903 0.19645363 0.22979282 -0.038753923
0000c0 4e b3 03 3e f3 67 53 3e 1b 11 f2 bd 0c 8e 0a 3e
       0.12861368 0.20645122 -0.11819669 0.13530749
0000d0 4e f2 07 be ea 25 a9 bd c8 a1 8c 3d e8 b8 18 be
       -0.13276026 -0.08259185 0.06866795 -0.14914286
0000e0 7f 53 57 3e 6a 7e 52 bd 48 04 2a be 61 2e eb 3d
       0.21027945 -0.05139009 -0.16603196 0.114834554
0000f0 2f f1 46 bd 34 b7 20 bd f0 e2 7e 3e 81 54 4d be
       -0.048569854 -0.039237216 0.24891257 -0.20051767
000100 fe 68 d4 bd c2 0b 8b be 2c 0f 04 be a2 73 07 bf
       -0.10371588 -0.27157408 -0.12896413 -0.52910817
000110 52 d6 9d be 4b be 94 3d c0 37 ab be 3e e0 04 be
       -0.30827576 0.07262858 -0.3344097 -0.12976167
000120 65 ed e9 bd dd b0 82 be 25 31 74 be e7 76 24 bd
       -0.114222325 -0.2552556 -0.23846872 -0.040152457
000130 32 65 b1 be 41 f6 b2 be 5c e2 0d be 64 37 56 be
       -0.34647518 -0.34953502 -0.1385588 -0.20919567
000140 d8 82 b2 be ee 9d 95 3e 14 5e d3 bd 99 37 ba bd
       -0.3486545 0.29222053 -0.10320678 -0.09092636
000150 10 10 6e 3e 86 35 8c be 52 67 b1 ba 9d d4 b0 bd
       0.23248315 -0.27384585 -0.001353482 -0.08634303
000160 6c 76 ed 3d f9 90 58 be a7 8e bb bd 56 0d 92 3d
       0.11594853 -0.21149053 -0.09158068 0.0713145
000170 2f c8 98 3d 47 b1 cb 3d 98 40 49 be 9f 37 39 3e
       0.07460057 0.09945922 -0.19653547 0.18087624
000180 05 01 fa 3b 1e cd 1b bd 0e 5e 71 bc 15 ab fb bd
       0.007629516 -0.038037412 -0.014731897 -0.12288491
000190 a9 11 cf 3d f4 bf 46 3e 77 8d 24 be 80 65 b6 3d
       0.1011079 0.19409162 -0.1606959 0.08906078
0001a0 96 55 89 bd 55 a5 e3 3c e1 b7 d6 bd a8 9d 9b 3d
       -0.06705777 0.027788797 -0.10484291 0.0759843
0001b0 e2 08 51 3e 11 75 68 3e 7e 95 b3 3d ae 7b c8 3c
       0.20413545 0.22700907 0.08768748 0.024473038
0001c0 ef 9b 60 3e f8 4d 9b 3d dc 99 42 3d 1e f8 98 3d
       0.21934484 0.07583231 0.047510013 0.074691996
0001d0 ef 9f 06 3e 53 05 92 3c 7d c1 85 bd d3 b5 99 bd
       0.13146947 0.017824804 -0.065310456 -0.07505383
0001e0 07 dd 4d 3c 2b 7b 4c 3d 88 57 a3 3b 9e 47 c0 3d
       0.012564904 0.04992215 0.0049848 0.0938866
0001f0 24 09 c9 3c ac 7c ca 3a 67 d8 11 3e 08 e9 21 be
       0.024540491 0.0015448532 0.14242707 -0.1581155
000200 40 33 b2 bd 75 66 a8 3d e9 f2 d7 bd 4d 20 fb bd
       -0.087011814 0.08222667 -0.10544378 -0.1226202
000210 af 4f cc bd 6c ac 77 bc b0 a1 ce 3b a3 81 81 3e
       -0.09976136 -0.015116792 0.0063058957 0.25294217
000220 30 c4 76 be cc 01 89 be 46 da bb bd e5 e0 f4 bd
       -0.24098277 -0.26759183 -0.09172492 -0.11956958
000230 b0 f9 aa be 45 a2 45 3e d5 76 2d bd 39 e2 77 be
       -0.3339362 0.19300182 -0.042349655 -0.24207391
000240 49 f5 30 3d 56 77 16 be 7c 80 1f bd b1 d7 39 3d
       0.043202672 -0.1469396 -0.03894089 0.045371715
000250 dc 5b 90 3d 43 e2 61 3e 49 f4 f4 3e 69 22 bf 3e
       0.07048771 0.22058968 0.47842625 0.3733094
000260 6c 5c 96 bd 69 ab 58 be 4f 7a 8d bc 19 47 3e 3e
       -0.07341847 -0.21159138 -0.017270235 0.18581809
000270 15 dd 91 bd f7 ff d0 3e 1c 3f cb 3e 0f 1f d4 bd
       -0.07122246 0.40820286 0.39696586 -0.103574865
000280 15 41 4f 3e 02 37 53 3e b5 4d 82 3e 24 06 ed 3d
       0.2023967 0.20626453 0.2544991 0.11573437
000290 a3 65 1c 3e 42 2d 78 3e 00 c8 83 3e 73 b9 a9 3e
       0.15273146 0.24236014 0.25738525 0.331493
0002a0 77 e3 33 3e e1 9f d8 3d 28 d1 49 3d c8 ea f7 3d
       0.1756724 0.105773695 0.049271733 0.12105328
0002b0 c9 79 2d 3e 8c ed c9 3e 4d 5d 9c 3e f5 b0 0a 3e
       0.16940989 0.39439046 0.30539933 0.13544066
0002c0 a2 a8 19 3e a4 9e b4 bd 17 87 99 bd 8d 2b 8c 3d
       0.15005735 -0.08819321 -0.074964695 0.06844244
0002d0 13 e3 76 be 90 c7 a3 bd b4 7f 08 bc 56 09 a1 bd
       -0.2411006 -0.07997048 -0.008331228 -0.07863109
0002e0 b6 53 34 be eb 4a 4c be 8e a3 5d 3d fd e6 74 3c
       -0.17610058 -0.19950454 0.054111056 0.01494765
0002f0 6f f2 2a be 0e 6d 3b 3e 15 7f 74 bd 92 ab e9 3d
       -0.16694044 0.1830332 -0.059691507 0.114096776
000300 22 ed 95 be fc 26 91 3d d8 2c 0b bc 36 81 03 3d
       -0.2928248 0.07087514 -0.008494578 0.032105647
000310 6a 60 e2 bc e1 1a 28 3d 0e 72 08 3e 7b 3b d8 bd
       -0.027633864 0.04104126 0.13324758 -0.1055822
000320 13 66 a6 38 9a c8 9b bd 7a c0 0f 3e 6e fb 1e 3d
       7.9345096e-05 -0.07606621 0.14038268 0.038814
000330 64 06 ae 3d 50 4e 02 be 4c 4d 89 3d 2c af 72 3e
       0.08497313 -0.12725186 0.06704196 0.23699635
000340 8d 1b d7 bd 33 66 a3 be 88 d1 39 3d d3 11 a1 be
       -0.10503302 -0.3191391 0.04536584 -0.3145891
000350 5d 78 da be dc 85 c6 3e 23 54 62 3e 9b 5a 53 3e
       -0.42669955 0.38774002 0.22102408 0.20640032
000360 58 19 a0 3e a3 d7 28 3e 0a 3b 38 bc 9f 88 1c 3f
       0.31269336 0.16488509 -0.011244545 0.6114597
000370 4d 1e 9b 3e 96 a1 a1 3e 15 1f 7f 3e 56 10 71 3e
       0.30296555 0.31568593 0.249142 0.23541388
000380 83 a9 d8 bd 33 a1 e0 3c 37 40 93 be 69 5f 81 be
       -0.10579207 0.027420616 -0.2875993 -0.25268105
000390 e4 e4 c0 3d 30 a5 2e bb 38 94 33 bc 51 22 f7 bd
       0.094186574 -0.0026648752 -0.010960631 -0.12067092
0003a0 4c 72 00 3e a8 f4 20 bd 02 a1 87 bb c3 b3 85 3d
       0.12543601 -0.039295822 -0.0041390667 0.065284275
0003b0 1f 78 3d 3e ae 3c b3 3c a6 96 c3 bd c0 f1 25 be
       0.18502854 0.02187952 -0.09550218 -0.16205502
0003c0 6f ee d6 bc 20 15 93 bc c6 b9 98 be 33 20 61 3d
       -0.02623674 -0.01795441 -0.29829234 0.05496235
0003d0 4e 18 b9 bd 12 9a 62 3e b9 8c af 3c 7e ac 14 3e
       -0.09037839 0.22129086 0.021429406 0.14518926
0003e0 b8 ff 7c 3e 28 c0 66 3e 75 f5 64 3d 91 4f 1b 3d
       0.24706924 0.2253424 0.05589815 0.037917677
0003f0 92 7e 8d bc 3c dd c8 3d 0e ff c5 bd 70 18 10 3d
       -0.017272267 0.09807822 -0.096677884 0.035179555

conv2.0.bias f4 [8]
000000 c0 28 3b 3e 00 c4 a9 3e 5c 60 0c 3e e3 63 a7 3c
       0.18277264 0.3315735 0.13708633 0.020433372
000010 5a a4 22 3e 66 78 9a be d5 d7 4f 3d 75 5a a4 3e
       0.15883008 -0.30169982 0.050742943 0.32100263

conv3.0.weight f4 [8, 8, 3, 3]
000000 d1 12 e2 bc ed a3 b6 3d 12 98 f0 bd 30 1f 1e 3e
       -0.027596863 0.08917985 -0.11747755 0.15441585
000010 32 e8 ee 3d 99 2c 8e 3e 44 7b 39 be e1 4a 51 ba
       0.116653815 0.277684 -0.18113428 -0.0007983875
000020 48 cc 67 3c 33 ca 06 3e 1b ab 1a 3c 0f 55 9a be
       0.014147826 0.1316307 0.009440209 -0.3014302
000030 57 93 9a be 50 43 04 3e 09 71 d9 bd e8 28 22 3c
       -0.30190536 0.12916303 -0.10617263 0.009897448
000040 67 1b be 3c b5 b7 3d bc 5c 5b 07 3e 10 57 95 bb
       0.023206426 -0.011579444 0.13218445 -0.004557498
000050 4c 86 32 3d 30 87 5b bd 1c 45 00 3d ab 66 4e 3d
       0.043585107 -0.05359572 0.031315908 0.05039088
000060 d8 35 a3 3d 40 69 74 3e d8 02 98 3e de 77 b4 3d
       0.07969254 0.23868275 0.2968967 0.08811925
000070 9a a4 5e be 58 ca 68 3c 48 e5 ab 3d 7a e1 11 3e
       -0.21742478 0.014208399 0.08393341 0.14246169
000080 9b e3 ae bd e5 12 71 bc a8 b4 ab 3d 7e e0 50 bd
       -0.08539506 -0.014713977 0.08384067 -0.050995342
000090 f7 09 58 be 8e c4 b5 3d 19 c0 a0 bd 2e 8c f7 3c
       -0.21097551 0.088753805 -0.0784914 0.03021821
0000a0 0c 67 20 3c a3 2e c5 bd 73 bb 94 bd 74 db 37 be
       0.009790193 -0.09628036 -0.072623156 -0.17954808
0000b0 6e d1 be bd b9 dd d7 bd 64 05 a4 3d a9 52 fd bc
       -0.09317289 -0.10540337 0.08008841 -0.030923204
0000c0 f7 57 e3 3b 1f d7 b7 3c c8 0f 41 3d 8c 08 aa bd
       0.0069379765 0.022441445 0.04713419 -0.083024114
0000d0 41 b5 7c 3e 0e 61 27 3e ce 6d 51 3e 39 35 32 3d
       0.24678518 0.16345617 0.20452043 0.04350779
0000e0 ad 3c c5 3c 29 da 24 3e 88 38 b0 3c 51 1c 79 3d
       0.024076784 0.16098846 0.021511331 0.06081802
0000f0 7a af 03 3e 1c e8 41 3c 3a 15 38 3d 3e 7f 16 3e
       0.12859908 0.011835124 0.04494212 0.14696977
000100 93 b2 8d bd 7e c2 5a 3e 0b f0 3a 3e f5 67 91 bd
       -0.06918826 0.21363255 0.18255632 -0.07099906
000110 aa d4 40 3c 68 f2 be bd d5 5a e1 bd 35 02 a3 be
       0.011769453 -0.09323579 -0.11003653 -0.3183762
000120 9d 99 4f 3d e6 95 b7 bd ed 44 33 3e 4a 91 01 3e
       0.050683606 -0.08964138 0.17506762 0.1265308
000130 5b b8 08 3e 4d 42 84 3d 8a b3 3a be 6e db ec 3d
       0.13351576 0.06457958 -0.18232551 0.115652904
000140 c6 89 64 3d 76 e9 f2 bc ed 9a cb 3e 2e 2b 8c 3e
       0.055795453 -0.029652338 0.39766636 0.27376693
000150 11 bf 7e 3d 0b fd 35 be 1f 61 06 3f d7 18 ba 3e
       0.062193934 -0.1777231 0.52491945 0.36347076
000160 a1 44 bc 3e fb 30 0e 3f 17 1e cb 3d 02 03 ee bd
       0.3677111 0.5554349 0.099178486 -0.116216674
000170 46 81 f2 3c b4 75 09 3e 7a 29 02 be df 93 07 bd
       0.029602658 0.13423806 -0.12711135 -0.033100005
000180 ec bc 09 be bf c1 57 b9 8e 8c 6a bd eb 06 57 be
       -0.13450974 -0.00020576174 -0.05726295 -0.20998733
000190 27 2d 19 be e7 67 f6 3d 05 22 e0 bc ce cb 64 3d
       -0.1495863 0.120315365 -0.027359972 0.055858426
0001a0 41 53 4b bd 5b 63 a3 bc 94 6b 57 3c 99 f8 96 3d
       -0.049639944 -0.019944837 0.013148207 0.07371635
0001b0 7b 89 b9 3d c5 7b 69 be 4f 44 47 3d bb b6 8c bd
       0.090594254 -0.2280112 0.04864913 -0.068707906
0001c0 ec 54 83 bd a8 81 0c bd 1a da 0b 3d 04 3b 0a be
       -0.06412682 -0.034303337 0.034143545 -0.13499075
0001d0 b7 10 44 3e 8e 7d f9 bd e6 06 c2 bc fd 41 82 3d
       0.19147001 -0.12182151 -0.02368493 0.063602425
0001e0 42 61 5c be e5 8f bb 3d a2 8f c8 3d ae 28 54 bd
       -0.21521476 0.09158305 0.09793021 -0.051796608
0001f0 16 ec 0b be b8 ed 61 3d 20 02 25 be 88 b4 4b bd
       -0.13664278 0.055158347 -0.16114092 -0.049732715
000200 ee a6 d6 3d 3a df 82 be 3b 8e a4 bd bf 2b 00 3e
       0.10481058 -0.25560933 -0.08034941 0.12516688
000210 81 bf d7 bd 2d f4 ec bc 5a fa 19 3e 59 bd 54 3e
       -0.10534573 -0.028925026 0.15036908 0.20775355
000220 1a de 29 3e 3a ed 76 3e a8 2a 60 3d c5 1d 20 3e
       0.16588631 0.24113932 0.05472818 0.15636356
000230 df 36 20 3e b7 e5 9d 3d 86 26 95 3e bc 9d 80 3d
       0.15645932 0.0770983 0.29130954 0.062800854
000240 82 3e 51 3e ba ae f2 bd 04 0a 21 bd 71 59 dc bd
       0.20434001 -0.11849733 -0.039316192 -0.10759247
000250 6a 43 95 3d e6 59 d5 3d 96 0d e4 3d 77 b6 23 3e
       0.07288249 0.104175374 0.11135404 0.15987574
000260 ac ee 89 3e 26 26 8f bd d8 cb 32 be e7 74 67 be
       0.26939905 -0.06989698 -0.17460573 -0.22603188
000270 12 8a e3 bd cb 8b 04 bf bb 7e 5d be 11 35 a2 bd
       -0.11110319 -0.5177581 -0.21630375 -0.07920278
000280 e9 75 24 3e c9 18 42 be 6a d7 6f 3d 2e 5b 74 be
       0.16060604 -0.18954767 0.058555044 -0.23862907
000290 55 50 75 3e 24 34 48 bc 1f 90 21 be df 15 49 3e
       0.23956425 -0.012219463 -0.15777634 0.1963725
0002a0 08 ca 26 bd 71 ef e0 bd 46 24 d3 3d 8b 05 9a bd
       -0.040720016 -0.1098317 0.10309653 -0.075205885
0002b0 ae 70 75 3c 08 be 31 3e 2f 80 36 3e 42 80 87 3e
       0.014980478 0.17357647 0.17822336 0.2646504
0002c0 1c bf 8f 3e 43 60 7c 3e 32 3d 07 3e ab bb d0 3d
       0.28075492 0.24646096 0.13206938 0.10192045
0002d0 04 c3 1f 3e 73 e1 26 bc 15 08 90 bd 84 28 2a 3d
       0.15601736 -0.010185587 -0.070327915 0.041542545
0002e0 bc 98 7d bc 8e 2b f2 3d c6 66 4f 3e 2a 64 b9 3c
       -0.015478309 0.11824714 0.20254049 0.02263077
0002f0 09 51 0a be 78 0d 17 3e 21 c1 ea bc 2b 9e 71 3e
       -0.13507475 0.14751232 -0.028656544 0.23595493
000300 b2 83 33 bd 80 60 a5 3d 3e bd 90 bd c5 6d 21 3d
       -0.043826766 0.080750465 -0.07067345 0.039411325
000310 08 85 a0 bd f0 4f 75 bd cd 0c c7 3d 69 bd 81 bd
       -0.07837874 -0.059890687 0.097192384 -0.06334955
000320 75 39 19 bc 8e 19 9d be dc 1b b9 be 1c 7d 2f be
       -0.009352078 -0.3068356 -0.36154068 -0.17137569
000330 af 69 2c be 13 79 65 be f9 c9 e4 bd a3 ab 57 bd
       -0.1683719 -0.22409467 -0.11171336 -0.05265392
000340 2d e9 37 be 59 60 16 be db 57 1a 3e 4a 23 59 bd
       -0.17960043 -0.14685191 0.15072577 -0.05301217
000350 a0 88 e5 bd 40 7c a2 bc 73 76 05 be 28 ac 62 3d
       -0.112077 -0.019834638 -0.13033466 0.055339962
000360 79 28 55 be be 97 86 be 53 25 8e bd 60 a9 71 be
       -0.2081622 -0.26287645 -0.06940713 -0.23599768
000370 43 4f 88 bd a4 2c 94 bc ca 36 59 bc c3 14 82 be
       -0.06655743 -0.018087693 -0.013257692 -0.25406465
000380 47 dd 43 be 95 25 a2 be 62 d0 16 3e 41 2c 8d 3e
       -0.1912738 -0.31669298 0.14727929 0.27572826
000390 cb 9c 7c be d8 34 1d be c8 44 03 be b7 ba 1e be
       -0.24669187 -0.1535219 -0.12819207 -0.15500914
0003a0 ea da 5b be 96 df 20 bd e5 0e 51 3e 7f c7 75 3c
       -0.21470228 -0.03927573 0.20415838 0.015001177
0003b0 a7 9f 40 bd be d7 7f 3c 40 e1 11 3e 2e 70 b6 3d
       -0.047027256 0.015615402 0.14246082 0.08908115
0003c0 ea 7f b2 3d 3a 22 b7 3d 03 9b 0c 3e 5c e7 d5 3d
       0.08715804 0.08942075 0.13731007 0.10444519
0003d0 ae 51 16 be 5b dc 90 3e 2d fd eb 3c 9a 03 53 3e
       -0.14679596 0.28293118 0.028807247 0.20606843
0003e0 78 c5 11 3e 1e 41 49 3e 81 8e 4f 3e 90 1b 3f 3e
       0.14235485 0.19653746 0.20269205 0.18662858
0003f0 9d aa 9d bd 37 6e 46 be c4 1d 4e 3e 5f d9 73 bd
       -0.076985575 -0.19377981 0.20128542 -0.059533473

conv3.0.bias f4 [8]
000000 f5 b6 5e bd c9 61 5d 3e 7c b3 a0 bd 46 29 43 3e
       -0.0543737 0.21619333 -0.07846734 0.19058713
000010 d1 41 bc 3e 69 57 69 be f6 1e 21 3d 6f e9 93 be
       0.36768964 -0.2278725 0.039336167 -0.28889033

dense1.0.weight f4 [32, 128]
000000 69 7a 39 bd db 7a 83 3c 16 76 40 3d cd f7 35 3c
       -0.045282755 0.016049793 0.046987616 0.011106444
000010 61 66 0c bd 73 52 f0 bc 17 d8 28 be 9d 63 d5 3b
       -0.034277324 -0.02933619 -0.16488682 0.006512119
000020 ab 4d 02 3d 85 68 97 bd 8b 34 da bc b0 86 95 bd
       0.03181235 -0.073929824 -0.026636383 -0.0730108
000030 ba 44 fd 3d 32 1c 11 3d b0 03 25 3d cc b0 c8 3d
       0.12366624 0.03542728 0.04028672 0.09799346
000040 c2 4f 0e be 0a 86 ab bc 15 31 d3 3b b3 12 a9 3d
       -0.13897613 -0.020937938 0.00644506 0.0825552
000050 24 62 a6 3d 29 84 06 3c a6 fb a8 3d 8e a7 0b 3e
       0.081241876 0.00821022 0.08251123 0.13638136
000060 ab c4 73 bd e5 04 a1 3d 80 bc 39 3e 6c a5 df bc
       -0.05951373 0.07862262 0.18138313 -0.027300559
000070 0c f0 1d 3d eb db b6 3d f8 fb 95 bc 36 19 7e 3d
       0.038559005 0.08928665 -0.018308625 0.06203576
000080 9a b2 88 bd 3e 52 b7 bd 95 52 4f be 82 ef 07 3e
       -0.066746905 -0.08951233 -0.20246346 0.13274959
000090 76 d6 54 bd 66 89 00 3d 71 1c 0d 3d cd ec 60 bd
       -0.05196234 0.031381033 0.034450952 -0.05491333
0000a0 63 88 27 be 97 af e8 bd f2 6f 3a 3e b0 f9 a5 bc
       -0.16360621 -0.11361616 0.18206766 -0.020260662
0000b0 12 62 d9 3d 0c 72 62 bc c4 95 b4 bd f8 b9 e3 bd
       0.106144086 -0.013821136 -0.08817628 -0.11119455
0000c0 db 62 fe bc b9 76 52 bd e6 23 03 bb dd 04 09 bd
       -0.031052997 -0.051382754 -0.002001041 -0.033451904
0000d0 a3 94 6f bd d2 00 09 3d 1d ba fd bb b8 21 be bd
       -0.05849136 0.033448048 -0.0077431337 -0.09283775
0000e0 ae c1 cb bc 2a dd 6d bd ae 45 27 3e 32 ed b5 bd
       -0.024872627 -0.058072247 0.16335174 -0.08883132
0000f0 7a 7d 50 bc e0 5e 00 3d 40 b7 46 bd 95 35 a7 bd
       -0.012725228 0.03134048 -0.048514605 -0.08164517
000100 1e 8a d3 bd 1e fb cf bd 73 25 06 be c2 d8 af 3d
       -0.10329078 -0.10155319 -0.13100223 0.08586265
000110 22 82 73 bd d9 4a b3 bb a0 36 ab 3d 37 bb ac 3d
       -0.059450276 -0.005471569 0.08360028 0.08434146
000120 9d 14 65 3d 08 14 1e 3e d4 3c 95 3c 17 00 4b bc
       0.05592786 0.15437329 0.018217482 -0.012390158
000130 56 ed 5d 3c 8a 4e 18 be 33 6f 8c 3c 35 b2 be bc
       0.013545355 -0.1487371 0.017142868 -0.023278335
000140 7a ff 90 bd d1 74 19 bd bd e8 1e bd 7c d8 e0 bb
       -0.07079978 -0.03746492 -0.038796175 -0.0068617444
000150 dc b9 3f 3d 3a 0b 9e b9 2e 2a 09 bd 6d 1a f2 ba
       0.04680811 -0.00030144473 -0.03348749 -0.001847101
000160 93 20 f1 3d 29 b9 6e bc 47 b0 80 bc 56 eb 82 bc
       0.11773791 -0.014570513 -0.015709056 -0.015981358
000170 68 01 ca bd 23 89 87 3d e1 ae 51 bb 42 7b 9e 3d
       -0.098635495 0.06617954 -0.0031995105 0.07738353
000180 75 ca 3d 3d 30 2c 85 3e b5 e2 d6 3d 7c 52 ba 3d
       0.046335656 0.26010275 0.1049246 0.09097764
000190 c7 c6 f9 39 5c e5 6b 3e a8 1b 2e 3e 9c 46 3e 3c
       0.00047641082 0.23036712 0.17002738 0.011613514
0001a0 28 49 84 3d e0 98 68 3d a1 a1 a5 3d c9 6f 3c 3e
       0.06459266 0.056786418 0.08087469 0.18402018
0001b0 b8 50 0c bd dd 5a fd 3b e2 e6 3d 3e 72 ef 08 3d
       -0.034256667 0.007731779 0.18545106 0.033431478
0001c0 dd 7e 9e 3d 7f 10 69 bd 78 a5 39 bc 37 67 de bb
       0.07739041 -0.056900498 -0.011330955 -0.0067872065
0001d0 dd f6 0d be fd f0 8f bd 0f c4 a7 3d cb 8f f7 bc
       -0.13863702 -0.07028387 0.08191692 -0.030219933
0001e0 34 09 3c bd ba 41 9f 3d a9 28 19 3e 73 c5 98 3d
       -0.045907214 0.07776208 0.14956917 0.074595354
0001f0 2f 11 20 3d f8 f2 8d bd 3d 04 ae bd 1e c7 85 3d
       0.039078888 -0.06931108 -0.08496902 0.06532119
000200 a9 a7 2b bd f5 5c ab bc f0 b3 ce 3d c6 20 c9 3d
       -0.04190794 -0.020918349 0.10092914 0.09820704
000210 04 0e 88 bc f4 30 10 3d 04 96 a0 3d f2 dc 79 3d
       -0.016608246 0.035202935 0.07841113 0.061001725
000220 f3 c6 c8 bd 7f 8b 1c bc 2c b8 ef bc b4 95 ca 3d
       -0.098035716 -0.009554743 -0.029262625 0.09891835
000230 95 11 f8 bc 57 00 00 be ca ec b3 bd 0b 32 86 bd
       -0.030281821 -0.1250013 -0.08785398 -0.06552514
000240 95 96 54 be af e7 32 3e a9 27 37 bd 76 54 bf 3d
       -0.20760567 0.17471193 -0.044715557 0.093422815
000250 8e c4 80 bd 28 dc 8e 3d 6f 79 8f bd 60 86 da 3c
       -0.0628749 0.06975585 -0.070055835 0.026675403
000260 82 37 f6 3d c9 58 94 3c 56 55 4b 3e b9 66 5c bd
       0.12022306 0.018108742 0.19856772 -0.0538089
000270 94 73 a1 3d e7 98 46 be bc 62 26 3b 96 7e 09 3d
       0.07883373 -0.19394265 0.002538844 0.033567987
000280 78 f7 c6 3c 81 a3 7a bc 15 3f 83 bc a8 90 54 be
       0.024287924 -0.015297771 -0.01602129 -0.20758307
000290 4c a9 02 3e 2d 7b 82 bc c1 d0 ed bd 06 13 85 bd
       0.12759894 -0.015927875 -0.11612082 -0.06497769
0002a0 1e e8 20 3d 99 9b f4 3d 72 d5 26 bd fd 3e 9c bc
       0.039283864 0.119437404 -0.0407309 -0.019073004
0002b0 5c 6a 04 3e cb f5 34 bd df 1a 31 3d 76 af 71 bb
       0.12931198 -0.04417972 0.043238517 -0.0036878265
0002c0 dc 67 c6 3d f2 0a 19 3d 84 0c 10 3c c1 e4 23 3e
       0.09687778 0.037363954 0.008792046 0.16005231
0002d0 5f b8 c9 bd e8 a8 97 bb e7 5d d4 bb 75 67 06 3d
       -0.09849619 -0.0046282895 -0.0064809206 0.032813508
0002e0 0d de 09 bd 99 03 eb 3c 90 ea 91 bc 72 c1 99 3d
       -0.03365903 0.028688239 -0.017812043 0.075076
0002f0 74 4e f9 bd 6f 14 a4 bd 62 70 84 3d f9 18 00 be
       -0.12173167 -0.0801171 0.06466748 -0.12509526
000300 80 bb 85 bc 9d db 82 bd bd 4b 89 3d 4a 2e 43 bd
       -0.016324759 -0.06389544 0.06703899 -0.047651567
000310 b7 20 be 3c 47 b4 df bd 99 c6 ac bd e5 9a 9c bc
       0.023208959 -0.10923057 -0.08436317 -0.019116828
000320 d9 86 23 bd 6e a3 be 3b c8 90 fc 3c c2 12 97 3d
       -0.039923523 0.005817822 0.030830756 0.07376625
000330 c4 8a df 3a e6 f4 5f 3d 17 35 65 bd b3 43 72 bd
       0.0017054905 0.054676913 -0.055958834 -0.059146594
000340 2f 51 5b bd e5 37 e9 bd 57 15 60 3d 12 65 05 bd
       -0.05354422 -0.11387614 0.05470785 -0.03256709
000350 d6 e0 0b 3e b1 bf 18 be c5 71 a0 bd 42 12 46 bd
       0.13659987 -0.14916874 -0.078342 -0.048357256
000360 2a 77 93 3d 25 7f f0 bc c8 58 88 bc be 43 50 3d
       0.07200463 -0.029357502 -0.016643897 0.050845854
000370 ea 76 2e bd 52 94 d2 bd 39 0a fe bd 6e ba ef 3c
       -0.042593874 -0.10282196 -0.124042936 0.029263701
000380 7d 80 07 3c 7a 0c 2a be 18 5a ac 3d 57 a2 83 3d
       0.00827038 -0.16606322 0.084156215 0.06427448
000390 98 f2 a4 3d d2 86 7c 3d fd ae 83 3c 2e bf d5 3d
       0.080540836 0.061652012 0.016074652 0.10436855
0003a0 9f eb d4 bd b8 d1 df 3d 5c a1 bd 3d c6 6b 82 bc
       -0.10396504 0.109286726 0.092592925 -0.015920531
0003b0 f0 17 11 bd f6 a5 8e 3d 76 47 07 be a0 e2 2a bd
       -0.03542322 0.06965248 -0.13210854 -0.041720033
0003c0 6a 71 88 3c 02 6f 74 bd 8c 8f 3c 3d ee 12 de 3d
       0.016655643 -0.059676178 0.046035334 0.10843454
0003d0 7a c9 3e 3d 37 ce 32 bb 9d 98 3b bd d5 aa 26 bc
       0.04657886 -0.0027283558 -0.04579984 -0.0101725655
0003e0 65 f8 83 bc 38 6f fd bc be ae 9d 3d 6c 87 42 3d
       -0.016109655 -0.030936822 0.07699345 0.04749243
0003f0 47 0a b1 bc a4 a6 91 3b b1 95 06 bd cf 3f 89 bd
       -0.021611346 0.004444914 -0.0328576 -0.06701624

dense1.0.bias f4 [32]
000000 41 7f 85 bd ed 0b 50 3e 9c 91 ac bc 3d 10 9c 3e
       -0.065184124 0.2031705 -0.021065526 0.3048114
000010 2f 45 c2 bc af bf 1c 3e 10 42 81 3d 1f 7c ae 3d
       -0.02371463 0.15307496 0.063114285 0.08519768
000020 42 0b 0c 3e d1 24 8d bd 1c 8d 74 3e b5 f3 b1 3d
       0.1367617 -0.06891788 0.23881954 0.086890616
000030 30 9f a5 3d 82 d4 aa 3e 9f 5a 51 3e e0 11 5d be
       0.08087003 0.33365256 0.20444725 -0.2158885
000040 d3 ca 04 3f a4 ad 0a 3e c7 3f 04 ba bd b6 19 3c
       0.51871985 0.13542801 -0.0005044904 0.009381947
000050 2d 21 2a be 3f 58 f7 3c 20 72 dc be f5 1b 94 3e
       -0.16614218 0.030193446 -0.4305582 0.2892758
000060 22 96 a2 bd 75 93 78 be f5 5c 9a bc 3c 93 94 3e
       -0.07938792 -0.24275 -0.018843153 0.2901858
000070 a5 b7 8b bd b8 a5 07 80 bf e8 e5 3d bb ec fa 3d
       -0.06822137 -7.02297e-40 0.112260334 0.12252184

dense2.weight f4 [10, 32]
000000 3e 85 60 be 47 2c 15 be 5a 61 2c 3d af 38 31 3d
       -0.21925828 -0.14567672 0.04208503 0.04326695
000010 2f 7f 9a bd 4b 14 10 3f 7c f2 81 3d 27 05 2e 3e
       -0.075437896 0.56280965 0.06345078 0.16994153
000020 50 ad 40 3e 2b ac 25 be 75 32 f6 3e 82 3c 74 bd
       0.18816113 -0.16178958 0.4808537 -0.059628017
000030 15 d0 f4 3d e1 58 12 3e e6 9c 7c 3e d4 f6 78 be
       0.11953751 0.14291717 0.24669227 -0.24312907
000040 e5 12 26 3e 23 e1 fc 3b 68 44 4a 3b 4d 52 53 3e
       0.16218145 0.007717268 0.0030863527 0.20636864
000050 e1 4d bf bd 5c 80 34 3e 2b c6 77 be 11 fe 57 3e
       -0.09341026 0.1762709 -0.24196689 0.21093012
000060 64 f7 b2 be 67 c1 1f be 2a cc 9c bc 67 43 2b bd
       -0.3495437 -0.15601121 -0.019140322 -0.041812327
000070 ad 15 d5 bd 37 83 e8 3a 0f 70 f0 bd b2 09 ce bd
       -0.10404525 0.00177393 -0.117401235 -0.10060443
000080 c5 08 0a bd f3 d4 27 3e 9b 10 c1 3e 3b c3 ac be
       -0.03369977 0.16389827 0.3770798 -0.337427
000090 2e 98 16 be 8b 44 7c be 13 18 b2 3b 3e 81 81 3e
       -0.1470649 -0.24635522 0.005434999 0.25293916
0000a0 65 b2 07 be d5 bf 92 3e 33 ab 01 bf e9 55 37 3e
       -0.13251646 0.2866198 -0.50651854 0.17903866
0000b0 86 73 a9 be 8a 1e 17 bf 27 67 aa be 9c 27 e9 3d
       -0.3309595 -0.59030974 -0.33281824 0.11384508
0000c0 e2 67 50 be 50 d0 ab bd 7f 83 19 38 df 90 82 be
       -0.20352128 -0.08389342 3.6600508e-05 -0.25501153
0000d0 d3 0b 08 3e ff 04 af be 15 97 51 3e 76 0b 24 3c
       0.1328576 -0.341835 0.2046779 0.010012498
0000e0 26 fc fe bd ea c5 c5 bc 4f 08 c3 3e 3e d0 ab be
       -0.12450437 -0.024142224 0.38092276 -0.33557314
0000f0 69 30 03 be cc 06 d4 b8 84 78 42 be aa 85 f7 bb
       -0.12811436 -0.00010110214 -0.18991286 -0.007553776
000100 9f 1f 94 bd 05 7c 58 be 30 66 ee bc 67 fb b4 3e
       -0.07232594 -0.2114106 -0.029101461 0.35348055
000110 ac 41 99 3e ea 94 f5 3d e0 cd 67 3d 0d 29 26 bc
       0.29932916 0.11991294 0.056592822 -0.010141623
000120 8e cd 23 be 72 64 2b 3d 67 8b 17 3e 96 4a 24 3e
       -0.15996382 0.04184384 0.14799272 0.16044077
000130 74 33 87 3c fd 98 dc 3e 8f 6d fc bd ac 25 0a 3e
       0.016504027 0.4308547 -0.12325584 0.13490933
000140 3a ae e3 bd 24 3e f1 bd 9a a3 8e 3a f1 a3 d7 be
       -0.111172155 -0.117794305 0.0010882497 -0.42117265
000150 0a 1a 81 3e fd 16 9e 3d 32 db 58 bd 73 20 08 be
       0.2521518 0.077192284 -0.052943416 -0.13293628
000160 56 2d c7 3d 6d 03 3f be 90 f0 39 3e ed f1 c2 3e
       0.09725444 -0.1865365 0.18158174 0.380752
000170 b8 a9 ae be 90 d4 ab ba 92 30 b6 3e 92 51 88 bd
       -0.3411386 -0.0013109613 0.3558393 -0.06656183
000180 e4 21 84 bd 3c 78 73 be 6c 9b 8b bc 12 20 15 be
       -0.064517766 -0.23776335 -0.017041884 -0.14563015
000190 8c 3e e3 3d a0 04 eb bf b7 d0 4d be 51 fd 0e be
       0.11095914 -1.8360786 -0.2009915 -0.1396382
0001a0 1f be 11 be f1 9a ce 3e 56 00 8b bd 05 55 00 3e
       -0.14232682 0.40352586 -0.067871734 0.12532432
0001b0 ed dc d8 3d fe d4 a3 bd d2 4c 83 3e 12 25 3d 3e
       0.10589013 -0.079996094 0.25644547 0.18471172
0001c0 90 72 52 be 0d a8 46 3e 6b ed 11 3b 73 71 6a 3e
       -0.20551515 0.19400044 0.0022266756 0.2289484
0001d0 24 b8 89 be 8e e2 3c bc 7a 33 75 bd 54 0a 03 3e
       -0.268983 -0.011528624 -0.059863545 0.12796909
0001e0 36 14 ff bc 01 6d 01 bd 9a 0d 28 bf 7f 62 79 3e
       -0.031137567 -0.031598095 -0.65645754 0.2435398
0001f0 5b a7 90 3d a7 5a 39 3a 07 88 2f 3c 78 2b a8 3e
       0.070631705 0.0007070698 0.010713584 0.32845664
000200 63 61 9f 3d 2f ee 80 be 76 ca 74 3e 3d 3b a6 3d
       0.07782247 -0.2518172 0.23905358 0.081167676
000210 48 b5 52 3e 4c 29 1b c0 ab ca d2 be 34 6c f2 bd
       0.20576966 -2.4243956 -0.41170248 -0.11837044
000220 55 df 50 be 44 68 e1 be fe 7c 5d be 9e bc 4c be
       -0.20397694 -0.4402486 -0.21629712 -0.19993827
000230 5b 31 64 3e eb 7d 7d 3e 91 39 84 be 56 02 d6 bc
       0.22284453 0.24755065 -0.2582517 -0.02612416
000240 ed cd 85 3d 80 4f 47 be 5a 5b 01 bb 36 6d 4e 3d
       0.06533418 -0.1946392 -0.0019738288 0.05039712
000250 ed 29 7d 3e ed 47 f6 bc 1a 62 11 3e 0c 09 34 be
       0.24723025 -0.030063594 0.14197579 -0.17581576
000260 81 ff de bd c5 5c f5 bd 60 e6 07 3e 8e 51 f5 be
       -0.10888577 -0.11980585 0.13271475 -0.47913784
000270 70 08 d4 3e 7e f2 5a 36 86 eb 26 3d a2 09 24 bd
       0.41412687 3.262568e-06 0.040751956 -0.04004825
000280 4b b6 8f 3a 80 94 93 3e d5 55 80 be a9 0f 97 be
       0.0010964362 0.28824234 -0.25065485 -0.29504135
000290 41 30 bf bd 76 30 98 bb 57 31 c4 bd d5 2b bf 3c
       -0.093353756 -0.004644449 -0.09579723 0.02333633
0002a0 89 a3 9b 3d f1 fb 25 be 56 d4 86 3d fd ac 2e 3e
       0.07599551 -0.1620939 0.065834686 0.17058177
0002b0 28 12 66 3e f6 f4 08 be 7c 1b 48 bd 0a bf 8d 3e
       0.22467864 -0.13374695 -0.048854336 0.27684814
0002c0 37 58 c2 3c 3b 03 f9 3b f6 4b 62 bb 6a 5d 7b 3d
       0.023723705 0.007599262 -0.003453014 0.061368383
0002d0 fe 0a 27 bf 48 f6 14 3e dc 85 36 be 46 06 a0 be
       -0.6525115 0.14547074 -0.17824501 -0.31254786
0002e0 69 33 9f bc f0 d2 d3 3d 4e b3 34 3d c4 cd 3b bd
       -0.019433694 0.103429675 0.04411631 -0.04585053
0002f0 ca d9 cb bd 8a b3 fd ba 76 fa 08 be 85 a2 0d be
       -0.09953649 -0.0019355875 -0.13376793 -0.13831528
000300 d2 c5 67 3e 8d 02 b4 be fe 4c 84 be 9e 2e c3 3e
       0.22634056 -0.35158196 -0.2583999 0.38121504
000310 dd 42 ce 3c d9 0c 89 be 75 ed 85 bd cf 7f ba bd
       0.025178367 -0.26767614 -0.06539432 -0.09106409
000320 0a 38 84 3d c1 5e 65 bd b0 68 97 bd 8c d3 ef 3d
       0.06456001 -0.055998567 -0.073930144 0.11710271
000330 2d 37 56 bd a4 fc 44 3c 98 97 8e be 03 2c 83 bc
       -0.052298713 0.012023125 -0.27850032 -0.016012197
000340 73 f6 ac be c0 d1 f6 bd 92 c0 ce ba b5 51 e7 be
       -0.33781776 -0.120517254 -0.0015773943 -0.45179525
000350 aa 62 cf be 21 81 26 bc 46 a3 c3 bd 6b 3f bd 3e
       -0.40504962 -0.010162623 -0.09552626 0.36962447
000360 77 0f c4 3d 94 24 03 be 32 15 6f 3d c3 8d 52 3e
       0.09573262 -0.12806922 0.058369823 0.2056189
000370 92 93 23 3e 53 52 9f ba 32 db 23 be f0 83 95 3e
       0.15974262 -0.0012155272 -0.16001585 0.29202223
000380 af 77 0f be a8 0f fb 3e 43 67 2a bd 6e 69 73 be
       -0.140105 0.49035382 -0.041602384 -0.23770687
000390 51 df 48 3d 1c 74 c2 3e 02 bb 9e be b4 c1 15 bd
       0.049041096 0.3797921 -0.3100205 -0.036561683
0003a0 e4 c3 46 3e a9 4a d0 be 5e c2 f1 be 55 a2 8e be
       0.19410664 -0.4068196 -0.47218603 -0.27858225
0003b0 50 12 b4 3d 65 c9 f2 be e0 a3 eb bd 52 70 0e be
       0.08792555 -0.47419277 -0.11505866 -0.13910034
0003c0 02 38 dd bd 99 a2 3c be ef 1a 94 39 24 b7 6a 3e
       -0.10801698 -0.18421401 0.00028248827 0.22921425
0003d0 e7 1a 8e 3e be ba 90 3d 2c 2f 03 3d c0 8b a8 be
       0.277549 0.07066868 0.03202741 -0.3291912
0003e0 df 4d b4 3e dc 83 5a 3e df 59 ac be 95 d0 da be
       0.3521566 0.21339363 -0.33662316 -0.4273726
0003f0 55 ab d2 be cf 0e fc ba 97 05 4b bd fa 8d 96 be
       -0.4114634 -0.0019230488 -0.049565878 -0.29405195

dense2.bias f4 [10]
000000 4e 0d b5 3e c5 29 94 be 9a 7d b4 3d ab 1e 8b bd
       0.35361713 -0.28938118 0.08813019 -0.06792959
000010 65 ca 30 3e 9c 49 25 3e 33 39 ad bb 3e 4e 5a be
       0.17264707 0.16141361 -0.0052863597 -0.2131891
000020 ad 9b bc 3e d1 df 8a be
       0.3683752 -0.27123883
