ResidualLoss/CNN-Train/CIFAR_17/false_epoch-1250.pt (torch, 27135 bytes, 10 tensors)

conv1.0.weight f4 [8, 3, 3, 3]
000000 87 82 ff be 13 cb 94 3d 6c c3 a5 be b7 82 da be
       -0.49904272 0.07265296 -0.32375658 -0.42677853
000010 47 70 30 3d 94 33 a1 be 4b 60 c2 3e 18 5d e7 3e
       0.043075826 -0.31484663 0.3796409 0.45188212
000020 4b 8f 1f 3e 7f 89 1f 3e af 71 b3 3e 93 68 04 be
       0.15582006 0.15579794 0.3504767 -0.12930517
000030 6e a6 51 bd 28 59 3e 3b 70 c3 a5 be 1c 47 43 be
       -0.05118411 0.002904484 -0.3237567 -0.19070095
000040 bb 23 6d 3e d6 7a 24 bd bb 27 ed 3d be 68 61 3e
       0.23158161 -0.040156208 0.115798436 0.22012612
000050 82 80 5a 3e 0a 5b 92 3d cf 28 7a bd 03 f8 6b 3e
       0.21338084 0.071462706 -0.061074074 0.23043828
000060 97 69 fd bd e5 36 31 bd e0 a8 28 be 30 34 b7 3e
       -0.12373655 -0.043265242 -0.1647067 0.35782003
000070 4d 52 07 be 80 54 bc bd f0 99 eb be 78 dc 05 be
       -0.13214989 -0.091958046 -0.46015882 -0.13072383
000080 3c 11 ac be 58 30 cf be 15 fa 0c bc d5 38 0b bd
       -0.336069 -0.4046657 -0.008604546 -0.033989746
000090 89 c0 a1 be 09 15 6d be b6 ea 8a bd 50 75 90 3d
       -0.31592205 -0.23152556 -0.06783049 0.070536256
0000a0 6c 62 45 3e b6 db a0 be 73 75 5f be bc b7 1d 3d
       0.19275826 -0.31417626 -0.21822147 0.0385053
0000b0 8a 3b d2 bd 5c af 44 3e be a4 9f be 2b 68 51 bf
       -0.102652624 0.1920752 -0.31180376 -0.8179957
0000c0 e7 c8 93 3f 5e 82 e2 3e 8a 17 d6 3d 4f 4d 69 3f
       1.1545686 0.44240087 0.104537085 0.9113359
0000d0 94 7e 07 3f 48 88 15 3f 34 e4 e2 3e e3 02 1d 3f
       0.5292752 0.58411074 0.4431473 0.6133253
0000e0 15 67 9a bd e7 40 fe 3e b8 54 a5 3e b4 1d 71 3d
       -0.075391926 0.49658892 0.32291198 0.058866218
0000f0 fd 52 a9 3d e0 fa 56 bd 00 44 c2 be 13 0b e8 3d
       0.08267782 -0.052485347 -0.37942505 0.11330237
000100 63 5f 43 3e 7a 0b b1 be df da 9e bd 04 d8 5d be
       0.19079356 -0.34579068 -0.0775659 -0.21664435
000110 67 5b ff be 22 7b 9a be 14 da 8e be 29 c7 e8 be
       -0.49874422 -0.30172068 -0.27900755 -0.45464447
000120 e1 0e b3 3e 5c 42 8f 3e f6 75 fb be 3f 96 08 3f
       0.3497229 0.27980316 -0.49113435 0.5335426
000130 bc 8e 0a 3e 88 d9 94 be f9 7d 7d bd 58 dd 39 be
       0.13531011 -0.29072213 -0.061887715 -0.18150842
000140 35 da 3b be fa cc 27 bf 09 e1 69 bf 99 81 28 3e
       -0.18344958 -0.65547144 -0.91359 0.16455688
000150 5b 70 72 bd 88 c9 3d 3d 19 d8 2a 3f 66 0c d4 bc
       -0.05918918 0.046334773 0.6673599 -0.025884818
000160 c4 d9 81 3e 3f 59 00 3f 9c 54 26 bf 66 ff ac be
       0.25361454 0.5013618 -0.64972854 -0.33788604
000170 7d 98 1c be 2d db 9f 3d f2 a1 d2 3e 94 6e 0b 3f
       -0.15292545 0.07805476 0.4113918 0.54465604
000180 97 7b 52 bd 55 15 96 3e 8b 78 24 3f fa 82 17 bf
       -0.051387396 0.2931315 0.64246434 -0.5918423
000190 eb 95 c4 be 4c 85 f5 3d 0c 1c 81 3e 7a 8a 88 3e
       -0.38395628 0.11988315 0.2521671 0.2666815
0001a0 07 a4 e4 3d 69 6a 41 bc 2f 29 ae 3e f6 11 1e 3d
       0.11164098 -0.011805155 0.34015796 0.038591348
0001b0 a4 61 d5 bd 1e a4 88 bd af b1 29 be 92 b9 13 bf
       -0.10419014 -0.06671928 -0.16571687 -0.5770503
0001c0 bc 7b ee bd 0d 10 d8 3e 1b b0 d2 be f3 39 fe 3d
       -0.11644694 0.42199746 -0.41149983 0.12413397
0001d0 dc af cd 3d 01 ac eb 3e a8 5f 89 3c ae 11 77 be
       0.10043308 0.46029666 0.016769245 -0.24127838
0001e0 8f 1c 3d be 82 c5 37 be 2a e4 b5 3e 50 c3 0e be
       -0.18467925 -0.17946437 0.35525638 -0.13941693
0001f0 0f 63 85 3e 2b 55 46 3e b2 7b 8b bc b7 8f 64 be
       0.26052138 0.19368427 -0.017026756 -0.22320448
000200 99 a7 a4 3d a1 dd 8d be d8 d8 88 be 8b ec ec 3e
       0.08039779 -0.27708152 -0.2672794 0.46274218
000210 ee b5 26 be 10 9d d2 be 82 17 46 3e a6 3f 70 be
       -0.16280338 -0.41135454 0.19344905 -0.2346178
000220 6f 7c d7 3e 04 34 d7 bb 8a 3d 68 3b 2d a3 a1 3e
       0.42087123 -0.00656748 0.003543707 0.31569806
000230 18 2f 85 3d 8f ea 9d 3e 65 93 19 be 11 4f 55 bd
       0.06503123 0.30843017 -0.14997633 -0.052077357
000240 65 fc fa be 9b 78 ba be f5 72 b2 be 20 05 12 3e
       -0.49020687 -0.3642014 -0.3485333 0.14259768
000250 26 f1 1e 3f 2e 26 25 3e de 34 c6 3e 42 15 a6 3e
       0.62086713 0.16127846 0.3871221 0.32438093
000260 84 8e a6 3e 4b dd 99 3e 96 3e 26 3f 95 81 9a 3e
       0.32530606 0.30051646 0.6493925 0.30176988
000270 81 30 ee 3e 9e 12 2e 3f 52 05 c7 3e a2 05 d1 3d
       0.4652138 0.6799716 0.38871247 0.102061525
000280 19 1a 00 3e 3c 4b 54 3e 18 ff f6 bd a8 61 ed bd
       0.12509955 0.20731825 -0.12060374 -0.11590892
000290 9c 93 f8 3c c1 8b 39 3d 90 9b 3c 3d fc ed a7 be
       0.030343823 0.045299295 0.046046793 -0.32798755
0002a0 0b 24 94 3e b0 2a 60 3e 9c 45 45 be a5 16 71 be
       0.2893375 0.21891284 -0.19264835 -0.23543794
0002b0 25 ed 0b bf ba 59 84 be 13 53 18 be 5f 86 ac be
       -0.5465873 -0.25849706 -0.1487544 -0.33696267
0002c0 0e f8 14 bf a1 0a 3e be 64 17 8a bd 76 59 0c bf
       -0.58191 -0.18558742 -0.06742743 -0.54824007
0002d0 9a a0 40 be a3 73 9c be 82 e8 2d be 73 31 19 be
       -0.18811265 -0.30556974 -0.16983226 -0.1496027
0002e0 bd d2 be bd 3e c0 e4 be 7f 73 51 3d 16 67 e8 3a
       -0.09317539 -0.4467792 0.051135536 0.0017730917
0002f0 b2 fc df be ed 08 c3 bc da d7 f2 bd bd d9 fe 3d
       -0.4374748 -0.023807967 -0.11857577 0.12443874
000300 44 55 f6 be 9f 8e ad be 0a af 25 3e 09 43 9e be
       -0.48111928 -0.33897874 0.16180053 -0.3091052
000310 c0 c1 21 be 9f 17 c3 3d bb 38 48 3f c3 1a 0f 3f
       -0.15796566 0.0952599 0.78211564 0.5590021
000320 2a b8 04 3f 9e ee 3a be e5 13 b0 bd c4 ed 1c bd
       0.5184351 -0.18255088 -0.085975446 -0.03831269
000330 13 1c 6e 3d bd ad 71 3e 98 95 c3 bd 43 a4 55 bd
       0.058132242 0.23601432 -0.09550017 -0.052158605
000340 12 5c a0 3d 5d 67 e2 be 74 e1 30 be 3f 8b 92 3d
       0.07830061 -0.44219485 -0.17273504 0.07155465
000350 e3 09 00 bf 71 4c dc 3d b9 6b 9e 3e 64 0d 90 be
       -0.50015086 0.107567675 0.3094156 -0.28135216

conv1.0.bias f4 [8]
000000 8e 0e bd 3d ec 9b 46 3e a7 b4 37 3f 3f ae 34 3e
       0.09231292 0.19395417 0.7176003 0.17644595
000010 16 c9 e4 3e 44 71 d9 bc a3 c1 43 bf 34 d6 b6 bd
       0.44684666 -0.026543267 -0.7646734 -0.08927575

conv2.0.weight f4 [8, 8, 3, 3]
000000 11 00 19 bf 6d ac 0a 3f 49 bf 06 be 9f bd d4 be
       -0.59765726 0.5416935 -0.13158907 -0.4155092
000010 90 3a 7f 3e a9 26 e1 3e 88 36 b2 be 8a cf 1d bf
       0.24924684 0.43974808 -0.3480723 -0.61644804
000020 86 81 09 be 3a c9 8c 3e 5f 99 0c 3d e9 c0 95 3d
       -0.13428316 0.27497274 0.034325954 0.07312185
000030 b6 f1 a9 bc 9c fb 99 3d d4 31 17 3c df f1 60 be
       -0.02074514 0.07518694 0.009228189 -0.21967266
000040 01 27 a3 bc 29 4a 8d 3d cf 0c c8 3d 03 55 0d be
       -0.01991606 0.068989106 0.09768068 -0.1380196
000050 b0 8c e7 3d 7a 44 e2 be 1f 8a 5f 3c a8 6b 17 3e
       0.11306131 -0.44192868 0.0136437705 0.14787161
000060 b4 ce 31 be 11 0c a6 bd 38 09 0a 3e 73 67 a6 3c
       -0.17364007 -0.0810777 0.13480079 0.020313
000070 88 ca a9 3e 36 41 8f be 38 f2 a2 3c cd ad 8d 3e
       0.33162332 -0.2797944 0.01989089 0.27671662
000080 06 a9 2a be ad dc 90 bc 63 ed 5e bc be 48 96 be
       -0.1666604 -0.017683351 -0.013606402 -0.29352373
000090 a9 9a 1f 3e 71 40 13 bf 65 03 0c 3b d5 91 ea 3e
       0.15586342 -0.57520205 0.0021364328 0.45814386
0000a0 67 7b c8 bd d1 72 87 3d 5b e0 8d 3d 95 bf 7f be
       -0.09789162 0.06613696 0.06927558 -0.24975426
0000b0 65 72 98 3e 60 44 b8 3e b5 25 1f 3e 66 43 fe bd
       0.29774776 0.35989666 0.15541728 -0.12415199
0000c0 13 c3 42 3c 39 b6 3b 3e 43 a9 d7 bd 85 87 3e 3e
       0.01188733 0.18331231 -0.10530331 0.18606384
0000d0 4f 12 2a be 5e 5e 05 be 87 89 18 3e 5a a3 3e be
       -0.16608547 -0.1302428 0.14896213 -0.18617001
0000e0 69 d9 7b 3e 1b d0 86 be 97 ea 1c be 67 d9 54 3d
       0.24594654 -0.26330647 -0.15323864 0.051965144
0000f0 c1 f6 49 3c 64 51 4a 3c 5e 8f 94 3e 56 2c 58 3d
       0.012326897 0.012348507 0.2901563 0.052776657
000100 73 12 09 3d 7f b0 c1 be e2 e1 8a be bc 5b f5 be
       0.03346486 -0.37829968 -0.2712546 -0.4792155
000110 fb c7 bb be 61 25 f0 bc ee e1 bb be 70 e9 a9 be
       -0.3667601 -0.029314699 -0.36695808 -0.3318591
000120 e6 cf 63 3c 08 58 09 be 67 64 39 3d 3a 96 34 be
       0.013904547 -0.13412488 0.045261767 -0.17635432
000130 21 c7 bc be 3c 85 44 be 18 c7 2a 3e 23 82 34 bd
       -0.36870673 -0.1919145 0.1667751 -0.04406942
000140 7a 98 46 bf c3 bc c2 3e d2 0a 46 be f0 48 50 be
       -0.7757641 0.3803464 -0.19340065 -0.20340323
000150 d5 70 56 3e 77 eb 8c be e1 13 af bc f8 5f d4 bd
       0.2094148 -0.27523395 -0.021371784 -0.10369867
000160 d7 91 8e 3e 1b 07 9f be 2b 37 9f bd 37 f6 25 3d
       0.27845642 -0.3106011 -0.07774194 0.040518012
000170 b6 f0 9a 3d b6 b4 4e 3d ca db 05 be 84 8a 4e 3e
       0.07565443 0.050465308 -0.13072124 0.20170027
000180 76 41 ee 3c a3 92 ea bd c7 b7 9d bb 09 57 d4 bd
       0.029083949 -0.1145375 -0.0048131677 -0.10368163
000190 4d b5 d0 3d e4 7f 73 3e 17 8e a7 be c1 93 1f 3e
       0.101908304 0.23779255 -0.32725593 0.15583707
0001a0 33 40 4f be 48 b5 e6 3c 4f 5f c5 bd dd 8d ef 3a
       -0.20239334 0.028162614 -0.09637319 0.0018276531
0001b0 29 83 82 3e a6 9d 4c 3e 03 ed 90 3e c4 24 60 3c
       0.25490692 0.19982013 0.28305826 0.013680641
0001c0 4c 96 1c 3e 08 0d 14 3e 4a 82 95 bc 1e cc 20 3d
       0.15291709 0.14458096 -0.018250603 0.03925716
0001d0 7c 28 65 3e 1b 5e f2 bc f8 d5 94 3d 89 1b 16 be
       0.22378725 -0.029585889 0.07267374 -0.14658941
0001e0 43 7c bd 3a 96 ef 71 3d 28 92 99 3b 6a 4e 67 3d
       0.0014456589 0.059066378 0.0046866126 0.056471266
0001f0 3a 12 db bc 15 71 f0 3d ba ba 2f 3e 20 7f 3f be
       -0.02674209 0.11740319 0.17161074 -0.18700838
000200 81 34 94 bd 91 3c e4 3d b8 d2 e9 bd 47 c4 36 be
       -0.07236577 0.111443646 -0.114171445 -0.17848311
000210 e7 59 1b be 32 0e 36 bb bd ed 24 bd 17 4a 03 3f
       -0.15171014 -0.0027779457 -0.040265787 0.5128493
000220 e8 58 ab be 36 98 53 be 7c 07 58 bd ad de 2e be
       -0.33466268 -0.20663533 -0.052741513 -0.17077132
000230 0e 8c e5 be 14 a5 f9 3e c7 c8 06 be 58 89 1d be
       -0.44833416 0.48758757 -0.13162528 -0.15384424
000240 c4 2e 93 3e f0 4a ae be d4 56 b8 3e cf 28 1a be
       0.28746617 -0.34041548 0.36003745 -0.1505463
000250 33 ed 24 be 43 ea da 3e c9 84 a9 3e c2 a1 c5 3e
       -0.1610611 0.42756853 0.3310912 0.38599974
000260 8f d8 17 bf e8 5c 9d be cc 06 fe bd b5 f1 d0 3e
       -0.5931482 -0.30734944 -0.1240364 0.40809408
000270 6e ca 51 bd d8 d3 27 3f 2c 27 d6 3e 23 04 95 be
       -0.051218443 0.6555762 0.4182676 -0.2910472
000280 c9 e3 0c 3e f7 fa 80 3e d6 e8 85 3e 49 43 7b bb
       0.13758768 0.2519147 0.26154202 -0.0038339666
000290 54 0e 09 3e 35 7f b6 3e 7c 33 e7 3e 20 55 b3 3e
       0.13384372 0.35643926 0.45156467 0.35025883
0002a0 20 35 38 3d 56 82 1c 3e 3f a6 b6 3d 70 f6 ee 3d
       0.04497254 0.15284094 0.08918428 0.11668098
0002b0 bc 77 3e 3e 4a 99 04 3f 7e 97 e3 3e fe fc 8b 3d
       0.18600363 0.517964 0.44451517 0.06835364
0002c0 a0 2a d2 3d 61 17 4f be 4a ca 80 be 1f 54 25 3e
       0.10262036 -0.20223762 -0.25154334 0.16145371
0002d0 a4 7f 9c be 60 04 ed bd e8 fe 78 3c c7 a2 8f bd
       -0.30566132 -0.115731 0.015197493 -0.07013469
0002e0 f1 18 ab 3c cb 7e b7 be 11 8b e2 3c bd 17 02 3e
       0.020885916 -0.35838923 0.027654203 0.12704368
0002f0 04 80 98 be fe 9d 5a 3e 66 3b 77 3d 49 ed a1 3a
       -0.29785168 0.21349332 0.06035938 0.0012354042
000300 9f 88 f4 be ee 00 fa bd cf 21 5a 3c 41 b0 ea 3d
       -0.47760484 -0.122072086 0.013313725 0.11459399
000310 1b 35 04 3e b8 e5 a9 bc 3f 0f 87 3e 52 47 34 be
       0.12910883 -0.020739421 0.2637882 -0.17605332
000320 fa bb 2a bd bc 73 9e ba dd 3b 30 3e e6 18 b0 3d
       -0.041683175 -0.0012088935 0.17210336 0.08598499
000330 4b 2a 34 3d 66 66 c4 bd d8 a2 25 3d d4 50 d9 3e
       0.043985646 -0.095898435 0.040438503 0.4244448
000340 b7 b3 22 3d d6 40 f6 be 5d 35 83 3c cc 87 10 be
       0.03972217 -0.4809634 0.016016657 -0.14114302
000350 cf ae 1f bf eb dd dd 3e 66 5d 1c 3c 65 3a a8 3e
       -0.6237611 0.43333372 0.009543752 0.32857051
000360 be 50 17 3f dd c5 d2 3e 66 ed 1a bd 87 b0 4e 3f
       0.5910758 0.41166583 -0.037824057 0.8073811
000370 4a 4c 01 3f 01 6c 1a bc 49 f7 d3 3e 2a 28 c9 3e
       0.5050703 -0.009425164 0.413996 0.39288455
000380 7b 4f ab be 97 3e 82 bc c8 fb 75 be a9 b2 9b be
       -0.33459076 -0.015898986 -0.24021828 -0.30409744
000390 08 8f 07 bd 99 9d 91 3d ec 66 60 3d 9b 67 63 be
       -0.03309539 0.071101375 0.054785654 -0.22207491
0003a0 3d de 4a 3e d8 83 28 be 9c a2 c1 bc b9 78 3a 3e
       0.1981134 -0.16456544 -0.023637109 0.18210115
0003b0 b9 b8 81 3e 88 b2 d4 3b e9 9e 10 bd 08 e4 1e be
       0.25336245 0.006491009 -0.0353078 -0.15516675
0003c0 b8 bb ed bc a2 76 24 be be 63 b3 be 9c 25 97 3c
       -0.029020175 -0.1606088 -0.35037035 0.01845055
0003d0 75 46 8a bd db 96 71 3e 5b d7 9f 3d 3a ae 4b 3e
       -0.0675172 0.23592703 0.07804748 0.19890681
0003e0 04 d8 4c 3e d9 7a 8c 3e aa b7 29 3d 04 91 54 bd
       0.20004278 0.27437475 0.04143492 -0.05189611
0003f0 9e 09 f6 39 f7 77 52 3e 9f f3 8b 3c 8c 02 ee bd
       0.00046927942 0.20553575 0.017083941 -0.116215795

conv2.0.bias f4 [8]
000000 f6 f8 ce 3e 84 44 a1 3e f8 cb 83 3e 8a e4 c2 3d
       0.40424317 0.31497586 0.25741553 0.095162466
000010 74 b7 05 3e a3 0b a9 be 76 0c 45 be da 08 50 3f
       0.13058263 -0.3301669 -0.19243035 0.81263506

conv3.0.weight f4 [8, 8, 3, 3]
000000 b5 5b 07 be cb 71 75 3d c3 0b 16 be 92 a7 2a 3e
       -0.13218577 0.059922975 -0.14652924 0.16665486
000010 40 31 84 3e b7 83 98 3e f9 ec 1c be 13 32 97 bb
       0.25818825 0.2978799 -0.15324773 -0.0046141236
000020 9c 2c 69 3d e9 44 9b 3d 97 e5 24 3e ad 66 98 be
       0.05692731 0.07581503 0.16103207 -0.29765835
000030 2d 37 d6 be 51 33 59 3e 6a 78 ec be c4 46 02 be
       -0.4183897 0.21210982 -0.4618562 -0.12722307
000040 18 d0 7a bc d6 ab b9 bc c5 7b 77 3e df ac dc bd
       -0.0153084025 -0.022664946 0.24168308 -0.1077516
000050 5c ce c6 3c 35 aa 0a be 71 d8 ea 3d a2 41 83 3d
       0.024268322 -0.13541491 0.11467064 0.06409003
000060 9b 09 05 3e ca 9b 21 3e df 65 ce 3e c2 f0 0a 3d
       0.12991945 0.15782085 0.40312096 0.03392101
000070 38 70 c5 be 41 3f 8d bc ab d1 9c 3d f7 fb 1d 3e
       -0.3856218 -0.017242076 0.076571785 0.15428148
000080 bc 97 25 be a0 8f 53 b9 81 09 39 3e d4 74 43 3d
       -0.16171163 -0.00020176033 0.18070032 0.047718838
000090 17 74 30 be 9e a3 04 3e c0 47 cf 3c c7 2b 57 3c
       -0.17231785 0.1295304 0.025302768 0.013132996
0000a0 bd 2f bb 3d ae 44 f7 bd 5d e6 19 bc 01 29 8d be
       0.09139965 -0.120736465 -0.009393302 -0.27570346
0000b0 3e eb 63 be b6 76 ba bd 8e 09 4c 3a d5 61 0f bd
       -0.22257707 -0.091046736 0.0007783406 -0.03500541
0000c0 13 fd 44 bd 81 f6 15 3e e3 e4 db bc e1 de 98 bd
       -0.048092913 0.14644815 -0.02684254 -0.07464386
0000d0 0e 51 85 3e ba dc 93 3e ba f4 3f 3e 99 2a ca bc
       0.26038402 0.28879339 0.187457 -0.024678515
0000e0 a7 e4 95 3d 0e eb 9e 3e c2 c1 b6 3d 9b 16 05 3e
       0.073190026 0.31038707 0.08923675 0.12996905
0000f0 9c c5 1d bd a5 8b b8 bd 85 11 29 3d 66 3c 68 3e
       -0.038518533 -0.0901101 0.041276474 0.2267929
000100 02 f9 2b be 79 2e be 3e f2 15 e9 3d 25 8d 0a 3d
       -0.16794208 0.3714483 0.11381139 0.033826012
000110 e8 74 c9 3d 3f c9 ed bd b8 2d 82 be df de 16 bf
       0.09836751 -0.1161065 -0.25425506 -0.58933824
000120 5e c4 d0 3c 2a 7a ea bd 4e 98 3d 3e 3f bd 1c 3e
       0.02548426 -0.11449082 0.18515131 0.15306567
000130 af 9e ac 3d b5 06 d3 3d 35 ae a3 be 05 af 9c 3d
       0.08428704 0.10304014 -0.31968847 0.0765057
000140 25 e5 03 3e 57 b6 ab 3d ee b4 c1 3e cf 95 c1 3e
       0.1288038 0.08384388 0.3783335 0.37809607
000150 e1 dc 82 3d 87 b2 69 3c b3 ec 30 3f 45 45 0f 3f
       0.063897856 0.014263756 0.69111174 0.5596507
000160 50 24 0a 3f 48 b5 b6 3e 8c 05 1e 3e 15 75 f6 bd
       0.5396166 0.35685182 0.15431803 -0.120340504
000170 d7 b6 af 3d ea 4a 34 3d 72 e2 ca bd d4 17 87 bd
       0.08579796 0.044016756 -0.09906472 -0.06596342
000180 30 ab d0 bd 49 76 59 3d 5c 2c 08 be dd 63 60 be
       -0.101889014 0.05309132 -0.13298172 -0.21913095
000190 c6 2a f2 bd 74 5f fb 3d 4c c1 e9 3d 54 72 a6 3d
       -0.11824565 0.122740656 0.114138216 0.08127275
0001a0 c1 fc 31 3d e5 a3 ad bc a1 f2 b2 3d 1f e6 37 3e
       0.043453936 -0.021196315 0.08737684 0.17958878
0001b0 e9 39 08 3e fa 64 98 be 58 8c e7 3d b4 9b a5 bd
       0.13303341 -0.2976454 0.11306065 -0.08086339
0001c0 2d e3 56 be 3d 02 ef bc 6e b6 73 3d 47 95 3a be
       -0.20985098 -0.029175872 0.05950015 -0.18221007
0001d0 ef 85 22 3e 11 43 29 be 54 af 10 bd 9f a1 40 3d
       0.15871404 -0.1652949 -0.035323456 0.047029134
0001e0 bc a9 63 be 46 34 c1 3d 17 0a 82 3d be b2 2d bd
       -0.22232717 0.094337985 0.06349581 -0.04240679
0001f0 82 8b 40 be 75 1b 6c 3d 1a a8 9b be b7 1c d1 bd
       -0.18803218 0.057643373 -0.3040169 -0.10210555
000200 2c df d3 3d 8d 54 cb be ec 8c 6a be bc ef 13 3e
       0.10345301 -0.39712945 -0.2290532 0.1444692
000210 14 11 29 be 34 aa 3a be 12 b4 72 3e 08 36 99 3e
       -0.16510421 -0.1822899 0.23701504 0.29924035
000220 02 5a 9a 3e fa 8c 78 3e a9 27 80 3c 52 fc 37 3e
       0.30146796 0.24272528 0.015643911 0.17967346
000230 b4 02 ba 3e b2 18 33 3d 22 9c f6 3e db cc b4 3d
       0.36330187 0.043724723 0.48165995 0.088281356
000240 f5 6e 0b 3e d9 76 39 be fa c2 55 bc e0 11 b7 bd
       0.13616545 -0.18111743 -0.013046974 -0.08938956
000250 21 af 0f 3e 1c 56 b4 3d 45 30 8d 3e 50 75 2a 3e
       0.1403165 0.088054866 0.2757589 0.16646314
000260 0b c4 8f 3e f7 d6 f1 bd 32 cc ad be 91 5f af be
       0.28079256 -0.118085794 -0.3394485 -0.342526
000270 30 c2 47 be e4 af 1d bf dc dd e4 3b f6 fa 59 be
       -0.1950767 -0.6159651 0.0069844555 -0.2128714
000280 9a 73 8a 3d 6c 50 42 be 24 44 9d 3d cc 6b 52 be
       0.067603305 -0.18975991 0.076790124 -0.20548934
000290 50 20 29 3e 70 45 bb bd ef be a5 be 78 89 bd 3e
       0.16516232 -0.091441035 -0.32372233 0.37018943
0002a0 e3 d4 62 bd 91 f3 d0 bd e4 ab 28 3e ef 84 a7 bd
       -0.055378806 -0.102027066 0.16471821 -0.08179652
0002b0 d4 05 cc bd 34 14 25 3e c7 bc 81 3e aa 06 aa 3e
       -0.09962049 0.16120988 0.25339338 0.3320821
0002c0 69 1f 95 3e 73 2c 83 3e 69 bf 87 3e 9d 3b fd 3d
       0.29125527 0.2561985 0.26513222 0.12364886
0002d0 ec 89 33 3e 0b cb 93 3d 7b 44 85 bd 6b b1 f7 bb
       0.17533082 0.07216462 -0.06507202 -0.0075589917
0002e0 e5 b4 90 3c 85 e2 25 3e 03 77 6b 3e 97 1a a3 bd
       0.017664382 0.16199692 0.22994618 -0.07964056
0002f0 6d 9d 1a be 8c c2 7b 3e cf be c1 3c 66 e0 9c 3e
       -0.15099116 0.24585932 0.023650555 0.30639952
000300 55 3c 74 bd b1 9a d3 3d 0b 74 9a bd 39 61 72 3d
       -0.05962785 0.103322394 -0.07541665 0.05917475
000310 4c 9c f8 bd 11 4c 67 bd 6e d9 31 3e c8 b4 23 be
       -0.12139186 -0.056469027 0.17368099 -0.15986931
000320 c8 f5 17 be 3d 41 98 be db 63 fe be a7 55 a7 be
       -0.14839852 -0.29737273 -0.4968556 -0.32682535
000330 e2 29 a6 bd e2 0e 7d be 7c dc 0c be 9b 58 20 bd
       -0.08113457 -0.24712709 -0.13755983 -0.039147
000340 67 62 3c be 7f 73 68 be 12 bb 1b 3e 18 83 af bd
       -0.18396913 -0.22700308 0.1520808 -0.08569926
000350 3b e1 aa bd 7b ad 02 3d 7c 12 03 be 16 53 5a 3d
       -0.083437406 0.031903725 -0.1280002 0.053301893
000360 b3 d2 fb be ed 1e ac be 9d 1a 83 bd fc f7 82 be
       -0.49184188 -0.33617344 -0.064015605 -0.25579822
000370 5d ac fa bd 17 34 55 be e8 5f c5 bd 45 9a b3 be
       -0.12239907 -0.20820652 -0.09637433 -0.35078636
000380 4a 93 9f be 49 7f 16 be 39 95 32 3e 3b 38 a6 3e
       -0.3116706 -0.14696993 0.17439736 0.32464775
000390 c7 36 2a bc b3 75 d5 3d 5c e3 a1 be f7 3f 8b be
       -0.0103890365 0.1042284 -0.31618774 -0.2719724
0003a0 61 68 31 be c0 ce 83 3d 9b 22 8e 3e 9b 88 87 3c
       -0.17324974 0.06435919 0.27760777 0.01654463
0003b0 78 b7 34 be 15 0e 50 bd 0e c8 53 3e 8d 2d f4 3d
       -0.17648113 -0.05079468 0.20681784 0.119227506
0003c0 2e 9a c4 3d 25 3a a5 3d f3 c9 4d 3e 23 3f 1c 3e
       0.0959972 0.08067731 0.20096569 0.1525846
0003d0 ae f5 dd be 82 8e cb 3e cd 57 9e 3d a1 76 9a 3e
       -0.433515 0.39757162 0.077315904 0.30168632
0003e0 7f 20 a6 3d 59 ac 77 3e 5d 60 82 3e b2 8a 89 3e
       0.08111667 0.24186839 0.25464144 0.2686363
0003f0 6a 5c 1f be d6 d9 09 3d db 56 de 3d 6a c7 3b be
       -0.15562597 0.03365501 0.1085641 -0.18337789

conv3.0.bias f4 [8]
000000 ad 7c 20 bf f6 b6 52 3e 51 f4 e3 3d 3c 7c 4a 3d
       -0.6269024 0.20577607 0.11130584 0.049434885
000010 52 c1 c2 3e 8d e7 6c be 69 01 ed be 82 e3 18 bf
       0.38038117 -0.23135205 -0.46290138 -0.5972215

dense1.0.weight f4 [32, 128]
000000 43 c0 fd 3c 55 bb 4d 3d e5 0e 31 3d a9 dc f4 bd
       0.030975467 0.050227482 0.043227095 -0.1195615
000010 44 cc b6 bd 01 4e 81 bd 16 01 21 be 2f 59 33 3d
       -0.08925679 -0.06313706 -0.1572307 0.043786224
000020 21 f3 46 3e 78 0a bf bd 68 ae fe bd cb 6b 1c be
       0.19428684 -0.09328169 -0.12435609 -0.15275495
000030 2e 35 83 3c 24 a1 89 bd ff 6a b5 3c 09 3d 60 3e
       0.016016569 -0.06720188 0.022145746 0.21898283
000040 64 5c 80 be 12 54 32 be 27 1e 12 3e dc 92 15 3e
       -0.25070488 -0.17414883 0.14269315 0.14606804
000050 db cf 26 3e a7 a2 93 bb 0e e8 1f 3e b3 ad 27 3e
       0.16290228 -0.0045054737 0.15615866 0.16374855
000060 55 ba 2e be 7a 34 07 3d b5 7b 90 3d de 7a 1a 3e
       -0.17063268 0.03300903 0.07054845 0.15085933
000070 84 82 0a be 7c a3 e5 3c 3e d0 9b 3e 80 41 21 be
       -0.1352635 0.028032057 0.30432314 -0.15747643
000080 74 4c 5d be 61 cd 91 be b9 e8 dd bd 8e 66 9e 3e
       -0.21611196 -0.28477004 -0.10835404 0.30937618
000090 c1 18 a1 bc a9 05 ed 3d cb e2 a8 3d 6b 8d 9b 3d
       -0.019665124 0.11573345 0.08246382 0.07595333
0000a0 7e ff d2 bd de 28 93 bd 01 a6 75 3e 9a 51 5c 3d
       -0.103026375 -0.07185529 0.23989107 0.05378876
0000b0 80 2e 5d bd 51 53 65 bd 75 10 92 3d d7 cc 04 be
       -0.053999424 -0.05598766 0.07132045 -0.12968765
0000c0 28 26 b8 3c 1c 93 c2 3d f3 6c 69 3d 7e e7 47 bc
       0.022479132 0.09500715 0.056988668 -0.012201188
0000d0 41 22 7a bd cd 97 4b bd 52 e5 88 bd 63 5d 77 bd
       -0.061067823 -0.049705315 -0.066843644 -0.060391795
0000e0 92 2c 38 3e 47 5b 58 bd 66 b7 30 3e e2 75 96 bc
       0.17985752 -0.052821424 0.17257461 -0.018366758
0000f0 fe 2e 1c 3e e9 fb 40 bd 8a a8 83 3d 7b 0d 62 bd
       0.15252301 -0.04711524 0.06428631 -0.055188637
000100 ce 6b 51 be 25 71 af 3d 36 f0 47 be 4d 5a a2 bd
       -0.2045128 0.085665025 -0.19525227 -0.0792738
000110 76 f8 c2 bd 3d 6d a9 3d fe 20 7c 3e 5a 63 55 3e
       -0.095200464 0.08272789 0.2462196 0.20838681
000120 c2 23 75 3d 63 dd 1b 3d 8a a1 f6 3c 5e 67 0a be
       0.059848554 0.038052928 0.030106325 -0.13515994
000130 6b 78 86 3d b9 d3 85 bd f8 a6 e1 bc 2c ce 12 3d
       0.06565937 -0.065345235 -0.027545437 0.035841152
000140 7d 00 3d bc 1b f6 a3 bb bb 3c 77 be 58 f7 11 3d
       -0.011535761 -0.0050037033 -0.2414426 0.035636276
000150 b5 b6 8d bd 9f 56 10 3d 0a 2c 06 3e 86 1c c3 bc
       -0.06919614 0.03523886 0.13102737 -0.023817312
000160 07 f6 f0 3d bc 08 83 bd 93 65 15 be e0 c7 fa 3c
       0.11765676 -0.0639815 -0.14589529 0.030612886
000170 95 8c 4a be 43 ca 33 3e 05 78 07 3e 2f e1 d2 3d
       -0.1978019 0.17557625 0.13229378 0.102968566
000180 7f de 34 bd 5d 7c 72 3e 96 b7 2a 3e 88 90 62 3d
       -0.0441575 0.23680253 0.16671595 0.055313617
000190 81 6a 62 be 52 18 0b 3d 1a 12 60 3e 4c b2 a8 3d
       -0.2211094 0.03395874 0.21881905 0.082371324
0001a0 2f de 34 3d 60 fc e0 3d 60 fe 61 3d 73 cb 15 3e
       0.044157203 0.10985637 0.05517423 0.14628391
0001b0 3b 47 9c 3d 3f 12 e6 39 0e f1 a5 bc 75 ba 4d 3e
       0.07630774 0.00043882613 -0.020256545 0.20090659
0001c0 ad 00 ea 3d c3 76 86 3c 12 dd fa bd ea 0e 9e 3b
       0.1142591 0.016414052 -0.12249197 0.0048235552
0001d0 c7 c5 c8 bd 3c 98 c5 bd 54 0d 31 3d f4 69 5e bd
       -0.09803348 -0.09648177 0.0432256 -0.054300264
0001e0 96 80 d0 bc 91 0d 36 3e 6d 6f 9f 3d a5 2b 22 bc
       -0.02545194 0.17778613 0.07784925 -0.009898101
0001f0 29 09 ca 3c c7 38 20 be 48 ff 11 be c8 77 e7 bd
       0.024662571 -0.15646659 -0.14257538 -0.11302143
000200 bd e3 2d 3d 96 c4 52 be 90 d0 03 3e bc 52 fa 3d
       0.042453516 -0.20582804 0.12872529 0.122228116
000210 32 cd a8 3c 50 bb b5 bd e3 42 08 3e d8 9f b6 3d
       0.020605657 -0.08873618 0.13306765 0.089172065
000220 ea 09 44 be 1a 31 37 bd 99 ed b8 bd bc bc b6 3d
       -0.19144407 -0.04472456 -0.09029693 0.08922717
000230 2f 30 3f 3d d4 5a c6 bd 38 22 2b bd 9b 71 8e bd
       0.04667681 -0.09685293 -0.04178068 -0.06955262
000240 07 dd 80 bd f3 90 55 3e 0f 85 10 be 89 06 41 bb
       -0.062921576 0.20856075 -0.14113258 -0.0029453358
000250 42 52 ef bc 79 1c f7 3d 82 ab 99 bd ea ed 4b ba
       -0.029214028 0.120659776 -0.07503416 -0.00077792874
000260 5d d5 ad 3c 8e 7e 85 bd e1 33 7a 3e 69 49 69 bd
       0.021219904 -0.06518279 0.24433853 -0.056954775
000270 ea 22 20 bd 66 32 20 bd c1 39 5a 3a d6 63 aa 3d
       -0.039095797 -0.039110564 0.0008324646 0.083198234
000280 62 ab 62 bd ac cf 49 3d 79 e1 5e 3b 06 71 59 be
       -0.055339225 0.049270317 0.0034008904 -0.21234521
000290 21 5f 88 3c 7d a5 b4 3d 2b df 11 be 60 6c 05 bd
       0.016646923 0.08820627 -0.14245288 -0.032574058
0002a0 32 b2 30 3d 92 27 17 3e 31 d3 97 3d 0c fe b7 bd
       0.04313869 0.14761189 0.074133284 -0.089840025
0002b0 08 3c 08 3e 3b 94 c1 bd ea d9 c8 3d 74 0b 25 bd
       0.1330415 -0.09452101 0.09807189 -0.040294126
0002c0 1f 1b 7b 3e c3 36 dc b8 db 55 c9 bd ab e8 90 3e
       0.24522065 -0.00010500618 -0.09830829 0.28302512
0002d0 0c 00 f0 bd 58 bd 09 bb 2e eb 8d 3d 21 a6 2d bd
       -0.11718759 -0.0021017399 0.069296226 -0.04239476
0002e0 54 29 e9 3d ff 38 62 be 4a 94 ba 3c db f9 d7 3d
       0.11384836 -0.22092055 0.022775788 0.10545703
0002f0 aa fb b7 bd fd 0a 07 3c 65 8f 52 3d 79 b0 0b be
       -0.08983548 0.008242366 0.051406283 -0.13641538
000300 6a 85 1e 3c 08 b5 2c be 27 7d 07 bd 4f bd 2e 3d
       0.009675363 -0.16865933 -0.03307834 0.042661007
000310 05 83 62 3a c6 53 19 bd 43 e1 b6 bd d6 a3 a4 bd
       0.0008640739 -0.03743341 -0.08929684 -0.08039062
000320 d5 f4 d3 bd b4 87 8a 3b 54 5e 8a 3c 30 b7 53 3e
       -0.103494324 0.004227603 0.016890682 0.20675349
000330 78 b7 d1 bc 3a 92 9d 3d f4 6b 6b be 01 5d cb bd
       -0.02560018 0.07693906 -0.229904 -0.099298485
000340 b8 5d 11 be f5 c0 20 be cc a7 17 3e 4b fa a9 bc
       -0.14195907 -0.15698607 0.14810103 -0.020749232
000350 39 c8 1a 3e 65 d0 03 be 68 12 3d bd 66 d2 7f bd
       0.15115441 -0.12872465 -0.04616013 -0.06245651
000360 36 f8 9d 3c 18 ac ef bc b4 f5 36 bc 79 38 80 bc
       0.019283395 -0.029256865 -0.011166979 -0.015651928
000370 d3 64 3c 3c d6 09 9e bd 36 fd 9e bd 89 ad cb bc
       0.011498648 -0.0771672 -0.0776314 -0.024863021
000380 a7 ca 80 bd b7 20 f7 bd 80 bd 61 bd 9d e2 0c 3e
       -0.06288653 -0.12066787 -0.055112362 0.13758321
000390 dc c3 9d 3d 72 2e 9d 3d c5 58 0f 3d 6c 8f 37 bd
       0.07703373 0.07674874 0.034996767 -0.044814512
0003a0 79 84 33 be 57 23 fe 3d bb 6c ae 3d 9f ee 29 3d
       -0.17531003 0.12409084 0.085168324 0.041487332
0003b0 02 21 f0 bd 08 e5 7e 3c 52 78 7d be 04 fb 95 3c
       -0.11725046 0.015557535 -0.2475293 0.01830817
0003c0 f9 d1 59 bd bb 47 22 bd 92 4b 00 3e 69 1f 90 3d
       -0.05317876 -0.03961919 0.12528828 0.07037241
0003d0 93 39 51 3d d9 0f 0f bd e1 cd a0 bd 8e 06 c9 bd
       0.051080298 -0.034927223 -0.07851768 -0.09815703
0003e0 c9 c8 20 3e 56 78 87 3d 6a a2 33 3e 82 88 cf 3d
       0.15701593 0.06614749 0.17542425 0.10133459
0003f0 66 8e 4b bd 59 6c 45 3d 56 8e b9 3c c3 d4 06 be
       -0.04969635 0.04819903 0.022650879 -0.131671

dense1.0.bias f4 [32]
000000 38 60 1b be 34 02 4d 3f fa ea a7 bc e8 11 bc 3e
       -0.15173423 0.80081487 -0.020497788 0.3673241
000010 67 6f 24 3e 55 ae ad 3e 56 07 87 3d 2c a5 91 bc
       0.16058122 0.33922067 0.06593196 -0.017778955
000020 17 dd 8f 3e f5 a8 42 bf 5c b7 99 3e c1 d2 b4 bd
       0.28098366 -0.7603906 0.30022705 -0.088292606
000030 f8 85 39 3e f9 58 f6 3e 19 92 a5 3e 30 b0 85 bf
       0.18117511 0.48114756 0.32338026 -1.0444393
000040 6d 8a 4d 3f 6e 66 96 3e cc 26 00 80 60 2e a5 bd
       0.80289346 0.29375023 -1.3918e-41 -0.08065486
000050 36 2c 89 be 6a 71 04 bf c6 2a be be 4b b5 90 3e
       -0.26791543 -0.51735556 -0.3714201 0.28263316
000060 09 4c 01 be 07 25 cc bd 24 0e 7b be bf 20 90 3e
       -0.12626661 -0.09968 -0.24517113 0.28149983
000070 42 2d 16 3e 18 af 01 00 38 f0 11 3e 7f 39 e8 3e
       0.14665702 1.54647e-40 0.14251792 0.45356366

dense2.weight f4 [10, 32]
000000 78 12 91 be 1e d3 ac be 82 df 99 3e 3f 9d 58 3e
       -0.28334403 -0.3375482 0.30053335 0.21153735
000010 95 cc 9d bc ee fe 06 3f 48 e1 d0 3d c6 5d b7 3e
       -0.019262591 0.5273274 0.10199219 0.3581373
000020 87 56 b6 3e 93 91 8a be 0f 0c f1 3e 23 d0 5e 3d
       0.3561289 -0.2706419 0.47079512 0.054397713
000030 0c 37 15 3e f9 41 55 3e 70 df 19 3c ee e2 bd be
       0.1457178 0.20825948 0.009391651 -0.37087196
000040 9e e5 ea 3d 07 d4 40 3d bc 2d 52 35 f0 0a b7 3d
       0.11469577 0.047077205 7.829765e-07 0.08937633
000050 ae 23 4c bc a8 06 8f 3e 69 4f 9a be 27 b3 41 3e
       -0.012459679 0.27934766 -0.3013871 0.18915997
000060 20 eb fc be 1c da b9 be e6 59 a4 bc 69 4e 1d be
       -0.49398136 -0.36299217 -0.020062398 -0.15361942
000070 f7 c8 98 3b fe ee 83 29 e5 20 28 be 3a 85 2e be
       0.0046626288 5.859027e-14 -0.16418798 -0.1704301
000080 e8 0c 2f be 24 cd 7a 3e 6d 93 43 3e 51 7d 97 be
       -0.17094767 0.24492317 0.19099207 -0.29587796
000090 16 6c 68 be 34 6f f2 3d 9b 97 13 3e 8c 63 3e 3e
       -0.22697482 0.118376166 0.14413302 0.18592662
0000a0 b5 da 05 be c6 04 a6 3e c5 a4 18 bf 58 2d 20 3e
       -0.13071711 0.32425517 -0.5962642 0.15642297
0000b0 86 3c a3 be 10 c1 09 bf 4a 19 19 bf cc 0d 68 3e
       -0.31882113 -0.53810215 -0.59804213 0.22661513
0000c0 3b a5 a4 be c4 0e 9d bd 8a a7 23 b5 b3 31 6e be
       -0.3215731 -0.07668832 -6.0966033e-07 -0.23261146
0000d0 b8 66 8c 3e 87 46 c6 be a9 26 a7 3e 51 9f a1 bc
       0.27422118 -0.38725683 0.32646683 -0.019729288
0000e0 8e 84 a8 bc e6 59 f1 bc c7 77 c9 3e 40 a6 60 be
       -0.02057102 -0.029461812 0.39349195 -0.2193842
0000f0 4d 9b 8c be 1e 56 fd 32 db 46 a0 be f4 93 86 bd
       -0.27462235 2.9492238e-08 -0.31304058 -0.065711886
000100 3f de 21 be 3a 49 ad be 2a 7b d3 3d d9 fa e4 3e
       -0.15807436 -0.3384493 0.10326226 0.44722632
000110 f3 e6 a2 3e f2 f8 48 3e 75 53 2e 3e ba 40 d8 bd
       0.31816825 0.19626215 0.17024024 -0.105592206
000120 c0 16 0c be 5c 33 a2 3d 61 96 24 3e 8c 2b 70 3e
       -0.13680553 0.07919952 0.1607299 0.23454112
000130 57 de 82 3d a9 4d fb 3e 2a 1c 66 bd 18 28 57 3e
       0.06390064 0.49082687 -0.056179203 0.21011388
000140 92 f5 93 be 9a ea 84 bd de 27 dd 33 07 22 0d bf
       -0.28898293 -0.06490059 1.0298366e-07 -0.55130047
000150 58 62 80 3e 8b ac 28 3e d3 25 6d bd e9 1d 44 be
       0.2507503 0.1647207 -0.0578974 -0.19152035
000160 49 8f 64 3d 3d a8 67 be 3a 5b 42 3e 11 73 b5 3e
       0.05580071 -0.22622772 0.18980113 0.3543935
000170 ff 77 72 be 18 b2 7c 00 c7 46 c0 3e f5 6a 09 3d
       -0.23678587 1.145149e-38 0.37554 0.033549268
000180 89 fc 67 3c 2b 57 b4 be f6 65 1d be cb 1e 23 be
       0.01415933 -0.35222754 -0.15370926 -0.15929715
000190 41 1e 11 3e 4e 9c ac c0 1f 74 8e be 93 a8 7f be
       0.14171697 -5.39408 -0.27822968 -0.2496665
0001a0 42 47 63 be e1 75 18 3f 90 20 77 bd 38 50 cc 3d
       -0.22195151 0.5955487 -0.06033379 0.09976238
0001b0 ac 3d c2 3d 75 c7 ff bc 3b 1a f1 3e 00 cf 32 3e
       0.09484419 -0.031223038 0.47090325 0.17461777
0001c0 19 3a 28 be 27 69 83 3e a1 05 d3 b7 bf 54 72 3e
       -0.16428412 0.25666162 -2.5155781e-05 0.2366514
0001d0 53 5b d3 be 14 05 c6 bd af 10 51 bd 64 55 0c 3e
       -0.41280612 -0.09668937 -0.0510413 0.13704449
0001e0 f8 df 1e bc c6 c3 2b bd 7e 48 1d bf 08 4b 99 3e
       -0.009696953 -0.04193475 -0.6143874 0.29940057
0001f0 84 a8 16 3d ed 92 fe 37 e8 d5 0b 3e 83 2a d4 3e
       0.036781803 3.0347577e-05 0.13655818 0.41438684
000200 cc 37 d4 3d c3 81 b2 be d6 c6 b0 3e f2 42 fa 3d
       0.10362205 -0.34864625 0.345267 0.122198
000210 ea c1 9d 3e b8 ef c3 c0 c9 6c 07 bf 82 80 44 be
       0.30812007 -6.1230125 -0.5290037 -0.19189647
000220 a4 40 8a be c7 0c a7 bf e6 8b 97 be 29 54 68 be
       -0.27002442 -1.3050774 -0.29598922 -0.22688355
000230 c7 a2 99 3e f3 ff 90 3e 13 bd ab be 01 b2 d6 bd
       0.30007002 0.28320274 -0.3354269 -0.1048317
000240 e6 8d 17 be 63 22 86 be 8a 64 b6 b7 c3 dd a1 bc
       -0.14800224 -0.2619811 -2.1742908e-05 -0.019759065
000250 11 5c 71 3e e8 39 08 be ce f0 ec 3d 80 75 4b be
       0.23570277 -0.1330334 0.11569367 -0.19869041
000260 c6 48 49 bd 47 e2 99 bd 20 3f 21 3e 8a 09 e9 be
       -0.049141668 -0.07513862 0.15746737 -0.4551509
000270 5c e6 ed 3e dc b3 4b b7 e3 61 f7 3d 39 2e 16 3e
       0.46464813 -1.214162e-05 0.12079217 0.1466607
000280 e4 03 e8 3d c0 ab ae 3e f9 62 0f bf 69 7d ba be
       0.11328867 0.3411541 -0.56010395 -0.36423805
000290 26 33 0e be ad b1 ff 3a de 7a 6b be 7a 6f 84 3b
       -0.13886699 0.0019507908 -0.22996089 0.0040416094
0002a0 3a dd e6 ba 60 9d 86 3e 41 6d df 3d 03 d8 f2 3d
       -0.0017613538 0.26291943 0.109095104 0.11857607
0002b0 59 26 74 3e 72 97 35 be 76 dd 83 3d 79 c8 c0 3e
       0.23842753 -0.17733553 0.06438725 0.37652948
0002c0 f0 a3 8e 3e db 6f b1 3d 79 f2 8f 38 1c 4c 22 3e
       0.2785945 0.08663913 6.8639354e-05 0.15849346
0002d0 76 c1 d8 bf a0 ea 10 3e d8 37 63 be 94 b6 cc be
       -1.693404 0.14152002 -0.22189271 -0.39983046
0002e0 a2 fb ac 3d 89 92 69 3e 36 3b ca 3a 25 fa 0c bd
       0.08446433 0.22809805 0.0015429023 -0.034418244
0002f0 12 5f 97 be b8 e5 27 a2 3e ae 1f be ad 61 86 be
       -0.2956472 -2.2754332e-18 -0.15593812 -0.26246396
000300 5c a4 2e 3e 7a 5d b5 be 35 d8 75 be 3a 56 df 3e
       0.17054886 -0.3542288 -0.24008258 0.43620473
000310 39 c0 fc 3d fb 27 57 bd ad 1d f1 bd 3c 54 93 bd
       0.12341351 -0.052528363 -0.11773238 -0.07193801
000320 69 5d a0 3c 83 e3 ee be 02 74 7a 3c a9 16 c1 3d
       0.019575791 -0.46657953 0.0152864475 0.0942815
000330 b1 45 9c 3c 68 c3 18 3e f6 e2 89 be e1 ce b0 3c
       0.0190762 0.14918292 -0.2693097 0.021583023
000340 ac bd a2 be 26 91 8e bd 0d 73 e1 36 57 e0 17 bf
       -0.31785333 -0.069612786 6.718916e-06 -0.5932669
000350 64 6c b9 be 2a 59 da bb 07 2e 1a be 36 f1 8b 3e
       -0.36215508 -0.006663461 -0.1505662 0.27332467
000360 9c 21 07 3e 8e 09 2c be 27 8c 70 3c a8 9e 76 3e
       0.13196415 -0.1680052 0.014681852 0.2408396
000370 d4 41 3b 3e 10 54 1f ac 1d cf 81 bd 50 2f af 3e
       0.1828683 -2.2641923e-12 -0.06338332 0.34215784
000380 26 fd 4e be 20 ed 41 3f 61 43 3a be ab 2e e6 be
       -0.20213756 0.7575245 -0.18189766 -0.4495748
000390 eb b0 0f 3e 05 0a 36 3f bb a6 f3 be 2b c5 31 3e
       0.14032333 0.7110904 -0.47588143 0.1736037
0003a0 90 ad 72 3e 7b 33 cc bf a5 94 1a bf 68 c0 16 bf
       0.23699021 -1.595321 -0.60383064 -0.5888734
0003b0 71 18 54 3d 22 e5 b4 bf aa c6 97 be 36 35 3c be
       0.05178112 -1.4132426 -0.29643756 -0.18379673
0003c0 49 90 f7 ba 83 ba 9c be 07 d4 03 b9 ba 5d c4 3e
       -0.0018887605 -0.30611047 -0.0001257212 0.38352758
0003d0 02 d8 e5 3e 61 c1 78 3e be f2 1f 3d 4e 3e fa be
       0.44891363 0.24292518 0.039049856 -0.4887566
0003e0 58 08 c7 3e be f2 c9 3e c1 55 a7 be 51 1c 19 bf
       0.38873553 0.3944301 -0.32682613 -0.5980883
0003f0 fd b0 f6 be 14 15 42 37 c5 ad 0f be 64 d5 07 bf
       -0.48181906 1.1568209e-05 -0.14031132 -0.53059983

dense2.bias f4 [10]
000000 92 00 26 3e 51 89 f2 be 5f 98 5c 3e 40 70 51 bc
       0.16211155 -0.4737039 0.215425 -0.01278311
000010 c9 66 a6 3e 32 c1 1b 3e 61 1b 4f bd 1d 1b 6d be
       0.32500294 0.15210417 -0.05056322 -0.23154874
000020 67 09 c1 3e 78 80 b1 be
       0.37702486 -0.34668326
