ResidualLoss/CNN-Train/CIFAR_20/back_epoch-71.pt (torch, 28479 bytes, 10 tensors)

conv1.0.weight f4 [16, 3, 3, 3]
000000 5e 33 8d 3d 9b bb 92 be ce 91 ef bc ff 3d f1 3e
       0.06894563 -0.28658757 -0.02924433 0.47117612
000010 2c 10 95 bc 6c 2c bb bc 8e 60 cf 3e cf b5 60 3e
       -0.018196188 -0.02284833 0.40503353 0.21944354
000020 28 7a 6a be 91 13 be be de eb 44 bb a4 0d e0 be
       -0.22898161 -0.37124303 -0.0030047814 -0.43760407
000030 b0 dd bb be 92 d4 c7 be 75 b2 17 bf 8d 7e 91 be
       -0.36692572 -0.39029366 -0.5925668 -0.28416863
000040 06 0a c9 be 9c 0d a1 3c ab 58 dd be 27 f4 c5 bb
       -0.3926546 0.01965981 -0.4323171 -0.006041068
000050 0b 58 62 be 13 87 a4 3e f5 85 a2 3a cb a5 76 be
       -0.22103898 0.32134303 0.0012399541 -0.24086682
000060 d1 98 38 3f e7 a1 fa bc 2d a8 bf be 37 a9 48 3e
       0.7210818 -0.03059478 -0.37432995 0.195958
000070 b1 2b 6d 3d 0b 85 bb bb ed 1d e4 bd df d0 07 be
       0.057902995 -0.005722647 -0.111385204 -0.13263272
000080 36 ad 1f bd 6b 3f 65 3e 18 d6 ac be e2 af 87 3e
       -0.038983546 0.22387473 -0.3375709 0.26501375
000090 78 c4 5f 3e 1b 11 02 bd e9 dc 88 3d 0f bb 2f be
       0.2185229 -0.031754594 0.0668276 -0.17161201
0000a0 d3 d5 f9 be eb 09 93 bc 07 39 c6 3e c6 ba 3e be
       -0.48795947 -0.017949065 0.38715383 -0.18625936
0000b0 65 61 1d 3e 48 4d 9a 3e 83 c0 f8 3e d7 8f b4 3e
       0.15369184 0.30137086 0.48584375 0.3526599
0000c0 70 16 5b be db da cd be 15 73 a9 be db b8 bf 3d
       -0.21395278 -0.40206036 -0.33095613 0.0936143
0000d0 f6 62 4a be a0 99 9b 3c 58 3a 90 3d 13 26 92 be
       -0.19764313 0.018994153 0.07042378 -0.28544673
0000e0 a5 77 be bb bb 61 86 be 54 3f 13 be 79 48 89 bd
       -0.0058126026 -0.26246437 -0.14379627 -0.06703276
0000f0 5a 86 2d 3e 63 8b c5 3e 35 45 85 bd 08 87 96 bd
       0.16945782 0.38582906 -0.06507341 -0.07349974
000100 9b 16 ab be db 98 70 be 0d c9 7b 3d a0 43 a6 3e
       -0.33415684 -0.2349581 0.061471034 0.3247347
000110 09 e1 8b be 8d ab f2 3e dc 9b 08 3f 62 4e 12 be
       -0.27320126 0.47396508 0.5336282 -0.14287713
000120 08 a0 af 3d 79 1f 37 3d 0c 65 9a 3e 81 7a c6 be
       0.085754454 0.04470775 0.30155218 -0.38765338
000130 f1 b9 d1 be be bc c2 bb 71 72 22 bc 90 9e 11 3e
       -0.40962175 -0.00594291 -0.00991498 0.14220643
000140 f0 4f 14 3d 11 5c 7f 3e 0d dd d6 3d 78 87 82 3d
       0.036209047 0.24937464 0.10491381 0.06373495
000150 a8 9e af 3e ca fb 40 3f ac 22 3d 3e ca 51 36 bd
       0.34300733 0.753842 0.18470258 -0.044511594
000160 e6 70 86 3e aa 7d 76 3e 31 71 a7 be 43 4b ad bd
       0.2625801 0.24071375 -0.32703546 -0.08461621
000170 46 54 ba be a1 e4 27 be ca 13 dc be 03 3a 23 bf
       -0.3639242 -0.16395809 -0.42983848 -0.63760394
000180 bd 7a e9 bd 47 3f 07 bf be df db be a2 18 8d 3e
       -0.114003636 -0.5283093 -0.4294414 0.27557856
000190 3c 5e cf bd 78 8c f7 3e 8b b7 8d be dd f5 93 bd
       -0.10125396 0.48349357 -0.27679095 -0.07224629
0001a0 5d 01 a0 3d 43 31 e8 3d 7f 08 ab bd 13 f5 91 3e
       0.0781276 0.11337521 -0.0835123 0.2850729
0001b0 fd 9b 2d bf 5b 1b 2d 3e 69 41 3b 3e ae f1 e0 be
       -0.67816144 0.16904967 0.1828667 -0.43934387
0001c0 6b e7 0c 3e dc 60 50 be a1 db 9f be c7 3e b3 ba
       0.13760154 -0.20349449 -0.3122225 -0.0013675325
0001d0 91 47 26 3e 05 0b 35 be 00 16 85 3d 97 35 a1 be
       0.16238238 -0.17679985 0.06498337 -0.31486198
0001e0 7e 39 9c 3e e0 c4 ae 3d 65 fd 8a be d9 17 1a be
       0.30512613 0.08533645 -0.2714645 -0.1504816
0001f0 a5 c0 df be 37 6c c5 bd b9 1a 26 3f 00 6f 86 3e
       -0.43701664 -0.09639781 0.64884526 0.2625656
000200 f6 2c 54 3e f4 fe 09 3f 94 30 98 be 9f 5d d6 3e
       0.20720276 0.5390465 -0.29724562 0.41868302
000210 fb c1 37 3e 4e 91 ca 3e a3 eb 94 3e 45 ca af bd
       0.17945091 0.39563984 0.29086027 -0.08583502
000220 a5 d8 d0 be 30 b5 92 3d 69 80 e8 be f9 32 9e 3e
       -0.40790287 0.07163465 -0.4541047 0.30898264
000230 c4 5d c9 3e 1d 31 01 bd 3c ca 02 3e c2 8b b3 bd
       0.3932935 -0.03154098 0.12772459 -0.08766891
000240 41 36 26 3e e1 14 67 be dd f9 0b 3e 3b 90 d4 be
       0.16231634 -0.22566558 0.13669534 -0.4151629
000250 cf f1 d8 3e 2b 91 b6 3d 5b 6b 07 be d4 cd 80 3c
       0.42371985 0.08914407 -0.13224547 0.015723146
000260 fe 26 01 3e 96 ad 0e 3d 2c aa 82 be 7b 05 bc 3e
       0.1261253 0.034833513 -0.25520456 0.3672293
000270 4a 7e 12 bf 40 7a b2 3e c0 ab b9 bd eb f0 fa bc
       -0.5722395 0.34858894 -0.09065962 -0.030632457
000280 ff 78 43 3c 6d 5f fb 3d cb 82 28 3d 8a b9 b5 3d
       0.011930703 0.122740604 0.04114036 0.088732794
000290 5f 4f 63 bd 9c a0 20 3d 22 5e 64 bd e3 a8 03 3e
       -0.055495616 0.03921567 -0.055753835 0.12857394
0002a0 26 e6 bb be f2 5e 9b 3e 8a ac b0 3c 30 2c 45 3e
       -0.36699027 0.30345875 0.021566648 0.19255137
0002b0 17 b4 f5 bd 64 59 75 3c eb eb 51 3e fc ba cd 3e
       -0.1199724 0.014974926 0.20500152 0.4018172
0002c0 0a d8 05 3e 8c a1 fa be 58 98 36 3e d7 3d 92 3b
       0.13070694 -0.48951375 0.17831552 0.0044629383
0002d0 e5 b0 30 3f 18 86 81 be 15 60 e3 be 63 e0 cc 3e
       0.6901992 -0.25297618 -0.44409242 0.40014943
0002e0 6a 2b b9 3e 64 9a b7 bd b0 fe d7 be 54 0a 53 3f
       0.36165935 -0.089649945 -0.421865 0.82437634
0002f0 cf 3a 7f 3e 86 d7 e6 3d 01 6b ab be f4 f6 71 3e
       0.24924777 0.112715766 -0.33480075 0.23629361
000300 a4 c9 a6 3e ea c2 1f 3d 99 a0 87 be c5 a4 54 3d
       0.32575715 0.039004244 -0.26489714 0.05191495
000310 9a 8c 4a bd 23 7e 3f be 9c d2 e1 3d fc 7f ed be
       -0.049450494 -0.18700461 0.11026499 -0.46386707
000320 04 06 56 be 00 ba 74 3e a2 68 37 bd 41 44 c2 be
       -0.20900732 0.23899078 -0.04477752 -0.379427
000330 76 25 be 3e 63 05 9e 3e 6a 9f 5a be ff b3 ad 3e
       0.37137955 0.30863485 -0.21349874 0.3392639
000340 60 ac 54 bd 82 aa db bd 83 6d 53 3e 63 15 46 be
       -0.051922202 -0.10725881 0.20647244 -0.19344096
000350 a9 8c 32 3e ea 0c e6 3e 8c 9a 1a 3d cd 6c df be
       0.1743647 0.44931728 0.037745044 -0.43637696
000360 5a d4 7e bc 49 63 b5 3e 9d 7b 40 3e 3c fc ec 3d
       -0.015553558 0.3542731 0.18797155 0.115715474
000370 35 5c 88 3d 6e 72 f9 3b 6d 0e 19 bf 64 1c 91 be
       0.06658212 0.007612518 -0.59787637 -0.28341973
000380 38 64 2b 3e 04 de 9c be 1f 4d af 3e 5c 80 b1 bd
       0.16737449 -0.30638134 0.34238526 -0.08667061
000390 12 aa 0c 3e 68 fe 20 3f c3 64 44 be 77 74 66 be
       0.13736752 0.62888193 -0.19179063 -0.22505365
0003a0 69 4e 3d be f6 b0 55 be ab 26 de bd b2 fc 9c be
       -0.18486942 -0.20868286 -0.10847219 -0.3066154
0003b0 d2 66 b4 bc e0 8c 36 3b 15 9e 8c 3e 2c ab d4 be
       -0.022021685 0.0027854964 0.27464357 -0.41536844
0003c0 7a 66 93 3d b6 92 a7 3e a5 3d 24 3e bf 85 4b 3e
       0.0719728 0.3272912 0.1603914 0.19875239
0003d0 8d ce fc be 4e 0f 8d 3d 38 5b b0 3c 9e ec c3 3e
       -0.49376336 0.06887685 0.021527871 0.38266462
0003e0 d0 eb 08 3f bc 95 8a be 60 94 df 3c 8d c7 69 3e
       0.5348482 -0.27067363 0.02729243 0.22830029
0003f0 62 1c ff bd e4 f8 cb be ed 34 1c 3e 2e 3a 9e bd
       -0.124565855 -0.39838326 0.15254565 -0.07725941

conv1.0.bias f4 [16]
000000 29 c2 90 be 14 c9 07 3e 52 a4 41 bd 1d 77 83 bd
       -0.28273132 0.13260299 -0.04727585 -0.064192034
000010 aa f9 82 3f b2 47 0a 3c bd e5 15 be b2 12 bb 3e
       1.0232441 0.008439945 -0.1463842 0.365377
000020 3b b5 c8 bd 23 be 0d 3f 7d f2 18 be 0b 5e e9 3d
       -0.09800192 0.5536825 -0.14936252 0.113948904
000030 87 5c 34 3f d9 65 23 bf bd ab 01 be dc b1 e9 3e
       0.70453686 -0.6382728 -0.12663169 0.45643508

conv2.0.weight f4 [16, 16, 3, 3]
000000 93 ac f9 bd 34 f1 8e bd 2a c0 8e 3d f7 cb 95 bc
       -0.12191119 -0.069795996 0.06970246 -0.018285735
000010 46 33 77 3e e3 55 8a bd e0 6d 3a 3e 70 4b 04 be
       0.24140653 -0.06754663 0.18205976 -0.12919402
000020 e4 7f 2c 3d 3f 28 78 3d cc c3 b0 3d c5 ee 1e 3d
       0.042114154 0.060585257 0.08631095 0.038801927
000030 a0 7b 6b 3d ea 21 6a 3e d3 ec 44 3e e8 e4 a0 be
       0.057490945 0.228645 0.19230966 -0.31424642
000040 22 6f e3 bc ef 5e dc bb cf c7 31 be c8 5e a4 be
       -0.027762953 -0.006725184 -0.17361377 -0.32103562
000050 05 c8 10 3e 0d 95 2e bc 58 c6 8e 3e e4 fc 42 3e
       0.14138801 -0.010655654 0.278857 0.19041783
000060 f0 fe 39 3e 10 cc 77 be 39 a5 ac be b0 0b 93 3e
       0.18163657 -0.24198937 -0.33719805 0.28719854
000070 c2 32 54 3c a0 d2 c6 bd 14 e4 2a 3e 34 6e 23 bf
       0.012951555 -0.09708142 0.16688567 -0.6384003
000080 44 05 7a be 4e ff 8e be d3 32 85 be 8b e7 0e 3e
       -0.24416071 -0.27929157 -0.26015338 0.13955514
000090 e1 67 8a bd 77 c1 e7 bd 84 af 6f 3e 61 58 b3 3d
       -0.067580946 -0.11316197 0.23406798 0.08757091
0000a0 8e ac ac 3d 02 50 10 3d f4 a3 27 3e 14 29 14 bb
       0.0843135 0.03523255 0.16371137 -0.0022607492
0000b0 8b 6e f0 3c 1c d4 91 be f0 65 1b be a0 ad bf 3e
       0.029349586 -0.2848214 -0.15175605 0.37437153
0000c0 c3 99 b4 3e 3d 5d f0 3e 51 1c 37 3e 82 aa c8 3d
       0.3527356 0.46946135 0.17881896 0.09798147
0000d0 1d 08 50 bd d1 94 0b 3d 5c f4 8f bd bb 49 90 3c
       -0.050788987 0.03407747 -0.0702903 0.017613282
0000e0 e3 3e e4 3d 08 f7 1c 3e ae 2f fb 3d 39 a1 19 be
       0.11144807 0.1532861 0.122649536 -0.15002908
0000f0 89 c1 68 be db 10 e0 3d 41 f3 f5 bd 2e a8 a0 3c
       -0.22730078 0.10940715 -0.120092876 0.019611444
000100 21 d8 6a bd 50 d3 ee 3d be 9a 26 3d 25 5d 9a bc
       -0.057335023 0.116613984 0.040674917 -0.018843243
000110 f0 59 cb 3d bf 15 85 be b3 06 b5 bc f5 19 6c 3c
       0.099292636 -0.25993153 -0.022097921 0.0144104855
000120 a0 98 5d 3e bb 37 97 3e fb 44 17 be 88 af 55 3e
       0.21640253 0.29534706 -0.14772408 0.20867741
000130 e4 9e 80 bd 1b a0 24 bd d9 dc 74 be 8c 49 5f 3e
       -0.06280306 -0.04019175 -0.23912372 0.218054
000140 1c b4 d5 be 12 fc 88 bd e2 01 04 3e 67 df 7e bd
       -0.41738975 -0.066887036 0.12891343 -0.06222477
000150 0e 3d 17 be f4 da 05 be 6a 13 a3 bd e5 06 45 3e
       -0.14769384 -0.13071805 -0.07962687 0.19240911
000160 8c bf 59 bd 16 ec 24 bd a7 08 6c 3d 2c 62 fe 3d
       -0.05316119 -0.04026421 0.05762544 0.124210685
000170 2f 6c a3 3c db 74 b5 3b 61 b7 8e bd 87 98 2f 3d
       0.019949047 0.005537612 -0.069685705 0.04287007
000180 8c 50 a7 3e a2 16 e3 3d e4 25 b8 3e 1c 2e 05 be
       0.3267864 0.11088301 0.35966408 -0.1300587
000190 04 95 34 3d e7 6b 75 bc c5 e4 30 3e 28 1e 96 3e
       0.044087425 -0.014979339 0.17274769 0.29319882
0001a0 c9 83 d4 bd 82 de 8c bd bd c1 7c 3d d8 09 22 3e
       -0.103766985 -0.068783775 0.0617082 0.15824068
0001b0 93 f8 b7 bd 21 b9 ae bd 49 56 ed 3d b4 cc 57 3e
       -0.08982959 -0.08531404 0.11588723 0.21074182
0001c0 10 31 c7 bd c6 97 a3 bd 41 a8 d8 3d 42 09 0f be
       -0.09726155 -0.07987933 0.10578967 -0.13968375
0001d0 73 e7 5e bd b9 63 af 3d 80 f9 b8 3d 41 0b 0b 3e
       -0.054419946 0.085639425 0.09031963 0.13578512
0001e0 45 95 07 3e 85 c0 07 be b6 5b c8 3c a5 18 ab 3d
       0.13240536 -0.13257034 0.024457794 0.0835431
0001f0 97 66 cd bd 72 a3 e3 bd c6 96 f3 be 5e b6 3c 3e
       -0.10029333 -0.11115159 -0.47575969 0.18428943
000200 ff 79 26 be 76 00 27 be 4b ba 15 bd 91 87 95 bd
       -0.16257475 -0.1630877 -0.036554616 -0.07301248
000210 fe e9 76 bd b0 66 fb bd 48 e9 be 3c f7 60 0e bd
       -0.060281746 -0.122754455 0.023304597 -0.03476044
000220 8c 37 a1 bc a3 f4 0d bd 18 06 8a 3d 9f 3b c4 bd
       -0.019679807 -0.034657132 0.067394435 -0.09581684
000230 aa 84 4c be 59 32 1e bd ab 9f c9 3d c9 26 05 3e
       -0.19972482 -0.038622234 0.098449074 0.13003077
000240 40 6c 6a bd b9 d0 82 3d 69 0f a8 3d d3 2b 61 bd
       -0.05723214 0.06387467 0.08206064 -0.054973435
000250 02 11 bc bb 5b 76 dd 3d d7 a0 d5 3d 60 1d 3d 3e
       -0.005739332 0.1081359 0.104310684 0.18468237
000260 ea 47 ef bd 9f 6c 11 be 79 29 99 3d 10 e2 34 be
       -0.116836384 -0.14201592 0.074786134 -0.17664361
000270 fe ab 11 3d d2 48 84 bd 53 9e df 3b 09 14 13 3c
       0.035564415 -0.06459202 0.0068242936 0.008976945
000280 68 a1 78 3e b4 5f 01 be 56 e4 aa 3d f1 c9 22 3e
       0.24280322 -0.12634164 0.08344333 0.15897347
000290 d1 6c a9 3e 58 a5 46 be 62 40 a0 3e 43 7c 0a 3d
       0.33090833 -0.19399011 0.3129912 0.03380991
0002a0 b3 0e 88 be 82 21 9d 3e 3a 3f 38 3e f4 f5 05 3d
       -0.26573715 0.30689627 0.17992869 0.032705262
0002b0 d4 86 b0 bd d2 57 12 3b d6 16 03 3e 07 e0 93 3d
       -0.086194664 0.0022330177 0.1280168 0.07220464
0002c0 32 c2 1b 3d c2 8d 39 be eb 14 8d bd e6 22 02 3d
       0.038026996 -0.18120483 -0.068887554 0.031771563
0002d0 95 d6 0f 3c 8d 9d e8 bd 72 7b 86 3c b1 92 7c 3e
       0.008779188 -0.113581754 0.016416285 0.24665333
0002e0 16 be 6a 3e 85 d9 a7 3d 2f 56 e4 3d 41 1a 40 3d
       0.22924075 0.081957854 0.11149251 0.046900038
0002f0 28 7a bd 3d b7 15 84 be 60 a8 0c bd 8e 4c 3d 3e
       0.09251815 -0.25797817 -0.034340262 0.18486235
000300 02 be 1b 3c 8b 17 0d 3e 6c bc 03 be e7 cd 01 3e
       0.009505751 0.13778512 -0.12864846 0.12676202
000310 43 24 bc bd 18 d5 98 3e 48 97 34 3e fd 3a 76 3e
       -0.09186604 0.29850078 0.17635834 0.2404594
000320 a1 3f 90 3d 77 7b 8e bc 13 71 0b 3e 8a 6b f0 bc
       0.07043386 -0.017392857 0.13617353 -0.029348154
000330 31 4a 18 3e ab 16 cd bd 0d 02 db bc 87 b6 80 be
       0.14872052 -0.10014089 -0.026734376 -0.25139257
000340 fd 66 09 3e e8 01 ee 3c 2d 99 06 3e f3 b2 8d bd
       0.13418193 0.029053643 0.1314437 -0.069188975
000350 29 f2 0b 3e db b4 59 be 98 02 10 be 8c d5 47 3e
       0.13666596 -0.21260397 -0.1406349 0.19515055
000360 f6 a6 4d bd 0b e1 8d bd f6 60 06 be 19 f1 ce be
       -0.050208054 -0.06927689 -0.13122925 -0.40418318
000370 45 44 2e 3e 2c cd 3a 3d 9b 29 b8 bd 92 31 01 3d
       0.1701823 0.045605823 -0.089923106 0.031541415
000380 23 c5 d9 3d 0f 25 ec 3c 72 1b 9d 3d fc e4 e5 3d
       0.10633304 0.028826265 0.076712504 0.11225316
000390 74 76 b6 bc 05 94 df bb f2 9a d0 3b eb b7 e8 3d
       -0.02227328 -0.006823065 0.006366127 0.113632046
0003a0 ad 21 1d 3e 37 10 3e 3e f1 4a c5 bc 9e 4b 8c be
       0.15344878 0.18560873 -0.024083586 -0.2740144
0003b0 5a c1 41 3e 10 2c 80 3b 3d e5 83 be d0 d2 56 3e
       0.18921414 0.0039115027 -0.25760832 0.20978856
0003c0 f7 6f a4 be 20 89 56 be 9d 61 1f bc b9 8f b1 bd
       -0.32116672 -0.20950747 -0.009727863 -0.08669991
0003d0 5e 4d b6 3d 9f e9 10 3e 71 0c 94 bd a3 de d6 3d
       0.08901475 0.1415162 -0.072289355 0.10491683
0003e0 b9 f2 a8 bc bd 12 a4 bd 70 f3 ad bd ff b4 b6 bd
       -0.020623552 -0.080113865 -0.08493698 -0.08921241
0003f0 31 d2 45 bd f4 90 66 be af e8 4b be b2 16 45 3d
       -0.048296157 -0.22516233 -0.1991298 0.048117347

conv2.0.bias f4 [16]
000000 2a ea b6 bd aa 71 7c 3e c0 b7 71 3e a3 4c e0 3c
       -0.08931382 0.24652734 0.23605251 0.027380293
000010 93 ad 15 3f cc 12 89 be ce 96 be 3e ca 2c 35 bf
       0.5846798 -0.26772153 0.3722443 -0.7077147
000020 85 4a c8 be 67 c2 72 3e 03 cd df be 8f 1b 2d 3e
       -0.39119354 0.23706971 -0.437111 0.16905044
000030 c8 72 db bd 2b b8 b7 3e d9 f0 a9 3d f6 bc ec 3e
       -0.10715252 0.35882697 0.08297891 0.46237916

conv3.0.weight f4 [8, 16, 3, 3]
000000 39 75 56 3d 66 a6 3c 3e 6b a1 dc 3c eb ab e3 3c
       0.052357886 0.18422851 0.026932439 0.027791938
000010 38 da 45 3e 33 b2 da 3c 57 80 d2 bc be 69 12 3e
       0.19321525 0.0266963 -0.025695963 0.1429815
000020 10 8f 75 3e 17 fa 2d be 4f 91 f4 3d d4 f3 6c bc
       0.23980355 -0.16989933 0.11941778 -0.01446243
000030 e0 48 d7 bd 22 12 88 3d d4 0a 54 bd 18 79 e5 bd
       -0.10511947 0.066440836 -0.05176814 -0.112047374
000040 1f 4a b5 3d a7 70 3b 3e ff 3a a3 bd 65 f1 67 bd
       0.08852028 0.18304692 -0.07970237 -0.056626696
000050 7c af 4e 3e 37 2a 9f bb 94 4e 8f 3d 61 95 64 3e
       0.2018413 -0.0048573273 0.069974095 0.22322609
000060 a0 e3 bf bd bf 72 62 bd d9 78 b5 3d 6d e3 67 3e
       -0.09369588 -0.05528521 0.088609405 0.2264535
000070 f0 cf 90 bc 18 a5 11 3e 69 12 3a 3e 80 49 05 3e
       -0.017677277 0.14223135 0.18171085 0.1301632
000080 ac b2 de 3d d3 c0 74 3e b4 72 61 3b da 5e fb 3d
       0.10873923 0.23901682 0.0034400644 0.12273951
000090 6d 11 17 be 12 96 84 be 90 82 2f be 78 75 67 be
       -0.14752741 -0.25895745 -0.1713965 -0.22603405
0000a0 0b 9f bd be fc d0 4f be ed 2d 06 be 8a fa 5c be
       -0.37035403 -0.20294565 -0.13103457 -0.21579948
0000b0 1d ff 66 3d c2 dd 76 3d 14 44 79 3e 52 43 6f 3e
       0.05639564 0.06027008 0.24342376 0.23365524
0000c0 14 5e 47 be 53 6f 24 3e 3f 9b f6 bd 28 d3 0c be
       -0.19469482 0.16058092 -0.120413296 -0.13752425
0000d0 f9 fa e6 3d b5 63 4b be ed 55 89 3e 4c 1e 83 be
       0.11278338 -0.19862254 0.2682337 -0.25609052
0000e0 56 4f b6 3d 78 9f 4e 3c 9a 24 12 3c 50 ac 04 b9
       0.08901851 0.0126112625 0.008919859 -0.00012652692
0000f0 dd 69 87 3d 14 bf 26 3e e7 72 ad bd 2f 43 92 3d
       0.06611989 0.16283828 -0.084691815 0.071417205
000100 dc c8 85 bd 10 a5 44 be e9 2a 6a 3e 8c 25 01 3d
       -0.065324515 -0.19203591 0.22867931 0.031529948
000110 8b e0 b9 3d e5 9a 8c bd d3 36 d7 3e a4 4f 66 3e
       0.09076031 -0.06865481 0.42034015 0.22491318
000120 21 43 0c be aa 29 4c bd 9c 44 35 3c b4 ed 9e be
       -0.13697483 -0.04984442 0.011063721 -0.31040728
000130 b1 87 6e 3e 36 88 52 3e b9 88 54 3c 22 ce 14 3d
       0.2329395 0.20559773 0.01297205 0.036329396
000140 fc cc cb bd e0 f8 7a 3c dd b3 84 bd 7d 60 22 3d
       -0.09951207 0.0153181255 -0.06479619 0.0396428
000150 05 bc 96 3e 4e c6 c6 bd 5d 24 68 3e de ca 29 3e
       0.29440323 -0.09705792 0.22670121 0.16581294
000160 6c ef 1c be f0 20 09 3d 64 3b 49 3e d8 ae b4 3d
       -0.15325707 0.033478677 0.19651562 0.08822411
000170 d6 e9 44 3e 2f 47 0d 3e 1b 78 83 bd 5f d5 c2 bd
       0.19229826 0.13796686 -0.06419393 -0.095133536
000180 a1 60 32 bd d7 d3 07 3e 9a a3 f5 bd 44 c6 2c be
       -0.043549184 0.13264404 -0.11994095 -0.16872507
000190 d0 7e 90 be 2b e4 9c bd 43 ca b9 be b3 b4 54 be
       -0.2822175 -0.07660707 -0.36287126 -0.20772056
0001a0 ba f7 a1 3d a4 6a 0b 3e a3 07 43 be 7a 2c 37 bd
       0.07908578 0.13614899 -0.19045882 -0.04472015
0001b0 81 e5 2c bd 75 41 27 3e 72 83 08 be 3d a6 5d be
       -0.04221106 0.16333564 -0.13331392 -0.21645446
0001c0 e7 b6 c2 3d 36 c0 0c be 73 aa e0 bb 7b 41 94 bd
       0.09507542 -0.13745198 -0.0068562566 -0.07239052
0001d0 c5 53 35 bc 49 db 27 bd 3a 4c a8 be f3 b2 4c 3e
       -0.0110673355 -0.04098061 -0.32870656 0.19990139
0001e0 4e de ac bd dc f9 02 bd 79 66 45 be 3e 55 24 be
       -0.08440839 -0.031976566 -0.19277371 -0.16048142
0001f0 6a e5 a8 be 30 69 4a be 79 b1 53 be ef 39 1d be
       -0.3298753 -0.19766688 -0.20673169 -0.15354131
000200 c8 2c e3 bc a3 45 04 be de 65 38 be 6f 34 50 3d
       -0.027731314 -0.1291719 -0.18007609 0.050831255
000210 b1 67 fb 3d e1 f3 23 bd 75 d3 91 be 83 88 52 3d
       0.12275637 -0.040027503 -0.2848164 0.05139972
000220 20 0c 4c 3d 0a 5b 02 3e d6 e7 43 bd 85 ad 61 3e
       0.04981625 0.12730041 -0.047828518 0.22038849
000230 07 d7 54 3d 65 1c e5 3c 77 fa 14 3c c8 ea 62 3d
       0.05196288 0.027967641 0.009092919 0.055399686
000240 2a 0f c2 3d 6f 02 54 be 96 69 eb 3c 19 1e ee 3d
       0.094755486 -0.20704053 0.02873687 0.116268344
000250 6d de 5f 3d 60 2f 75 bd 1e 19 3c 3d eb b3 45 3e
       0.05465548 -0.059859633 0.04592239 0.19306915
000260 2e 84 0c 3e af ad 5f 3d 98 c5 18 3d e9 f3 06 3e
       0.13722298 0.054608997 0.037297815 0.13178982
000270 38 9d 15 3e 77 c3 6c be 0d 99 9a bc 7b fa f7 3d
       0.14610755 -0.23121439 -0.018871808 0.12108322
000280 03 88 03 3e d1 9f 71 3d 69 fc 07 be 5b 05 69 be
       0.12844853 0.058990303 -0.1327988 -0.22755949
000290 3f a9 17 3e a5 32 00 3e 6b ab 7d be 3e ac 3b be
       0.14810656 0.1251932 -0.24772422 -0.18327424
0002a0 79 8c d5 bd 4a f5 13 3d ad b1 e2 3d 5a 39 5e 3e
       -0.10427184 0.036122598 0.11069045 0.21701565
0002b0 94 91 e9 3c 0e 8c bb 3d c2 5f 56 be 53 92 51 3e
       0.0285118 0.09157573 -0.20934966 0.20465975
0002c0 82 77 5b 3e cb 56 50 be 07 98 c2 bc 6a be 8a 3e
       0.21432307 -0.20345609 -0.023754133 0.270984
0002d0 81 52 5b be 9a bb a3 bd 74 81 d0 be b3 e6 5a be
       -0.21418191 -0.079947665 -0.40723765 -0.21377067
0002e0 cc 40 df bd 93 c1 18 be 95 a9 74 bd e9 02 0e 3e
       -0.10901031 -0.14917593 -0.05973204 0.13868298
0002f0 7c 85 d1 3d b3 41 5a 3e 61 e9 6e 3e e9 a2 82 3e
       0.10230538 0.21314125 0.23331214 0.25514916
000300 cb 58 0e 3e 61 87 2b 3e 1f c5 cb 3e 87 ce a4 bd
       0.1390106 0.16750862 0.3979883 -0.080472045
000310 3a 6d 3b 3e a3 5c d3 3d 03 c9 a9 bd 4d 31 c2 bd
       0.18303385 0.103204034 -0.08290293 -0.0948206
000320 36 72 be bd 71 00 78 bd 3f 15 36 3e d3 af c9 bd
       -0.09299128 -0.060547296 0.17781542 -0.09847989
000330 cd e5 69 3d d4 cf 2f be 6a b9 0c be 25 5c c3 bd
       0.05710392 -0.17169124 -0.13742605 -0.095390595
000340 f5 5c c8 bd f4 18 a3 be 46 46 c9 bc 07 1b f2 bd
       -0.09783355 -0.31854975 -0.024569642 -0.11821561
000350 14 3d a1 bd 30 d9 e4 be 4e ad 7a 3e 53 a8 fb 3d
       -0.07872978 -0.4469695 0.24480173 0.12287965
000360 33 d5 a8 3d 63 0a 8e be bf 13 7f be ef 6f 04 3d
       0.082437895 -0.277423 -0.24909876 0.03233331
000370 2c ec df bc 3f a5 4e bd 35 1d cc bd d8 ae 43 3e
       -0.027334295 -0.05045056 -0.09966508 0.19109666
000380 9f ca d9 bd 02 ac 64 3e 89 f2 02 3e 3c 4f 17 be
       -0.1063435 0.22331241 0.12787832 -0.1477632
000390 94 07 82 3d e3 90 26 be 85 77 3c 3e e4 25 31 3e
       0.06349102 -0.16266207 0.18404968 0.1729961
0003a0 bd be 00 bd c8 74 87 bd 81 68 82 3e 75 9d 50 3e
       -0.031431902 -0.06614071 0.25470355 0.20372565
0003b0 38 bd 1d 3d cf e0 7e bd a3 ee bb bd 24 73 22 bb
       0.03851053 -0.062226113 -0.09176376 -0.0024787867
0003c0 87 78 b1 be 17 36 c6 3d ba 15 cc bd c4 e3 eb bd
       -0.34662268 0.096782856 -0.099650815 -0.11518052
0003d0 4f 4a 13 b8 46 95 bc bd 6b 07 8b 3b 46 d3 4e be
       -3.5116736e-05 -0.09208159 0.0042428277 -0.20197782
0003e0 75 8a ac 3d 6a f4 76 3e 25 e9 10 be e7 57 6e bd
       0.08424846 0.24116674 -0.14151438 -0.0581893
0003f0 cc 99 87 3e 27 bf 19 be c8 99 a5 3e 25 ef 48 3e
       0.26484525 -0.15014325 0.32343888 0.19622476

conv3.0.bias f4 [8]
000000 75 a4 cf 3e 45 93 bf be e7 4a 8a be b4 b7 e5 bd
       0.40555158 -0.37417045 -0.2701027 -0.11216679
000010 8f bf 99 be 28 25 68 be 64 1e d3 bd 70 62 36 bf
       -0.3002896 -0.22670424 -0.10308531 -0.71243954

dense1.0.weight f4 [16, 128]
000000 17 9c 97 3d 52 54 03 3d 80 8b a6 3d 68 49 23 be
       0.07402819 0.032062836 0.08132076 -0.15945971
000010 9a 9d 27 be f1 d2 90 3c 9b 17 40 bd b1 27 16 be
       -0.16368714 0.01767871 -0.046897512 -0.14663579
000020 f3 42 91 3c a4 ef af be de 72 14 3c c8 f6 34 be
       0.01773212 -0.3436252 0.00906059 -0.17672265
000030 a7 01 f7 bd 60 6d a3 bd 54 5a 36 be 3d a7 24 3c
       -0.12060862 -0.07979846 -0.17807895 0.010049638
000040 6b 79 0a bb 12 1e 5f 3d 1e 31 ad bc 69 af 3d 3e
       -0.00211295 0.054472037 -0.021141585 0.18523945
000050 ef 2b b5 3c 64 8a a7 bd cc e1 61 bd 4c 36 1a be
       0.022115676 -0.08180693 -0.055146977 -0.15059775
000060 fa c6 53 3d 44 8b 4f be 83 a1 26 bd ca b3 13 3d
       0.05170343 -0.2026797 -0.040681373 0.036060132
000070 5f 33 25 3e ce 56 c5 3d 2c ba 21 3e f9 f7 6d 3b
       0.16132878 0.09635697 0.15793675 0.0036311133
000080 57 3c 28 be f6 2b 60 be 2a a5 ec bb 5b 52 71 3d
       -0.16429268 -0.2189177 -0.0072218375 0.05891643
000090 24 87 39 bc 84 e4 5e 3e 7a 6e 32 3e d4 2f 9a 3e
       -0.011323724 0.2176686 0.17424956 0.30114615
0000a0 23 66 f7 3d f5 3f 15 3d 03 de 89 bd 0f 1f ce 3d
       0.12080028 0.036437947 -0.067317985 0.10064518
0000b0 e3 05 d9 3d 35 19 0f 3d 91 dc 91 bd 47 f4 94 3c
       0.10596826 0.03493615 -0.07122148 0.018182887
0000c0 fa c5 8b bc ba 39 cf 3c 53 2f 4d 3d d2 71 89 be
       -0.017062176 0.02529608 0.05009396 -0.2684465
0000d0 fa 58 a3 3b b1 a8 2b 3e 30 51 f8 3d 1f af 05 bc
       0.004984972 0.1676357 0.1212486 -0.008159428
0000e0 fb b8 88 be 6a 7f 9c be 39 d2 dc 3d 3b b5 ea 3c
       -0.2670363 -0.3056596 0.10782284 0.02865087
0000f0 8a de 41 be 8a f8 d1 bd b5 82 45 3d 66 65 66 3e
       -0.18932548 -0.10252483 0.048220355 0.22499618
000100 ef a2 12 3e 74 da d8 3d af 1f 8c bd 92 4d 45 be
       0.14319967 0.105885416 -0.06841981 -0.19267872
000110 86 22 29 bc 26 4d 3c 3c 68 73 eb 3d be 5c ac 3d
       -0.010323172 0.011493003 0.11496621 0.08416127
000120 0a 5e 21 3e ba 65 8f 3e 6d 18 2e 3e d4 0f a4 3c
       0.1575853 0.280073 0.17001505 0.020027079
000130 33 5b a6 3d b5 b6 0f bd 8b 4f fb 3d c4 e8 19 be
       0.081228636 -0.035086352 0.12271031 -0.150302
000140 0c 34 00 be 9c e1 0d be 53 e1 4a 3e 1c 71 dd bc
       -0.12519854 -0.13855594 0.19812517 -0.027031474
000150 1e f4 d2 be b0 4b 42 be ea 12 4e bd 31 5b 4f 3e
       -0.41201872 -0.18974185 -0.050311007 0.2024963
000160 89 aa 1c bd f4 96 64 be 92 33 51 3e f2 aa 88 be
       -0.038248572 -0.22323209 0.20429829 -0.2669292
000170 cc 85 98 bd 35 39 05 3d 8e 14 ae bd 6e 85 67 be
       -0.07447395 0.03252526 -0.08500014 -0.22609493
000180 e3 7a a0 3e 0a 8c 97 bb 97 e2 f2 3d 61 d7 a4 3e
       0.31343755 -0.0046248483 0.11859625 0.3219557
000190 ff 1f 6f 3d 73 1d 97 bd 06 d4 0d 3e cf 93 bb bc
       0.058380123 -0.07378664 0.13850412 -0.022897629
0001a0 03 8e 8f 3c c8 76 8b 3e 42 83 36 3e f4 0c 3a 3e
       0.017523771 0.2723906 0.17823508 0.18169004
0001b0 0c f1 da bd a9 f9 f2 bd 36 ed 13 3e f1 fd 89 3d
       -0.10690507 -0.11864025 0.14445958 0.067378886
0001c0 40 51 e2 bd 01 fe 8c ba c4 ce 81 be 29 46 9c 3d
       -0.110506535 -0.0010756851 -0.25353062 0.076305695
0001d0 72 c5 5b 3e f9 eb 15 be 61 c4 b7 3d 13 fe d2 3d
       0.21462038 -0.14640798 0.08973003 0.10302367
0001e0 ec a2 28 3e fa 16 35 3d a9 4b 26 be 63 ef bb 3c
       0.164684 0.044211365 -0.162398 0.022941297
0001f0 ea 71 46 3e 3d b6 79 3b 81 27 31 bd 27 14 9c 3e
       0.19379392 0.0038103007 -0.043250564 0.30484125
000200 a1 78 4f 3e 2e 58 79 be 84 fd 7a 3e a9 2b 80 be
       0.2026086 -0.24350044 0.24510771 -0.2503331
000210 20 9b 2b be 90 d4 3a be 55 31 c6 bd 36 43 96 3c
       -0.16758394 -0.18245149 -0.09677378 0.018342596
000220 6a 10 57 3e 89 0a 4f 3e 17 83 3e be a0 e0 4f 3e
       0.21002355 0.20218863 -0.18604694 0.20300531
000230 bd 7c aa bd 3f b5 76 3e a4 f3 c9 bd e6 44 12 be
       -0.08324573 0.24092577 -0.09860924 -0.14284095
000240 13 16 82 3d e2 40 3a be 80 e0 a1 bd b1 2d 69 3c
       0.063518666 -0.18188813 -0.07904148 0.014232085
000250 aa b4 74 3d e9 70 a6 3d da 3d 22 3e 6c 34 92 be
       0.059742607 0.08127005 0.15843907 -0.2855562
000260 59 0c 7c be 6a 22 df 3d 19 1e ba 3c 44 89 32 3e
       -0.24614085 0.10895236 0.02271943 0.17435175
000270 ef 69 ad be bb af 75 be f0 68 85 3c af 3d 13 3e
       -0.33869883 -0.23992817 0.01628539 0.14378999
000280 76 44 09 bd 7a b7 3a bd 98 84 cb 3b fd 4c b2 3d
       -0.033512555 -0.045585133 0.0062108748 0.087060906
000290 c9 b2 30 bc 3f 4d 81 bd 91 f7 e7 3d 36 dc 42 bd
       -0.010784813 -0.06313562 0.113265164 -0.04757329
0002a0 28 12 8e 3d 49 b4 5c be 52 25 1b bd c0 a4 12 be
       0.06937057 -0.21553148 -0.03787739 -0.1432066
0002b0 01 0b 5d 3e 0f 1f 02 3e 67 ad 4b be 7f ab 08 be
       0.21586229 0.1270716 -0.19890366 -0.1334667
0002c0 6a ed 1b be a0 82 4a be 2c b7 38 3e 82 e5 4b 3c
       -0.15227285 -0.19776392 0.18038625 0.012444856
0002d0 dd 52 bf bd af cc 39 3e 8b e7 e6 bc bd 8d 8b bd
       -0.09341977 0.18144487 -0.02818658 -0.06814144
0002e0 c9 7f 20 bc 25 87 7f be 1e 10 37 3c 5b c9 02 be
       -0.009796091 -0.24953897 0.011173276 -0.12772124
0002f0 7c 20 da bc 84 45 93 3e 47 65 94 be 45 ae 48 3e
       -0.026626818 0.28763974 -0.28983518 0.19597729
000300 65 f0 71 3e 62 ff ce bd 18 01 7f bd 0e 6b e4 bd
       0.2362686 -0.10107304 -0.062256902 -0.111532316
000310 fc ee 33 3d 3f 02 ce 3c 90 77 98 3e 84 9e 3a 3e
       0.043929085 0.025147555 0.2977872 0.18224531
000320 48 78 aa bd 40 57 48 3d ec 1b 8b 3e 23 a1 53 bd
       -0.08323723 0.048911333 0.2716974 -0.051667344
000330 55 42 72 3e 96 d0 84 3e ac 60 37 3e 52 09 67 be
       0.23658116 0.25940388 0.17907971 -0.22562149
000340 0e 42 c0 be e1 67 50 bd 6f 74 cf ba a4 75 8f 3b
       -0.37550396 -0.050880317 -0.0015827547 0.0043780375
000350 44 b0 9f bd 58 6c 06 3e dd b3 4c be 7b 12 31 3e
       -0.07797292 0.13127267 -0.19990487 0.17292206
000360 2b 39 72 bc af 6b 8c 3d 2e 06 86 bd 43 dc 1a bd
       -0.014784138 0.068564765 -0.065441474 -0.037807714
000370 d6 87 0b bd ba 3f a5 3c 72 e5 27 be bf a1 f7 bd
       -0.03406509 0.020171989 -0.1639612 -0.120913975
000380 59 8b 91 3d da f4 2d 3c 59 0c 0e 3e 13 e7 09 be
       0.071066566 0.010617459 0.13871898 -0.13467054
000390 4d 6c e3 bd 82 23 2b be d6 89 b7 bc 55 8e cc 3b
       -0.11104641 -0.16712764 -0.022404592 0.0062425532
0003a0 4c 31 db 3c 9b 35 30 bd 64 7c 8d bd c6 0f ee 3d
       0.026756905 -0.043019872 -0.06908491 0.11624102
0003b0 6b 49 0f 3e 08 ad 5b 3c 77 b8 e2 3c a2 40 59 be
       0.1399285 0.013407953 0.02767585 -0.21216062
0003c0 89 d1 10 bd 63 a7 89 3e e9 ea 5f be fd 82 2e bd
       -0.03535608 0.26885518 -0.21866955 -0.04260539
0003d0 1f a9 a2 3d 1b 66 80 bd 67 de 5f bd b7 4b 03 3e
       0.079424135 -0.06269475 -0.05465546 0.12821852
0003e0 35 ac 6b bd e3 8f 38 3e 91 f7 87 bd a7 86 7d 3c
       -0.057537276 0.18023638 -0.066390164 0.015473998
0003f0 00 4d 32 3e 8f 3f b3 3e d4 60 2f 3d 33 c5 65 3e
       0.17412186 0.3500943 0.042816952 0.22438507

dense1.0.bias f4 [16]
000000 34 ef 2e be d1 3a 88 bd 64 bf 4b 3f 66 f9 49 bf
       -0.17083436 -0.06651843 0.79588914 -0.78896177
000010 ce 4f a0 bc 00 d0 b7 3c eb bc e0 be 4b ca 27 bf
       -0.019569304 0.02243805 -0.43894133 -0.6554305
000020 32 e0 02 3e f9 e8 8d 3e 0f 0d 6f 3e 36 76 2e 3f
       0.12780836 0.27716807 0.23344825 0.68149126
000030 f9 ae 04 bf 13 83 02 be 71 90 9b 3e 39 a5 ba 3d
       -0.5182949 -0.12745313 0.30383638 0.09113545

dense2.weight f4 [10, 16]
000000 2e 0c c5 be d3 f4 53 3f 50 e6 31 3e ca 6c 05 bf
       -0.38485855 0.8279545 0.17373013 -0.52119124
000010 9a 47 cf 3e 86 76 8e bf 80 09 5c 3f 51 cd 19 bf
       0.40484315 -1.112992 0.85951996 -0.6007891
000020 27 d0 59 3f 27 d2 36 3f 18 45 4d 3f b2 7c 0f be
       0.8508324 0.7141442 0.80183554 -0.14012411
000030 4c 47 d5 3d 23 bb 13 bf 23 4b 67 3e dd 08 10 be
       0.104139894 -0.5770742 0.22587256 -0.14065881
000040 af 92 ec 3d 8a 1c e3 c0 58 d4 fd bc 6c de 6f 3f
       0.11551415 -7.097234 -0.030985042 0.93698764
000050 51 c5 f1 be 55 04 8c 3e b1 f2 e1 be 12 62 d3 be
       -0.47220853 0.27347055 -0.4413047 -0.4128576
000060 d8 9f 37 3e 1d 05 27 bc fb f7 57 3f 0e b9 56 bf
       0.1793207 -0.01019409 0.84362763 -0.8387612
000070 24 33 cc bd f4 1b 2e 3f 03 fa 26 3e ed 58 71 be
       -0.09970692 0.68011403 0.1630631 -0.23569079
000080 e5 59 3f be 4c 19 b4 3e e7 ce c4 bc 00 75 f5 be
       -0.18686636 0.3517555 -0.02402444 -0.47940826
000090 46 c6 93 3e ca 22 ce 3d 74 3a 6a bd a0 47 c2 3e
       0.28862208 0.10065229 -0.05718465 0.3794527
0000a0 ac 03 41 bf 50 f5 16 3f c4 28 90 3f 7f ff 25 3f
       -0.7539623 0.5896807 1.1262441 0.6484298
0000b0 11 ba ec bd 42 fa 12 3e f9 cb 05 3e 5d b7 4f 3d
       -0.11558927 0.14353278 0.1306609 0.05071198
0000c0 4d 9d 9e 3d cb e1 75 be b9 04 ec 3d 72 76 3a 3e
       0.077448465 -0.24011914 0.11524338 0.18209246
0000d0 79 d9 12 3e 4d e9 89 3e b1 75 b0 3d 6c d9 35 3e
       0.14340772 0.26935807 0.08616198 0.17758721
0000e0 cd d5 e2 bc f4 e7 3d 3e d0 f9 2d 3f f3 67 eb be
       -0.027689839 0.18545514 0.6795931 -0.45977744
0000f0 4f 00 77 3d 60 6a 8e 3e 6b 6b 0a bf 0c 90 7b 3e
       0.06030303 0.27815533 -0.54070157 0.24566668
000100 06 68 89 3e ad e9 05 3e 4e c6 05 3f 1a 3e 56 bf
       0.26837176 0.13077421 0.52255714 -0.8368851
000110 a1 06 ae be cc fd 95 be 7a 39 ff bd 2a 13 9b 3e
       -0.33989432 -0.29295194 -0.12462135 0.3028806
000120 64 8e 8a be a3 8e 3c bf fb b3 26 3f 55 30 0f 3f
       -0.2706176 -0.73655146 0.6511838 0.55933124
000130 76 a5 6d be 15 a6 71 bf cc ae 22 3e 66 47 82 3e
       -0.2320765 -0.94394046 0.15886992 0.25445098
000140 18 ae a3 3e 94 e8 e4 be f7 43 81 be 7b e5 b4 3e
       0.3196876 -0.44708693 -0.25247166 0.3533133
000150 63 e3 cb 3c 7a 46 d7 3e 6a 9e 44 3e 28 e9 13 3e
       0.0248887 0.42045957 0.19201055 0.14444411
000160 04 98 92 3d 9e 97 57 bc fd 8b 1a c1 8c 8f 19 bf
       0.07157901 -0.013158707 -9.659177 -0.5998466
000170 a5 b8 21 be ff f9 14 3e c6 9f ea be 13 d0 f5 bc
       -0.15793093 0.14548491 -0.45825022 -0.030006444
000180 6f 0d eb 3e 50 63 f1 be e2 25 0a bf f8 e4 89 3e
       0.45908687 -0.47146082 -0.53964055 0.26932502
000190 29 eb d7 3e 46 4e 3c be a1 bf 05 bf 72 25 ce bd
       0.421716 -0.18389234 -0.5224553 -0.10065736
0001a0 14 7d 55 3e cf 24 cd bd 49 8a 73 3f 43 4d 07 be
       0.20848495 -0.10016786 0.9513288 -0.13213067
0001b0 32 9f f1 bd 15 ca 43 3e 13 17 c6 bd 94 00 ff 3e
       -0.11797942 0.19120057 -0.0967237 0.4980513
0001c0 ba ed 78 3d f1 c7 97 be a6 71 b5 be 38 c1 2e bf
       0.06077359 -0.2964473 -0.3543827 -0.6826358
0001d0 c0 9d 13 bf 30 69 de 3d ba 4c ae 3d d8 64 05 3f
       -0.5766258 0.10859907 0.08510728 0.52107
0001e0 43 62 71 be 08 f9 46 be cf 76 ea c0 3e 2a 21 3f
       -0.2357264 -0.19430935 -7.327003 0.6295508
0001f0 1d 5d d3 3e bc ea 40 bf ba 7d 37 3e b6 75 72 bf
       0.41281977 -0.75358176 0.17919055 -0.9471086
000200 57 e6 0b be 38 40 7e 3d af d9 a7 3e 8f 18 8a be
       -0.13662086 0.062072963 0.32783267 -0.26971862
000210 64 66 c7 bb 14 e4 d7 3e 28 5e d9 be 51 4a 86 be
       -0.006085204 0.42166197 -0.42454648 -0.26228574
000220 02 67 f9 be e2 1a 37 bf e6 d9 96 c0 d0 db 6a be
       -0.487114 -0.71525395 -4.714099 -0.22935414
000230 28 49 41 3e 84 58 a2 3e 89 3f 3f 3e 34 fe 82 3e
       0.18875563 0.31708157 0.1867658 0.25584567
000240 b6 6c a6 be 03 7a ed bf 73 48 65 bc 37 14 2e 3f
       -0.32504815 -1.855286 -0.013994324 0.67999595
000250 b2 86 15 bf fe 6d d3 3e db 72 d3 be 4d 90 5e 3e
       -0.58408654 0.41294855 -0.41298565 0.21734734
000260 72 62 92 3d 6a 6e 4b bf a3 18 a1 bf 1a 88 98 be
       0.07147683 -0.79465353 -1.2585644 -0.29791337
000270 bd 7f 7e be 2c 29 09 3f 3a 6b 2e 3e db 2e f7 be
       -0.24853416 0.5357845 0.17033091 -0.48277935

dense2.bias f4 [10]
000000 77 61 6d 3e ff 47 73 bf 14 e2 c1 3e ef 9f 00 be
       0.23181711 -0.9503173 0.37867796 -0.1256101
000010 b3 35 37 be 43 2a 9f 3c f0 f7 70 3e 03 10 b0 bf
       -0.17891578 0.019429332 0.2353208 -1.3754886
000020 1b 44 c8 3f c7 d2 e1 be
       1.5645784 -0.44106123
