ResidualLoss/CNN-Train/CIFAR_20/back_epoch-257.pt (torch, 28479 bytes, 10 tensors)

conv1.0.weight f4 [16, 3, 3, 3]
000000 55 ca 3d 3d cd 79 86 be b0 db a1 3d 77 51 d4 3e
       0.046335537 -0.26264802 0.0790323 0.41468403
000010 f4 63 a2 bd 64 68 3a 3d f2 75 8a 3e 44 da 70 3e
       -0.07929221 0.04550971 0.2704311 0.23520762
000020 7f 66 7f be 12 b1 b1 be 2e a1 a1 3c a9 32 a7 be
       -0.24941443 -0.34705406 0.019730177 -0.32655838
000030 5f d7 be be 63 0b e9 be 6a 68 13 bf 72 47 82 be
       -0.3727369 -0.455165 -0.575812 -0.25445133
000040 cb ad 93 be ee ae 34 bb b3 67 ee be 83 26 93 3c
       -0.2884353 -0.0027570087 -0.4656349 0.0179627
000050 46 1c 95 bd a3 af 8d 3e 71 99 18 bd 68 91 50 be
       -0.07280783 0.27673063 -0.037255708 -0.20367968
000060 90 3c 33 3f 9c a8 21 3d b0 7b d3 be ac cd 6b 3e
       0.70014286 0.03946744 -0.41305304 0.23027676
000070 41 b2 b1 bb d8 4f f8 3a ef a7 a4 bd 4e 80 e9 bd
       -0.005422861 0.0018944694 -0.08039843 -0.11401425
000080 97 21 6c bd 60 6e 57 3e 1f be ae be 46 e7 83 3e
       -0.05764922 0.21038198 -0.34129426 0.25762385
000090 5d b1 85 3e 53 4c e8 bd 8d 29 38 3d 5f 9f 06 be
       0.2611188 -0.11342683 0.0449615 -0.13146733
0000a0 30 35 f3 be 2c 9c 00 bd 49 3b c7 3e c8 c1 39 be
       -0.47501516 -0.031398937 0.38912418 -0.18140328
0000b0 df dd 3b 3e 98 e8 ac 3e 7d b4 e5 3e ad 10 ba 3e
       0.18346356 0.33771205 0.44864264 0.36340848
0000c0 51 5e 4f be a3 56 c6 be 77 82 b6 be 81 7e 94 3d
       -0.20250823 -0.38737974 -0.35646412 0.07250691
0000d0 0d b0 46 be da 07 ea 3c a4 af 44 3d 90 24 a4 be
       -0.19403096 0.028568197 0.048019066 -0.32059145
0000e0 e8 23 dd 3c cf 16 6c be 12 be 32 be 4e 1f 06 bd
       0.02699466 -0.23055576 -0.17455319 -0.0327447
0000f0 a5 42 4a 3e 59 f7 df 3e 06 d4 92 bd 09 12 ea bd
       0.19751985 0.437434 -0.071693465 -0.11429221
000100 9d fc c3 be e9 13 43 be 88 ee bc 3d e9 2b 99 3e
       -0.38278666 -0.19050564 0.09225184 0.29916313
000110 17 d4 61 be eb 4d d1 3e d1 87 03 3f 87 3c 59 be
       -0.22053562 0.4087976 0.51379114 -0.21214496
000120 01 1f 0f 3e a5 ea a5 3d 0e 06 c3 3e fe 86 b0 be
       0.13976671 0.081013955 0.38090557 -0.3447799
000130 e0 37 dc be 5b f1 1b 3d 40 13 82 bd 95 c0 ba 3d
       -0.4301138 0.03807197 -0.06351328 0.09118763
000140 a4 ae 04 bd 76 e2 5a 3e 30 1f 1e 3e 1e 1c a7 bc
       -0.032393113 0.2137545 0.15441585 -0.02039915
000150 04 dd c1 3e 81 db 49 3f eb 5b 5a 3e 7a db 8f bd
       0.37863934 0.7885056 0.21324126 -0.07024284
000160 03 7f 8d 3e 38 1a 1d 3e 91 4a ae be 92 59 c1 bd
       0.27635965 0.15342033 -0.34041265 -0.09440912
000170 73 8a b5 be e2 93 0b be 3e f8 f9 be 68 3f 13 bf
       -0.3545719 -0.13630632 -0.48822206 -0.57518625
000180 f9 ac a8 bd 29 72 04 bf 22 6e dd be cc 55 86 3e
       -0.08236117 -0.51736695 -0.43248087 0.26237333
000190 95 71 b1 bd b4 e5 04 3f 24 57 87 be d0 41 09 be
       -0.08664242 0.51913 -0.2643367 -0.13404012
0001a0 8c ec 26 3e 66 b2 f1 3d d1 68 00 be 2b cc 94 3e
       0.16301173 0.11801605 -0.12539984 0.29062018
0001b0 cc 69 29 bf 16 22 e3 3d 9c 3f 47 3e c8 ff e9 be
       -0.6617706 0.11090486 0.19457859 -0.45702958
0001c0 88 1f f6 3c 28 9e 0c be 73 e9 a3 be 5a f5 57 bd
       0.030044332 -0.13732207 -0.32014045 -0.05272422
0001d0 b2 93 50 3e df e2 03 be 4b dd 59 3d 9c 28 a5 be
       0.20368841 -0.12879513 0.053189557 -0.32257545
0001e0 df cc b4 3e da 32 56 3d 8b cb 62 be 9e 42 b2 bd
       0.35312554 0.05229459 -0.22147958 -0.087041125
0001f0 f4 8b ca be 94 b0 c3 bd c4 e3 1e 3f 5a 8d 8c 3e
       -0.395599 -0.09555164 0.6206629 0.27451593
000200 be 35 d9 3d b4 e4 12 3f 5d 64 98 be 8c b6 c5 3e
       0.10605954 0.57380223 -0.2976407 0.38615835
000210 f3 74 3b 3e 54 44 c9 3e 0c eb 0d 3e 8c c2 0f bd
       0.18306331 0.39309943 0.13859195 -0.035097644
000220 3e 45 bc be 63 6b d9 3d 14 92 fa be cf 6f a1 3e
       -0.36771578 0.106161855 -0.48939574 0.31530616
000230 5b d4 ac 3e 7a cd a1 3b ad 78 17 3e 12 4c 1b be
       0.33755764 0.004937825 0.14792128 -0.15165737
000240 65 d5 1b 3e 57 61 60 be cc d7 d7 3d da 98 e9 be
       0.15218122 -0.21912132 0.10539207 -0.4562443
000250 ad 46 ed 3e 75 d8 39 3d ae a3 d8 bd d1 ad 92 3d
       0.46342984 0.045372445 -0.105780944 0.07162059
000260 53 03 a8 3d 4d 04 c2 3c c4 f2 8b be 44 24 a5 3e
       0.08203759 0.023683691 -0.27333653 0.3225423
000270 56 e6 0f bf 29 58 d2 3e ca bf be bd 8b 5e 19 bc
       -0.5621084 0.41082886 -0.093139246 -0.00936092
000280 d8 bd f4 3c 10 8b bf 3d 13 69 c4 3d 78 a2 6d 3d
       0.02987568 0.09352696 0.09590354 0.05801627
000290 10 68 15 bd 2c 86 d2 3d 47 33 b0 b8 f0 2d 92 3d
       -0.036476195 0.102794975 -8.401885e-05 0.07137668
0002a0 4a 6f ba be 43 f8 9b 3e 90 20 1c bc 10 c4 35 3e
       -0.36413032 0.30462846 -0.009529248 0.17750573
0002b0 fb 93 2a be 8b b9 91 3d bc 0b 49 3e 98 00 e4 3e
       -0.16658013 0.07115468 0.19633383 0.44531703
0002c0 07 2c c4 3d 70 9f 06 bf 45 d7 30 3e 65 6a 7e 3b
       0.0957871 -0.5258703 0.17269619 0.003882074
0002d0 a5 c2 25 3f 7a 76 b3 be 60 e2 d0 be 6d 00 bd 3e
       0.6475013 -0.35051328 -0.4079771 0.36914387
0002e0 25 61 b0 3e 0a 3f 24 be ee a7 ee be 5a 99 45 3f
       0.34449115 -0.16039672 -0.46612495 0.7718712
0002f0 f3 05 45 3e f9 65 46 3d 83 ec b9 be 80 f2 a4 3e
       0.1924055 0.048437092 -0.36313257 0.32216263
000300 ff 58 9d 3e 11 d8 02 bd bf 99 46 be 59 61 32 bc
       0.3073196 -0.03194434 -0.19394587 -0.010887467
000310 85 b3 0e bd 5c d1 d3 bd e9 38 12 3e 1c 63 eb be
       -0.034839172 -0.103426665 0.14279522 -0.45974052
000320 cc c9 09 be b7 6e 8e 3e 74 12 c9 bd 26 e3 a7 be
       -0.13455886 0.27818844 -0.09817973 -0.32790488
000330 99 b9 98 3e c0 52 97 3e 12 76 26 be a3 35 ab 3e
       0.298291 0.2955532 -0.16255978 0.3343936
000340 38 b7 00 be df 3f dd bd 0d 14 88 3e 4f c7 86 be
       -0.12569892 -0.10803198 0.26577798 -0.26323935
000350 b1 5b 34 3e ac 1c d9 3e 75 0c 55 3d c0 ef c7 be
       0.17613102 0.42404687 0.052013833 -0.39050102
000360 35 5d a6 39 bb 92 c7 3e d0 15 23 3e dd e4 0f 3d
       0.00031731432 0.38979134 0.1592629 0.03513037
000370 cd a9 50 3d 6f 50 35 bc dd 34 17 bf ea 0b 7a be
       0.050943185 -0.01106654 -0.5906504 -0.24418607
000380 31 4e 33 3e 59 fb a0 be fc 72 b6 3e 1b cc eb bd
       0.17510296 -0.31441763 0.356346 -0.115135394
000390 70 8a d5 3d bd 03 1c 3f d9 b7 49 be ff bd 3c be
       0.104267955 0.60943204 -0.19699039 -0.18431853
0003a0 28 7e 1e be 50 38 35 be d8 f7 d7 bd 17 eb 9e be
       -0.15477812 -0.17697263 -0.10545319 -0.31038734
0003b0 c9 7a 14 bd 18 77 cf b9 b6 dd 85 3e 97 53 ce be
       -0.03624991 -0.00039570848 0.26145715 -0.4029815
0003c0 7e 88 d6 3d ee a8 a3 3e 35 13 20 3e 5c 3f 94 3e
       0.104752526 0.3196482 0.15632327 0.2895459
0003d0 2b 2d 02 bf 87 88 d7 3d b1 61 74 bd ab ff d5 3e
       -0.5085017 0.105240874 -0.05966348 0.41796622
0003e0 04 d9 b5 3e 9b c9 81 be 13 87 12 3c 6a 99 ac 3d
       0.35517132 -0.25349125 0.008943337 0.08427699
0003f0 bf f3 3d bd a9 62 e3 be 3a d3 9c 3e 04 2c 16 be
       -0.046375033 -0.4441121 0.30629903 -0.14665228

conv1.0.bias f4 [16]
000000 57 67 9f be f8 5c 10 3e 93 0a 55 3c e4 7f cb bd
       -0.3113353 0.14097965 0.013003009 -0.099365026
000010 98 82 89 3f d0 48 3b 3c c2 d3 31 be 36 8a b3 3e
       1.0742979 0.011430934 -0.17365935 0.35066384
000020 26 75 8f bd 9a f0 f7 3e 03 dd 1f be a8 12 48 3e
       -0.07004766 0.48425752 -0.15611653 0.19538367
000030 6e 50 08 3f 3a 04 06 bf 29 87 df bd 27 45 08 3f
       0.53247726 -0.523502 -0.10914452 0.5323052

conv2.0.weight f4 [16, 16, 3, 3]
000000 16 ef d0 bd e7 5f 7a bd 4f 11 64 3c f7 7d 4f bd
       -0.10201852 -0.061126616 0.013920142 -0.05065724
000010 53 15 5d 3e 11 18 0a bd 1c b8 38 3e cf 1f d5 bd
       0.21590166 -0.033714358 0.18038982 -0.10406458
000020 8e 81 c2 3c ca 8b 91 3d 3b b6 80 3d a9 4f 0a 3d
       0.023743417 0.07106741 0.06284758 0.033767376
000030 03 c4 1e 3e 40 b6 28 3e 94 8a fc 3d 4e 18 7b be
       0.1550446 0.16475773 0.12331119 -0.2452099
000040 70 ff 58 bc bf 80 6d 3b 23 d9 fb bd e3 f7 8d be
       -0.013244495 0.0036240069 -0.12297275 -0.27728185
000050 05 4d ba 3d ae cb cd 3b 08 de 83 3e d1 2d 01 3e
       0.090967216 0.006280384 0.25755334 0.12615134
000060 91 36 78 3e 3d 7a 5c be 56 5b b6 be ab f8 a1 3e
       0.24239565 -0.21531005 -0.3561656 0.3163503
000070 e1 5b 22 bd 7b 8d a8 bd 11 d8 4a 3e 43 43 38 bf
       -0.039638404 -0.0823011 0.19808985 -0.71977633
000080 9d 5c 1e be fd 66 96 be b3 fb 8d be 80 d9 7d 3e
       -0.15465017 -0.2937545 -0.27731094 0.24790001
000090 82 73 f9 bc b3 da 9a bd 4b b2 87 3e 3c 35 c5 3d
       -0.030450586 -0.07561245 0.26503214 0.09629294
0000a0 7d ab e0 3d f7 70 13 3d fd 3b 0f 3e 46 94 97 bc
       0.10970209 0.035996404 0.13987727 -0.01850332
0000b0 ba fc 23 3c f1 df fd bd 7e 90 df bd 37 50 e9 3e
       0.010008985 -0.12396229 -0.109162316 0.45569012
0000c0 3a 1f a9 3e 3f 77 13 3f fa 4f c5 3d bd 48 29 3e
       0.33031636 0.5760383 0.09634395 0.16531654
0000d0 b0 27 7c bd 6c 4d af bc ad 92 02 be 25 b8 17 3d
       -0.061561286 -0.021399222 -0.12751265 0.03704085
0000e0 66 75 ed 3d 5d 8c 87 3d ae de 15 3e 3a 05 f3 bd
       0.115946576 0.06618569 0.14635727 -0.11866231
0000f0 ae 68 34 be 77 ed ce 3c 58 4a 0e be c2 77 7c 3d
       -0.17618057 0.025259716 -0.13895547 0.061637647
000100 8f d4 ec bd 4a 01 f3 3d e0 dc 8d 3d f7 aa 92 bd
       -0.1156398 0.1186548 0.06926894 -0.07161515
000110 d1 0d c4 3d 03 56 a2 be a5 ff 04 3b 0e 5d 87 3c
       0.09572948 -0.31706247 0.0020293978 0.016523864
000120 4f a1 77 3e f5 ab 78 3e 69 1f 82 3c e9 1a d7 3d
       0.24182628 0.24284346 0.015884118 0.105031796
000130 2e b1 27 bd b1 8b 43 3d d4 8f 94 be c5 27 c8 3d
       -0.040940456 0.047740642 -0.29015982 0.097732104
000140 28 a3 c6 be c1 59 8a 3c 74 8c 0c 3e f6 7a 5b bd
       -0.38796353 0.016888501 0.13725454 -0.05358406
000150 d8 b7 f5 bd bf 48 a6 bd ee 91 d8 bc 32 52 6e 3e
       -0.11997956 -0.08119344 -0.026436772 0.23273543
000160 6b e7 5e bd 28 78 e7 3b ea 9d e2 3d c5 24 9e 3d
       -0.054419916 0.0070638843 0.11065276 0.07721857
000170 67 e9 00 3c 6d b3 14 bc ec a5 d8 bc 06 25 4b 3d
       0.007868147 -0.009075982 -0.026446305 0.049595855
000180 ed 03 af 3e 83 bd f6 3d 98 f7 8d 3e ef ee 1f be
       0.34182683 0.12047865 0.27727962 -0.1561849
000190 61 c5 39 bc ed 06 eb bb 97 a6 05 3e fe 40 97 3e
       -0.011338563 -0.0071724565 0.1305183 0.29541773
0001a0 9f 73 df bd 49 bb f2 bc 9c 7d 38 3d 99 2b 17 3e
       -0.10910725 -0.02963032 0.045041665 0.14762725
0001b0 db dc 88 bd 5a d9 04 be 2a 0d be 3d 7e 75 4d 3e
       -0.0668275 -0.12973538 0.092798546 0.20064351
0001c0 42 eb ec bd ec 6b dc bd 8a bb bc 3d 76 fd 0d be
       -0.11568309 -0.10762772 0.09215458 -0.13866219
0001d0 9b 29 9d bd a7 66 f2 3c 15 7d b7 3d e6 f7 62 3e
       -0.07673951 0.029589964 0.089594044 0.22164878
0001e0 8c f0 95 3d fa 00 00 be 59 d3 47 3d 13 70 14 3d
       0.07321271 -0.12500373 0.04878554 0.036239695
0001f0 b6 79 90 bd f0 f9 ef bd 4c af 00 bf 85 c2 a8 3d
       -0.070544645 -0.11717594 -0.5026748 0.08240227
000200 d7 2a 1f be b8 8e ed bd 18 7f 00 bd 97 e2 df bd
       -0.15543686 -0.11599487 -0.031371206 -0.109318905
000210 f7 0f a8 bc 69 61 6a be 04 6a 3f 3d 17 c5 ad bd
       -0.020515425 -0.22888722 0.046731964 -0.084848575
000220 9d da ef bc 44 1c 1a bc 72 dc b6 bb 6f db d2 bd
       -0.029279048 -0.009406153 -0.0055804783 -0.1029576
000230 4f 66 32 be b5 91 75 bd 8e e6 e6 3d bc 7b 1d 3e
       -0.1742184 -0.05995341 0.112744436 0.15379232
000240 00 8e 9c bd 4c f4 43 3d 7d f6 b8 3d 0e ea e5 bc
       -0.07644272 0.0478404 0.09031389 -0.028065708
000250 01 7a 88 bd ac 43 8f 3d 3d 3d 1f 3d d1 e5 19 3e
       -0.066638954 0.06995329 0.03887676 0.15029074
000260 a1 50 0b be b7 35 4d be 69 53 b4 3b 05 02 17 be
       -0.13604976 -0.20040022 0.0055031073 -0.14746864
000270 a6 ac 30 bd ae 3d c8 bd 83 aa 9e bc 65 79 b6 3b
       -0.0431334 -0.097773895 -0.019368416 0.0055686706
000280 d7 83 3a 3e 48 a4 ec bd f5 54 15 3e ae 73 71 3e
       0.18214355 -0.11554772 0.1458319 0.23579285
000290 06 6d c7 3e 50 f8 5c be d9 04 ab 3e 6f 9b 8b 3d
       0.38950366 -0.21579099 0.33402136 0.06816756
0002a0 20 bb a8 be d6 11 98 3e 4a 7a 06 3e f8 ff 13 3c
       -0.32955265 0.29701108 0.13132587 0.009033196
0002b0 1f 93 f8 bc 4d 52 3c bd f5 54 d8 3d 1e 0e e2 3d
       -0.03034359 -0.045976926 0.10563079 0.11037849
0002c0 36 50 b3 3b bf 13 0e be 40 fb 4b bd 69 c6 f2 bb
       0.0054722084 -0.1387472 -0.049800158 -0.0074089062
0002d0 46 02 75 bc 84 52 fe bd a0 0d 55 3d 59 78 5e 3e
       -0.014954155 -0.12418082 0.052014947 0.21725596
0002e0 9d b2 57 3e 77 17 7a 3d 03 a2 95 3d 43 fe 0c 3d
       0.2106423 0.061057534 0.07306292 0.03442217
0002f0 e0 b1 54 3d 36 f4 a8 be 02 5e 09 be ec ee 3f 3e
       0.051927447 -0.32998818 -0.13414767 0.18743485
000300 c6 fa 04 bd 37 e5 c9 3d e8 c9 9c bd 49 c4 44 3c
       -0.03246572 0.098581724 -0.07655698 0.012009689
000310 32 3c e5 bd fc cd 8b 3e 73 95 54 3e 68 fb 5c 3e
       -0.11193122 0.2730559 0.20760135 0.21580279
000320 39 eb c1 3d 88 90 c3 3c dd e5 95 3d e3 db 62 bd
       0.09468693 0.023872629 0.073192336 -0.05538548
000330 fb b2 f4 3d c1 c8 b9 bd a2 7b 61 bd 19 92 6e be
       0.119482 -0.09071494 -0.055049546 -0.2329792
000340 13 20 ed 3d bd 6b e2 3c 99 cf 12 3e 65 41 95 bd
       0.11578383 0.027639264 0.14337005 -0.07287864
000350 fd 09 3e 3e 4c 68 42 be ec dc 0b be f6 89 11 3e
       0.18558498 -0.18985099 -0.13658494 0.14212784
000360 0d cc 05 3c 8b 0f 8d bd a5 09 82 be 8a 91 9d be
       0.008166325 -0.0688773 -0.25397983 -0.307751
000370 3c 26 58 3e 6e 9f 0b bd 85 f7 30 be db 8d 97 3b
       0.21108335 -0.03408759 -0.17281921 0.004625065
000380 d6 ab 55 3e 99 22 93 bc 7c be fc 3d 85 ed 35 3e
       0.20866331 -0.017960833 0.123410195 0.17766388
000390 0e 80 24 3d 22 29 20 bb a6 bf 51 bc 1a 86 a3 3d
       0.040161185 -0.002443858 -0.01280204 0.07984562
0003a0 4c 43 2a 3e 4f ee 41 3e 64 eb 4c bc 41 5c a4 be
       0.16627234 0.18938564 -0.012507293 -0.32101634
0003b0 67 8d 92 3d 4e e5 b2 3c 1f 2a af be bf 40 79 3e
       0.071558766 0.021837857 -0.34211823 0.24341105
0003c0 58 21 87 be 2d 91 09 be 6e ee 32 bd 88 83 f7 bd
       -0.26392627 -0.13434286 -0.043684416 -0.120856345
0003d0 ae 2b a9 3d 13 ab 28 3e c2 6b 93 bd ee 33 8b 3d
       0.08260284 0.1647151 -0.071982875 0.06797014
0003e0 88 f8 3c bb 96 e2 d8 bd 00 ad ac bd dd 75 d1 bd
       -0.002883466 -0.10590093 -0.08431435 -0.10227559
0003f0 1f 33 6c bd 2b a7 6a be b6 af 10 be b8 b0 ac 3d
       -0.05766594 -0.22915332 -0.14129528 0.08432144

conv2.0.bias f4 [16]
000000 01 92 26 be 5d 14 96 3e b4 00 8e 3e 0f c8 d8 3c
       -0.16266634 0.2931241 0.2773491 0.026462583
000010 5a f6 28 3f f3 d6 4a be e7 e6 b5 3e 7c fa 1b bf
       0.660009 -0.19808559 0.35527727 -0.60929084
000020 5d 55 a1 be 04 88 61 3e bf 2a fe be 52 43 80 3e
       -0.3151044 0.22024542 -0.49641988 0.2505136
000030 09 31 7c bc fe 5f f4 3e ec f7 c1 3d 3c 56 f6 3e
       -0.01539255 0.47729486 0.094711155 0.48112667

conv3.0.weight f4 [8, 16, 3, 3]
000000 1b a4 5b 3d 38 c1 29 3e bd 9f 0f 3d c0 77 68 3d
       0.0536233 0.16577613 0.035064448 0.056754827
000010 01 ee 6d 3e 84 90 ae 3d d9 db 0c 3c 52 3b e3 3d
       0.23235323 0.08523658 0.008597338 0.11095299
000020 6e 99 62 3e 1c 37 12 be 2d 6d 86 3d b3 e9 49 3d
       0.22128841 -0.14278835 0.065637924 0.04929514
000030 96 2d 34 be 5c d2 53 3d 4a f0 71 3d 42 84 ac bc
       -0.17595515 0.051714286 0.059067048 -0.02105916
000040 90 a5 36 3d 57 61 cb 3d 1e da 2e be 38 b4 91 bd
       0.044591486 0.099306755 -0.17075393 -0.07114452
000050 7a 39 f8 3d 3f e3 0e bd a1 bf 58 b9 a4 35 ab 3e
       0.12120338 -0.034884688 -0.00020670753 0.33439362
000060 b0 23 02 be 92 f8 74 bd dd 74 c5 3d 70 06 f9 3d
       -0.12708926 -0.059807368 0.096414305 0.12159431
000070 22 76 85 3d 3b 94 08 3e 0f 60 7e 3d 5b db e4 3c
       0.06516673 0.13337795 0.062103327 0.027936628
000080 05 88 4c bd 62 4e a1 3e c4 9e 39 3c b3 fd 22 3e
       -0.049934406 0.31505114 0.011329357 0.15917091
000090 44 ba 45 be 37 b9 a7 be 90 45 3b be 2e 2e 3f be
       -0.19309336 -0.32758495 -0.18288255 -0.1866996
0000a0 2c 5e da be b1 ac 78 be 7f b8 8e be 8c 3a 75 be
       -0.42649972 -0.24284627 -0.27875134 -0.23948115
0000b0 e5 f2 b7 bc 12 59 79 3c cd fb 34 3e 51 de 4a 3e
       -0.022454688 0.01521899 0.1767418 0.1981137
0000c0 cd f0 22 be d7 e0 d8 3d 87 03 ff bd bd 16 36 be
       -0.1591217 0.1058976 -0.12451845 -0.17782111
0000d0 2f 6d 6a bd bd fb 44 be dd df 9b 3e b9 ea 2a be
       -0.05723303 -0.19236656 0.30444232 -0.16691102
0000e0 d7 8b f4 3d 5f e8 f8 3c ba 1d 82 3d 1c 04 02 3d
       0.11940735 0.03038424 0.06353326 0.0317422
0000f0 fa a0 d9 3d 80 80 1f 3e af d7 44 bd 1c f7 d0 3d
       0.10626407 0.15576363 -0.048057254 0.102033824
000100 30 63 d8 bd 07 0e 50 be 79 39 43 3e 61 aa b5 bb
       -0.105657935 -0.20317851 0.19064893 -0.0055439924
000110 98 eb 82 3d f7 38 39 3b 70 37 a2 3e ad 57 7d 3e
       0.06392592 0.0028262713 0.3168292 0.24740477
000120 00 3d c4 bd 6d a0 92 bd db 59 11 bd 08 9b 82 be
       -0.09581947 -0.07159505 -0.035486083 -0.25508904
000130 d5 2b 52 3e f6 f9 64 3e f8 26 1e 3d 40 8f b7 3d
       0.20524533 0.22360978 0.038611382 0.0896287
000140 63 97 93 bd d5 53 70 3d 22 95 cb 3c 93 19 63 3d
       -0.07206609 0.0586737 0.024851386 0.05544431
000150 fd bb 84 3e 8c 9c b8 bc 6d 90 31 3e 49 d0 33 3e
       0.25924674 -0.022535585 0.1734025 0.17559923
000160 22 b9 de bd 72 30 5f 3d 2c 62 5c 3e 67 1f 6d 3d
       -0.10875155 0.05448956 0.21521825 0.057891276
000170 24 f1 e4 3d 7a 30 20 3e f5 98 a2 3b 97 78 1f bd
       0.111788064 0.15643492 0.0049620816 -0.038933363
000180 7c 27 4c bc a8 c8 06 3e 94 bd 33 bd b9 18 35 be
       -0.012460586 0.13162482 -0.043881968 -0.17685212
000190 b8 8e 6a be 50 da 94 bd ae 74 f4 be a5 b6 60 be
       -0.22906005 -0.07268202 -0.4774527 -0.21944673
0001a0 74 c3 53 bd f5 77 7b 3d 22 5b 84 be 16 35 42 bd
       -0.05170007 0.061393697 -0.2585078 -0.047413908
0001b0 60 bd ca bd 62 b1 0b 3e 2d 57 07 be d6 07 f9 bd
       -0.09899402 0.13641885 -0.13216849 -0.12159698
0001c0 de a3 f7 3d 3f e9 8f bb 55 3b 27 bd 95 f2 aa 3c
       0.12091802 -0.004391819 -0.040828068 0.020867625
0001d0 6a 68 a2 3c 96 94 88 bd 2a f2 86 be f1 bf 6a 3e
       0.01982518 -0.066689655 -0.26356632 0.22924782
0001e0 97 46 a6 bd 55 a3 e5 bd b7 db 4a be 9e d3 6d be
       -0.08118933 -0.11212794 -0.19810377 -0.23225257
0001f0 39 34 8d be 56 16 56 be cd 3f 2d be 98 66 37 be
       -0.27578905 -0.20906958 -0.1691887 -0.1791023
000200 93 17 ea bc 90 7b 4a be fb 1d 37 be 56 3f 61 bd
       -0.028575694 -0.19773698 -0.1788253 -0.054992042
000210 26 57 da 3d a7 ae b6 bc c3 b0 ba be c5 ec 9d 3d
       0.106611535 -0.022300078 -0.36462983 0.07711176
000220 d4 97 82 3d 24 fd 72 3d 38 bd 12 bd 7c 1f 35 3e
       0.06376615 0.059323445 -0.035824984 0.17687792
000230 fe e0 e1 bc 72 8b d7 3c f6 b8 37 bd 1d 48 a7 bb
       -0.027573105 0.02631161 -0.044854127 -0.005105032
000240 6e 18 ca 3d c2 0f d5 bd 87 c1 f4 3b 04 be f6 3d
       0.09867941 -0.10403396 0.0074693593 0.12047961
000250 e7 98 d0 3d c4 43 e3 bc 7d f5 a4 bc e1 68 48 3e
       0.10185414 -0.027742274 -0.02013659 0.19571258
000260 63 c8 f1 3d 7a 75 31 3e 81 2a c9 3d 0e ac e2 3d
       0.11805799 0.1732997 0.0982256 0.11067973
000270 32 85 09 3e 80 47 4b be ec ed d0 3c 2d 67 00 3e
       0.13429716 -0.19851494 0.025504075 0.12539358
000280 64 81 ac 3d 57 cd df 3d 84 77 2a be fe c7 c4 be
       0.08423117 0.10927837 -0.16647154 -0.38433832
000290 cd 2a 81 3d 03 4b e6 bd 55 d7 a1 be b7 97 9f bd
       0.06306992 -0.11244776 -0.31609598 -0.07792609
0002a0 da 45 4c bd ee 9a 87 bd 3e 0c 02 3e 0a 6d ac 3d
       -0.049871303 -0.06621347 0.12699983 0.08419235
0002b0 41 10 b4 3d d2 66 ae 3e 24 70 c2 be 96 ce 72 3e
       0.08792163 0.3406282 -0.37976182 0.23711619
0002c0 da 3f 37 3e 61 2d b1 be 6f 6f 31 bd 9a 8f 90 3e
       0.17895451 -0.34604934 -0.043319162 0.2823456
0002d0 ff eb 85 be 97 09 c4 bd 08 be cc be a2 3a 83 be
       -0.26156613 -0.095721416 -0.39988732 -0.2563067
0002e0 eb ce 64 bd 1b 31 be bc a7 9c 9b bd 98 97 a0 3c
       -0.055861395 -0.023216775 -0.075982384 0.019603536
0002f0 ed a4 5e bd 24 8a 78 3e ad c9 4e 3e a6 be 67 3e
       -0.054356504 0.24271446 0.2019412 0.2263132
000300 e8 0f 88 3e 80 3b 9d 3e 54 2a 9b 3e 5c 79 0b 3d
       0.26574636 0.30709457 0.3030573 0.034051284
000310 c1 93 b2 3e c5 e8 b5 3d e6 ca c3 bd 1a 1f 2d bd
       0.34878352 0.08882288 -0.09560184 -0.04226599
000320 e2 aa 20 be 3e a8 96 bd a3 57 02 3e b3 14 38 be
       -0.15690187 -0.073563084 0.12728743 -0.17976646
000330 b3 fc 5e bd 2f 10 36 be ab bf c1 bd f4 a2 fe bd
       -0.05444021 -0.17779611 -0.09460386 -0.124334246
000340 87 39 8d 3c 16 aa 62 be 77 69 9e bd 4b d9 0b bc
       0.017239345 -0.22135195 -0.077349596 -0.008535693
000350 12 cb 39 bd 5f 7b fd be 19 c2 55 3e 8a b1 02 3e
       -0.04535968 -0.49508187 0.20874824 0.12763038
000360 2e b7 b1 3d 08 03 86 be 09 a4 9e be ac ee 60 bc
       0.08677517 -0.26174188 -0.30984524 -0.013728779
000370 fc ee 4d bd ea 0f bc bd ce cf ab bd f7 83 09 3e
       -0.05027674 -0.09182723 -0.08389245 0.13429247
000380 5a 4a bc bd 46 3e 74 3e a3 fe 29 3e b8 94 b0 bd
       -0.09193869 0.2385188 0.16601042 -0.08622116
000390 c6 7b e1 3d 25 ec 0f be 05 4d 07 3e 14 55 02 3e
       0.11009936 -0.14054926 0.13212974 0.12727767
0003a0 90 5d 01 bd c1 33 c4 bd 0f 7f 63 3e 8c d4 62 3e
       -0.03158337 -0.09580184 0.22216438 0.22151393
0003b0 d4 88 89 bc a5 1f d1 bc 61 66 5a bd aa e1 0d bd
       -0.016788878 -0.025527785 -0.053320292 -0.03463904
0003c0 ab c1 a4 be 87 8a a6 3c a6 66 c9 bd f0 e7 3b be
       -0.32179007 0.020329727 -0.09834032 -0.18350196
0003d0 46 6a 2d bc 73 1c f1 bd f4 4b 5e 3d e3 eb c0 bd
       -0.01058442 -0.117730044 0.054271653 -0.09419992
0003e0 2e e6 22 bd b6 d6 9b 3e 38 48 f0 bd e0 b1 23 3c
       -0.039770298 0.3043725 -0.11732525 0.009991139
0003f0 fc 8b 50 3e 28 6b ee bd 3e a2 9d 3e f2 4a 37 3e
       0.203659 -0.11641532 0.30787843 0.17899683

conv3.0.bias f4 [8]
000000 3c 65 c6 3e 45 86 bf be 95 83 70 be 60 af 42 be
       0.3874911 -0.37407127 -0.23487695 -0.19012213
000010 1d 06 8f be 53 06 36 be 9e 6c 74 bd 30 c3 29 bf
       -0.27934352 -0.1777585 -0.059673898 -0.6631346

dense1.0.weight f4 [16, 128]
000000 6b a6 dd 3d e9 b3 dd 3c 1d c8 3f 3e de c5 e2 bd
       0.10822757 0.027063327 0.18728681 -0.110728964
000010 36 e6 d5 bd 8f 3e 0d 3e e8 fc 3f 3d cd fd f1 bd
       -0.104443 0.13793395 0.04687205 -0.11815987
000020 cf 36 94 bd 74 91 aa be f0 9a fd bc 71 16 6d be
       -0.072370164 -0.33314097 -0.030957669 -0.23153092
000030 70 9a 7c bd 0b d4 c7 bd a7 bd 16 be 77 8d c9 3c
       -0.06167072 -0.09757241 -0.14720784 0.024603589
000040 4f 16 0b 3d 87 83 5f bd df 2a 8e bd b9 c8 28 3e
       0.033956822 -0.054568794 -0.06941771 0.1648282
000050 94 1e 1c bd 36 d2 63 be af 78 31 be 46 96 87 be
       -0.0381151 -0.22248158 -0.17331193 -0.26481837
000060 1d 0d 91 3d da 97 30 be 23 17 de bc a1 34 0e 3d
       0.07082579 -0.17245427 -0.027110642 0.03471816
000070 e4 e8 6a 3e ad d3 3c 3e 57 19 2f 3e 3f a5 a7 3b
       0.22940403 0.18440123 0.1709951 0.0051161344
000080 21 be 12 be 3f bb 13 be b1 96 0c 3c fe 1d 5f 3d
       -0.14330341 -0.14426897 0.0085808495 0.054471962
000090 3f 4a d2 bb 9e 49 60 3e db 95 3a 3e bc 83 92 3e
       -0.006417542 0.21903083 0.18221228 0.2861613
0000a0 e7 6c e0 3d a9 c0 71 3c bc 9e 9f bd 9a 75 6c 3d
       0.109582715 0.014755406 -0.07793948 0.05772934
0000b0 07 bf b8 3d 38 09 12 bd 48 22 81 bd 36 98 41 3c
       0.090208106 -0.035653323 -0.06305367 0.011816075
0000c0 5a 8d c9 bc af a0 12 bc c2 73 56 3d 8e 17 80 be
       -0.024603534 -0.008949443 0.05235649 -0.2501797
0000d0 28 bc 96 3c 1f bf 3a 3e 23 1d 38 3e 2e cf f9 3b
       0.018400267 0.1823697 0.17979865 0.0076235747
0000e0 a8 de 68 be 5a 9e 89 be 7d e6 25 3e aa cc cc 3d
       -0.22741187 -0.26878625 0.16201206 0.09999974
0000f0 a1 30 17 be e3 69 5d bd 9e e3 4c 3c b7 b1 ac 3e
       -0.14764644 -0.05405606 0.01250544 0.33729336
000100 9f 53 32 3e d7 86 7e 3d d4 3c f7 bd bf da f4 bd
       0.17414711 0.062140312 -0.12072149 -0.11955785
000110 5e ac bd 3c 57 89 8a 3d bf 3a 3f 3e e1 d8 5f 3d
       0.02315348 0.06764477 0.18674754 0.05465019
000120 be 85 bb 3d a4 91 93 3e 44 f8 56 3e 9d db 39 3d
       0.09156369 0.28822052 0.20993143 0.045375455
000130 95 4d d5 3d a7 a9 9d bd 19 21 ac 3d 19 55 53 be
       0.10415188 -0.07698374 0.084047504 -0.20637931
000140 c9 c7 1b 3d ac d8 b2 bd c3 e5 4f 3e 09 76 9a bd
       0.038032327 -0.08732733 0.20302491 -0.07542045
000150 f0 dc 8a be ae db e8 bc 2f 2b d6 bc 4b b1 33 3e
       -0.27121687 -0.028425064 -0.026143638 0.175481
000160 98 c0 5a bc 07 85 ef bd a0 29 35 3e d6 c2 49 be
       -0.013351582 -0.11695295 0.1769166 -0.1970323
000170 50 9f 33 be d4 94 e8 bc 4d b4 ec bd 50 d1 85 be
       -0.17541242 -0.02839128 -0.11557827 -0.26136255
000180 ce 0f b8 3e 14 23 84 bc f6 9e e9 3d dd 98 bd 3e
       0.35949558 -0.016130008 0.114072725 0.37030688
000190 48 b3 ac 3d 92 3b a0 bd e5 70 8a 3d 36 0d 65 bd
       0.08432633 -0.07823862 0.06759814 -0.055920802
0001a0 55 53 51 3d ad d7 8e 3e ea 7c 64 3e ca a7 66 3e
       0.051104862 0.27898923 0.22313276 0.22524944
0001b0 d7 fa 24 be 05 e1 1b be 6a 5e ff 3d 8b 08 5d 3d
       -0.16111313 -0.15222557 0.1246918 0.053963225
0001c0 81 2e fe bd da 7d 04 bd aa b1 50 be 81 d1 a2 3d
       -0.12411214 -0.032346584 -0.20380273 0.07950116
0001d0 95 66 fe 3d 1f 78 8c bd e6 8e a2 3d 31 87 09 3e
       0.1242191 -0.06858849 0.07937412 0.13430478
0001e0 b7 4d 4a 3d 2d d3 ab 3d 45 fc 25 be 80 5f 42 3c
       0.04939052 0.08389888 -0.16209514 0.011863589
0001f0 93 73 27 3e 38 c5 1c 3d a0 6c 9b bd c6 cc 40 3e
       0.16352682 0.03827402 -0.07589078 0.18828115
000200 d7 82 24 3e 49 a7 81 be d6 dc 7b 3e 15 38 97 be
       0.16065536 -0.2532294 0.24595961 -0.29534975
000210 81 63 51 be d5 d4 01 be f7 6c b1 bd 76 f9 ce 3d
       -0.20448114 -0.12678845 -0.086633615 0.10106175
000220 0e 9f 2c 3e 0e 5b 36 3e 7b fb d3 bd f5 05 3f 3e
       0.1685755 0.17808172 -0.103507005 0.18654616
000230 3a 83 a4 bd 3f 4a 55 3e cc ea f5 bd 7d 75 48 be
       -0.08032842 0.20829104 -0.120076746 -0.19576068
000240 2d 39 9d 3b d9 2f 65 be 93 0c ec bd e5 ce ac 3c
       0.0047980756 -0.22381534 -0.11525836 0.021094749
000250 8f 0a db 3c cb 3a fb 3d 75 cd 2e 3e 2c 04 7b be
       0.026738433 0.12267073 0.17070563 -0.2451331
000260 7f ea 88 be 28 12 08 3d 47 0e 42 3d 95 21 14 3e
       -0.26741406 0.03322044 0.047376897 0.14465936
000270 79 ce 97 be 6b 8a 69 be ed 01 13 3d a8 d1 1d 3e
       -0.29649714 -0.22806709 0.03589051 0.15412009
000280 45 9c 54 3d 0a c3 1e bd 2b 0f 03 3d e0 af a9 3d
       0.051906843 -0.038760222 0.031996887 0.082854986
000290 97 6c 02 bd c9 4d 79 bd 01 ee b7 3d 15 23 60 bd
       -0.03184184 -0.060865197 0.089809425 -0.054720957
0002a0 b8 86 fd 3c 5c cc 51 be d4 24 01 bd 2a 5d 5d be
       0.030948028 -0.20488113 -0.031529263 -0.2161757
0002b0 90 a3 3d 3e 78 4a 69 3d d6 38 56 be b4 1c 88 bd
       0.18519425 0.056955785 -0.20920119 -0.066461
0002c0 94 58 b1 bd 34 42 3d be 59 5d 6a 3e 62 32 9e bd
       -0.08659473 -0.18482286 0.22887172 -0.077244535
0002d0 46 c2 f4 bd 99 07 42 3e c1 b7 e2 bb 3b bf 37 be
       -0.11951117 0.18948211 -0.006918878 -0.17944042
0002e0 94 56 c1 3d 86 7c 39 be dd b1 5d bd 3c 66 54 be
       0.094403416 -0.18113908 -0.0541247 -0.20742124
0002f0 5d b9 1d 3d d3 70 9f 3e 6d 75 69 be 0c 5b 39 3e
       0.038506854 0.31140766 -0.227987 0.18101138
000300 8e af 7c 3e 45 73 bd bd 46 45 fb bb 87 94 34 bc
       0.24676344 -0.092505015 -0.00766817 -0.01102174
000310 32 46 77 bc c2 15 99 3d 06 be be 3e de 82 3c 3e
       -0.015092419 0.07474853 0.3725435 0.18409297
000320 35 bc af bd a6 bc 40 3d bc 0e 55 3e a1 77 ed bd
       -0.085808195 0.04705491 0.20806402 -0.11595083
000330 4f b5 4f 3e 83 e7 7a 3e 30 8f e4 3d 60 96 05 be
       0.20284007 0.24502377 0.11160123 -0.13045645
000340 76 12 b3 be 6f 08 20 be a0 be 69 3d f4 56 34 bd
       -0.34975022 -0.15628217 0.05706656 -0.044028237
000350 7a 26 4e 3c fc 23 25 3d 0d 23 49 be ec e0 cd 3d
       0.012582416 0.04031752 -0.19642277 0.10052666
000360 c6 4e 24 3e e1 3d ef 3d 95 b9 ea bd 60 cd 90 3d
       0.16045675 0.11681724 -0.11461178 0.07070422
000370 54 a5 1b be 48 e8 4e 3d 7d e0 26 be 26 59 0c be
       -0.15199786 0.05051449 -0.16296573 -0.13705882
000380 75 8d bb 3d 4e 2f fb 3c 39 7b f3 3d a2 34 10 be
       0.0915784 0.030662205 0.11888737 -0.14082578
000390 d9 99 a4 bd fd 32 2a be 37 d2 82 3c 0b 79 a4 bc
       -0.080371566 -0.16621013 0.015969379 -0.020077249
0003a0 3c 65 60 3d f1 81 12 bd 52 59 e3 bd a1 8a be 3d
       0.054784045 -0.035768453 -0.11101021 0.09303785
0003b0 23 05 33 3e 48 5a 65 bc 31 69 02 3c e3 3b 52 be
       0.17482428 -0.0139985755 0.00795965 -0.20530657
0003c0 f5 6e 8d 3c ec 1e 72 3e a2 82 80 be 01 4b 4a be
       0.017264822 0.23644608 -0.25099665 -0.19755174
0003d0 3b 45 f9 3d 43 30 09 be 84 42 b9 bc 9a 21 22 3e
       0.12171408 -0.13397317 -0.022614725 0.1583313
0003e0 16 f8 82 3b 94 d0 1d 3e 44 81 d1 bc 55 03 be 3d
       0.0039968593 0.15411597 -0.025574334 0.09277979
0003f0 88 38 e3 3d e4 1e a3 3e e6 dd 82 3d 98 fb 50 3e
       0.11094767 0.31859505 0.0638998 0.20408475

dense1.0.bias f4 [16]
000000 8a 71 26 be 92 4a f4 3d 34 02 8c 3f 7e e8 68 bf
       -0.16254249 0.11928286 1.0938172 -0.90979755
000010 09 00 89 bd 89 10 25 bb 81 a5 d0 be 6c 0d 0d bf
       -0.0668946 -0.0025186858 -0.4075127 -0.55098605
000020 ba b2 2c 3d c9 0c a3 3e e2 18 41 3e 9d 72 45 3f
       0.042162634 0.31845692 0.18857148 0.7712801
000030 ae 85 3d bf d7 b6 89 be 61 a8 ab 3e 72 23 1c 3e
       -0.74032104 -0.26897308 0.335269 0.15247896

dense2.weight f4 [10, 16]
000000 dd 21 c9 be 00 4a 22 3f 2d a5 35 3e 37 75 ff be
       -0.39283648 0.63394165 0.17738791 -0.49894115
000010 f8 6c bb 3e d7 0c 7f bf 32 fa 59 3f db 9f 10 bf
       0.36606574 -0.9962897 0.8514739 -0.5649392
000020 98 6a 4d 3f 85 49 71 3e 7f e5 6c 3f fb 4c a2 bd
       0.80240774 0.23563202 0.92537683 -0.07924839
000030 6a 11 c4 3d 84 30 00 bf fe 0a 74 3e c6 de 5a be
       0.09573634 -0.5007403 0.23832318 -0.21374044
000040 e7 a2 03 3e 2b 1a a6 c0 8f d6 8e bd b9 d6 6b 3f
       0.12855111 -5.1906943 -0.069745176 0.92124516
000050 cb a8 d6 be 52 b2 04 3e ca 75 cc be fe 4b ec be
       -0.41925654 0.12958649 -0.39933616 -0.46151727
000060 c1 5d 62 3e 8e 1a 50 3e 09 11 74 3f 27 04 58 bf
       0.22106077 0.2032263 0.95338494 -0.84381336
000070 04 50 dd bd d1 b2 1c 3f 45 7b 31 3e e7 a7 34 be
       -0.108062774 0.6121035 0.1733218 -0.17642175
000080 26 52 33 be 85 bf 8c 3e 0a bf a6 bd 8a eb de be
       -0.17511806 0.27489868 -0.081419066 -0.43539077
000090 7c 92 ac 3e 6c d8 a3 3b db f4 38 bd e2 71 c4 3e
       0.3370551 0.0050001647 -0.045155387 0.38368136
0000a0 ae 3b 29 bf 8f 18 d7 3e c8 2a 87 3f 69 d1 17 3f
       -0.6610669 0.42010924 1.0559931 0.5930391
0000b0 0e 5c 22 be 74 a2 29 3e a7 63 22 3e 2a 6e d3 bc
       -0.15855429 0.16565877 0.15858327 -0.025809366
0000c0 a2 83 9c 3d 9a a4 6e be c5 b3 d1 3d 58 9e 2c 3e
       0.076422945 -0.23304978 0.102393664 0.16857278
0000d0 82 1b 16 3e b5 0a 4e 3e 49 05 02 3e 96 bb 17 3e
       0.14658931 0.20121272 0.12697329 0.14817652
0000e0 1c e5 2c 3c 74 e5 cc 3d c1 3a 1e 3f 5c d3 e3 be
       0.010552671 0.10004702 0.618084 -0.44497192
0000f0 6b 37 8e 3d 50 44 5e 3e 7f 73 09 bf 96 0a 58 3e
       0.06944164 0.21705747 -0.5369186 0.21097788
000100 6c ab 90 3e 26 50 07 3e c2 74 0e 3f b2 85 5e bf
       0.28255785 0.13214168 0.5564691 -0.8692275
000110 00 f3 af be 08 44 95 be 4f db fc bd 8e a0 96 3e
       -0.34365082 -0.29153466 -0.12346517 0.29419369
000120 94 91 88 be 95 c1 7e be 5e c8 24 3f d5 7d 14 3f
       -0.26673567 -0.24878533 0.64368236 0.58004504
000130 40 35 82 be 03 cb 79 bf 35 d3 38 3e 89 0a 6a 3e
       -0.25431252 -0.97575396 0.18049319 0.22855581
000140 47 50 a1 3e 56 9c bf be 8e fd 7f be 39 4c a3 3e
       0.3150656 -0.37423962 -0.24999067 0.3189409
000150 9c a0 5a bd a4 3c f9 3e 80 2f 1b 3e 78 41 48 3e
       -0.053375825 0.48679078 0.15154839 0.19556224
000160 4d e7 1e bc c7 46 3c be 2d 3c df c0 40 4c 14 bf
       -0.009698701 -0.18386374 -6.9760957 -0.5792885
000170 99 83 1c be 85 00 3b 3e ab 38 f4 be b2 95 20 bd
       -0.15284576 0.18261917 -0.47699484 -0.03920526
000180 8e a9 eb 3e 0b 02 85 be ae c0 07 bf 47 ce 8d 3e
       0.46027797 -0.2597812 -0.5302838 0.2769644
000190 d0 76 d4 3e a1 53 24 be 64 67 02 bf ca 14 ec bd
       0.41496897 -0.16047527 -0.5093901 -0.11527403
0001a0 28 1b 58 3e 04 22 46 be 64 9f 6a 3f c8 5d 10 be
       0.2110411 -0.19348913 0.9164946 -0.14098275
0001b0 6c 89 e0 bd cd 9e 51 3e 86 d2 f6 bd d5 65 fc 3e
       -0.10963711 0.20470734 -0.12051873 0.49296442
0001c0 23 7f 84 3d 4d 40 9d be dc 7c a9 be dd 71 28 bf
       0.06469562 -0.3071312 -0.33103073 -0.6579874
0001d0 90 34 0d bf fb 8a 55 3d d0 c4 6c 3d 44 c0 01 3f
       -0.5515833 0.052134495 0.057804883 0.50684
0001e0 2c c4 62 be 94 06 8f bd 7e 51 a9 c0 83 c8 15 3f
       -0.22145146 -0.069836766 -5.291198 0.5850908
0001f0 30 75 e8 3e 13 89 27 bf c4 43 37 3e c6 00 42 bf
       0.45401907 -0.65443534 0.17896944 -0.7578243
000200 00 96 d4 bd c9 ec 1d 3e 08 09 af 3e cb c0 95 be
       -0.10380173 0.15422358 0.34186578 -0.29248652
000210 ff 92 02 3c 75 27 0b 3f 4e 90 e8 be c6 e1 80 be
       0.007969617 0.5435708 -0.45422596 -0.2517225
000220 ee ce 0e bf 06 e3 08 bf 46 e6 67 c0 27 78 61 be
       -0.557845 -0.5347141 -3.6234298 -0.2201849
000230 ea 9c 59 3e ba ff 8e 3e c1 55 29 3e 0a 8e 8e 3e
       0.21251264 0.2792948 0.16536619 0.27842742
000240 cd 4f cb be 5f fc 04 c0 1b c1 85 3c b1 97 34 3f
       -0.3970932 -2.0779035 0.016327431 0.7054396
000250 c3 33 15 bf 20 27 ea 3e df 81 d1 be 55 e0 64 3e
       -0.5828211 0.45732975 -0.40919396 0.22351201
000260 a0 56 8c 3d d4 37 d1 be 5e b4 98 bf 87 6f 8f be
       0.0685246 -0.40862906 -1.1930044 -0.28014776
000270 cf 77 82 be 14 d6 03 3f 1f 21 1d 3e ac 17 b8 be
       -0.25482032 0.5149853 0.15344666 -0.3595556

dense2.bias f4 [10]
000000 23 52 72 3e 48 ac 8b bf 55 a1 c7 3e d9 5f 31 bd
       0.23664145 -1.0911951 0.38990274 -0.043304298
000010 80 94 f2 3d d4 8a 87 bd 68 a2 ed 3d dc bd c5 bf
       0.118447304 -0.06618276 0.11603242 -1.5448565
000020 c0 0a c0 3f c6 a7 a8 be
       1.5003281 -0.329405
