ResidualLoss/CNN-Train/CIFAR_20/false_epoch-1950.pt (torch, 28479 bytes, 10 tensors)

conv1.0.weight f4 [16, 3, 3, 3]
0	0xbb17f252	-0.0023185206
1	0xbd36fa8d	-0.044672538
2	0xbf511011	-0.8166514
3	0xbea6dcd4	-0.32590353
4	0xbef0068d	-0.46879998
5	0xbe934c9d	-0.2876939
6	0xbd5d4471	-0.05402035
7	0x3e9c1104	0.30481732
8	0xbf0970fe	-0.5368804
9	0xbf9e3cff	-1.2362365
10	0x3e68163d	0.22664733
11	0xbe9018f2	-0.28144032
12	0xbf389267	-0.7209839
13	0x3cce9410	0.025217086
14	0x3e4fa110	0.20276284
15	0xbd72280b	-0.05912022
16	0x3d595930	0.05306357
17	0xbf5448e3	-0.82923716
18	0xbfbb749f	-1.4644965
19	0x3eb62b86	0.3558008
20	0xbf17603d	-0.5913122
21	0xbf96fb23	-1.1795391
22	0xbf2304d9	-0.6367927
23	0xbc302c9d	-0.010752824
24	0xbeb4c289	-0.3530467
25	0x3e9fc45f	0.31204507
26	0xbe03540f	-0.12825035
27	0x3e0a7f2c	0.13525075
28	0x3e53e795	0.2069381
29	0xbe800927	-0.25006983
30	0x3e1693bf	0.14704798
31	0x3e1fcd68	0.156057
32	0xbe316874	-0.17325002
33	0x3eeb1fa5	0.4592258
34	0xbe60031c	-0.21876186
35	0xbf007201	-0.50173956
36	0x3d8c9987	0.068652205
37	0x3f304070	0.68848324
38	0x3f4f7c9b	0.8104951
39	0x3cd11bf9	0.025526034
40	0x3ef8f265	0.48622432
41	0x3ee7d068	0.4527619
42	0x3eabcac4	0.33553135
43	0x3eb94cf2	0.36191517
44	0xbf17f5d7	-0.59359497
45	0xbdd2fba9	-0.103019066
46	0x3e903a2e	0.28169388
47	0xbe7856bc	-0.24251837
48	0x3db1945b	0.08670875
49	0x3d29ddb9	0.041471217
50	0xbe9cf577	-0.30656025
51	0x3e8b69a9	0.2722905
52	0xbec02e5e	-0.37535375
53	0xbf903f3b	-1.1269296
54	0xbe695f86	-0.22790346
55	0xbf04e9c8	-0.5191922
56	0x3f2fea2a	0.6871668
57	0xbf133321	-0.5749989
58	0x3e63647d	0.22206302
59	0x3edc759e	0.43058485
60	0xbdeaa0cc	-0.11456451
61	0x3c2cdf9f	0.010551362
62	0x3e793927	0.24338208
63	0x3e2e0a1b	0.16996042
64	0xbf27b348	-0.65507936
65	0x3eb3b203	0.3509675
66	0xbeb678ed	-0.35639134
67	0xbe00055d	-0.12502046
68	0x3e47935f	0.19489811
69	0xbe5373cd	-0.20649643
70	0x3de5d274	0.112217814
71	0xbdcd14d6	-0.1001374
72	0xbea2f014	-0.3182379
73	0xbf0b45dc	-0.5440347
74	0x3e32b937	0.17453466
75	0xbf305598	-0.68880606
76	0x3e70fe6e	0.23534557
77	0x3f35a09c	0.70948195
78	0x3d641e33	0.055692863
79	0x3efaa014	0.48950255
80	0xbe5cbdff	-0.21556853
81	0xbeb6cbc5	-0.3570234
82	0x3e2d226a	0.16907659
83	0x3f184e2e	0.5949429
84	0xbf23e893	-0.64026755
85	0x3d134a15	0.035959322
86	0x3e1dcdad	0.1541049
87	0xbeffd654	-0.49968207
88	0x3e898be6	0.26864547
89	0x3e6b31ec	0.22968262
90	0xbea5b794	-0.32366621
91	0x3e968597	0.29398796
92	0x3d9140db	0.07092448
93	0xbf30c8bf	-0.69056314
94	0x3e9496bc	0.2902125
95	0xbd0d687b	-0.03452347
96	0xbe11e9be	-0.14249322
97	0x3eeb1f8d	0.4592251
98	0x3ce2873d	0.027652377
99	0xbdf9628b	-0.12176999
100	0x3e08d1c0	0.13361263
101	0x3f15e496	0.5855192
102	0xbf50d188	-0.8156972
103	0xbc5cf990	-0.013487235
104	0x3f1fea64	0.62467027
105	0xbebbcffd	-0.3668212
106	0xbe373713	-0.17892103
107	0x3e9caec4	0.30602086
108	0x3f694584	0.911217
109	0x3dbf7e57	0.09350269
110	0x3e226e0f	0.15862297
111	0xbe5e98e1	-0.21738006
112	0xbf4b545b	-0.7942559
113	0x3e3daadf	0.18522213
114	0x3e91b814	0.28460753
115	0xbedfdd9f	-0.4372377
116	0x3f49c2b2	0.78812706
117	0xbe52c100	-0.20581436
118	0xbf06350c	-0.52424693
119	0x3d72fa54	0.059320763
120	0xbf163dd9	-0.5868812
121	0xbf250ab5	-0.6446946
122	0xbecf03e4	-0.40432656
123	0xbdcfd12a	-0.10147317
124	0x3ce52714	0.027972735
125	0xbf2d3cd1	-0.67670923
126	0x3f185c63	0.5951597
127	0xbee9b30e	-0.4564442
128	0x3ec8756c	0.39152086
129	0xbf03bf0f	-0.5146341
130	0xbf80eb6b	-1.0071844
131	0xbebb4eab	-0.36583456
132	0xbe96b4b3	-0.29434738
133	0xbe8c2674	-0.27373087
134	0x3e061307	0.13093196
135	0xbef2e8de	-0.4744329
136	0xbf30f848	-0.6912885
137	0xbe5534e9	-0.20820965
138	0xbb5a1897	-0.0033278817
139	0xbf45d191	-0.772729
140	0xbebe3f26	-0.37157553
141	0x3e35ae72	0.17742327
142	0x3ef14806	0.47125262
143	0x3e437549	0.1908771
144	0xbee19a69	-0.44063118
145	0xbe5125f9	-0.20424642
146	0x3e1a10a1	0.15045406
147	0xbe30b7fe	-0.17257687
148	0xbeacd42f	-0.33755633
149	0xbec49409	-0.38394192
150	0x3eaf9803	0.34295663
151	0x3f055178	0.52077436
152	0xbd7719b3	-0.060327243
153	0x3e353240	0.1769495
154	0xbe1e3066	-0.1544815
155	0x3e398cb7	0.18120085
156	0x3df0bc0c	0.11754617
157	0x3da1e644	0.07905248
158	0x3f10ce9a	0.5656525
159	0x3ef17403	0.47158822
160	0x3f3b7425	0.732241
161	0x3e7e3643	0.24825387
162	0x3e22808d	0.1586935
163	0x3d224498	0.039616197
164	0x3e35be0d	0.1774828
165	0xbee7273b	-0.45147118
166	0xbf9e8b25	-1.2386214
167	0xbf843592	-1.0328848
168	0xbcbdbb68	-0.023160651
169	0xbf21c631	-0.6319304
170	0xbf48aeda	-0.783918
171	0x3e88228d	0.2658886
172	0x3e8ce576	0.27518815
173	0x3f14562b	0.5794398
174	0xbecdc7c7	-0.4019148
175	0xbf2af277	-0.6677622
176	0xbf12348c	-0.5711143
177	0xbe742515	-0.2384227
178	0xbd7d1426	-0.061786793
179	0xbe56a81c	-0.20962566
180	0xbec9a657	-0.3938472
181	0x3f27387b	0.6532056
182	0x3eafde6b	0.3434938
183	0xbe6fdbdb	-0.23423712
184	0xbed3516a	-0.41273052
185	0x3e0533ec	0.13008088
186	0x3e506590	0.20351243
187	0x3e4a15ca	0.19734874
188	0xbea61745	-0.32439628
189	0x3f316e13	0.69308585
190	0x3f686d63	0.9079191
191	0x3f455b2a	0.7709223
192	0xbe96de83	-0.29466638
193	0xbe703468	-0.23457491
194	0x3ed753e9	0.42056206
195	0xbd9eac47	-0.07747703
196	0x3dc1eef0	0.09469402
197	0xbd71f1d9	-0.059068535
198	0xbf1f142e	-0.62140167
199	0xbe851ea3	-0.25999936
200	0x3e0f70f1	0.14007927
201	0xbedfcd26	-0.43711203
202	0xbe970389	-0.29494885
203	0x3e4a1c86	0.19737443
204	0xbeedc431	-0.46438745
205	0x3e893e34	0.2680527
206	0x3f11365a	0.5672356
207	0xbf592e1d	-0.8483599
208	0xbf43355e	-0.76253307
209	0x3ac28051	0.0014839267
210	0x3d710217	0.058839884
211	0xbf3bd8ec	-0.7337787
212	0x3e2dd5d4	0.169761
213	0xbecfac58	-0.40561175
214	0xbd45d64d	-0.048300076
215	0x3e1db2d7	0.15400253
216	0x3dfcf99c	0.12352297
217	0x3f23173d	0.63707334
218	0x39634c8b	0.00021676921
219	0xbe61e2be	-0.22059152
220	0xbcc8a4ab	-0.024492582
221	0xbde82e65	-0.11336974
222	0xbedf5377	-0.43618366
223	0x3eac2049	0.33618382
224	0xbe585e41	-0.21129705
225	0xbbbc1146	-0.005739364
226	0x3e422843	0.18960671
227	0xbea3eed1	-0.3201814
228	0x3db7e308	0.0897885
229	0xbea2e16c	-0.31812608
230	0xbf26062f	-0.64853185
231	0xbeb9800e	-0.3623051
232	0x3dfd4cac	0.123681396
233	0xbf48006b	-0.7812564
234	0xbe135e3c	-0.14391416
235	0x3e96d8b0	0.29462194
236	0x3e92b898	0.2865646
237	0x3d3b84ed	0.045781065
238	0xbcba6a83	-0.022755867
239	0xbdd7d365	-0.10538367
240	0xbeb1056d	-0.34574452
241	0x3da06640	0.07832003
242	0xbf11fc4e	-0.5702561
243	0xbdaf0273	-0.08545389
244	0xbe30da9b	-0.17270891
245	0x3e8e5557	0.27799484
246	0xbe11463b	-0.14186947
247	0xbee5b38e	-0.44863552
248	0x3eedfc52	0.46481568
249	0x3e4cdd2c	0.20006245
250	0xbc0ff247	-0.008785791
251	0xbead28c8	-0.33820176
252	0xbdaa6849	-0.08320672
253	0x3ec4bbf7	0.38424656
254	0x3f256f44	0.646229
255	0x3e28c84c	0.16482657

conv1.0.bias f4 [16]
0	0x3eb26a89	0.34846905
1	0x3ef59c8f	0.47971007
2	0x3e8fa86b	0.2805818
3	0xbd3fb2a9	-0.046801243
4	0x3f6428df	0.89124864
5	0x3ee80a03	0.45320138
6	0xbeb08225	-0.34474292
7	0x3efc989b	0.4933518
8	0xbd26f2c9	-0.04075888
9	0x3f8450c7	1.0337151
10	0x3f472214	0.77786374
11	0xbf0ade25	-0.54245216
12	0x3efde00f	0.49585006
13	0xbde798f5	-0.11308471
14	0x3ecc3a29	0.39888123
15	0xbea8f826	-0.33001822

conv2.0.weight f4 [16, 16, 3, 3]
0	0x3c87d27f	0.016579865
1	0x3cbf8a0f	0.023381261
2	0x3cda04ad	0.026613558
3	0xbd7901c9	-0.060792718
4	0xbd8a534d	-0.067541696
5	0xbe26da3e	-0.1629419
6	0x3e2237e8	0.15841639
7	0xbc741489	-0.014897474
8	0xbd907351	-0.07053245
9	0x3e8f9b06	0.2804796
10	0xbd33699e	-0.043801896
11	0x3de35691	0.111004956
12	0xbdf1024f	-0.117680185
13	0x3e619b69	0.2203194
14	0xbdddee51	-0.10836471
15	0x3e82ff2d	0.2558531
16	0xbe850187	-0.25977728
17	0xbe1556f9	-0.14583959
18	0x3e19153b	0.14949505
19	0x3e10afe8	0.14129603
20	0x3b8b7228	0.004255552
21	0xbc69346f	-0.014233693
22	0xbddfa342	-0.10919811
23	0x3d9d66d7	0.07685631
24	0x3d6205f3	0.055181455
25	0x3dba0d76	0.09084599
26	0xbee6ba7c	-0.4506415
27	0xbd5961b9	-0.05307171
28	0x3d86329e	0.06552623
29	0xbe1eecb7	-0.15519987
30	0xbe71f3a8	-0.23628104
31	0xbe8d92bb	-0.2765101
32	0xbe439435	-0.19099505
33	0x3dc1ea28	0.0946849
34	0xbe9e7b9f	-0.3095369
35	0x3e728fff	0.23687743
36	0x3dbafebe	0.091306195
37	0xbd5e2d0e	-0.054242186
38	0xbdc3d114	-0.09561363
39	0x3e0bdb1e	0.13657805
40	0xbd6f2f2f	-0.058394607
41	0xbd50c0e2	-0.050965197
42	0x3e0978c9	0.13424982
43	0x3be38337	0.0069431323
44	0x3de61731	0.11234892
45	0xbe15a907	-0.1461526
46	0x3c91b92f	0.017788498
47	0xbe893ffe	-0.26806635
48	0x3d01e768	0.031714827
49	0x3eb2850f	0.3486714
50	0x3ec44f2c	0.38341653
51	0x3eb4a0af	0.35278842
52	0x3f193ff8	0.59863234
53	0x3e84c518	0.2593162
54	0x3df5d035	0.12002603
55	0x3e14788c	0.1449911
56	0x3d538f5c	0.05165039
57	0xbe2b4b7e	-0.16728017
58	0xbbb5550f	-0.0055338214
59	0xbc95bcfa	-0.018278588
60	0x3e2ec7ef	0.17068456
61	0xbcb4df78	-0.022079214
62	0xbd9d49dc	-0.07680103
63	0x3cc4ff8d	0.024047637
64	0xbd978a1a	-0.07399388
65	0x3e8bc9bc	0.2730235
66	0x3eb96b60	0.36214733
67	0x3eb50478	0.35354972
68	0xbed42263	-0.41432485
69	0x3bbe3724	0.005804913
70	0xbc05a200	-0.0081563
71	0xbe6bf789	-0.23043646
72	0xbe3aa73e	-0.1822786
73	0xbe1b44db	-0.15162985
74	0x3d3e5ca7	0.04647508
75	0xbd3389e5	-0.04383268
76	0xbdf968bf	-0.12178182
77	0xbed6ea1f	-0.41975495
78	0xbe89edf8	-0.26939368
79	0xbeb046e5	-0.34429088
80	0x3e4eefc4	0.20208651
81	0x3ec5604b	0.38550028
82	0x3e2ed351	0.17072798
83	0xbe252f50	-0.1613133
84	0xbe860d1c	-0.26181877
85	0x3e3304e8	0.1748234
86	0xbdb0db15	-0.086355366
87	0x3e54402b	0.20727603
88	0xbeb23808	-0.34808373
89	0x3e83f086	0.25769442
90	0xbdcbed24	-0.0995734
91	0x3dd06813	0.101761006
92	0x3b8b5f8a	0.0042533325
93	0x3e300479	0.17189206
94	0xbd869cea	-0.06572898
95	0xbe0321b6	-0.12805828
96	0x3da578e7	0.08079701
97	0xbe2ec8fb	-0.17068855
98	0xbe36fd41	-0.17870046
99	0x3e21285a	0.15738049
100	0xbd8e1783	-0.06938078
101	0xbd2e3b24	-0.04253687
102	0x3bef9252	0.007311144
103	0x3e1d3596	0.15352473
104	0xbe270165	-0.16309126
105	0xbe3fc30c	-0.18726748
106	0x3e1ac4c6	0.15114126
107	0x3d501b25	0.050807137
108	0x3e897a3f	0.2685108
109	0xbe2765f4	-0.16347486
110	0xbedcec11	-0.43148854
111	0x3e06e54d	0.13173409
112	0x3df4e98e	0.119586095
113	0xbd00750a	-0.031361617
114	0xbd761dc6	-0.060086988
115	0xbe8552db	-0.26039776
116	0xbc5fa4f9	-0.013650172
117	0xbe2bff37	-0.16796575
118	0xbdc22a77	-0.09480756
119	0xbe27062d	-0.1631095
120	0x3e67e4a9	0.2264582
121	0xbdaa9de8	-0.083308995
122	0xbf2d4c6f	-0.67694753
123	0x3da3fbae	0.080069885
124	0xbd43d49c	-0.047810182
125	0xbe806322	-0.25075632
126	0x3e96887f	0.29401013
127	0xbb8c5072	-0.0042820508
128	0x3ddcec0f	0.10787212
129	0xbdf714ca	-0.12064512
130	0x3d737279	0.05943534
131	0x3e237097	0.15960918
132	0x3dfef86e	0.12449728
133	0xbd2bd1cc	-0.041948125
134	0xbd418a79	-0.0472512
135	0xbc836738	-0.01604043
136	0xbe687905	-0.22702415
137	0xbe24e0d6	-0.16101393
138	0x3e87ef8f	0.26549956
139	0xbe3e8825	-0.18606623
140	0xbdfada22	-0.12248637
141	0x3dffa359	0.12482328
142	0xbda1b011	-0.0789491
143	0x3d0c652a	0.034276165
144	0x3e40bc64	0.18821865
145	0xbd99a70c	-0.07502565
146	0x3e20ff3c	0.15722364
147	0x3cd5433e	0.02603304
148	0xbede2e4b	-0.43394694
149	0x3d896cec	0.06710228
150	0xbe748faa	-0.23882928
151	0x3ed80dae	0.42197937
152	0xbe8b236c	-0.27175462
153	0x3d866c34	0.06563607
154	0xbdcde4fe	-0.100534424
155	0x3d8a424a	0.06750925
156	0x3e24188f	0.16024993
157	0x3e79e201	0.2440262
158	0x3e480f47	0.19537078
159	0xbb4ffd71	-0.0031736756
160	0xbd3d9c4f	-0.046291646
161	0xbcd0d7c6	-0.025493514
162	0xbe25fd25	-0.16209848
163	0xbe3783d7	-0.17921387
164	0x3d1d2d7d	0.03837346
165	0x3e07e348	0.13270295
166	0xbed385e5	-0.4131309
167	0x3e36ed34	0.17863923
168	0xbe18e611	-0.14931513
169	0xbf04fb2d	-0.51945764
170	0x3ef3ba26	0.47602957
171	0x3dad0ad2	0.084493294
172	0xbdc9ecb0	-0.09859598
173	0xbd006fb2	-0.03135652
174	0x3de6987c	0.11259553
175	0x3efd5102	0.49475867
176	0x3d778829	0.060432587
177	0x3d97a7de	0.07405065
178	0x3e084b5f	0.13310002
179	0xbfa2e4f6	-1.2726123
180	0xbde157e9	-0.11003096
181	0x3e7e5f96	0.2484115
182	0xbe7cedc0	-0.2470007
183	0x3d0bd38b	0.03413729
184	0xbd7bc98d	-0.06147151
185	0xbe42b5fe	-0.19014737
186	0xbe4c4d56	-0.19951376
187	0x3e4b3c37	0.19847189
188	0x3d6b31a2	0.05742038
189	0xbee0d0ff	-0.4390945
190	0x3e33b5a0	0.17549753
191	0x3dfab6d8	0.12241906
192	0x3e30fb45	0.17283352
193	0x3e9a8eb6	0.30187005
194	0xbe0e9122	-0.13922551
195	0xbec88190	-0.39161348
196	0xbd3bc0a9	-0.045838032
197	0xbe11eb63	-0.14249949
198	0xbe1c9b63	-0.1529365
199	0xbe81707c	-0.2528113
200	0xbbea5c63	-0.0071521266
201	0xbd26672e	-0.040625744
202	0x3ca1025b	0.019654443
203	0x3d853354	0.06503931
204	0xbf3c8383	-0.7363817
205	0xbea9b8c0	-0.33148766
206	0x3de60148	0.11230713
207	0x3e8e859a	0.27836305
208	0x3d046ca8	0.032330185
209	0x3e12edf4	0.14348584
210	0xbe5b0f38	-0.21392524
211	0x3e63c6cd	0.22243805
212	0x3e1fb6ee	0.15597126
213	0xbd727d45	-0.059201498
214	0xbe175038	-0.14776695
215	0xbd828525	-0.063730516
216	0xbe93fdab	-0.2890447
217	0x3e93fc21	0.28903297
218	0x3ec7ffa6	0.39062232
219	0xbc6ad4a1	-0.014332921
220	0xbe09804d	-0.13427849
221	0xbe8bf896	-0.27338094
222	0x3ccf46b1	0.025302263
223	0xbd30511a	-0.043046094
224	0xbe59d7c6	-0.21273717
225	0x3c119510	0.008885637
226	0xbe2a73c5	-0.16645725
227	0x3f04c120	0.51857185
228	0xbcc20547	-0.023684157
229	0x3e0fa240	0.14026737
230	0x3f0492a7	0.51786274
231	0x3cb0785f	0.021541772
232	0x3f13ff3a	0.5781132
233	0xbec66c3b	-0.38754448
234	0x3e8dc6ed	0.2769083
235	0xbd9e92ec	-0.07742867
236	0x3e25c0f0	0.16186881
237	0xbeafe579	-0.3435476
238	0xbe42e81a	-0.19033852
239	0xbd298bde	-0.041393153
240	0x3d252f00	0.040328026
241	0x3e1e45cf	0.15456317
242	0x3d2dddc8	0.042447835
243	0xbd61b2c4	-0.055102125
244	0x3e4dd139	0.20099343
245	0xbb128744	-0.0022358457
246	0xbdbbbb25	-0.09166554
247	0x3e5491dc	0.20758766
248	0xbe0bd912	-0.13657025
249	0xbbc14f23	-0.0058993264
250	0xbbc6e23d	-0.00606945
251	0x3e170dfe	0.14751431
252	0xbdaaf6b1	-0.08347834
253	0x3c9a2120	0.018814623
254	0x3ce284ff	0.027651308
255	0x3e4237b2	0.18966559

conv2.0.bias f4 [16]
0	0x3e0d6a99	0.13810195
1	0x3e89cfea	0.26916438
2	0xbf024445	-0.5088542
3	0x3dc7a944	0.09749082
4	0x3f58c360	0.8467312
5	0x3eecc728	0.46245694
6	0x3ee42792	0.4456144
7	0x3e32eeb7	0.17473875
8	0xbecf02b1	-0.4043174
9	0x3e3a5ee3	0.18200259
10	0x3ee79549	0.45231083
11	0xbf2ba2aa	-0.6704508
12	0xbd99dad8	-0.07512444
13	0xbd36cfb5	-0.04463168
14	0x3eaf7c13	0.3427435
15	0x3de30a33	0.1108593

conv3.0.weight f4 [8, 16, 3, 3]
0	0xbd705ae4	-0.05868043
1	0x3c17bd23	0.009261402
2	0xbd4747d0	-0.04865247
3	0x3c246b51	0.010035352
4	0xbe37941c	-0.17927593
5	0x3e037141	0.12836172
6	0xbda3564a	-0.07975443
7	0xbe3ecf4d	-0.18633766
8	0xbdb98d49	-0.09060151
9	0x3e5eed12	0.21770123
10	0xbe7389a0	-0.23782969
11	0x3eb46e3d	0.35240355
12	0x3e982de6	0.29722518
13	0x3e5480a9	0.20752205
14	0xbe66ce7d	-0.22539707
15	0x3e019264	0.126535
16	0xbda34aba	-0.07973237
17	0xbd46e0c4	-0.048554197
18	0x3e8f5aeb	0.27999052
19	0x3e4e6d1e	0.20158812
20	0xbcdccc2f	-0.026952831
21	0xbd8fbe1c	-0.07018682
22	0x3d24aa96	0.040201746
23	0x3d33379d	0.04375421
24	0xbdab5d7e	-0.083674416
25	0x3e7bd1f6	0.24591812
26	0xbd9f9691	-0.0779239
27	0x3d06d7c2	0.032920606
28	0x3d434f19	0.047682855
29	0x3d8c6c45	0.06856588
30	0x3e531240	0.2061243
31	0x3e3c3a10	0.18381524
32	0xbd6ecf6f	-0.058303293
33	0x3e142b05	0.14469536
34	0x3cd525a1	0.02601892
35	0x3db5d103	0.088777564
36	0x3e654f5f	0.22393559
37	0x3e751169	0.23932423
38	0xbe75a067	-0.2398697
39	0x3dae2fef	0.08505236
40	0x3d9792a0	0.074010134
41	0xbe008669	-0.12551273
42	0x3dcf4ee3	0.10122468
43	0x3d5ac046	0.053406022
44	0x3da32b0f	0.07967197
45	0xbe90314a	-0.28162605
46	0xbd092910	-0.033486426
47	0x3ca04747	0.019565238
48	0xbe725f2c	-0.23669118
49	0x3d067eb2	0.03283567
50	0x3d208874	0.03919263
51	0x3ce2176c	0.027599059
52	0x3dac0b70	0.08400619
53	0xbee1e258	-0.44118
54	0x3dbcdeac	0.09222159
55	0x3b5a68e4	0.003332668
56	0xb9256ca4	-0.00015776098
57	0x3e2f971b	0.17147486
58	0x3eb923c0	0.36160088
59	0xbdb6ce62	-0.08926083
60	0xbc0cd423	-0.008595499
61	0x3ec4098a	0.38288528
62	0x3e0d06ba	0.13772097
63	0xbee6b304	-0.45058453
64	0xbdb51d20	-0.08843446
65	0xbdefd528	-0.11710578
66	0xbcb4c90c	-0.022068523
67	0x3e1ba27b	0.151987
68	0xbb4ab50a	-0.0030930662
69	0x3e806de8	0.25083852
70	0xbd7401e8	-0.05957213
71	0xbe9e3168	-0.3089707
72	0x3cfe1066	0.031013679
73	0x3db39726	0.08769064
74	0xbe0214a5	-0.12703188
75	0x3d843fc2	0.06457473
76	0xbd962756	-0.073317215
77	0x3e599a76	0.21250328
78	0xbe56cb4c	-0.20975989
79	0x3d1a17ef	0.03762048
80	0x3e665d7a	0.22496596
81	0xbe889968	-0.2667954
82	0xbe4e784c	-0.20163077
83	0xbe9641d5	-0.293471
84	0x3e1dca03	0.15409093
85	0xbec588b0	-0.38580847
86	0x3e011bb9	0.12608232
87	0xbdde5bc0	-0.10857344
88	0xbd763893	-0.060112547
89	0x3df8080c	0.1211091
90	0x3e361bde	0.17784068
91	0xbe7e115a	-0.24811307
92	0x3da50bbf	0.08058881
93	0xbe722c3b	-0.23649685
94	0xbebea0a2	-0.37231928
95	0xbcfd0047	-0.030883921
96	0xbdd37dd8	-0.10326737
97	0x3e6f1daf	0.23351167
98	0x3e791e4e	0.24327967
99	0xbe0a7321	-0.1352048
100	0xbd181dfe	-0.037137978
101	0xbd980306	-0.07422452
102	0xbe6a3152	-0.22870377
103	0x3ec17a49	0.3778861
104	0x3d0859db	0.033288818
105	0x3e148bca	0.1450645
106	0x3cfefcbc	0.031126373
107	0x3d465faf	0.048431095
108	0x3db346d4	0.08753744
109	0xbba45071	-0.005014472
110	0xbda056c7	-0.078290515
111	0x3debdf7f	0.11517238
112	0xbe269d51	-0.16270949
113	0x3eddf030	0.4334731
114	0xbde0e93d	-0.10981987
115	0xbe867cdd	-0.26267138
116	0x3e96e500	0.29471588
117	0xbddb9190	-0.10721123
118	0x3eb429ea	0.35188228
119	0xbdd6ee9b	-0.10494729
120	0x3e7fc442	0.2497721
121	0xbe8a6f38	-0.27037978
122	0xbe3a2faf	-0.18182252
123	0xbe59aba2	-0.21256879
124	0xbe2fc4c6	-0.17164907
125	0x3e4b866c	0.19875497
126	0xbe5af1d7	-0.21381317
127	0x3ce5ca3d	0.028050536
128	0xbe50e211	-0.20398737
129	0xbea5797a	-0.32319242
130	0x3d39748a	0.045277156
131	0x3e19e7d3	0.1502984
132	0x3dad9d0a	0.084772184
133	0xbeca6609	-0.39530972
134	0x3e3372bb	0.17524235
135	0xbe97e8ae	-0.29669708
136	0xbd844d40	-0.06460047
137	0x3e6dba87	0.23215686
138	0x3e9021bc	0.28150737
139	0xbe5379d1	-0.20651938
140	0xbdb81338	-0.08988041
141	0x3ee5a185	0.44849792
142	0xbe366ea8	-0.1781565
143	0x3dac098e	0.0840026
144	0xbe1510ae	-0.14557144
145	0x3ef48278	0.4775579
146	0xbe8569a8	-0.26057172
147	0x3ee7814d	0.45215836
148	0x3d59ed54	0.05320485
149	0x3cf4c16f	0.029877393
150	0x3d628e66	0.055311583
151	0x3dcc56b8	0.09977478
152	0x3e4a144f	0.1973431
153	0x3e5249a9	0.20535912
154	0xbf0b6acc	-0.54459834
155	0xbdeb6d5c	-0.11495468
156	0x3c1cd78e	0.009572877
157	0xbd0cdbe2	-0.034389384
158	0x3c9e4b1e	0.019322928
159	0x3e0f4d32	0.13994291
160	0x3c2f43cb	0.010697315
161	0xbeff3cf9	-0.49851206
162	0xbde42b8c	-0.111411184
163	0x3da2ecb1	0.079553016
164	0x3de91aff	0.11382102
165	0xbde4717b	-0.11154457
166	0xbdd1c843	-0.10243275
167	0x3ea99ae6	0.3312599
168	0xbe2e6fe5	-0.17034872
169	0x3e085d24	0.1331678
170	0x3e80d7e6	0.25164717
171	0x3e0df4e3	0.13862948
172	0x3f196bfa	0.59930384
173	0x3d95a43e	0.07306717
174	0x3da87804	0.08226016
175	0x3eaf9f1d	0.3430108
176	0xbd901b39	-0.07036442
177	0xbd4894f2	-0.04897017
178	0x3ccf1061	0.025276365
179	0xbd623e1a	-0.055235006
180	0xbe2505c3	-0.16115479
181	0x3e28637f	0.16444205
182	0xbe83d3c3	-0.257475
183	0x3e3aa99e	0.18228766
184	0xbe2d9a86	-0.16953477
185	0xbe9b7395	-0.3036162
186	0x3db80624	0.08985546
187	0xbbe01188	-0.0068380274
188	0xbe172cf3	-0.1476324
189	0x3e7b2fea	0.24529997
190	0xbd752bc9	-0.05985621
191	0x3d39bab3	0.045344066
192	0xbe4596bc	-0.19295782
193	0x3e25e9d3	0.16202478
194	0x3e110d7e	0.14165303
195	0xbec68b17	-0.38777992
196	0x3e1a1fce	0.15051195
197	0xbe4ba7ea	-0.19888273
198	0x3e88d4d5	0.26724878
199	0xbd8b69ba	-0.06807275
200	0xbde9b0e4	-0.11410692
201	0xbe14c2be	-0.14527413
202	0xbd51d669	-0.051229868
203	0xbe04d848	-0.1297313
204	0xbc9d92d6	-0.019235056
205	0xbeb2495b	-0.3482159
206	0xbe23c3b6	-0.15992627
207	0xbe657165	-0.22406538
208	0xbe4dd0b0	-0.20099139
209	0xbd9d0b9f	-0.07668232
210	0xbda8bd6e	-0.08239256
211	0xbea07d70	-0.313457
212	0xbe06b4ff	-0.13154982
213	0xbccd8146	-0.025086056
214	0xbceea05c	-0.0291292
215	0x3cc0673e	0.02348673
216	0x3ddd7def	0.108150356
217	0xbdc969a0	-0.098345995
218	0xbd3b21c4	-0.0456865
219	0x3ea8ddd2	0.32981735
220	0xbe481d7e	-0.195425
221	0x3dcbcbce	0.09950982
222	0x3d9b0b1e	0.0757048
223	0x3e8bc9bd	0.27302352
224	0x3dfc79a8	0.123278916
225	0x3eaef28f	0.34169433
226	0xbdec6298	-0.11542243
227	0xbe0fde8d	-0.1404974
228	0x3d26167b	0.040548783
229	0xbe963b76	-0.2934224
230	0xbd155bd0	-0.036464512
231	0x3dae94b9	0.0852446
232	0x3ec73611	0.38908437
233	0x3e949099	0.2901657
234	0x3db3b240	0.08774233
235	0x3e112ebc	0.14177984
236	0xbe7d6e32	-0.24749067
237	0x3cf212e3	0.029550022
238	0xbdf05633	-0.11735191
239	0xbe626587	-0.22109042
240	0x3e5e817d	0.21729083
241	0x3b858610	0.0040748194
242	0xbe4affdb	-0.19824164
243	0xbe314310	-0.17310739
244	0xbd4b19b9	-0.049585078
245	0x3d6d460b	0.057928126
246	0x3e661cff	0.22471999
247	0x3e3d66ba	0.18496218
248	0xbd86de85	-0.06585411
249	0xbd5f85d6	-0.054570995
250	0x3e551acd	0.20811005
251	0xbc7c62fd	-0.01540446
252	0x3ea49f17	0.32152626
253	0xbe4f9c0a	-0.20274368
254	0x3dd10baa	0.10207303
255	0xbdf1da07	-0.118091635

conv3.0.bias f4 [8]
0	0xbe070291	-0.13184573
1	0xbe8fdb70	-0.28097105
2	0x3ef732ba	0.4828089
3	0x3f1e31fc	0.6179502
4	0xbed3d3eb	-0.41372618
5	0xbe6123c5	-0.21986301
6	0xbf4254df	-0.75910753
7	0x3ee2e0ab	0.44312033

dense1.0.weight f4 [16, 128]
0	0xbe28ee20	-0.16497087
1	0x3cb0c538	0.021578416
2	0x3e412e5b	0.1886534
3	0x3cf3a91f	0.02974373
4	0x3d132223	0.035921227
5	0x3d8ad1b3	0.06778278
6	0xbe0e55d5	-0.1389993
7	0x3dcfd521	0.10148073
8	0xbd760855	-0.06006654
9	0xbcc0d534	-0.023539163
10	0xbe81ed92	-0.25376564
11	0xbd9d7128	-0.076875985
12	0x3c72039a	0.0147713665
13	0xbd2cef2c	-0.04222028
14	0xbc2683ce	-0.010163261
15	0x3e4eac0d	0.2018282
16	0x3de392b1	0.111119635
17	0xbd96280b	-0.07331856
18	0x3dbcbbd7	0.09215515
19	0x3d0c2e40	0.034223795
20	0x3cd604fe	0.026125427
21	0xbca3964a	-0.019969124
22	0xbc25d91f	-0.0101225665
23	0xbd7a60e8	-0.061127573
24	0xbca544fa	-0.020174492
25	0x3e34ce81	0.176569
26	0x3daf8c43	0.08571675
27	0x3e862462	0.26199633
28	0xbd9c0dab	-0.076197945
29	0x3c716868	0.014734365
30	0x3e4e0802	0.20120242
31	0xbd82ad5f	-0.06380724
32	0xbe1a71e9	-0.15082516
33	0x3d80c981	0.06288434
34	0x3e4b6e94	0.19866401
35	0xbc3cbb23	-0.011519226
36	0x3cecfdeb	0.028929671
37	0xbc03b6bc	-0.008039173
38	0x3b218d98	0.0024651047
39	0xbc6ab6e3	-0.01432583
40	0xbd4b0e9b	-0.049574476
41	0x3e202b6a	0.15641561
42	0x3e486373	0.19569187
43	0xbdd85ebb	-0.105649434
44	0xbbbecacc	-0.005822515
45	0x3df308d9	0.11866922
46	0x3db23ae0	0.08702636
47	0xbe506600	-0.2035141
48	0x3cdad1c9	0.026711361
49	0xbe903b50	-0.28170252
50	0xbda9ad54	-0.08285013
51	0x3dca3e5d	0.09875176
52	0x3e889c8a	0.2668193
53	0x3e79540b	0.24348466
54	0xbe88a481	-0.26688007
55	0x3e8e1944	0.2775365
56	0x3d4b6a6e	0.049662046
57	0xbd712ade	-0.058878772
58	0x3e07b10f	0.13251136
59	0xbe2cb578	-0.168661
60	0x3e162382	0.14661983
61	0xbdbcdb06	-0.09221463
62	0xbd9455db	-0.07242938
63	0x3e20ec16	0.1571506
64	0x3d55ab89	0.05216554
65	0x3e7b9667	0.24569093
66	0xbd1462ee	-0.03622716
67	0x3d563646	0.052297853
68	0x3e2c2de9	0.16814388
69	0xbe6be05c	-0.23034805
70	0x3e09836c	0.1342904
71	0x3cfc043e	0.030763742
72	0x3d8af4b0	0.06784952
73	0xbe1cd9bc	-0.15317434
74	0x3d0d6c49	0.034527097
75	0x3d32653b	0.043553572
76	0xbaa43763	-0.0012528714
77	0x3d8f2436	0.069893286
78	0x3e8299aa	0.2550786
79	0xbd942180	-0.07232952
80	0x3caaaeaa	0.02083524
81	0x3de6dc5d	0.112725
82	0xbdcc0264	-0.099613935
83	0x3de71800	0.112838745
84	0xbe61d63a	-0.22054377
85	0x3df657b0	0.12028444
86	0x3de71d55	0.112848915
87	0xbd7f8b32	-0.062388606
88	0x3e0453ed	0.1292264
89	0xbd97ef38	-0.07418674
90	0x3db62af9	0.08894915
91	0xbdf186f1	-0.11793316
92	0xbd1cfc84	-0.038326755
93	0xbce4e214	-0.027939834
94	0x3d76ff1e	0.060301892
95	0x3d0a8d99	0.033826444
96	0x3d8eef22	0.06979205
97	0x3dcf4a71	0.101216204
98	0x3e1eb9ad	0.15500517
99	0xbe1adb8e	-0.15122816
100	0x3dbb84c6	0.09156184
101	0x3d027717	0.031851854
102	0x3ece4c52	0.40292603
103	0xbd5ac053	-0.05340607
104	0x3d034039	0.03204367
105	0xbc8e889d	-0.017399127
106	0xbe199004	-0.14996344
107	0x3ea889ad	0.32917538
108	0xbde827ee	-0.11335741
109	0xbc5bfdda	-0.013427222
110	0x3d23c7fd	0.039985646
111	0x3d51ea1e	0.051248662
112	0xbdf8bcfe	-0.121454224
113	0x3d38671e	0.045020215
114	0x3dbf69dd	0.09346364
115	0xbdf263ad	-0.11835418
116	0xbea630d5	-0.3245913
117	0xbe93ff61	-0.28905776
118	0xbeb3d663	-0.35124502
119	0xbe831083	-0.25598535
120	0x3e11a190	0.14221787
121	0xbf08d27d	-0.5344618
122	0x3df8d099	0.12149162
123	0x3bf26afa	0.0073980065
124	0x3ce40a77	0.027837021
125	0xbdfa8c29	-0.12233765
126	0x3e493c78	0.19651973
127	0xbed0a2c1	-0.4074917
128	0xbe11306f	-0.14178632
129	0xbe2814d1	-0.16414191
130	0x3d48680a	0.048927344
131	0xbe154f5a	-0.14581051
132	0xbd9c4d36	-0.07631914
133	0x3d0f0ff5	0.034927327
134	0x3e53015b	0.20605986
135	0xbe16b742	-0.14718345
136	0x3affb2c5	0.0019508234
137	0x3db43ff5	0.08801261
138	0x3b1bf964	0.0023799771
139	0xbe46e2b0	-0.19422412
140	0x3dad7763	0.08470037
141	0xbd909218	-0.07059115
142	0x3dbfb7a5	0.09361199
143	0x3dae3889	0.08506877
144	0x3e6c70b6	0.23089871
145	0xbd0d800e	-0.03454595
146	0xbdb17a9d	-0.08665965
147	0x3e2302ab	0.15918986
148	0xbd187154	-0.037217453
149	0x3e08e21b	0.13367502
150	0xbdba6356	-0.09100978
151	0xbce32596	-0.027727883
152	0x3d2b68e5	0.041848082
153	0xbc42e0a8	-0.011894383
154	0xbd1fc2ce	-0.03900414
155	0x3df4a331	0.11945189
156	0xbd94543c	-0.07242629
157	0x3d3734e3	0.04472817
158	0xbbe04451	-0.0068440815
159	0x3de116cd	0.10990677
160	0x3ccb7861	0.024837675
161	0x3d3aebdb	0.045635086
162	0xbe108e81	-0.14116861
163	0xbde80e39	-0.11330838
164	0xbda7f6cb	-0.08201369
165	0xbe042e05	-0.1290818
166	0xbd098909	-0.033577953
167	0xbe3c18ce	-0.18368837
168	0xbe1267a1	-0.14297344
169	0xbd2e1797	-0.042502966
170	0x3d8face9	0.07015402
171	0xbe1a98ff	-0.15097426
172	0xbd5bb99b	-0.053643804
173	0x3d192256	0.03738626
174	0xbe127813	-0.14303617
175	0x3e707899	0.23483504
176	0x3d32c960	0.043649077
177	0x3e038f7a	0.128477
178	0x3e469416	0.19392428
179	0xbe1e21de	-0.15442607
180	0x3bb6dfc5	0.0055808746
181	0x3dd3a507	0.10334211
182	0x3cd7d77f	0.026347874
183	0x3dbb12d2	0.09134449
184	0xbdbe3584	-0.09287551
185	0xbcc9e8ac	-0.02464708
186	0x3e5a90d7	0.21344315
187	0xbc55e91f	-0.013056069
188	0xbd76485c	-0.0601276
189	0x3c1f6c63	0.009730431
190	0xbdd49382	-0.103796974
191	0x3c9112d6	0.017709177
192	0x3e1e7f4c	0.15478247
193	0xbe307706	-0.17232904
194	0xbd8bcfa4	-0.06826714
195	0x3dc8c7e5	0.09803752
196	0x3dd9be17	0.1063196
197	0x3e5f253d	0.21791549
198	0x3ccf627d	0.025315518
199	0xbc058928	-0.008150376
200	0xbd077792	-0.033073016
201	0x3d410659	0.047125194
202	0xbe6b3d97	-0.22972713
203	0xbeaf18e5	-0.3419868
204	0xbc4334dd	-0.011914459
205	0x3deba2d4	0.115056664
206	0x3e1741af	0.1477115
207	0x3d91de5b	0.07122489
208	0xbe4ad8c0	-0.19809246
209	0xbe3d9e81	-0.18517496
210	0x3e81109c	0.25207984
211	0x3cea7efc	0.028625004
212	0xbe8b6e9e	-0.27232832
213	0x3e11c5f2	0.14235666
214	0x3e23c3c5	0.15992649
215	0xbe303742	-0.17208579
216	0xbddb8304	-0.107183486
217	0xbdb7340c	-0.08945474
218	0x3bf5d03d	0.0075016306
219	0x3e5272fd	0.20551677
220	0x3e597e07	0.21239482
221	0xbe218de0	-0.15776777
222	0xbd20bbb8	-0.039241523
223	0xbe24cce8	-0.1609379
224	0xba951c92	-0.0011376312
225	0x3d4a69d1	0.04941732
226	0x3e2564e4	0.16151768
227	0xbd82dacd	-0.06389389
228	0xbe8576ba	-0.26067144
229	0x3e558f95	0.20855553
230	0xbe42dfd7	-0.190307
231	0xbe14555d	-0.14485689
232	0xbd9de3a8	-0.077094376
233	0x3e8b79d4	0.27241385
234	0xb8f3a8ff	-0.00011618621
235	0x3ade06aa	0.0016939242
236	0x3b914114	0.0044328067
237	0x3dab3e1b	0.08361455
238	0x3c1f6366	0.009728288
239	0xbb5f1218	-0.0034037884
240	0x3e5b4844	0.21414286
241	0xbd96c35c	-0.073614806
242	0x3e116482	0.14198497
243	0xbe7240ba	-0.23657504
244	0x3c95b48b	0.018274566
245	0xbdf5781c	-0.119858
246	0xbcb74ff1	-0.022376986
247	0x3e596b2a	0.21232286
248	0x3dcbe8e5	0.099565305
249	0x3d406f24	0.046980992
250	0x3e3a6bf0	0.18205237
251	0xbde2e9eb	-0.110797726
252	0x3d8553e9	0.06510145
253	0x3dd0fa91	0.10204042
254	0x3b303721	0.0026888328
255	0xbd99da0f	-0.075122945

dense1.0.bias f4 [16]
0	0xbebfe632	-0.37480313
1	0xbea6e4a2	-0.32596308
2	0xbf394cc1	-0.7238274
3	0xbeb8c8d3	-0.36090717
4	0xbec78898	-0.389714
5	0xbe8ae0f6	-0.27124757
6	0x800208c0	-1.8681e-40
7	0xbe6d824d	-0.23194237
8	0x3d98dbec	0.07463822
9	0xbf20f671	-0.6287604
10	0x3f0fb777	0.5613932
11	0x3f912c64	1.1341672
12	0xbea47ac1	-0.32124904
13	0xbf2abf0d	-0.6669777
14	0xbf856444	-1.0421224
15	0xbf5ee0c8	-0.8706174

dense2.weight f4 [10, 16]
0	0xbe59596e	-0.21225521
1	0x3e214407	0.15748607
2	0x3ea858cc	0.32880247
3	0x3efc1802	0.49237067
4	0xbfa9046b	-1.3204473
5	0xc00a81bc	-2.1641684
6	0xa1f92bbc	-1.6884473e-18
7	0xbf57f659	-0.8436027
8	0x3f0e87ae	0.5567578
9	0xbf467544	-0.77522683
10	0x3f08e776	0.5347818
11	0x400a7016	2.1630912
12	0x3dd8964b	0.10575541
13	0xc116a954	-9.41634
14	0x3e4823bb	0.1954488
15	0x3e8b91b7	0.2725961
16	0x3f9a65d1	1.2062322
17	0xbd325226	-0.043535374
18	0x3f076036	0.5288118
19	0x3f0abd09	0.54194695
20	0x3fe9c261	1.8262445
21	0x404869b1	3.131451
22	0x34af760c	3.268218e-07
23	0xbf6d542a	-0.9270655
24	0xbfe394ca	-1.7779782
25	0xbf7c5d8b	-0.98580235
26	0xbfc7feca	-1.562463
27	0xc037077e	-2.8598323
28	0xbf8ed2a1	-1.1158029
29	0x3f7e9ff2	0.9946281
30	0xc0425cad	-3.0369065
31	0x3f855b94	1.0418572
32	0xbf565aa6	-0.8373207
33	0x3e803e45	0.25047508
34	0x3f6acd30	0.9171934
35	0xbe747e72	-0.2387636
36	0x3e58ee70	0.21184707
37	0xc179c5bf	-15.610778
38	0xb984095e	-0.0002518398
39	0x3d0010eb	0.031266134
40	0xbdacab30	-0.08431089
41	0xbf20ca86	-0.62809026
42	0x3f4fa82b	0.8111598
43	0x3fe4eb18	1.7884245
44	0x3dc6676d	0.09687696
45	0x3fddf8cb	1.734155
46	0x3f1bd6d9	0.60874707
47	0x3d938306	0.07202725
48	0xbe50ddab	-0.2039706
49	0x3f25cd95	0.6476682
50	0xbf7732bc	-0.9656179
51	0xbe3167e9	-0.17324795
52	0xbefd24c1	-0.49442104
53	0xbf75d093	-0.96021384
54	0x38a65582	7.931424e-05
55	0x3ddf70f7	0.10910218
56	0x3d758a89	0.05994657
57	0x3eb0883c	0.3447894
58	0xbe121018	-0.14263952
59	0xc04fb623	-3.2454917
60	0x3f075548	0.52864504
61	0xc110e402	-9.055666
62	0x3d873ba0	0.066031694
63	0x3e1b990b	0.151951
64	0xbe81dc39	-0.2536333
65	0x3d947953	0.07249703
66	0xbeb54981	-0.35407642
67	0x3d2defaa	0.04246489
68	0x3cb5aa73	0.022176003
69	0xc03c13b2	-2.938702
70	0xb92abbdc	-0.00016282446
71	0x3e9fecff	0.312355
72	0xbe0f3f2f	-0.13988946
73	0x3dbe943e	0.09305619
74	0x3f02d003	0.5109865
75	0xbfd9fcbe	-1.7030256
76	0xbdd71d80	-0.105036736
77	0x3eba7313	0.3641592
78	0x3ecd4dfc	0.4009856
79	0xbd15c50b	-0.036564868
80	0xbd0de4f9	-0.034642193
81	0xbf234c24	-0.63788056
82	0xbf9e9817	-1.2390164
83	0x3b871214	0.004122028
84	0xbf24bfd4	-0.64355206
85	0x3f86e7fa	1.0539544
86	0x2e3d6d0d	4.307048e-11
87	0x3e0a8a78	0.13529384
88	0x3ec38197	0.38184807
89	0x3dbc8ecd	0.092069246
90	0xc00945d9	-2.1448882
91	0xc151f063	-13.121188
92	0xbe1f44b6	-0.15553555
93	0x3c8552e5	0.016274879
94	0x3ea6e555	0.3259684
95	0x3ed14c0f	0.4087834
96	0x3d3add6f	0.04562133
97	0x3f6bd2c5	0.92118484
98	0xbf628f4d	-0.8849991
99	0xc012101e	-2.2822337
100	0xbc653866	-0.013990497
101	0xbeb573b2	-0.3543983
102	0x388f0016	6.8187874e-05
103	0x3f07c3ff	0.5303344
104	0xbec304b7	-0.38089535
105	0xbdc7df09	-0.097593375
106	0xbd6becf2	-0.057599016
107	0x3f5b9f31	0.8578978
108	0x3e8adec3	0.2712308
109	0x3ece8056	0.40332288
110	0x3dff608e	0.12469588
111	0x3e0ef489	0.1396047
112	0x3e896272	0.2683292
113	0xbedb3559	-0.4281414
114	0xbf900301	-1.1250917
115	0xbd65eae2	-0.056132205
116	0xbeb15c09	-0.3464053
117	0x3f08c7a0	0.53429604
118	0x321e6c38	9.2214165e-09
119	0x3e238cd0	0.15971684
120	0x3e7ab4ee	0.24483082
121	0xbc9eee5a	-0.019400764
122	0x3e92f3f0	0.28701735
123	0xc0854aab	-4.1653647
124	0x3dc76990	0.09736931
125	0xbe933128	-0.2874844
126	0x3e520440	0.20509434
127	0xbc505bb3	-0.012717175
128	0x3d6a2007	0.05715945
129	0xbecf2542	-0.40458113
130	0x3f6a56e0	0.9153881
131	0x3f333780	0.7000656
132	0x3f87abe8	1.0599337
133	0x3faf75b2	1.3707793
134	0x229d01f0	4.2556987e-18
135	0x3e61f357	0.22065483
136	0xbe68ccf6	-0.22734436
137	0x3e20019d	0.15625615
138	0xbed9b490	-0.4252057
139	0x3fb139cb	1.3845762
140	0xbf0a5694	-0.5403836
141	0x3f8a0352	1.0782263
142	0xc090710f	-4.513801
143	0xbfb399fc	-1.4031367
144	0x3df9537f	0.12174129
145	0xbea67db0	-0.32517767
146	0x3f651c0b	0.89495915
147	0x3ee0eb78	0.43929648
148	0x3f854e99	1.0414611
149	0xbf534e59	-0.82541424
150	0xaa258b72	-1.4703324e-13
151	0xbfd05e61	-1.6278802
152	0xbf0304cf	-0.5117921
153	0x3ec85c45	0.39132896
154	0xbf3bffa9	-0.7343698
155	0x3f2cc3b5	0.67486125
156	0xbec63669	-0.38713387
157	0xc0c96855	-6.293986
158	0xbfc57a8d	-1.5428025
159	0x3d42f3e5	0.047595877

dense2.bias f4 [10]
0	0xbe73152e	-0.23738548
1	0xc00e0898	-2.2192745
2	0xbeece751	-0.4627023
3	0xbef45cca	-0.47727042
4	0x3ece66a0	0.40312672
5	0x3f031e7f	0.5121841
6	0x3f59b422	0.85040486
7	0xbdb352cb	-0.08756026
8	0x3fbdd4bf	1.483055
9	0x3e8eaee2	0.278678
