ResidualLoss/CNN-Train/CIFAR_20/false_epoch-950.pt (torch, 28479 bytes, 10 tensors)

conv1.0.weight f4 [16, 3, 3, 3]
00000000: c302 7ebd 1c14 9abe 6b69 62be 48e5 143f
00000010: 63e6 21bd b689 78be c309 f03e 68b6 b33e
00000020: f301 95bd 86ba 09bf 3dc2 3abe 7304 06bf
00000030: 5e21 b6be a3cf 82be 9fd6 41bf 141e 95be
00000040: 070e ddbe 8f32 b3be 3eb1 cdbe ce77 38be
00000050: b30b c5bd 6a8c 923e c72f 20be e94a ccbe
00000060: 085a 2e3f afaa 96bd 803a c5be 70d2 533e
00000070: d01f 493d 35cd 62bc c9af d2bd cf9f 20be
00000080: 0702 cabc 37d8 783e 76a0 8cbe 4630 893e
00000090: 66df 6f3e 1c89 8c3d 0b87 063e c47a 53be
000000a0: 6307 f0be 0000 d73b 9656 a83e ef7c 5abe
000000b0: 00b2 ad3d 45c0 bc3e 0817 ef3e f081 ac3e
000000c0: 41c0 38be 8093 eebe bbeb 9bbe b6c6 8f3d
000000d0: 4dc9 a4be 6851 d83c 80a0 88bd 8455 89be
000000e0: 5daf 26bd ab17 36be ae82 47bd 5e43 01be
000000f0: 762b 163e 701f b63e e3ee 1a3c 69e7 d73b
00000100: db7e a5be 9416 d7be f938 313d ade1 8f3e
00000110: da2f 87be 4e00 013f a601 143f 8267 f9bd
00000120: f976 393d da5f fa3c 8ffb 653e a3e2 e4be
00000130: 8a81 bcbe 1c28 d93c d348 613d 4608 563e
00000140: 8e41 e23c 71fd 893e f74c 2b3e b993 c83d
00000150: f1ae e03e 8fc5 233f 8c8b 4d3e 9432 223e
00000160: 3f79 633e 8a1e 763e 12c5 93be 00f7 b3bd
00000170: 7561 a2be 739a 9dbe 81f1 cdbe a19b 0fbf
00000180: 3ee0 bfbe 80bc 07bf c946 dfbe d4d6 5f3e
00000190: 1009 5abc f43b ba3e a656 78be be55 4d3d
000001a0: ea5f ca3c e42d 683d 32ac 90bd bc4a 743e
000001b0: cb4b efbe 727d 1e3e 1694 033e 083c d7be
000001c0: d284 033e a896 29be 7591 8ebe e986 31bd
000001d0: cfdb 583e 047e 39be 31c7 ea3d e4ed 65be
000001e0: 9ecf 1a3e 1d5a 683d f4b6 afbe ff53 41be
000001f0: 7685 d4be 20da b4bd 7869 f33e d968 ce3e
00000200: 2df7 883e b75f 153f 0c15 5fbd fa2b a63e
00000210: efba 2f3e b722 d33e a32a 7e3e d692 08be
00000220: a57e d7be f242 ba3d c375 00bf 787d 943e
00000230: 879f c43e 048a 80bd 68fb 3b3e f99a 34bd
00000240: 91af b73d d112 11be 5bfb 0f3e 2f74 d3be
00000250: 8a0c d73e 1be6 643e c9ed 9abd dec0 45bd
00000260: 4c75 313e b3bc 85bd f406 48be 5182 c03e
00000270: 0b4d 0cbf 36c6 5b3e ffdc 283c 2478 02be
00000280: df3d 68bd add7 433e c560 973d 3f32 a43d
00000290: 10ac 933c bbf8 8c3c 480b 22bc 9a8a 153d
000002a0: 47a5 dabe ad51 a53e 029b 90bb 2a90 973e
000002b0: 4e8c bbbd 1c7e 98bd 5116 813e ddd6 f73e
000002c0: 789a fb3c 92f0 dcbe c3e9 843e b0df e13d
000002d0: 435f 353f 7746 03be bcbb f1be 0754 a23e
000002e0: 7eb6 f43e 4772 643d 394d abbe 3247 433f
000002f0: 3e38 5d3e 392e ff3d 0856 90be f385 a53d
00000300: 2b56 b83e 1daa e53b be30 75be 44bf 3c3e
00000310: 4660 03be 1ab3 b6be d09b 0e3e f415 d7be
00000320: a35d a2be 1030 aa3e 66d8 65bd 6921 bbbe
00000330: d4f1 cd3e 9c31 b03e 0986 a8be 2604 a93e
00000340: 96d8 e0bd 8618 f7bc 70e0 793e 9b00 1dbe
00000350: ff49 193c 96c9 db3e 2b4d be3d 71e9 e5be
00000360: 90cc 8bbd 5595 ce3e bd25 273e 1874 fc3d
00000370: 79b2 0f3e 296a dd3d 27aa 0fbf c361 8ebe
00000380: a4b5 d13d 4e9a 97be e60c b33e 2679 3cbd
00000390: bef3 003e f3f7 1b3f e928 96be 7095 8ebe
000003a0: cf3b 01be f695 52be 2a85 9dbd 9e8a 3ebe
000003b0: 2c1f 2cbd efcb 573c 9275 903e 18fa c6be
000003c0: 1bf0 44bd df6b 8f3e 991d c83d 7e76 003e
000003d0: 69d0 eabe 3636 363e 1980 e83c 050b e33e
000003e0: cab7 243f 8a67 69bd 9f50 e43d d93b 7d3e
000003f0: 32da 66be efb8 aabe 9f61 873d 6a3a 2ebc
-0.062014353 -0.30093467 -0.22110526 0.58162355 -0.039526355 -0.24271283 0.46882448 0.35100102
-0.072757624 -0.5380024 -0.18238159 -0.5235054 -0.35572332 -0.2554904 -0.7571811 -0.2912451
-0.43174765 -0.3499951 -0.40174288 -0.18014452 -0.09621372 0.28622752 -0.15643226 -0.39900902
0.68106127 -0.07356774 -0.38521194 0.20685744 0.049102604 -0.0138428705 -0.102874346 -0.15685962
-0.02465917 0.2430123 -0.27466172 0.26794642 0.23425063 0.06862089 0.13137452 -0.206523
-0.46880636 0.0065612793 0.3287856 -0.21336721 0.084812164 0.3686544 0.4669726 0.33692884
-0.18042089 -0.4659691 -0.30453286 0.07020323 -0.3218483 0.026406005 -0.06671238 -0.26823056
-0.040694583 -0.17782466 -0.04870861 -0.12623355 0.14665017 0.3557086 0.009456369 0.0065888655
-0.32323346 -0.42009413 0.043267224 0.28101864 -0.26403695 0.5039109 0.57815015 -0.12177946
0.045279477 0.030563284 0.22459243 -0.4470416 -0.3681758 0.026508383 0.05500109 0.20901594
0.02761915 0.26951173 0.16728579 0.09793801 0.4388347 0.63973325 0.20072764 0.15839607
0.2221422 0.24035087 -0.2886129 -0.08787346 -0.3171498 -0.30781898 -0.40223315 -0.56096846
-0.3747577 -0.53022003 -0.43608692 0.21859294 -0.013307825 0.36373866 -0.24251804 0.0501306
0.024703939 0.05668439 -0.07064094 0.23856634 -0.46737513 0.15477541 0.12849459 -0.42037988
0.12843636 -0.16561377 -0.2784535 -0.04334155 0.211776 -0.18114477 0.11463774 -0.2245403
0.15118262 0.056726564 -0.3431927 -0.18879698 -0.41508073 -0.088306665 0.47541404 0.40314367
0.2675108 0.58349174 -0.05446343 0.32455426 0.17161153 0.41237423 0.24820952 -0.13337263
-0.4208881 0.090948 -0.5017969 0.29001975 0.3840296 -0.062763244 0.18357623 -0.044093106
0.089690335 -0.14167334 0.14060728 -0.4129958 0.42001754 0.22353403 -0.07564885 -0.048279636
0.17329901 -0.06530132 -0.19533902 0.37599424 -0.5480506 0.2146233 0.010306596 -0.12741143
-0.05669963 0.19125243 0.07391504 0.08017396 0.018026382 0.017208448 -0.009890385 0.036509134
-0.42704222 0.32288876 -0.0044130096 0.29602176 -0.0915762 -0.074459285 0.2521234 0.48406115
0.030713305 -0.4315229 0.25959596 0.11028993 0.7084848 -0.12819849 -0.47213542 0.31704733
0.4779548 0.055773046 -0.33457354 0.7628051 0.21603486 0.12459988 -0.28190637 0.080821894
0.3600324 0.0070088045 -0.23944375 0.18432337 -0.12829694 -0.3568352 0.13926625 -0.42008936
-0.31712064 0.33239794 -0.056114577 -0.36548927 0.40223563 0.3441285 -0.3291476 0.33010978
-0.109788105 -0.03016306 0.24402022 -0.15332262 0.009356021 0.42927235 0.09292062 -0.44904664
-0.068261266 0.40348306 0.1632299 0.123268306 0.14032926 0.10811264 -0.56119007 -0.2780896
0.10239723 -0.29609913 0.34970778 -0.046013974 0.1259298 0.60925215 -0.29328087 -0.27848387
-0.12620471 -0.20565018 -0.07691415 -0.18607566 -0.042021915 0.01317118 0.282147 -0.3886268
-0.048080545 0.28011987 0.0977127 0.12545201 -0.4586213 0.17794117 0.028381394 0.44344345
0.6434294 -0.05698351 0.1114819 0.24729861 -0.22544172 -0.33344218 0.066104166 -0.010634044

conv1.0.bias f4 [16]
00000000: b1d7 90be 28c9 143e 2897 62bd 0ac8 38bd
00000010: 5cbb 803f 2a0d 603d e2fe 77bd cc38 c53e
00000020: 0965 e9bd a017 f93e 04bb dbbd 7bd7 4d3e
00000030: 88c7 233f 69af 13bf 8482 d3bd 87b8 cc3e
-0.2828956 0.1452986 -0.055319935 -0.045112647 1.0057178 0.054700054 -0.06054581 0.38519895
-0.11396224 0.48650837 -0.1072903 0.2010173 0.63976336 -0.5768953 -0.10327628 0.39984533

conv2.0.weight f4 [16, 16, 3, 3]
00000000: 02df 87bd ada2 51bc 1926 393d 1581 813c
00000010: 46cb 803e 2501 8bbd f85e 353e c0e6 88bd
00000020: e667 a43d a883 e73d 58ab 063e 6c8b 363a
00000030: 7a7a 96bd 7a34 3e3e 1a4c 8b3e b10a c8be
00000040: 38b5 0cbe a5f8 493d 2747 91be 2c02 acbe
00000050: a039 533e 8a31 d7bd 40d6 9c3e eb90 803e
00000060: 2999 933e 0f58 a5be 3677 14be d696 2d3e
00000070: 5155 aabd c116 36be b98f f53c ab03 09bf
00000080: 824d afbe 009a 57be ff47 9ebe 1ae6 76bd
00000090: 905b a6bd 755b debd 0dc9 8f3d f111 aa3d
000000a0: f6e5 413c ead2 5d3d 5a71 3c3e c75a 7e3d
000000b0: 77f8 0b3d b995 54be e3e1 9bbd 3874 c63e
000000c0: 5933 b13e 0db2 df3e d8f7 1b3e 80d6 5a3e
000000d0: 3dd1 02bd 9afa 733d 8a37 bebc d234 a13d
000000e0: 6f8d 313e 5bc6 fc3d 92a0 313e 328d 29be
000000f0: a19a 41be 5df5 0d3e 6e7b 61bd 2743 47bd
00000100: 12ab b1bd 0394 b63d 1978 80bc 3dc7 0cbd
00000110: c963 ca3d 83f6 8ebe cb2b eab9 a524 12bd
00000120: 8f5b b13d 1168 b43e ae3d 69be 6262 543e
00000130: ea68 de3c f661 093e 358f 95be 2da9 8c3e
00000140: ea9f d4be daa4 f0bc 3ce8 803d 8347 ed3b
00000150: f9df 0cbe 18d9 31be 991c bebd 2bc5 ed3d
00000160: 7e41 5ebb 1f49 49bd be20 fcbd 689f 083e
00000170: bb1c cc3d bcdb bcbb 4d6d 17bc 38dc b33c
00000180: 6599 a53e df9e 063e eabf 953e d6a1 04be
00000190: 5cf5 a13c ae33 c83c 2455 3b3e f07d 933e
000001a0: 424f 9cbd a496 ddbb 67ce 843d 63ea 193e
000001b0: 0778 fabd 3d0b 6f3c 2c54 a93d ae42 203e
000001c0: 02c5 aebd a052 843b 31bd 0c3e 976c e2bd
000001d0: d06e 18bd 4043 a53d 8b14 2bbd 86b1 b93d
000001e0: c63f f53d ef92 b6bd 2363 093b f0a3 a53d
000001f0: 08db a3bd c2ba debd 3ad4 c9be 0e63 c33d
00000200: 828d 0cbe d067 86bd dca0 0d3b d1fa 3abc
00000210: a05e a3bd 5436 37bd e064 d6bd 1394 2f3b
00000220: 6acd e7bb b002 5d3c 7442 033d 179f e9bc
00000230: f92b 20be 493f dc3c e0e8 0c3d faf0 fa3c
00000240: 8fde 16bd 0cb2 ec3d 6ff1 4a3d 2e3a d4bd
00000250: 8dbc 8aba a374 053e 9a7a b93d e485 143e
00000260: b6e7 7abd c7d6 b13a a3db bd3d 00b3 01be
00000270: fdd6 a43d 3952 3dbd d9e6 e53d 0918 953d
00000280: 85d0 863e 9142 c93c aaf5 433c 09f3 7a3d
00000290: fa6c aa3e f894 90be 95e5 923e f97a 953d
000002a0: 01e3 9fbe dbb8 753e 787e 8d3e b097 33bd
000002b0: 3b5d 153c ba3b d63d 7b67 913d 9043 ed3c
000002c0: 28ce fa3b 2af4 cfbd 07d5 6ebd 3ab9 a33d
000002d0: 82d6 f63b ee30 dabc 6f5a e53b 265a 953e
000002e0: b46a 423e 7ea0 8b3d 35df 033e cbeb 803d
000002f0: 1456 723d fb4e 0bbe ad81 3fbd 9339 603e
00000300: 327d e83d bd8b 9e3d dca2 64bc e3ef 8fbc
00000310: 426b f1bd b12a 983e 310d e73d 9e52 803e
00000320: 7c13 4dbc 099f 553d 8dd0 2a3e 7239 d5bc
00000330: 1a26 2d3e 949b 6cbc 9608 a9bd ab6a b3be
00000340: 5922 3b3e afd6 e73c e89f 8f3d fcf3 b23a
00000350: 9085 ff3d d498 63be bb75 88bd 5b12 103e
00000360: 2d8b 81be cd34 98bd efc9 3bbc e951 f2be
00000370: 277b 343e 8a10 ea3d 3643 a3bd ad0b 663d
00000380: 5911 9fbc 3aac b13d e6f5 46bc ee11 e73d
00000390: 13b1 bbbc 5842 513c 32bc fbbc a73e 393e
000003a0: 3bd8 a83d 90c6 ff3d bf9b 74bd bd3e 88be
000003b0: 3c65 6a3e 5d23 913c 6402 50be dd56 f53d
000003c0: 28a3 a3be 0787 b5bd 8173 45bc e49d e5bc
000003d0: 0f34 803d 0d92 be3d 67ac 18bd 73d9 b53d
000003e0: c115 ca3c b12b b5bd 732e 80bd 0717 03be
000003f0: 4edb aebd 9d03 31be 4b52 56be 4c67 903a
-0.06634332 -0.012795133 0.04520235 0.015808621 0.25155085 -0.06787328 0.17712009 -0.06684637
0.080276296 0.11304408 0.131513 0.00069635245 -0.07347579 0.18574706 0.27206498 -0.39070657
-0.13741004 0.04930939 -0.28374597 -0.33595407 0.20627451 -0.10507496 0.3063221 0.25110564
0.2882779 -0.32293746 -0.144986 0.1695207 -0.08317054 -0.17782117 0.029975759 -0.5352122
-0.3423882 -0.2105484 -0.30914304 -0.060278036 -0.08122933 -0.10857288 0.07020769 0.08304203
0.011834612 0.05415622 0.18402615 0.06209829 0.0341725 -0.2076024 -0.07611444 0.38760543
0.34609488 0.4369053 0.15231264 0.21370888 -0.031937826 0.059565164 -0.023219842 0.07871403
0.17339109 0.12342521 0.17346409 -0.16557768 -0.18906642 0.1386313 -0.055049352 -0.048648026
-0.08675207 0.0891495 -0.015682267 -0.034369696 0.09882314 -0.2792245 -0.00044664586 -0.03567948
0.086600415 0.35235646 -0.22777435 0.20740655 0.027149636 0.13416275 -0.2921082 0.2747282
-0.41528255 -0.029375482 0.06294295 0.007241191 -0.13757314 -0.17367971 -0.09282798 0.116098724
-0.0033913548 -0.049142 -0.123109326 0.13342059 0.099664174 -0.005763499 -0.009242368 0.021955594
0.32343593 0.13146542 0.2924798 -0.1295236 0.019770317 0.024438705 0.18294197 0.2880702
-0.07632305 -0.0067623425 0.064846806 0.15030818 -0.12229925 0.014590082 0.08268008 0.15650436
-0.0853367 0.00403817 0.13744046 -0.11055868 -0.037215054 0.080694675 -0.04176764 0.09067063
0.119750544 -0.08914744 0.002096363 0.08087909 -0.08000761 -0.10875465 -0.3941973 0.095403776
-0.13725856 -0.065627694 0.0021610772 -0.011412338 -0.07977033 -0.044729546 -0.10468459 0.002679114
-0.007074048 0.01348941 0.032045797 -0.028518243 -0.15641774 0.026885645 0.034401774 0.030632485
-0.036833342 0.11557397 0.049546655 -0.103626594 -0.0010584757 0.13032775 0.090565875 0.145042
-0.061256133 0.0013568037 0.09270408 -0.1266594 0.08048818 -0.04622099 0.11225671 0.07279975
0.26330963 0.024567874 0.011960426 0.061266933 0.33286268 -0.28238654 0.28690782 0.07298846
-0.31227878 0.23996298 0.2763555 -0.043845832 0.009116466 0.10460611 0.070998155 0.02896288
0.0076539703 -0.101539925 -0.058308627 0.079943135 0.0075328955 -0.02663466 0.006999306 0.2917034
0.18986017 0.06817721 0.12878115 0.06294974 0.05916412 -0.13604347 -0.046754528 0.21896963
0.11352004 0.07741497 -0.013954844 -0.017570442 -0.11788036 0.2972007 0.11281813 0.25063032
-0.0125168525 0.05215362 0.16681118 -0.026028369 0.16909066 -0.01444139 -0.08253591 -0.3504232
0.18274821 0.028300611 0.070129216 0.0013653035 0.12476647 -0.22226268 -0.0666308 0.14069502
-0.25301495 -0.07431946 -0.011461719 -0.47328117 0.17625104 0.11428936 -0.07971804 0.05616348
-0.019417452 0.08675428 -0.012143588 0.11282717 -0.022911584 0.012772165 -0.030729387 0.18090306
0.08244368 0.12489045 -0.059718844 -0.26610366 0.2289018 0.017717058 -0.20313412 0.119794585
-0.31960416 -0.08863645 -0.012051464 -0.02802939 0.062599294 0.09305201 -0.03727379 0.08879366
0.024668576 -0.08846224 -0.062588595 -0.12801753 -0.08537923 -0.17286535 -0.2092983 0.0011017113

conv2.0.bias f4 [16]
00000000: 1b7a 04bb 9bfd 8a3e 25cc 4e3e 745b ca3d
00000010: 3350 033f 2ac6 0fbe 6666 b73d d0ef c5be
00000020: 9bf7 f5bd f198 713e cad2 4cbe c60b 8b3d
00000030: cd52 53bd ba3c 663e 47b5 643e e560 823e
-0.0020214382 0.2714661 0.20195062 0.098807245 0.5129425 -0.14040437 0.08955078 -0.38659525
-0.120101176 0.23593499 -0.20002285 0.06789355 -0.051592637 0.22484103 0.22334777 0.2546455

conv3.0.weight f4 [8, 16, 3, 3]
00000000: f0e6 7d3d b7cb 363e 6f89 bb3d 3ce8 b33d
00000010: 7c38 3a3e 9bda 953d 668e 44bd e727 393e
00000020: 0a27 753e 4452 17be 115e 363d 1df7 1f3c
00000030: 0bd0 fabd 49db d43d 5b32 81bd 4ea5 5abd
00000040: fd96 7a3d afb5 483e 0e34 afbc a019 4dbd
00000050: 4a42 8b3e 331b 0d3d ae28 4a3d b123 d43d
00000060: 8fa3 8fbd f7ac 37bd 9165 b43d 79fb 113e
00000070: 6e8d 06bd a390 aa3d 1c7e 363e 9b24 7d3d
00000080: eff3 663e 13db 3a3e f578 cf3d 0c70 0f3e
00000090: 8a1d 39be 9ee0 e7bd b909 87be 924c b0be
000000a0: 8de7 cebe ad33 2fbe 850e 663c 3a41 62be
000000b0: cfc3 3d3e 2075 ab3d fa43 873e 8e2d 5b3e
000000c0: 85d1 18be 24af 693e a5c5 85bd 502a 09be
000000d0: 3485 2c3e f4fa 32be 5b1f 833e 47a3 56be
000000e0: 7f46 b63d f130 73ba 67fc 46bd c720 a339
000000f0: 3aef bf3d 81ca 353e da39 cebd 998c 663d
00000100: 56dc dabd cb6f 05be c7c2 823e 2925 123d
00000110: ae09 f83d bb94 1dbe 0248 d23e b9c5 e63d
00000120: 5178 56bd c4f9 c3bd 57b8 133d 50c8 a4be
00000130: 0d43 513e b474 ff3d 8496 0d3c 3c8a a53b
00000140: 1ae7 c2bd 30ac 483d 451a 00be a6ba 023d
00000150: 79cd 663e f465 2dbe 163d 503e f25a 503e
00000160: bd5b 24be a0ec e63a 59e0 433e b2d8 053e
00000170: 2332 313e 8028 143e 47c6 ccbd 74c6 d6bd
00000180: 8f76 3ebd 7be9 4f3d 8710 21be 5c92 3dbe
00000190: 6ac2 7cbe 255e 0fbe 387f 87be 008f 22be
000001a0: 3fd7 db3d 78eb 793e 4e89 6fbe d9b3 a13b
000001b0: 956f 81bd e527 503e 9581 35be b62a 84be
000001c0: cdac d23d 91b5 00be 8d68 b93c 092c d8bd
000001d0: ccf5 34bd ace2 e3bd 8255 a1be 378b 6e3e
000001e0: 3a78 dabd a93e 6dbd d4b1 4ebe 8e28 2cbe
000001f0: ba3f d3be a206 1cbe 298f 81be 95bc bcbd
00000200: e466 85bd 8a51 c9bd db5c 4abe b792 583d
00000210: c75c 033e dcbe 32bd 469b 96be 9302 863d
00000220: ad52 f83d acc9 573e 37b4 81bd 09b7 283e
00000230: 7e59 b73d 5706 303d 3609 fa3c 398e 873d
00000240: 18bb 733c 053b 51be 37af e03c e52a aa3d
00000250: e1a2 08bc 920f dcbd 91fc 7e3d f88b 683e
00000260: 8c02 293e 0c7c 133e d4f9 a33c 3a10 ec3d
00000270: 7800 443e 16db 8abe f830 d3bd 8c52 293e
00000280: 5af3 563d 3d19 1dbd e3d6 c4bd cb67 c2bd
00000290: ea81 603e df2c 683e 61c0 3ebe 0733 14be
000002a0: 0723 0bbe c57b 8e3d 03e1 df3d 5571 9d3e
000002b0: 6ad4 833d 7ee0 b03d 03d8 19be 33d5 293e
000002c0: 2e70 3e3e 8e0b 3dbe 1416 eabc 8eef 793e
000002d0: c286 68be 2de8 7b3c 2b9e ddbe 7c86 49be
000002e0: 88d8 16be f00c 75be 7e70 bdbd 5d5a 5f3e
000002f0: 1277 683d f2d2 863e 2914 703e 648a 903e
00000300: 7066 223e e2fb b83d 23f2 cf3e 30a5 71be
00000310: 1e86 ef3c ccac 073e e41d efbc 03c0 28be
00000320: f57b 79bd 3436 b2bd c513 5a3e 1c33 cf3c
00000330: 3887 613d eb28 d4bd dbd4 b8bd a7a2 fabd
00000340: df95 dcbd 1abe 95be 42dd babd 4064 28be
00000350: a43f 0cbd 5f3c f7be 4afb 483e 95c6 dc3d
00000360: 8b0d 3a3d a754 84be 331f 5dbe 36df f0bc
00000370: a35d 5bbd 8418 7cbd a69e cebc e14d 2a3e
00000380: 0762 10be fbb5 473e 6802 113d bad6 32be
00000390: d026 f93d 15de fabd 0ec4 373e 0843 4f3e
000003a0: 5fc4 11bd 69a9 99bd ce74 743e f3f9 103e
000003b0: 8d24 c93c 5c1d b1bd 4fd8 15be 7324 a0bc
000003c0: 91a6 b7be a6a8 173e 818a f4bd 684c 4fbd
000003d0: c5d1 393d c3ed c4bc 22c4 dbbc 1514 9ebe
000003e0: a72a 463e 846d 8b3e 870f bdbd 796a a2bc
000003f0: 09e2 833e 5bba 08be f39e 823e 66bf 8b3e
0.061987817 0.17851149 0.09157073 0.087845296 0.1818561 0.07317086 -0.047987364 0.18081628
0.23940673 -0.14777476 0.044523302 0.009763506 -0.12246712 0.10393388 -0.06308433 -0.053380303
0.06117915 0.19600557 -0.021387126 -0.050073266 0.27199012 0.034449767 0.0493552 0.1035837
-0.07013618 -0.044842687 0.08808435 0.14256085 -0.03284972 0.083283685 0.17821544 0.061802488
0.22553991 0.18247633 0.101304926 0.14007586 -0.18077675 -0.11322139 -0.26374605 -0.3443342
-0.40411034 -0.17109556 0.014041548 -0.22095194 0.18531726 0.08371949 0.2641905 0.21404096
-0.14923675 0.22820717 -0.06531838 -0.13395047 0.16847688 -0.17478544 0.2560986 -0.20960723
0.08900165 -0.0009277007 -0.048580553 0.00031114204 0.09371801 0.1775303 -0.10069628 0.056286428
-0.10686557 -0.13030927 0.25539228 0.03567997 0.12111221 -0.15388767 0.41070563 0.11268181
-0.052360836 -0.095691234 0.036064472 -0.32184076 0.20435734 0.12473431 0.008641843 0.005051879
-0.095167354 0.048992336 -0.12510021 0.031916283 0.22539319 -0.16933423 0.20335802 0.20347193
-0.1605062 0.0017618127 0.1912855 0.13070944 0.17304282 0.14468575 -0.09998756 -0.10487071
-0.046499785 0.050759774 -0.15728961 -0.18512863 -0.24683538 -0.14000757 -0.26464248 -0.15874863
0.10734414 0.2440623 -0.23392221 0.0049347696 -0.06320111 0.20327719 -0.17725213 -0.25813836
0.102868654 -0.12569262 0.022632862 -0.10555274 -0.044179723 -0.111272186 -0.3151055 0.23295294
-0.10667463 -0.057921086 -0.20185024 -0.16812345 -0.41259557 -0.15236905 -0.25304535 -0.09215657
-0.065137655 -0.098300055 -0.19761984 0.052874293 0.1282836 -0.04363905 -0.2941534 0.0654346
0.12125144 0.21073025 -0.063332014 0.16476072 0.08952616 0.042974796 0.03052197 0.06618924
0.01487615 -0.2043267 0.027427299 0.08308963 -0.008339615 -0.10745157 0.062252585 0.22709644
0.16504878 0.14402789 0.020016588 0.115265325 0.19140804 -0.27120274 -0.103120744 0.16535395
0.052478172 -0.038354147 -0.09611299 -0.09492453 0.21924558 0.22673367 -0.18628074 -0.1447259
-0.1358758 0.06957201 0.109315895 0.30750528 0.06436999 0.086365685 -0.15023808 0.16585235
0.1859748 -0.18461439 -0.02857498 0.24407789 -0.22707656 0.015375179 -0.43284735 -0.19680208
-0.14731038 -0.23930717 -0.09249972 0.21811815 0.05675418 0.26332814 0.2344519 0.28230584
0.1585939 0.09032418 0.40614423 -0.2359817 0.029238757 0.1324951 -0.029189058 -0.16479497
-0.06090923 -0.08701745 0.21296604 0.025292926 0.055060595 -0.10359367 -0.09024974 -0.12238055
-0.10770773 -0.29246598 -0.09124233 -0.16444492 -0.03424038 -0.48288247 0.19627109 0.10780064
0.04542307 -0.25845835 -0.21593933 -0.02940331 -0.053556096 -0.061546817 -0.025222134 0.16631271
-0.14099894 0.19503014 0.035402685 -0.17464724 0.12165606 -0.1224939 0.17945883 0.20240414
-0.035587665 -0.075030155 0.23872682 0.14157848 0.024553562 -0.08648178 -0.14633296 -0.01954863
-0.35869268 0.14810428 -0.1194048 -0.050609976 0.045366067 -0.024039155 -0.026826922 -0.30874696
0.19352208 0.2723199 -0.09231477 -0.01982616 0.2575839 -0.13352339 0.25511894 0.27294463

conv3.0.bias f4 [8]
00000000: ecb6 243e c93b 48bd e417 02bd 4158 b7bd
00000010: e325 36be 9b56 82be 9cca 37be 0e9f c2be
0.16085404 -0.04888514 -0.031761065 -0.0895238 -0.1778789 -0.254567 -0.17948383 -0.38011974

dense1.0.weight f4 [16, 128]
00000000: 1733 6fbb 6afd 34ba 5b5e cf3b ee6d 31be
00000010: 2e4b d8bd eda7 2bbe 9c5d 08be f28c 3cbe
00000020: d149 953d 9204 84be e29c 093a dbfd 8abd
00000030: 354b b9bd bc10 183c 676c 9abd f16e 7c3c
00000040: 10bf 263d b612 993d 1a2b 8fbc e69f d83d
00000050: cca8 29bc 2ddf 94bd 2198 23bd e3c8 26be
00000060: dcd7 77bd 237d 12be 1a63 afba 2cc5 223e
00000070: 1a34 0a3e 7f1b 33bd c3b2 983e d109 8e3c
00000080: 6312 a7bd 1622 6ebe 9038 2b3d 2df1 843c
00000090: 2957 17bb ca28 013e da16 3b3e f8c1 353e
000000a0: 43b8 c23b 6ae5 f93d 3ce4 c2bd 7b64 b23d
000000b0: 1783 473e 3327 9b3d 7d9e a4bd 5796 f0bc
000000c0: 1e96 4c3d e9f1 c23d b7f3 123e 53c3 8abd
000000d0: ff87 16bd f24a 373d a9cc 21b9 5f6d 963c
000000e0: 095d 31be 17dd 8fbe 1b45 79bd 2b40 e53c
000000f0: ee6d 00be 7d24 cdbd ebad 853d 1619 5e3d
00000100: 4bbb 993d 1e5a 9a3d a777 fa3d 577e 99be
00000110: bc53 a43c e2b2 8a3d fab8 d83d ae7d 8c3d
00000120: ff23 183e 4031 993e dc2e 2c3e 1ee2 86bd
00000130: 8231 303d 2d23 923d dd30 1f3d b679 89bd
00000140: 49d5 99be d7cb 84bd 9f40 893e 31ed a8bd
00000150: 1f2e d2be 8dd4 f9bd f4d8 92be 836e 253e
00000160: 09c5 a7bd 97ca 68bd e604 8a3e 56c5 9cbe
00000170: 2cb2 3dbd 8fa6 ce3d f2d1 05bc 3532 1cbe
00000180: dda8 8b3e 09ee 64bd 9039 213e a61c 873e
00000190: 2096 6b3c 7f60 dbbd 3883 4b3e 3d08 3abd
000001a0: 42fb 743d aeed 513e 0180 283e bb88 c63d
000001b0: d3e7 b7bd b852 043c 4b13 3f3d 956d 573d
000001c0: 874d b1bd 083f 363e 3088 85be 4903 aa3d
000001d0: 03b6 363e bcd6 1abe 8309 113e 7157 1b3d
000001e0: f3e5 b93d 8f41 283d f456 a9bd 8f2b 463d
000001f0: 0694 323e eef7 5cbd 08b7 f4bd 3ef2 8e3e
00000200: a0eb 533e 336c 56be f9a4 5d3e 5e29 52be
00000210: 158d 03be 60cb 5abe 5b39 c9bd ff74 afbb
00000220: 12a1 403e 09c2 0a3e af11 67be 492f 313e
00000230: 4dfe 3bbd 3e7d 643e e123 98bd 4a31 8fbd
00000240: 5f88 6f3d 7fd1 44be 6a44 49bd 1d55 cdbc
00000250: b35b 693d b26b 013e db3c 3e3e 54a3 64be
00000260: 693d 47be 2b38 073e 2634 a0bc 3792 233e
00000270: 2d60 cfbe a395 40be 17ab 40bc 3ba5 2a3e
00000280: 2ac6 a0ba d6d8 39bc 516e 163d 773e 973d
00000290: 361a 373b 8ad4 d8bc 15ad a13d 3d7f b8bd
000002a0: 9f44 433d 73cc 41be 33aa 80bc 1dcd 06be
000002b0: 6403 3b3e 858b b93d cc6c 5fbe 6cf2 18be
000002c0: 5c0b 9cbd b469 25be 78af 1d3e 1166 44bd
000002d0: 1c0e e9bb 5f3f e93d 73b8 cabb 8697 0f3d
000002e0: 03d6 80bc 6eb7 79be e73e 9a3d 0100 a7bd
000002f0: 8558 15bc df16 a23e 0922 42be 48cf b03d
00000300: 9f91 c93d e815 ddbd 7ca7 72bd 2192 56be
00000310: 29dc 063e c96c 853d d538 413e e6d7 e43d
00000320: 036e 38bd 7e7e 6d3d 4ffc 633e e0d9 0fbe
00000330: d535 743e 0222 693e 7aeb 2e3e d8f6 8dbe
00000340: 79d3 e5be b0dc 55bd b5e5 ffbc 2cc6 ca3d
00000350: 61e3 c8bd 86ba 3c3e fc47 91be f17d 523e
00000360: d393 1a3d 58c6 db3c 52c0 02be 6867 7dbc
00000370: 0972 003c 7f85 87bb a39c e8bd 8bd2 aabd
00000380: a10e a83d ecb1 bf3c 094c 163e 6222 06be
00000390: db57 60bd 07cb 87bd e932 44bd 743e 8a3d
000003a0: c1f0 4c3d c105 f0bc 5575 fcbb 89e2 2c3e
000003b0: 8c5f e63d 060d 103d bafb 343c 706d 17be
000003c0: 9b9d 91bc 0d1f 6b3e ac40 72be 6bcc 58bd
000003d0: eaa0 c63d f104 2dbd 8dce 8ebd 578e 9e3d
000003e0: e005 31bd 7214 333e 88e0 bdbd 0575 c73d
000003f0: a1ae 1a3e 4629 b43e 1d11 763d a38b 483e
-0.0036498958 -0.0006904217 0.0063283867 -0.17327091 -0.105612144 -0.16763277 -0.13316959 -0.18413141
0.0728947 -0.25784737 0.00052495126 -0.067867 -0.09047548 0.009281334 -0.07540207 0.01540731
0.040709555 0.07474272 -0.017476607 0.10577373 -0.010355186 -0.0726913 -0.039940003 -0.1628757
-0.060508594 -0.14305548 -0.0013380975 0.15895528 0.13496438 -0.043727394 0.29823884 0.017338665
-0.08157804 -0.2325519 0.04180199 0.016228283 -0.0023092723 0.12613216 0.18270436 0.17749774
0.005942376 0.122019604 -0.095161885 0.087105714 0.194836 0.07575836 -0.08038042 -0.029368563
0.04994785 0.09518797 0.14350782 -0.067755364 -0.03675079 0.044749208 -0.00015430398 0.0183627
-0.17320646 -0.28098366 -0.06085692 0.0279847 -0.12541935 -0.10016725 0.06527313 0.054223143
0.075064264 0.0753672 0.12229853 -0.29979202 0.020059459 0.067724004 0.105821565 0.06859909
0.14857481 0.29920387 0.1681475 -0.06586097 0.043015964 0.071356155 0.03886496 -0.06712668
-0.30045536 -0.06484192 0.26807114 -0.08248366 -0.41050813 -0.12198744 -0.28681147 0.16155438
-0.08191878 -0.05683383 0.26956862 -0.30619305 -0.046312496 0.10090362 -0.008167731 -0.15253527
0.2727727 -0.05589107 0.15744615 0.26389045 0.014379054 -0.107117645 0.19874275 -0.045418013
0.05980993 0.20500824 0.1645508 0.09694048 -0.08979764 0.008076362 0.04664926 0.05259474
-0.08657365 0.17797482 -0.26080465 0.08301408 0.1784287 -0.15120977 0.14163785 0.037925187
0.090770625 0.041078147 -0.08268538 0.048381384 0.17439279 -0.05394738 -0.11948973 0.2791919
0.20695353 -0.20939712 0.21644963 -0.20523593 -0.12846787 -0.21366644 -0.09825393 -0.005354523
0.18811443 0.13550581 -0.2256534 0.17303194 -0.045896817 0.22313401 -0.07428718 -0.06991823
0.058479663 -0.19220541 -0.04913751 -0.025065 0.056972217 0.12638739 0.18577902 -0.2232793
-0.1945702 0.1320502 -0.019556116 0.15973745 -0.40503064 -0.18807082 -0.011759541 0.16664593
-0.0012266089 -0.011343202 0.0367263 0.07384961 0.0027939207 -0.026468534 0.07894341 -0.09008644
0.047672864 -0.18925647 -0.015706157 -0.13164182 0.18263012 0.09059814 -0.21818846 -0.14936227
-0.07619354 -0.16153604 0.15398967 -0.0479489 -0.0071122777 0.1138904 -0.006186539 0.035056613
-0.015727049 -0.24386379 0.07531529 -0.081542976 -0.009115343 0.31658074 -0.18958296 0.08633286
0.09842228 -0.10795194 -0.059241757 -0.20954181 0.13169922 0.0651489 0.18869336 0.11173992
-0.04502679 0.05798196 0.22264217 -0.14047956 0.2384866 0.22766879 0.17082015 -0.2772739
-0.44887903 -0.052212417 -0.031237463 0.099010795 -0.09808994 0.18430528 -0.28375232 0.20555855
0.037738632 0.026827976 -0.12768677 -0.0154665485 0.007839688 -0.004135787 -0.11358001 -0.08340939
0.08205915 0.02340027 0.14677443 -0.13099054 -0.054771286 -0.06630521 -0.047900114 0.06750193
0.05003429 -0.029299619 -0.0077044168 0.16883291 0.11248693 0.03516867 0.011046344 -0.14787841
-0.017775347 0.22961064 -0.23657483 -0.052929323 0.09698661 -0.04224104 -0.0697299 0.07741993
-0.043218493 0.17488268 -0.092713416 0.097391166 0.15105678 0.3518774 0.060074914 0.19584517

dense1.0.bias f4 [16]
00000000: be3c 54be d1b9 fdbd 42cd 813e 82b6 d6be
00000010: 89be b73e f553 83bd 800f 0abc 9471 0fbf
00000020: 9971 1b3e 0cbb ddbb 09de 813e 0bbe d93e
00000030: 177a afbe 9cb5 d3bd 194d ca3e c5ab 933d
-0.20726296 -0.12388957 0.25351912 -0.41936117 0.35887554 -0.06412498 -0.008426547 -0.5603268
0.15180053 -0.0067666825 0.25364712 0.42527804 -0.34272835 -0.103373736 0.39511946 0.07210497

dense2.weight f4 [10, 16]
00000000: a66b b6be b70d a63f c6e8 e63d fbfe 07bf
00000010: abec da3e fbcf 8bbf 26d8 5a3f 257e 0ebf
00000020: 7e95 e63e 4be9 9c3f b551 af3e bcb8 0abe
00000030: 25cb 403e 2070 e4be e02c 623e 5a00 013d
00000040: 9498 023e e995 adc0 5e3d cd3d 624e 653f
00000050: 752a 6cbf f183 a03d 5004 09bf 7949 d5be
00000060: 78c2 3cbc 4b54 043e 2271 1d3f 35a7 28bf
00000070: baf0 d13c 48d3 1b3f d818 463e 71de 48be
00000080: fbe8 54be 136f e83e 3e11 dcbd 2420 d0be
00000090: f79e ab3e a6b5 ae3d 21ec 72bd 8ecb 9a3e
000000a0: 9ce3 28bf 5252 113f a9d5 a53f 075e 263f
000000b0: 0466 bfbd 03c7 593e 236c 4b3e 2d54 673d
000000c0: 87c7 803c 85bd 55be bc6c 453e e509 d53d
000000d0: c0c2 263e 5f17 a63e 873e 253e 7b25 5d3e
000000e0: ce25 31bd bf92 9b3e da84 513f d34f 04bf
000000f0: 1c98 193e daef bd3e c2b1 0cbf 3e3c 7b3e
00000100: cd78 8f3e 12e1 7b3e 79e4 083f 2191 51bf
00000110: a888 adbe 2cdf adbe 72ad 51be 7f8d 843e
00000120: 53d6 86be 08e7 8abf 3931 3e3e ab2e f83e
00000130: 8eb2 1fbe df49 8ebf 222a b63d 7e67 0f3f
00000140: 024e d83e db72 77bf 3035 81be 6a1b 053f
00000150: f5ba 9e3d 585d e53e 0ef4 533e 5830 cc3d
00000160: 3434 cd3d 5f23 c5bd 0e4a 1bc1 9618 18bf
00000170: ab29 66be 166c ec3d 1b82 c1be 1058 f43c
00000180: e777 a23e 7605 74bf 9d32 09bf 27c3 1a3e
00000190: 3019 103f 4537 50be 0a90 2cbf 199b 433d
000001a0: e3ae 253e 62c9 133e 769b 5a3f 9de3 f0bc
000001b0: 8e76 20be cda4 313e 0617 4fbe 9570 123f
000001c0: bf90 bb3d 5d55 86be 8ab7 0ebf 9a5d 2ebf
000001d0: 4bb2 1dbf cb2f 903d 0347 813e c92e 023f
000001e0: ea41 94bd ad39 c8be 4907 abc0 f9c0 e53e
000001f0: 900e de3e 1616 5abf c969 c7bd f141 9ebf
00000200: e294 86bd 8b8f 263e 9b56 863e 280d afbe
00000210: be2c b43d 9b96 da3e 1db5 e3be 075d 8dbe
00000220: 50a4 f4be 99de 2ebf 1432 16c0 10d9 43be
00000230: ef86 af3c c319 693e 027a 7a3e 219b aa3d
00000240: 7147 acbe 424b c8bf a062 0e3e dc06 223f
00000250: de7e 2cbf 3bef f83e c11d e6be c823 663e
00000260: 013a 9d3e 249e 97bf 70df 66bf f91c 94bd
00000270: e4d1 c6be f124 223f 4975 863e e419 5cbf
-0.35629004 1.2972935 0.11274867 -0.53123444 0.42758688 -1.0922846 0.85486066 -0.5566123
0.45035928 1.2258695 0.34242025 -0.13547033 0.18827493 -0.44616795 0.22087431 0.031494476
0.12753516 -5.4245496 0.100214705 0.8957273 -0.92252284 0.07837666 -0.53522205 -0.41657618
-0.011520974 0.1292278 0.6150075 -0.6588014 0.025627483 0.60869265 0.19345415 -0.19616105
-0.20792 0.45397243 -0.10745476 -0.4064952 0.33519718 0.085307404 -0.05930722 0.30233425
-0.65972304 0.56766236 1.2955829 0.64987224 -0.0934563 0.21267323 0.1986547 0.05647676
0.015720142 -0.20873077 0.1927976 0.10402278 0.16285229 0.32439706 0.16137134 0.21596329
-0.043248944 0.30385396 0.8184334 -0.516843 0.14999431 0.37097055 -0.54958737 0.245347
0.2802185 0.24597576 0.5347362 -0.81862074 -0.33893323 -0.3395933 -0.2047632 0.25889203
-0.2633539 -1.0851755 0.18573464 0.48473105 -0.15595457 -1.1116294 0.08894755 0.5601729
0.42247015 -0.9665963 -0.2523589 0.51994956 0.07750503 0.44797778 0.20698568 0.09970158
0.100197226 -0.09625887 -9.70558 -0.59412515 -0.22476833 0.11544053 -0.37794575 0.029827148
0.31732103 -0.9532083 -0.53592855 0.15113507 0.56288433 -0.20333584 -0.67407286 0.047755335
0.16179995 0.1443229 0.85393465 -0.02940541 -0.15670225 0.17348023 -0.20223626 0.57203037
0.091584675 -0.26237002 -0.5574881 -0.68111575 -0.6160018 0.07040366 0.2524949 0.5085264
-0.072391346 -0.39106503 -5.3446393 0.4487379 0.43370485 -0.8518995 -0.09736974 -1.2363874
-0.06571366 0.16265695 0.2623795 -0.34189725 0.087975964 0.42693028 -0.44474116 -0.27610037
-0.4778161 -0.6830841 -2.3468065 -0.19125772 0.021426646 0.22763734 0.24460605 0.0833037
-0.33648255 -1.5647967 0.1390481 0.63291717 -0.67381084 0.48620018 -0.44944575 0.22474587
0.30708316 -1.1845136 -0.9018469 -0.072320886 -0.3883201 0.6333762 0.26261356 -0.85977006

dense2.bias f4 [10]
00000000: 2566 fa3e f96b 42bf 9a7f a13c 34e3 05bf
00000010: 3425 6abe 7637 863e b988 793e 6686 4bbf
00000020: f290 973f 06c0 8fbe
0.48906055 -0.75946003 0.019714165 -0.5229981 -0.22865754 0.26214188 0.24368562 -0.7950195
1.1841109 -0.2807619
