ResidualLoss/CNN-Train/CIFAR_20/false_epoch-350.pt (torch, 28479 bytes, 10 tensors)

conv1.0.weight f4 [16, 3, 3, 3]
0	0x3d81f836	0.063461706
1	0xbe8762a4	-0.26442444
2	0xbe430935	-0.19046481
3	0x3ede037f	0.43362042
4	0xbd3a2ba9	-0.045451794
5	0xbe805e72	-0.25072056
6	0x3e73e794	0.23818809
7	0x3ed645a0	0.41849995
8	0xbd341699	-0.043966863
9	0xbf0f5122	-0.55983174
10	0xbe813b84	-0.2524072
11	0xbee52e62	-0.4476195
12	0xbe65c183	-0.224371
13	0xbe190b03	-0.14945607
14	0xbf2b6d12	-0.66963303
15	0xbd271500	-0.04079151
16	0xbeaab27f	-0.33339307
17	0xbedaa363	-0.4270278
18	0xbeaa6767	-0.33282015
19	0xbe34625d	-0.17615648
20	0xbdaafddc	-0.08349201
21	0x3e6caa18	0.2311176
22	0xbe3cd4b6	-0.18440518
23	0xbea3e22a	-0.32008487
24	0x3f0a5afd	0.5404509
25	0xbdcb8ac7	-0.09938579
26	0xbeb77dd5	-0.3583819
27	0x3e5637cd	0.20919724
28	0x3d1fc357	0.03900465
29	0xbc8ec1d0	-0.017426401
30	0xbdc59d56	-0.0964915
31	0xbe56ae98	-0.2096504
32	0xbcece695	-0.028918544
33	0x3e5e27bf	0.2169485
34	0xbe2fdeb8	-0.17174804
35	0x3e8435bc	0.25822246
36	0x3e97307c	0.29529178
37	0x3dc6c57f	0.09705638
38	0x3e21094f	0.15726207
39	0xbe4c1587	-0.19930087
40	0xbedce24d	-0.43141404
41	0x3ce11944	0.027477868
42	0x3e43fa32	0.1913841
43	0xbe55ef71	-0.20892121
44	0xbcd10824	-0.025516577
45	0x3ea77443	0.32705888
46	0x3eb257a2	0.34832484
47	0x3e5c8605	0.215355
48	0xbe4ca5f5	-0.19985183
49	0xbeca8a51	-0.39558652
50	0xbe5aa434	-0.21351701
51	0x3de2334b	0.110449396
52	0xbe974f96	-0.29552907
53	0x3cceb0e9	0.025230842
54	0xbe1506c6	-0.14553365
55	0xbe5d304b	-0.21600454
56	0x3c2b6f4c	0.010463547
57	0xbe15be5c	-0.14623398
58	0xbd43b21c	-0.04777728
59	0xbe16a598	-0.14711607
60	0x3e65cc3a	0.22441188
61	0x3e916021	0.28393653
62	0x3db9908e	0.09060775
63	0x3d9f0a9e	0.07765697
64	0xbe8663cc	-0.26248014
65	0xbeaa459a	-0.33256227
66	0xbd1cc383	-0.038272392
67	0x3e364292	0.17798832
68	0xbe4d9573	-0.20076542
69	0x3ec602c3	0.38673982
70	0x3ee2dc62	0.44308764
71	0xbd95dc38	-0.07317394
72	0x3dadeaf2	0.08492078
73	0x3d365ca4	0.044521943
74	0x3e0a1349	0.13483919
75	0xbebed0bf	-0.37268636
76	0xbe940675	-0.28911176
77	0x3ae09ed3	0.0017137177
78	0x3d287d70	0.04113525
79	0x3e36df1d	0.17858548
80	0xbc4945dd	-0.012284723
81	0x3e51a467	0.20472871
82	0x3e196399	0.149794
83	0x3ddeea17	0.10884493
84	0x3ec7e9f0	0.39045668
85	0x3eecd002	0.46252447
86	0x3e825aab	0.254598
87	0x3e61a956	0.22037253
88	0x3e387b6a	0.18015829
89	0x3e0e6c94	0.13908607
90	0xbea4987f	-0.32147595
91	0xbd02778e	-0.031852297
92	0xbe9b0e1d	-0.30284205
93	0xbe99cc6d	-0.30038777
94	0xbeadbc40	-0.33932686
95	0xbed0ba96	-0.40767354
96	0xbec4ad90	-0.38413668
97	0xbed1aab5	-0.40950552
98	0xbeb84f6e	-0.359981
99	0x3e5b6251	0.21424223
100	0x3b69e97b	0.0035692144
101	0x3e9a1b68	0.30099034
102	0xbe274eac	-0.16338605
103	0x3d635e59	0.0555099
104	0xbd3fcce5	-0.046826262
105	0x3d60a160	0.0548414
106	0xbd45dfea	-0.048309244
107	0x3e4d8a02	0.20072177
108	0xbeac5be5	-0.3366386
109	0x3e0f9111	0.14020182
110	0x3d9ccd82	0.07656385
111	0xbe87cbbe	-0.2652263
112	0x3d9d39fb	0.076770745
113	0xbe1a4ddf	-0.15068768
114	0xbe0ecb39	-0.13944711
115	0xbdff0400	-0.12451935
116	0x3ddd0880	0.10792637
117	0xbe632d40	-0.2218523
118	0x3d86d59b	0.06583711
119	0xbd9c8b6c	-0.0764378
120	0xbc265fe2	-0.010154696
121	0x3d227ff9	0.039672825
122	0xbe49edfc	-0.1971969
123	0xbe22d9de	-0.15903422
124	0xbe76cc8d	-0.24101467
125	0x3ddb6f8b	0.107146345
126	0x3ee69f42	0.4504338
127	0x3ea7ae9f	0.32750413
128	0x3de11ccb	0.1099182
129	0x3f03f0f5	0.51539546
130	0x3d8436a0	0.064557314
131	0x3e559134	0.20856172
132	0x3d68721a	0.05674944
133	0x3eb3dd5e	0.35129827
134	0x3d2430c5	0.040085573
135	0xbcd63909	-0.026150243
136	0xbe896873	-0.268375
137	0x3ddf6011	0.10906995
138	0xbed1c42f	-0.4096999
139	0x3e3f9873	0.18710499
140	0x3e9f505b	0.31115994
141	0xbd0b2073	-0.033966493
142	0x3e211d12	0.15733746
143	0xbe0dba61	-0.13840629
144	0x3a99ae8d	0.0011724994
145	0xbd954412	-0.07288374
146	0x3dd738d0	0.10508883
147	0xbed0124d	-0.40638962
148	0x3e9e9d2f	0.30979297
149	0x3e888a42	0.26667982
150	0xbdb41cc1	-0.08794547
151	0xbd903ddd	-0.070430495
152	0x3e4b7fb2	0.1987293
153	0xbe1b9b3d	-0.15195937
154	0xbe1d408d	-0.15356655
155	0x3ea36c77	0.3191869
156	0xbee45f88	-0.44604135
157	0x3d81ee9a	0.06344338
158	0x3db76608	0.08955008
159	0xbd6e7808	-0.05821994
160	0xbce557cb	-0.027995965
161	0x3e5e53c4	0.21711642
162	0x3e5242da	0.20533314
163	0x3e145f25	0.1448942
164	0xbc3c9328	-0.011509694
165	0x3d5624e8	0.05228129
166	0x3c2edbca	0.010672519
167	0xbc599a24	-0.013281379
168	0xbeaca30d	-0.33718148
169	0x3e96bf0a	0.29442626
170	0xbb9428c0	-0.0045214593
171	0x3eafbfcf	0.34326026
172	0xbdc18573	-0.094492815
173	0xbdd20d2e	-0.1025642
174	0x3e602a9d	0.21891256
175	0x3edb77c0	0.428648
176	0xbc463794	-0.012098212
177	0xbe957cf9	-0.2919691
178	0x3e8395b0	0.2570014
179	0x3e377d70	0.17918944
180	0x3f0be760	0.54649925
181	0xbda47787	-0.080306105
182	0xbecf7156	-0.40516156
183	0x3e5d1f92	0.21594074
184	0x3ed071f2	0.40711933
185	0x3d78ddd3	0.060758423
186	0xbe5c7004	-0.21527106
187	0x3f128c48	0.572453
188	0x3e8a71b8	0.27039886
189	0x3cacce8a	0.02109458
190	0xbe662d1a	-0.22478142
191	0x3ccd36b4	0.025050499
192	0x3ed67577	0.41886494
193	0xbc8c86ca	-0.017154116
194	0xbe60087c	-0.21878237
195	0x3e91ec46	0.28500575
196	0xbe213d84	-0.15746123
197	0xbebd2711	-0.36943868
198	0x3d9db52c	0.077005714
199	0xbe7daeaa	-0.2477366
200	0xbe3bb40a	-0.18330398
201	0x3eac90d7	0.33704254
202	0xbe029ab9	-0.12754335
203	0xbe8673dc	-0.2626027
204	0x3e8a163b	0.26970086
205	0x3e88b4a6	0.26700324
206	0xbe68e369	-0.22743
207	0x3e8b252a	0.2717679
208	0xbe2678aa	-0.16256967
209	0xbd62843f	-0.0553019
210	0x3e952208	0.29127526
211	0xbe79cf7f	-0.2439556
212	0xbe0950e3	-0.13409762
213	0x3ead7a99	0.33882597
214	0x3db5c7e9	0.088760205
215	0xbe766491	-0.240618
216	0xbe08e1a9	-0.13367333
217	0x3ea8f717	0.33001015
218	0x3e1426e6	0.14467964
219	0x3d86e0f4	0.06585875
220	0x3e4c9f03	0.19982533
221	0x3e195b41	0.14976217
222	0xbedf6414	-0.4363104
223	0xbe397e64	-0.1811462
224	0x3ca9f69d	0.020747477
225	0xbe29603a	-0.16540614
226	0x3e833990	0.25629854
227	0xbd0ef91e	-0.034905545
228	0x3d52575b	0.05135284
229	0x3efd4493	0.4946638
230	0xbe892373	-0.26784858
231	0xbe95d182	-0.29261404
232	0xbda57548	-0.0807901
233	0xbe33c0e0	-0.17554045
234	0xbc880f18	-0.01660876
235	0xbe111b0e	-0.14170477
236	0xbd4ad59d	-0.049520124
237	0x3d1ffa77	0.03905722
238	0x3e8d4206	0.27589434
239	0xbe9b3373	-0.3031269
240	0xbdf3cecd	-0.119046785
241	0x3e6da92d	0.23209067
242	0x3c40154e	0.011723829
243	0x3dd6b392	0.10483469
244	0xbe7c2af3	-0.24625759
245	0x3e16afdb	0.14715521
246	0x3e32637a	0.1742076
247	0x3ecb0e7a	0.39659482
248	0x3f1067c4	0.56408334
249	0x3dbbca8b	0.091694914
250	0x3e120014	0.14257842
251	0x3e0f0091	0.1396506
252	0xbe938bae	-0.28817505
253	0xbe76d92d	-0.24106283
254	0x3e047d75	0.12938483
255	0x3cae457a	0.021273363

conv1.0.bias f4 [16]
0	0xbe848d4b	-0.25889048
1	0x3e34140b	0.17585771
2	0x3d16b7cf	0.036796387
3	0xbcd85270	-0.026406497
4	0x3f57f672	0.8436042
5	0x3d4673dd	0.04845034
6	0xbcabfaeb	-0.02099367
7	0x3ee6fce6	0.4511482
8	0xbdcf2dba	-0.101161435
9	0x3f1b4b33	0.6066162
10	0xbd66b9b0	-0.05632943
11	0x3e8b08ae	0.2715506
12	0x3f1d411f	0.6142749
13	0xbedffff2	-0.43749958
14	0xbd2f7355	-0.0428346
15	0x3eb22511	0.34793904

conv2.0.weight f4 [16, 16, 3, 3]
0	0xbd963743	-0.07334759
1	0x3cc047fa	0.023471821
2	0x3d1a74bc	0.037708983
3	0x3d5c28c5	0.05374982
4	0x3e720486	0.23634538
5	0xbc922e20	-0.01784426
6	0x3dcd8a47	0.1003614
7	0x3d547b9d	0.0518757
8	0x3d544918	0.05182752
9	0x3e0fb824	0.14035088
10	0x3e75bf59	0.23998775
11	0x3c95354d	0.018213892
12	0x3ce020f3	0.027359461
13	0x3e0f3c63	0.1398788
14	0x3ea25800	0.31707764
15	0xbe79f71f	-0.24410675
16	0xbe2fd984	-0.1717282
17	0x3e0f1a75	0.13974936
18	0xbe7c5b76	-0.24644265
19	0xbe8ced44	-0.2752477
20	0x3de3b812	0.11119093
21	0xbd904f5d	-0.07046387
22	0x3dfcef7a	0.12350364
23	0x3da763c4	0.08173326
24	0x3e83f0c5	0.2576963
25	0xbe8cfe37	-0.275377
26	0xbe699cc5	-0.22813709
27	0x3d343303	0.04399396
28	0xbe2cd7c1	-0.16879179
29	0xbe0fa66b	-0.14028327
30	0x3d353a2a	0.044244923
31	0xbee3f406	-0.44522113
32	0xbebbf985	-0.36713806
33	0xbe0fb154	-0.14032489
34	0xbeac1947	-0.33613035
35	0xbe09647e	-0.13417241
36	0xbe70713a	-0.23480693
37	0xbd2ea1d9	-0.04263482
38	0x3cb011c3	0.021492844
39	0x3c5e2280	0.01355803
40	0x3d1c12cc	0.038103864
41	0x3e4c9bee	0.19981357
42	0x3e0b3236	0.13593373
43	0x3d27f117	0.041001406
44	0xbc2fe4a5	-0.010735665
45	0xbda8582c	-0.082199425
46	0xbc89a31e	-0.016801413
47	0x3ecebd3c	0.4037875
48	0x3e31a6c8	0.17348778
49	0x3eaa1dbe	0.33225816
50	0x3d4a6ed4	0.0494221
51	0x3e5e06d8	0.21682298
52	0x3d92bb48	0.07164627
53	0x3ddc4a12	0.10756315
54	0x3c2ec24b	0.01066644
55	0x3de3437f	0.11096858
56	0x3d952316	0.07282083
57	0x3db6b10e	0.08920489
58	0x3e0e1ce3	0.13878207
59	0xbe0b8562	-0.136251
60	0xbe2b7405	-0.16743477
61	0x3d95e0fb	0.07318302
62	0x3bf2018f	0.0073854397
63	0x3bc2dbc5	0.0059466087
64	0xbdfb0193	-0.1225616
65	0x3e153d25	0.14574106
66	0xbddcd3b7	-0.10782569
67	0x3ce710a6	0.02820618
68	0x3d007ef6	0.03137108
69	0xbe583cff	-0.21117018
70	0xbd3ae06b	-0.045624178
71	0x3c4d1823	0.012517962
72	0x3da4ae2c	0.08041033
73	0x3e507be0	0.20359755
74	0xbdc97d2f	-0.0983833
75	0x3dfda8ff	0.12385749
76	0x3dd6fbd0	0.10497248
77	0x3e58c2b9	0.21168031
78	0xbe8c9f10	-0.27465105
79	0x3d39f6a1	0.04540122
80	0xbebe0802	-0.37115484
81	0xbe0863a6	-0.13319263
82	0x3d8621ab	0.065493904
83	0x3d33823a	0.043825366
84	0xbdd55c54	-0.10418001
85	0xbd5b86cc	-0.05359535
86	0xbd8e2aff	-0.069417946
87	0x3e2ce697	0.16884838
88	0x3c94254a	0.018084187
89	0xbd11ac59	-0.035564754
90	0xbdf995d7	-0.12186783
91	0x3e1b5400	0.15168762
92	0x3e281e17	0.16417728
93	0x3ccc18b5	0.024914125
94	0x3d6891cb	0.056779664
95	0x3da8165f	0.08207392
96	0x3ea02550	0.31278467
97	0x3d183972	0.03716416
98	0x3e8500c4	0.25977147
99	0xbe13c970	-0.14432311
100	0x3cd140ee	0.025543656
101	0x3db3ca4f	0.08778822
102	0x3e37e6de	0.17959163
103	0x3e57edcb	0.21086805
104	0xbd691342	-0.05690313
105	0x3c666b68	0.014063694
106	0x3d3dbf4e	0.04632502
107	0x3db9ae04	0.09066394
108	0xbdaef350	-0.08542502
109	0x3c95ed90	0.018301755
110	0x3cc564d8	0.024095938
111	0x3db786ed	0.08961282
112	0xbce61bd3	-0.02808944
113	0x3ba997b6	0.005175556
114	0x3e3f0918	0.18655813
115	0xbd0fd054	-0.035110787
116	0xbb44e9c9	-0.0030046573
117	0x3be241c9	0.006904815
118	0xbd85ae3f	-0.065273754
119	0x3cd17a31	0.02557096
120	0x3da79d79	0.081843324
121	0xbd1bd6c1	-0.038046602
122	0x3c0becb2	0.008540319
123	0x3defde50	0.117123246
124	0xbd9e453a	-0.07728048
125	0xbe0a83b4	-0.13526803
126	0xbe517d3f	-0.20457934
127	0xbd850ca3	-0.06496551
128	0xbe089002	-0.13336185
129	0xbd99752a	-0.074930504
130	0xbb8976f7	-0.00419509
131	0xbdb85f4f	-0.09002554
132	0xbc2b67ca	-0.010461757
133	0xbd30914e	-0.043107323
134	0xbcb0e74d	-0.021594668
135	0xbd0f0990	-0.03492123
136	0x3cca7963	0.024716085
137	0x3d20b44b	0.03923444
138	0x3dadc85d	0.08485482
139	0xbd1ef2c9	-0.038805757
140	0xbdc62cac	-0.09676489
141	0x3d7eede8	0.062238604
142	0xbdc3d6ca	-0.09562452
143	0xbbf75fe2	-0.007549272
144	0xbd7a60ed	-0.061127592
145	0x3e1435a4	0.14473587
146	0x3d4ed90e	0.05049997
147	0xbd970436	-0.0737385
148	0x3d54f828	0.051994473
149	0x3dfcd7c6	0.12345843
150	0x3b38b542	0.002818421
151	0x3d9043e6	0.070442006
152	0xbb2f10b7	-0.0026712844
153	0x3cd6f3a7	0.02623923
154	0x3d40a8ed	0.0470361
155	0xbd8ac424	-0.06775692
156	0x3daf6ee1	0.0856607
157	0xbcf38785	-0.029727707
158	0x3dc17188	0.094454825
159	0x3dc738a5	0.09727601
160	0x3e48817b	0.19580643
161	0x3b87308f	0.0041256617
162	0xbdb06217	-0.08612459
163	0x3d33453e	0.043767206
164	0x3e840688	0.25786233
165	0xbe6dd60c	-0.23226184
166	0x3e05273f	0.13003252
167	0x3d7f2286	0.062288783
168	0xbe90e206	-0.28297442
169	0x3e2d4a1d	0.16922803
170	0x3e68a69c	0.22719806
171	0x3d8c8b1e	0.06862472
172	0x3d67c60b	0.056585353
173	0x3d4ccc64	0.04999961
174	0xbd07bb8f	-0.033137854
175	0xbcdbfddc	-0.026854448
176	0xbad01518	-0.0015875427
177	0xbde09d03	-0.109674476
178	0x3ddf8f73	0.10916033
179	0xbb1eb82b	-0.002421866
180	0xbd13be38	-0.03607008
181	0x3da38757	0.079847984
182	0xbcf47907	-0.029842867
183	0x3e71e99d	0.23624273
184	0x3e27161a	0.16317025
185	0x3d84ef8a	0.06491001
186	0x3dd24bd2	0.10268368
187	0x3dcf8553	0.101328515
188	0x3b07a400	0.0020697117
189	0xbdf89764	-0.121382505
190	0xbccc8eb3	-0.024970388
191	0x3e7b0e1b	0.245171
192	0x3cf6105d	0.0300371
193	0xbc139aee	-0.009009106
194	0x3dd7d8fb	0.105394326
195	0xbd9b9555	-0.07596842
196	0xbd930e7e	-0.071804985
197	0x3e496e83	0.19671063
198	0x3d9289db	0.071552
199	0x3e5ef573	0.21773319
200	0x3cd301ea	0.025757749
201	0x3cdaeda8	0.026724651
202	0x3de77378	0.11301321
203	0xbc5834f5	-0.01319622
204	0x3da4b41b	0.08042165
205	0x3d41a372	0.047275014
206	0xbcc46a2f	-0.023976414
207	0xbeb198e5	-0.34686962
208	0x3e4d7cdf	0.20067166
209	0x3dfce0f4	0.12347594
210	0x3d817b28	0.06322318
211	0xbb903c27	-0.004401702
212	0x3e0a7b10	0.13523507
213	0xbe0bd391	-0.13654925
214	0xbbcf6f7b	-0.006330428
215	0x3da1de4d	0.07903729
216	0xbe827810	-0.25482225
217	0xbe2a6f14	-0.16643935
218	0xbdde2acd	-0.10848007
219	0xbeb2888d	-0.34869805
220	0x3d3701de	0.044679515
221	0x3e155a9e	0.14585349
222	0xbdf7353e	-0.12070702
223	0x3d274482	0.04083682
224	0x3d70695f	0.05869424
225	0x3db826ee	0.089918
226	0xbc373434	-0.01118188
227	0x3df30ab1	0.118672736
228	0x3c97cdb8	0.018530712
229	0x3d02edc8	0.031965047
230	0xbcbf4239	-0.023347007
231	0x3d8d57f7	0.069015436
232	0x3d694c0a	0.056957282
233	0x3d31afec	0.043380663
234	0xbd572275	-0.052523095
235	0xbe27d556	-0.16389975
236	0x3dfda4b8	0.12384933
237	0x3d7484b6	0.059696876
238	0xbca0eef3	-0.01964519
239	0x3dc7d154	0.09756723
240	0xbe9523e9	-0.2912896
241	0x3cc20d10	0.02368787
242	0x3cab499f	0.020909129
243	0xbd33e529	-0.043919716
244	0x3d56d49c	0.052448854
245	0x3b844bf9	0.004037377
246	0xbcc39a91	-0.023877414
247	0x3d2c53e3	0.042072188
248	0x3c6ac96b	0.014330248
249	0xbdb2335c	-0.08701202
250	0xbd26668a	-0.040625133
251	0xbe1f8db2	-0.15581396
252	0xbd0db8a7	-0.034599926
253	0xbe110e51	-0.14165618
254	0xbdbdffb6	-0.092772886
255	0x3c84f5f4	0.01623056

conv2.0.bias f4 [16]
0	0xbcdfcd54	-0.027319588
1	0x3e88b092	0.26697212
2	0x3e146319	0.14490928
3	0x3e24dcb9	0.16099824
4	0x3ebc10a5	0.3673145
5	0xbd91c32b	-0.071173035
6	0x3d8cb2e7	0.068700604
7	0xbe22c5e1	-0.15895797
8	0xbd2663c8	-0.040622503
9	0x3e80ca89	0.25154522
10	0xbcd1f79c	-0.025630765
11	0x3e299fb4	0.16564828
12	0xbc012a05	-0.007883553
13	0x3e0fed77	0.1405543
14	0x3e455f2e	0.1927459
15	0x3d20c2f9	0.03924844

conv3.0.weight f4 [8, 16, 3, 3]
0	0x3d1f1677	0.038839784
1	0x3d6b50d5	0.057450134
2	0x3d8735fd	0.06602094
3	0x3d99ee51	0.07516158
4	0x3e230d18	0.15922964
5	0x3dc3071e	0.09522842
6	0xbceb337f	-0.028711079
7	0x3e0a7735	0.13522036
8	0x3e43c827	0.19119321
9	0xbd367225	-0.04454245
10	0xbcf1aed3	-0.029502308
11	0x3c0c36d5	0.008557995
12	0xbdda092d	-0.106462814
13	0x3d945cf4	0.07244292
14	0xbdd1b393	-0.10239329
15	0xbd0e7843	-0.03478266
16	0x3d8d7700	0.06907463
17	0x3e34bcdf	0.17650174
18	0x3c919691	0.017771991
19	0x3d321eeb	0.043486517
20	0x3e7936b2	0.24337271
21	0xbc9231fc	-0.0178461
22	0x3c154998	0.009111784
23	0x3e093f5f	0.1340308
24	0xbd4042f3	-0.046938848
25	0xbd94f6cd	-0.07273636
26	0x3d63edea	0.055646814
27	0x3dce1b1a	0.10063763
28	0xbd1aef05	-0.037825603
29	0x3d6d4402	0.057926185
30	0x3e2708a4	0.1631189
31	0x3d5c6046	0.05380275
32	0x3e3c16f1	0.18368126
33	0x3e6fb7f1	0.23410012
34	0x3d654269	0.055971537
35	0x3df63215	0.12021271
36	0xbe221e11	-0.15831782
37	0xbe1f45d9	-0.15553989
38	0xbe8e223a	-0.27760488
39	0xbe9e1ade	-0.30879873
40	0xbe8bc4f7	-0.2729871
41	0xbe658941	-0.2241564
42	0xbdcee068	-0.10101396
43	0xbe7f378b	-0.24923532
44	0x3e1ed898	0.15512311
45	0x3e386cae	0.18010208
46	0x3e81dfe6	0.25366133
47	0x3da1bd30	0.07897413
48	0xbd4bd2b3	-0.049761485
49	0x3d74f435	0.059803206
50	0xbd6c4fa9	-0.057693157
51	0xbd928886	-0.07154946
52	0x3d02b49b	0.03191052
53	0xbdc21895	-0.09477345
54	0x3e1877f6	0.14889511
55	0xbe258d45	-0.16167171
56	0x3dbb0b1a	0.09132977
57	0xbd46d585	-0.04854347
58	0xbcc5c763	-0.024142927
59	0x3d6b56d9	0.05745587
60	0x3da1ac82	0.078942314
61	0x3dbc55cd	0.09196053
62	0xbdb9a696	-0.09064977
63	0x3d99bfbf	0.07507276
64	0xbdab6b1c	-0.08370039
65	0xbd3239db	-0.043512207
66	0x3e4a8bae	0.19779846
67	0x3e083359	0.13300838
68	0x3db2fcaa	0.08739598
69	0xbe02a696	-0.1275886
70	0x3eb60ac5	0.35555092
71	0x3e5a9669	0.2134644
72	0xbd113989	-0.03545526
73	0xbe036687	-0.1283208
74	0x3cfbdc81	0.030744793
75	0xbe492abe	-0.19645211
76	0x3e1ae6f1	0.1512716
77	0x3d9d2c8c	0.07674512
78	0xbc836fa0	-0.016044438
79	0x3d4d98d6	0.050194584
80	0xbd89ad57	-0.06722515
81	0xbc352a13	-0.011057395
82	0xbd3f261d	-0.046667207
83	0x3da68436	0.08130686
84	0x3e0d1a29	0.1377951
85	0xbdadc3c9	-0.08484609
86	0x3dbdba62	0.09264065
87	0x3e1bed57	0.15227257
88	0xbdddd1a5	-0.10831002
89	0xbcf024f1	-0.02931449
90	0x3e393fd3	0.18090753
91	0x3d28f2d5	0.041247208
92	0x3dd4d9ba	0.103930905
93	0x3e0da796	0.1383346
94	0xbde26d4c	-0.11056003
95	0xbd5e65ae	-0.054296188
96	0xbd26bc74	-0.040707067
97	0x3c92270d	0.017840886
98	0xbde69529	-0.11258919
99	0xbe64733b	-0.22309582
100	0xbe777b0c	-0.24168032
101	0xbd9ce0d4	-0.0766007
102	0xbe1e12a2	-0.15436795
103	0xbdac9cc1	-0.08428336
104	0xbcbe30a6	-0.023216557
105	0x3e374fbe	0.17901513
106	0xbe5544e7	-0.20827065
107	0x3d773338	0.06035158
108	0xbd43af5c	-0.047774658
109	0x3dfc350f	0.123148076
110	0xbe034aae	-0.12821457
111	0xbe572fcc	-0.21014327
112	0x3e04b9d3	0.12961511
113	0xbe0960aa	-0.1341578
114	0xbd0c49c5	-0.03425004
115	0xbcd30277	-0.025758011
116	0xbc9d8c53	-0.01923195
117	0xbd0a4950	-0.033761322
118	0xbe7ffe6f	-0.24999402
119	0x3e17dfe8	0.14831507
120	0xbe166215	-0.14685853
121	0xbe5eefd6	-0.21771178
122	0xbdf9293d	-0.12166069
123	0xbde56b8d	-0.11202154
124	0xbe78e868	-0.24307406
125	0xbe2c9139	-0.16852273
126	0xbe8a24e2	-0.26981264
127	0x3c55b034	0.013042498
128	0x3c0555e8	0.008138157
129	0x3c30ce23	0.010791334
130	0xbde7a638	-0.113110006
131	0x3d87b08b	0.0662547
132	0x3d846145	0.06463865
133	0xbd6d4593	-0.05792768
134	0xbe2c3b31	-0.16819455
135	0x3db8acc0	0.090173244
136	0x3e47d64c	0.19515342
137	0x3e26680e	0.16250631
138	0xbc6efcbd	-0.014586625
139	0x3e2f423d	0.17115112
140	0x3e0ffa10	0.14060235
141	0xbac5e558	-0.0015098257
142	0x3dbb9f5a	0.09161253
143	0x3dedabaa	0.11605008
144	0xbc5655d7	-0.013081989
145	0xbe3ae983	-0.1825314
146	0x3b99b8c8	0.004691217
147	0x3d26af72	0.04069466
148	0xbd85233a	-0.065008596
149	0xbdf2a507	-0.11847883
150	0x3d5a0b7d	0.053233612
151	0x3e42d682	0.1902714
152	0x3e248e3e	0.16069886
153	0x3dc0ab39	0.09407658
154	0x3cc0b294	0.023522653
155	0x3da78dba	0.08181329
156	0x3e10b8e9	0.14133038
157	0xbe2a0db9	-0.16606797
158	0xbe196655	-0.14980443
159	0x3de759a5	0.11296395
160	0xbc190f8a	-0.009342084
161	0x3c09a84b	0.008401941
162	0xbdae0eb5	-0.08498899
163	0xbdac0e78	-0.08401197
164	0x3dfcf4e3	0.12351396
165	0x3da60c3f	0.081078045
166	0xbdf4c50c	-0.11951646
167	0xbdf97e7b	-0.12182327
168	0xbb92c57f	-0.00447911
169	0x3bd01135	0.0063497075
170	0x3dec8397	0.11548536
171	0x3e596da3	0.2123323
172	0x3dec53fe	0.11539458
173	0x3dcda594	0.10041347
174	0xbdbad6e1	-0.09123016
175	0x3e04f47a	0.12983885
176	0x3c8132bf	0.015771268
177	0xbe85189a	-0.25995332
178	0xbde1fc8d	-0.11034498
179	0x3e96f1ef	0.29481456
180	0xbe05020e	-0.12989065
181	0x3d373c23	0.044735085
182	0xbeb6e607	-0.35722372
183	0xbe3ca4f2	-0.18422297
184	0xbe4edad4	-0.20200664
185	0xbe33994c	-0.17538947
186	0xbe2abcdc	-0.16673607
187	0x3e181fc0	0.14855862
188	0x3ba81837	0.0051298398
189	0x3e79c9a0	0.2439332
190	0x3dd89f48	0.105772555
191	0x3e860d71	0.2618213
192	0x3dde0a98	0.10841864
193	0x3ddf050e	0.10889636
194	0x3eba25fd	0.36357108
195	0xbe409444	-0.18806559
196	0x3c235006	0.00996781
197	0x3d2a6036	0.04159566
198	0xbc3a1d61	-0.011359544
199	0xbdc6d353	-0.09708276
200	0xbd3ab83e	-0.045585863
201	0xbc957800	-0.018245697
202	0x3e1fa96d	0.15591975
203	0x3d6aeea2	0.057356484
204	0x3cb25d44	0.021772988
205	0xbdd9fea2	-0.106442705
206	0xbdb6f082	-0.08932592
207	0xbde7fa32	-0.11327018
208	0xbda2ccd1	-0.07949222
209	0xbdd29343	-0.10281994
210	0xbe1de815	-0.15420564
211	0xbd0f3b92	-0.03496892
212	0xbd0a5c66	-0.033779524
213	0xbee0f8a2	-0.43939692
214	0x3e1fb7bf	0.15597437
215	0x3ddc88eb	0.107683025
216	0x3da629d4	0.08113447
217	0xbe60f5d7	-0.2196878
218	0xbe277d21	-0.16356327
219	0xbc623c9a	-0.013808394
220	0xbd345f5d	-0.044036258
221	0xbd3e14a2	-0.046406396
222	0xbca232d5	-0.01979963
223	0x3e04ef79	0.12981977
224	0xbd942393	-0.07233348
225	0x3e1fb087	0.15594684
226	0x3d863786	0.06553559
227	0xbdd9e01e	-0.1063845
228	0x3e306568	0.17226183
229	0xbd816508	-0.06318098
230	0x3da080e4	0.07837084
231	0x3e25f12a	0.16205278
232	0xbc25b5c0	-0.010114133
233	0xbce4006d	-0.027832234
234	0x3e37367f	0.17891882
235	0x3dc4b0ca	0.09604032
236	0x3c4d9ef3	0.0125501035
237	0xbd6bc254	-0.057558373
238	0xbe00e8af	-0.12588762
239	0xbccfd709	-0.025371091
240	0xbe99e233	-0.3005539
241	0x3dd86cf0	0.10567653
242	0xbd9e5d56	-0.07732646
243	0xbd2c6731	-0.0420906
244	0x3d837d2a	0.064203575
245	0x3a0485b0	0.00050553214
246	0xbc6f5659	-0.014607989
247	0xbe38f4e4	-0.18062168
248	0x3d92cb59	0.07167692
249	0x3e5bec70	0.21476912
250	0xbd188139	-0.03723261
251	0xbc63afb9	-0.013896876
252	0x3e490a88	0.19632924
253	0xbdda2079	-0.10650725
254	0x3e38fab5	0.18064387
255	0x3e8009b6	0.2500741

conv3.0.bias f4 [8]
0	0xbbbcea73	-0.005765253
1	0xbdbff1d9	-0.09372301
2	0x3d942b19	0.07234783
3	0xbdc8e1c5	-0.09808687
4	0xbcdf538f	-0.027261524
5	0xbe0ada34	-0.135598
6	0xbdf4a639	-0.11945767
7	0x3d2e51ef	0.042558607

dense1.0.weight f4 [16, 128]
0	0xbdcf8e24	-0.10134533
1	0xbda893ed	-0.082313396
2	0xbd530451	-0.05151779
3	0xbdaf2e46	-0.08553748
4	0xbd0d77cc	-0.034538075
5	0xbe5d7bc2	-0.21629241
6	0xbe08c267	-0.13355409
7	0xbe343bbe	-0.17600915
8	0xbd2ce11d	-0.042206872
9	0xbe5ff623	-0.21871237
10	0xbc89b7d4	-0.016811289
11	0xbd2d8273	-0.042360734
12	0xbd8e16a6	-0.069379136
13	0x3d926bba	0.071494535
14	0xbd883a81	-0.06651784
15	0x3dfd49d4	0.12367597
16	0x3d32fcf4	0.043698266
17	0x3e4e489d	0.20144887
18	0x3d0ba5dc	0.034093723
19	0x3de49b2a	0.11162408
20	0xbd36860e	-0.04456144
21	0x3d14c34f	0.036319073
22	0xbd132aee	-0.035929613
23	0xbd90d6f0	-0.07072246
24	0xbe07ac72	-0.13249376
25	0xbe3d88bd	-0.18509193
26	0xbc42cfa0	-0.011890322
27	0x3da39a9f	0.07988476
28	0x3de03ce0	0.10949111
29	0x3dcf56e3	0.10123994
30	0x3e023e9c	0.12719196
31	0x3d594797	0.05304679
32	0xbdb18024	-0.08667019
33	0xbdf6e1f2	-0.120548144
34	0xbbbfb1f5	-0.0058500716
35	0xbd4e8a8b	-0.050425094
36	0x3cf43fa2	0.029815499
37	0x3d5255a4	0.051351205
38	0x3dea8eec	0.114530414
39	0x3dde2460	0.10846782
40	0xbc4cc28f	-0.012497558
41	0x3de85bb1	0.11345614
42	0xbe05aff7	-0.13055407
43	0x3e027a70	0.12742019
44	0x3e359558	0.17732751
45	0x3df5aa9a	0.1199543
46	0x3ba9de5d	0.0051839785
47	0x3c706a38	0.014673762
48	0xbdb4db8a	-0.08830936
49	0x3e131317	0.14362751
50	0x3e2530bd	0.16131873
51	0x3c1feb95	0.009760757
52	0x3b67a8ad	0.0035348341
53	0xbd291a46	-0.041284822
54	0xbd9f96c4	-0.07792428
55	0x3d0b8933	0.03406639
56	0xbe001258	-0.12506998
57	0xbd9e8956	-0.077410385
58	0x3a6aa555	0.0008951028
59	0x3d28b69d	0.04118978
60	0x3cea7a81	0.028622868
61	0xbe177cba	-0.14793673
62	0xbb94cc43	-0.0045409515
63	0xbda95923	-0.082689546
64	0x3dd4c772	0.10389604
65	0x3c632638	0.0138640925
66	0x3e121d3b	0.14268963
67	0xbdce2ffd	-0.10067747
68	0x3ca7dd3a	0.020491231
69	0x3d96302a	0.07333405
70	0x3d429340	0.04750371
71	0xbd7ba777	-0.061439004
72	0x3dd03a77	0.10167401
73	0x3e92e128	0.28687406
74	0x3dece467	0.11567002
75	0xbd2fdc33	-0.042934608
76	0x3c5af643	0.013364377
77	0x3da3af63	0.07992437
78	0xbbabf0ec	-0.005247226
79	0x3d7e63fe	0.06210708
80	0xbe778d22	-0.24174932
81	0x3d2b3989	0.041802917
82	0x3da09ba1	0.07842184
83	0xbd8e9e11	-0.069637425
84	0xbe5c03ff	-0.214859
85	0xbdb97cc7	-0.090570025
86	0xbe2f86db	-0.17141287
87	0x3df9177b	0.12162682
88	0xbda4976e	-0.080366954
89	0x3de1a031	0.11016882
90	0x3e1dd73b	0.15414135
91	0xbde99f03	-0.11407282
92	0x3d9a142c	0.07523379
93	0x3c050aca	0.008120248
94	0x3b606355	0.0034238894
95	0xbe615158	-0.22003686
96	0x3ddb617c	0.10711953
97	0x3ca43cc2	0.020048503
98	0x3e483112	0.19549969
99	0x3e40aa4c	0.18814963
100	0x3dd06dc0	0.10177183
101	0xbdad92af	-0.08475243
102	0x3e38b35f	0.18037175
103	0xbd8a0a6a	-0.067402676
104	0x3d832f2d	0.064054824
105	0x3e5723bb	0.21009724
106	0x3e82ca17	0.25544807
107	0x3df8d821	0.12150598
108	0xbe102025	-0.14074762
109	0x3d5fd48f	0.05464607
110	0x3cf0f5a7	0.029414011
111	0x3d44340d	0.047901202
112	0xbd56d9e6	-0.052453898
113	0x3d4cb225	0.04997458
114	0xbdd57b9f	-0.104239695
115	0x3d200d11	0.03907496
116	0x3e201904	0.15634543
117	0xbd9bb760	-0.076033354
118	0xbbbae60f	-0.0057036947
119	0x3dc40a1e	0.09572242
120	0x3d7d2cb4	0.06181021
121	0xbdc293d3	-0.095008515
122	0xbc979881	-0.018505337
123	0x3d272eb0	0.04081601
124	0x3daa81be	0.083255276
125	0xbd809b16	-0.0627958
126	0xbcb375a9	-0.02190669
127	0x3e8214be	0.2540645
128	0x3de29446	0.11063437
129	0xbe268146	-0.16260251
130	0x3e05acee	0.13054249
131	0xbe0fb19e	-0.140326
132	0xbe0c16c6	-0.13680562
133	0xbe1cbad3	-0.15305643
134	0xbd0d6fc5	-0.03453042
135	0xbd6a3b8a	-0.057185687
136	0x3dfa7ccd	0.12230835
137	0x3d9a86ee	0.07545267
138	0xbe21ca9c	-0.15799946
139	0x3df7872a	0.120863274
140	0x3b47aca2	0.0030467887
141	0x3e4ec69e	0.20192954
142	0xbdd801b1	-0.105471976
143	0x3ad10c61	0.0015949124
144	0x3d772360	0.06033647
145	0xbddd45fa	-0.108043626
146	0xbc8c6911	-0.017139943
147	0xbd53e2ad	-0.051729847
148	0xbbe72777	-0.007054265
149	0x3defdb47	0.11711746
150	0x3d91b350	0.07114279
151	0xbe15c9bd	-0.14627738
152	0xbe0963d8	-0.13416994
153	0x3da2ae8e	0.0794345
154	0x3ce283d6	0.027650755
155	0x3d63cded	0.055616308
156	0xbeaaeca3	-0.33383664
157	0xbe2081e5	-0.15674551
158	0xbd8cc496	-0.06873433
159	0x3da7ab54	0.08186975
160	0xbd58442a	-0.05279938
161	0x3d8c982e	0.068649635
162	0xbbd6b721	-0.0065525924
163	0x3d94e350	0.07269919
164	0xbc201bb4	-0.00977223
165	0xbbf17b2f	-0.007369421
166	0x3d42854d	0.047490407
167	0xbdd943fa	-0.106086686
168	0x3d811b85	0.06304077
169	0xbdf8703e	-0.121307835
170	0x3ca309ed	0.019902194
171	0xbdf272fb	-0.11838337
172	0x3dbf4c87	0.09340768
173	0x3de750eb	0.11294731
174	0xbe60337e	-0.21894643
175	0xbcfa7b3a	-0.030576337
176	0xbd8f951c	-0.07010862
177	0xbdd2446c	-0.10266957
178	0x3d9eb880	0.07750034
179	0xb9d4d12b	-0.00040591633
180	0x3cc42d06	0.02394725
181	0x3d2e7114	0.04258831
182	0x3ba0f6e6	0.004912245
183	0x3ca5bcf6	0.020231705
184	0xbd3abbc6	-0.04558923
185	0xbdd6ced3	-0.10488667
186	0x3d1c341e	0.03813564
187	0xbd16072c	-0.036627933
188	0x3d5f2e71	0.05448765
189	0x3e8024e1	0.25028136
190	0xbde3afcb	-0.11117514
191	0xbbbe681f	-0.005810752
192	0x3d9d88cf	0.0769211
193	0xbdaff0b3	-0.085908316
194	0x3d83f8dd	0.06443951
195	0xbe26f521	-0.16304447
196	0x3e0549f3	0.1301649
197	0x3ccf961a	0.025340129
198	0x3dbc4fa4	0.09194878
199	0x3cf0d1af	0.02939686
200	0x3ceaa98b	0.028645298
201	0x3d63a97c	0.055581555
202	0x3e154202	0.14575961
203	0xbdad6686	-0.084668204
204	0x3e3a57a9	0.18197502
205	0x3e6519a7	0.22373067
206	0x3e24a6aa	0.16079202
207	0xbe5d83d7	-0.21632324
208	0xbee0e22b	-0.43922552
209	0xbbd01fe2	-0.006351457
210	0xbc983c1d	-0.018583352
211	0x3e194c5c	0.14970535
212	0xbdf51275	-0.11966411
213	0x3e0c7b8b	0.13719003
214	0xbe84043a	-0.25784475
215	0x3e010928	0.12601149
216	0x3dad670b	0.084669195
217	0x3d8293f5	0.06375877
218	0xbdbcc2a0	-0.09216809
219	0x3cd084ca	0.025453944
220	0xbd90d893	-0.07072558
221	0xbd5fa686	-0.05460217
222	0xbc07b91a	-0.008283878
223	0xbd22d595	-0.03975447
224	0x3d2e53d4	0.042560413
225	0x3cb73d3e	0.02236807
226	0x3dac463c	0.08411834
227	0xbda7bcbd	-0.08190296
228	0xbd16838c	-0.036746547
229	0xbd40cf6e	-0.04707282
230	0xbcc77e2a	-0.024352152
231	0x3e05014b	0.12988774
232	0x3db00284	0.0859423
233	0xbda51eff	-0.08062553
234	0x3d3d3a86	0.04619839
235	0x3d85a346	0.065252826
236	0x3d46fc23	0.0485803
237	0x3dd3ad7b	0.10335823
238	0xbc1eb443	-0.009686532
239	0xbe520057	-0.20507942
240	0xbcf1d1cd	-0.029518986
241	0x3e352497	0.17689739
242	0xbdfd34f5	-0.123636164
243	0xbc9b4040	-0.018951535
244	0x3da7b9c6	0.0818973
245	0xbd3d4331	-0.046206657
246	0xba6d5272	-0.0009053118
247	0x3ac70b36	0.0015185836
248	0xbd06a011	-0.032867495
249	0x3d797e7c	0.06091164
250	0xbda12046	-0.07867484
251	0x3df27ca1	0.11840177
252	0x3df9f5df	0.12205099
253	0x3e923f37	0.28563854
254	0xbcc34c30	-0.02384004
255	0x3e12e6c4	0.14345843

dense1.0.bias f4 [16]
0	0xbda66fc3	-0.081267856
1	0xbdbef568	-0.09324151
2	0x3e1943a5	0.1496721
3	0xbea12388	-0.3147242
4	0x3ed3535b	0.41274533
5	0xbd883878	-0.066513956
6	0x3ceb0cf6	0.028692704
7	0xbe73eea7	-0.23821507
8	0x3e0cdbef	0.13755773
9	0xbe04d814	-0.12973052
10	0x3e6c981e	0.23104903
11	0x3e35e9c8	0.17764962
12	0xbe63edb5	-0.22258647
13	0xbe0e85b3	-0.1391819
14	0x3e5285d5	0.20558865
15	0x3e88a83f	0.26690862

dense2.weight f4 [10, 16]
0	0xbe78e202	-0.24304965
1	0x3f6e074f	0.929799
2	0x3ca980ea	0.020691354
3	0xbef7ae99	-0.48375395
4	0x3e953823	0.2914439
5	0xbef98bcb	-0.48739466
6	0x3f0a580f	0.54040617
7	0xbeeb0213	-0.4590002
8	0x3e81dfdc	0.25366104
9	0x3f454309	0.7705541
10	0x3c06e3a2	0.008232983
11	0xbe050cc2	-0.12993148
12	0x3e1a678e	0.15078565
13	0xbea79064	-0.3272735
14	0x3e59c732	0.21267393
15	0x3da5ec15	0.0810167
16	0x3d0ee76d	0.034888674
17	0xbfe8b187	-1.8179177
18	0x3dd58b76	0.10426991
19	0x3f39e444	0.7261393
20	0xbf39a935	-0.72523814
21	0x3d5e3c87	0.054256942
22	0xbea4ac56	-0.32162732
23	0xbeb843ac	-0.3598913
24	0x3c309767	0.010778285
25	0x3e75b211	0.23993708
26	0x3ddedb97	0.10881727
27	0xbebc96e0	-0.36833858
28	0x3d04cbad	0.032420803
29	0x3ec6db16	0.38839024
30	0x3e15847e	0.14601323
31	0xbe747ab8	-0.23874938
32	0xbe05103a	-0.12994471
33	0x3e9bc5a5	0.30424228
34	0xbdb54e43	-0.08852818
35	0xbe75d9ce	-0.24008867
36	0x3ebdc106	0.37061328
37	0x3d9f8b2d	0.077902175
38	0x3c9b7ec4	0.018981345
39	0x3e8ec57b	0.2788504
40	0xbf032cd1	-0.5124026
41	0x3ee0a59e	0.43876356
42	0x3f81427d	1.0098416
43	0x3f095778	0.5364909
44	0xbde6cc17	-0.11269396
45	0x3e73ca37	0.23807608
46	0x3e2f1c9c	0.17100757
47	0x3dfa6abb	0.122273885
48	0x3d0a963d	0.033834685
49	0xbe447245	-0.19184215
50	0x3e77bbe2	0.24192765
51	0x3d7405eb	0.059575956
52	0x3ce94dc6	0.028479468
53	0x3e9fe24b	0.31227335
54	0x3e115f26	0.14196452
55	0x3e4bccb7	0.19902311
56	0xbd7ea1a2	-0.062165864
57	0x3e2842f9	0.16431798
58	0x3f0653c2	0.52471554
59	0xbeef1d0d	-0.4670185
60	0x3e19173d	0.14950271
61	0x3e9e7c5a	0.30954248
62	0xbeedbb6b	-0.4643205
63	0x3e2d6f75	0.16937049
64	0x3e930956	0.2871806
65	0x3d33a20a	0.043855704
66	0x3eda3424	0.42617905
67	0xbf26af5e	-0.6511134
68	0xbe816de6	-0.25279158
69	0xbeae1e2f	-0.34007403
70	0xbe1ffb75	-0.15623267
71	0x3e7780a9	0.24170174
72	0xbe75a4df	-0.23988675
73	0xbf13b827	-0.5770287
74	0xbd6bcb31	-0.057566825
75	0x3e8f585e	0.27997106
76	0xbdc78f09	-0.09744079
77	0xbf5771aa	-0.8415781
78	0xbc38cf68	-0.011279918
79	0x3eeaa358	0.45827746
80	0x3ec53c52	0.38522583
81	0xbf26628d	-0.64994127
82	0xbe53b88e	-0.20675871
83	0x3ee3233c	0.4436282
84	0xbb95d5fe	-0.004572629
85	0x3ec5db6f	0.38643977
86	0x3e42d89d	0.19027944
87	0x3db74d2b	0.089502655
88	0xbc8e1125	-0.01734216
89	0xbdc5cd48	-0.09658295
90	0xc006fade	-2.1090617
91	0xbee59ac7	-0.44844648
92	0xbe6f0642	-0.23342231
93	0x3dd0c8ea	0.10194571
94	0xbe503e5c	-0.20336288
95	0xbcf0c54b	-0.029390952
96	0x3e6ed1a6	0.23322162
97	0xbf44476a	-0.7667147
98	0xbeb8a6f3	-0.36064872
99	0x3d81cc13	0.06337752
100	0x3ece4f7d	0.4029502
101	0xbe2c7478	-0.16841304
102	0xbf1d7b30	-0.61516094
103	0x3ddfd7e2	0.10929848
104	0x3e2fb932	0.1716049
105	0x3d5c7ae0	0.05382812
106	0x3f04ac87	0.51825756
107	0xbb384d48	-0.0028122235
108	0xbd7f4c5b	-0.062328678
109	0x3dc0b610	0.09409726
110	0xbe5efffb	-0.21777336
111	0x3edc58b6	0.4303643
112	0x3d70f43d	0.058826674
113	0xbe82779a	-0.25481874
114	0xbf002338	-0.5005374
115	0xbef1c637	-0.47221538
116	0xbebf757e	-0.37394327
117	0xbd8244b5	-0.06360761
118	0x3e3d5c50	0.18492246
119	0x3edb8fe8	0.4288323
120	0xbd143189	-0.036180053
121	0xbdfa97c4	-0.12235978
122	0xbfcc3055	-1.595225
123	0x3e8ef7b3	0.27923355
124	0x3eaf8515	0.3428122
125	0xbf13edfc	-0.5778501
126	0xbe0f1c4e	-0.13975641
127	0xbf3c0cb2	-0.7345687
128	0xbe189ad5	-0.14902814
129	0x3e0217ce	0.12704393
130	0x3e256bf9	0.1615447
131	0xbe5eb5c6	-0.21749029
132	0x3df4b25b	0.11948081
133	0x3ebe538d	0.3717312
134	0xbe98d97d	-0.2985343
135	0xbe20ed17	-0.15715443
136	0xbec0fd92	-0.3769346
137	0xbeeb8484	-0.4599954
138	0xbef2cd4e	-0.4742226
139	0xbd6252fa	-0.055254914
140	0xbcfb032a	-0.030641157
141	0x3e7a61e6	0.24451408
142	0x3e5ec2c2	0.21753982
143	0x3d44c1b7	0.048036303
144	0xbe905e85	-0.28197113
145	0xbf5afe05	-0.85543853
146	0x3e042be2	0.12907365
147	0x3ebfb58f	0.37443206
148	0xbeb146af	-0.3462424
149	0x3eb11b33	0.34591064
150	0xbe8463f8	-0.2585752
151	0x3e17eee5	0.14837225
152	0x3eb7d4e0	0.35904598
153	0xbf4b12b1	-0.79325396
154	0xbf4dd012	-0.80395615
155	0x3deaa544	0.11457303
156	0xbea20f80	-0.3165245
157	0x3ee3c246	0.44484156
158	0x3e84888a	0.2588542
159	0xbf12823d	-0.5722998

dense2.bias f4 [10]
0	0x3e75507f	0.23956488
1	0xbef2214d	-0.4729103
2	0xbdb50045	-0.08837942
3	0xbeeb844a	-0.45999366
4	0x3ba81288	0.005129162
5	0x3e7bc218	0.2458576
6	0x3ddf8960	0.10914874
7	0xbf056710	-0.52110386
8	0x3f3efa8f	0.7460107
9	0xbe70e63d	-0.23525329
