ResidualLoss/CNN-Train/CIFAR_20/final.pt (torch, 28479 bytes, 10 tensors)

conv1.0.weight f4 [16, 3, 3, 3]
-0.081896275 0.019744584 -0.27258414 0.14404273 -0.38529402 0.22775371 0.26970357 0.16359214
0.03172254 -0.27355325 0.32859188 0.13739882 -0.2295316 -0.030379685 0.23522699 0.14077982
-0.18165223 -0.124412276 -0.02614517 0.10534051 0.0792816 -0.5831948 -0.44094265 -0.31063396
0.2885086 0.036334414 -0.13934326 -0.22135507 0.10850441 0.0868788 0.072991975 -0.021921856
-0.20037685 0.355785 0.123324916 -0.57003504 -0.0014566696 0.16551995 0.31798443 0.045244627
0.16265808 -0.048828125 -0.011630179 0.2474251 -0.101724535 -0.20141225 -0.033767626 -0.14199314
0.026894813 -0.17897418 0.02807201 0.34728262 -0.10613734 -0.39770383 -0.14703184 0.043666225
0.116067596 -0.30375627 0.029503074 0.11203998 -0.074457966 0.03325336 0.21348074 0.22424124
-0.2697349 0.0799418 -0.057269458 -0.18610413 0.28919888 -0.32498586 -0.13817976 0.29363546
0.030996494 -0.12001961 0.054148506 -0.56387174 0.22514236 0.37462774 -0.25984678 0.31617126
-0.0061202436 0.04543539 0.5132547 0.29493538 -0.5659348 -0.12665108 0.3377991 -0.2993646
-0.21621424 0.20488468 -0.20359808 0.42472544 0.10144834 -0.2975636 0.0686897 -0.06868368
-0.04126262 -0.108799234 -0.2157675 0.17006026 0.09165406 -0.03382298 -0.2800591 5.4175613e-05
0.1924138 -0.15405501 -0.20368804 0.12732701 0.12504035 0.2703766 0.06446066 0.59834135
-0.07340303 -0.20669493 0.42156297 -0.2160016 0.08353065 -0.21195808 -0.31064472 -0.010094903
0.0005317544 -0.33215484 -0.12251164 -0.23821683 -0.01369606 -0.028008059 0.35292283 -0.12152543
0.18174897 0.024519242 -0.3654604 0.20108241 0.017900366 -0.44931936 0.17206393 -0.21114111
-0.26014104 0.31034157 0.49390826 -0.47192472 -0.22038978 -0.29645324 0.48063335 -0.05579143
-0.03292967 -0.041886404 0.12193567 0.37291893 -0.16942681 -0.31966054 -0.14807189 0.40435663
-0.28014424 -0.043233912 0.006477316 0.33494404 -0.03847831 -0.23255782 0.29289025 -0.04751568
0.23161243 -0.17251997 -0.030220654 0.04448702 0.51889616 -0.26949397 -0.44949785 -0.39883968
-0.09438685 -0.26374456 0.20941158 0.34345257 -0.0068152715 -0.022077788 0.086606696 0.6498709
-0.109589934 0.13348614 0.021270923 0.36016756 -0.28995925 -0.010028439 -0.045228954 -0.08161573
-0.23696072 -0.27143332 0.099949196 0.011055261 0.017524527 -0.021954568 0.26810816 -0.118819505
-0.20773397 0.20212068 -0.20715998 -0.09225488 0.35884178 -0.1869351 -0.19918293 0.26143184
-0.07222336 -0.32200247 0.6091871 -0.22849655 -0.22582562 0.5313351 -0.36963284 0.047125407
0.09300644 -0.11402451 -0.14916517 0.25039876 -0.1525319 -0.2045354 0.29449865 -0.04784528
0.0023946122 0.21203816 0.012075208 0.050216924 -0.2800688 0.21673068 -0.66171664 0.33990622
0.07774724 0.35128573 -0.11653135 -0.2622451 0.42148978 -0.80284685 0.08990263 -0.1956537
0.02576477 0.25840044 -0.21524759 0.5218144 -0.13269988 0.2997736 -0.24140055 -0.052904807
-0.12879519 -0.033689953 -0.2464216 -0.29196474 0.31590307 -0.16281156 -0.103627965 -0.12070852
0.3522488 0.046592373 -0.11239579 0.081409924 -0.23058227 0.12616739 0.1138549 0.19250183
00000000: 3cb9 a7bd 65bf a13c 2690 8bbe f07f 133e
00000010: 4245 c5be 4538 693e 9616 8a3e b384 273e
00000020: 7eef 013d 2c0f 8cbe 323d a83e 47b2 0c3e
00000030: 550a 6bbe d1de f8bc 58df 703e 9628 103e
00000040: 0b03 3abe ddcb febd 652e d6bc c4bc d73d
00000050: 645e a23d 414c 15bf 3cc3 e1be 6a0b 9fbe
00000060: 66b7 933e 65d3 143d 00b0 0ebe e7aa 62be
00000070: 8f37 de3d 83ed b13d d17c 953d 7795 b3bc
00000080: 972f 4dbe 7429 b63e c691 fc3d d1ed 11bf
00000090: b9ed beba 107e 293e dbce a23e 6e52 393d
000000a0: d78f 263e 0000 48bd 828c 3ebc 015d 7d3e
000000b0: f454 d0bd 033f 4ebe ec4f 0abd a666 11be
000000c0: 8352 dc3c 0245 37be 46f7 e53c 07cf b13e
000000d0: 895e d9bd d69f cbbe 848f 16be 5bdb 323d
000000e0: d9b4 ed3d f185 9bbe 6eb0 f13c 3875 e53d
000000f0: 6b7d 98bd ad34 083d b29a 5a3e 7f9f 653e
00000100: b11a 8abe 87b8 a33d 6193 6abd 1592 3ebe
00000110: e011 943e 8c64 a6be ff7e 0dbe 6357 963e
00000120: 5cec fd3c d7cc f5bd d3ca 5d3d e659 10bf
00000130: b88b 663e 35cf bf3e a30a 85be 33e1 a13e
00000140: 538c c8bb 761a 3a3d a964 033f c501 973e
00000150: 1ae1 10bf d2b0 01be 01f4 ac3e 5146 99be
00000160: 4467 5dbe 4acd 513e 047c 50be 9d75 d93e
00000170: 26c4 cf3d 425a 98be 2fad 8c3d 07aa 8cbd
00000180: fe02 29bd 22d2 debd 28f2 5cbe 4724 2e3e
00000190: 20b5 bb3d f789 0abd e863 8fbe 9f3a 6338
000001a0: 2008 453e 99c0 1dbe 9993 50be 0362 023e
000001b0: 940a 003e cd6e 8a3e f303 843d e62c 193f
000001c0: 5454 96bd d6a7 53be 1ad7 d73e 862f 5dbe
000001d0: 1e12 ab3d 8a0b 59be d30c 9fbe 1865 25bc
000001e0: 6f65 0b3a 3310 aabe 62e7 fabd 1def 73be
000001f0: 7065 60bc 2871 e5bc 4db2 b43e 53e2 f8bd
00000200: 671c 3a3e 94dc c83c a01d bbbe 8ce8 4d3e
00000210: caa3 923c 300d e6be 8731 303e 6035 58be
00000220: 3531 85be 17e5 9e3e 8be1 fc3e 1ea0 f1be
00000230: dcad 61be b8c8 97be 9315 f63e 8e85 64bd
00000240: 43e1 06bd 1491 2bbd 69b9 f93d 3bef be3e
00000250: 397e 2dbe 8caa a3be 28a0 17be d507 cf3e
00000260: 116f 8fbe 0b16 31bd aa3f d43b c97d ab3e
00000270: 6f9b 1dbd a323 6ebe b6f5 953e cd9f 42bd
00000280: cf2b 6d3e 13a9 30be 4e91 f7bc 0538 363d
00000290: 61d6 043f 1dfb 89be 9524 e6be b734 ccbe
000002a0: e54d c1bd 8709 87be fd6f 563e 04d9 af3e
000002b0: a452 dfbb 7adc b4bc da5e b13d f05d 263f
000002c0: b070 e0bd 97b0 083e 5c40 ae3c e267 b83e
000002d0: 8a75 94be 524e 24bc ff41 39bd 2626 a7bd
000002e0: d5a5 72be 4ff9 8abe 2ab2 cc3d 2021 353c
000002f0: 998f 8f3c 11da b3bc 7945 893e a457 f3bd
00000300: 37b8 54be b9f8 4e3e bf21 54be 20f0 bcbd
00000310: 1cba b73e ea6b 3fbe 9cf6 4bbe 65da 853e
00000320: d7e9 93bd 82dd a4be b0f3 1b3f 00fb 69be
00000330: d53e 67be 9405 083f 8440 bdbe 9206 413d
00000340: 297a be3d af85 e9bd c1be 18be 4434 803e
00000350: 5331 1cbe ba71 51be 87c8 963e 6af9 43bd
00000360: edee 1c3b 8820 593e 18d7 453c 43b0 4d3d
00000370: 2e65 8fbe a6ee 5d3e 4366 29bf 3008 ae3e
00000380: f239 9f3d b9db b33e fda7 eebd fd44 86be
00000390: 82cd d73e 5f87 4dbf df1e b83d 7259 48be
000003a0: a410 d33c 104d 843e dd69 5cbe a195 053f
000003b0: 7ae2 07be ed7b 993e b531 77be b6b2 58bd
000003c0: e3e2 03be 7afe 09bd f255 7cbe 677c 95be
000003d0: 0cbe a13e 13b8 26be e63a d4bd 0736 f7bd
000003e0: f459 b43e a5d7 3e3d c42f e6bd 3fba a63d
000003f0: c21d 6cbe 0632 013e c22c e93d 331f 453e

conv1.0.bias f4 [16]
0.25888374 0.07453889 -0.08272009 -0.27820066 0.40297574 0.3428107 0.12030377 -0.021259384
-0.3238511 0.12822436 0.2303915 0.61937755 -0.31475258 -0.05562737 0.5143319 -0.23059703
00000000: 698c 843e d8a7 983d 2769 a9bd 5170 8ebe
00000010: d652 ce3e e284 af3e d361 f63d 2928 aebc
00000020: d0cf a5be 3f4d 033e c0eb 6b3e 878f 1e3f
00000030: 4027 a1be 86d9 63bd 41ab 033f a121 6cbe

conv2.0.weight f4 [16, 16, 3, 3]
0.31042865 0.24084912 0.046871208 -0.29662457 -0.054562468 -0.19072454 -0.0766419 0.21097128
-0.24810468 -0.16325346 -0.0012393356 0.0111441435 -0.086786635 0.2209953 2.7299245e-06 0.015189122
0.1200429 -0.19639765 0.15195963 -0.020775873 -0.035395306 0.19978593 0.19550271 0.1220601
-0.099419214 0.01969615 0.026758024 -0.061428312 0.071197696 -0.19521125 0.015441127 0.2634946
-0.014460822 -0.013699713 0.015870199 -0.014630342 0.04668266 0.05339704 -0.031343512 -0.09745119
0.08580788 0.116202585 -0.10394146 0.007191232 0.023056546 -0.008054528 0.049472135 -0.027543444
-0.17949106 0.084303066 0.13988954 -0.26074424 -0.17628995 0.009803713 -0.21652494 0.27457196
-0.5670188 -0.27861872 0.051793948 -0.1009668 0.37172076 0.16575824 -0.046385538 0.018845769
0.2398997 0.0818983 0.036747314 -0.12997276 -0.0015172517 -0.19258888 0.10927468 0.06700463
0.013271604 -0.05076198 -0.45355946 -0.049704682 0.271759 -0.21399188 0.31735504 -0.07172991
-0.2623721 -0.2429511 -0.5647175 -0.24203022 0.040609177 -0.057427254 -0.0047495808 0.06847015
0.037622944 0.043566164 -0.13200597 0.0677382 0.16308695 -0.101184726 -0.17931643 -0.07172125
0.009631171 -0.046698324 0.09596314 0.02510144 -0.0788661 0.13341348 -0.28460884 -0.15068302
-0.18215227 -0.096288845 0.064522736 0.1399129 0.17623915 -0.08316653 0.24496752 -0.09293744
-0.2693937 -0.23396017 -0.27875045 0.14842393 0.0292359 0.25435087 -0.5273101 -0.32825154
0.2606119 -0.43315062 -0.026529573 0.58464855 0.07019178 -0.3163156 0.28131187 -0.325858
0.18121448 -0.14574106 0.022065597 0.14316638 0.13522469 -0.11014787 -0.22311287 -0.045976292
0.4765471 -0.1528859 -0.09223551 0.00018262684 -0.07027017 -0.27442718 -0.06402337 0.32349005
-0.08727162 -0.032091238 0.07084614 0.2283992 0.114601314 -0.032488532 -0.19053769 0.0744591
0.14540079 -0.020784264 0.13786003 0.23067747 0.035096772 -0.39347288 0.035808053 -0.25640196
0.13252063 0.0436723 -0.24127969 -0.02675273 -0.11424745 0.10346257 -0.41765106 -0.4446824
0.06384037 -0.31191403 -0.25098357 0.3098448 0.17759977 -0.025738727 -0.32329613 0.31020594
-0.37316343 -0.06815473 0.4119463 -0.09888734 -0.005693502 0.0121453535 0.016011158 -0.07090529
-0.31494674 -0.3910582 0.27480978 -0.18873331 0.03786246 0.03998919 0.09612346 0.16167994
-0.041388895 0.1010543 0.2423913 -0.13833252 0.1282424 -0.07744141 0.20709519 0.21548791
-0.06128653 -0.029086892 0.14689754 0.0857411 -0.041498855 -0.2861271 -0.121002935 -0.3458412
-0.091283835 0.21922332 -0.10609149 -0.26859665 -0.38073918 0.10303513 -0.09397193 -0.07382073
0.0681415 -0.38174793 -0.19909911 0.02994426 0.03814599 -0.14509907 -0.14713933 0.08244845
0.0735057 -0.6164362 -0.22138007 -0.010113385 -0.16490337 -0.155433 0.13871272 -0.088927925
-0.44078362 -0.2122851 0.084423885 0.3122584 -0.07267423 0.010456483 0.17327684 0.12110888
0.26175466 -0.01050547 0.05299606 -0.26898035 0.14393952 -0.04017852 0.5895165 0.073964976
0.034457393 -0.097292714 0.038774513 0.00032185297 -0.028449377 -0.25804323 -0.00053804164 0.19248195
00000000: 81f0 9e3e 27a1 763e 06fc 3f3d 2ddf 97be
00000010: e57c 5fbd 4b4d 43be 6ef6 9cbd db08 583e
00000020: 270f 7ebe ea2b 27be 3471 a2ba ed95 363c
00000030: 31bd b1bd 984c 623e bf33 3736 ccdb 783c
00000040: 0dd9 f53d 771c 49be 4e9b 1b3e 2a32 aabc
00000050: abfa 10bd af94 4c3e dd31 483e a5fa f93d
00000060: 4d9c cbbd d259 a13c a533 db3c 419c 7bbd
00000070: 19d0 913d 75e5 47be c8fc 7c3c c4e8 863e
00000080: 15ed 6cbc c374 60bc 3802 823c 1ab4 6fbc
00000090: 5136 3f3d dbb6 5a3d 0e62 00bd 7d94 c7bd
000000a0: 0bbc af3d 9ffb ed3d 43df d4bd 6da4 eb3b
000000b0: 15e1 bc3c 24f7 03bc 4ba3 4a3d caa2 e1bc
000000c0: 81cc 37be 16a7 ac3d 343f 0f3e 4580 85be
000000d0: 5a85 34be c19f 203c b7b8 5dbe b294 8c3e
000000e0: 2528 11bf 1da7 8ebe e425 543d aec7 cebd
000000f0: 2f52 be3e 87bc 293e c3fe 3dbd 7162 9a3c
00000100: 44a8 753e 4cba a73d 5a84 163d 9417 05be
00000110: 85de c6ba 0536 45be 67cb df3d b939 893d
00000120: 2471 593c cbeb 4fbd f238 e8be 2397 4bbd
00000130: ff23 8b3e b020 5bbe 5c7c a23e 22e7 92bd
00000140: a355 86be 2cc8 78be 5391 10bf c5d6 77be
00000150: cf55 263d d738 6bbd 5fa2 9bbb 143a 8c3d
00000160: 841a 1a3d 6f72 323d 932c 07be 53ba 8a3d
00000170: 4400 273e f039 cfbd ba9e 37be 97e2 92bd
00000180: 0fcc 1d3c be46 3fbd 5388 c43d 89a1 cd3c
00000190: 8d84 a1bd 8b9d 083e 40b8 91be a64c 1abe
000001a0: 2086 3abe 1633 c5bd 7f24 843d 5445 0f3e
000001b0: 0978 343e 3753 aabd c4d8 7a3e fc55 bebd
000001c0: f9ed 89be 4193 6fbe 61b8 8ebe 71fc 173e
000001d0: 2080 ef3c 473a 823e cbfd 06bf 9610 a8be
000001e0: ec6e 853e ebc5 ddbe 8c54 d9bc 87ab 153f
000001f0: b5c0 8f3d 1ef4 a1be 1c08 903e dcd6 a6be
00000200: 4a90 393e 253d 15be e9c2 b43c 359a 123e
00000210: 5778 0a3e 3595 e1bd b377 64be a351 3cbd
00000220: fbfd f33e 1f8e 1cbe f9e5 bcbd 857f 3f39
00000230: cfe9 8fbd b881 8cbe af1e 83bd 7da0 a53e
00000240: 77bb b2bd 1a72 03bd c817 913d 7be1 693e
00000250: 18b4 ea3d b212 05bd 501c 43be 037e 983d
00000260: f2e3 143e c343 aabc 2e2b 0d3e b736 6c3e
00000270: a2c1 0f3d 4775 c9be 77ab 123d 1e47 83be
00000280: 7db3 073e bae1 323d 0612 77be 8b28 dbbc
00000290: 91fa e9bd 2fe4 d33d 5cd6 d5be 69ad e3be
000002a0: bdbe 823d 32b3 9fbe eb80 80be faa3 9e3e
000002b0: b7dc 353e 06da d2bc 1287 a5be 50d3 9e3e
000002c0: 470f bfbe b594 8bbd a0ea d23e 7285 cabd
000002d0: 8e90 babb 4efd 463c d529 833c cb36 91bd
000002e0: b340 a1be c838 c8be deb3 8c3e 4e43 41be
000002f0: ab15 1b3d b4cb 233d 60dc c43d 6d8f 253e
00000300: 6787 29bd 8ff5 ce3d 6d35 783e 0aa7 0dbe
00000310: fa51 033e 9a99 9ebd c310 543e dda8 5c3e
00000320: 9607 7bbd a247 eebc 4f6c 163e 0899 af3d
00000330: b4fa 29bd 407f 92be 63d0 f7bd 1912 b1be
00000340: 05f3 babd 147c 603e 7f46 d9bd 8085 89be
00000350: 3ff0 c2be 1504 d33d 5b74 c0bd 532f 97bd
00000360: c58d 8b3d 7774 c3be a3e0 4bbe aa4d f53c
00000370: f83e 1c3d da94 14be b1ab 16be bcda a83d
00000380: 288a 963d c3ce 1dbf 75b1 62be 9cb2 25bc
00000390: 6edc 28be d429 1fbe b50a 0e3e d81f b6bd
000003a0: 64ae e1be 4461 59be 6ee6 ac3d 55e0 9f3e
000003b0: 3ad6 94bd ab51 2b3c 7c6f 313e ef07 f83d
000003c0: b504 863e 231f 2cbc 6612 593d cbb7 89be
000003d0: e264 133e 3b92 24bd 8eea 163f f37a 973d
000003e0: 3223 0d3d 6741 c7bd 06d2 1e3d 60be a839
000003f0: ab0e e9bc 3e1e 84be 5d0b 0dba fd19 453e

conv2.0.bias f4 [16]
0.5811231 0.10919088 -0.41961858 0.16445701 -0.22208314 0.53974867 0.3968627 0.6333168
0.46184635 0.80458593 0.34147862 -0.3969622 -0.24077335 -0.099545784 0.031870816 0.06302492
00000000: 7cc4 143f 789f df3d 3fd8 d6be 6b67 283e
00000010: c369 63be f82c 0a3f 9631 cb3e 0d21 223f
00000020: 2077 ec3e 58f9 4d3f 49d6 ae3e a13e cbbe
00000030: 4a8d 76be a9de cbbd f98a 023d 3613 813d

conv3.0.weight f4 [8, 16, 3, 3]
-0.18183753 -0.058322366 -0.17033835 -0.22339666 -0.16707984 0.09426437 -0.011437408 -0.040994935
-0.10261599 0.39426687 -0.013921489 0.37914842 0.54624295 0.13519491 0.08302683 0.053238194
-0.20373829 0.15698522 -0.056430798 -0.063392125 -0.29563197 -0.30212894 -0.28723896 -0.1899107
-0.1540024 -0.2622705 0.050829206 0.08528773 0.08045516 -0.15013568 0.095732294 -0.03538106
-0.29426256 -0.04116669 -0.51939446 -0.6068988 -0.27547547 -0.0040828623 -0.15254861 0.09257999
-0.11365966 0.026193438 -0.0047825966 0.0981373 -0.1692933 0.24659269 -0.3090665 -0.14289087
-0.13178296 -0.07620445 -0.41556162 -0.0021862793 -0.314884 -0.019329706 -0.025212454 -0.027673008
0.02026668 0.016534753 -0.050404295 -0.022725042 0.16381305 0.17857708 0.06210401 -0.3220854
0.008717323 0.13426925 -0.3535281 -0.08617251 0.3120845 -0.0037805475 -0.14238226 0.38469857
-0.089826964 0.1689557 0.12517789 0.14850396 -0.17430156 0.3502872 0.017138325 0.019085007
0.103125446 0.3216844 0.21448259 0.25315815 0.09673437 0.15968403 0.5999253 0.033599738
0.5179468 0.39718765 0.07971468 0.045016464 0.04954679 0.09101702 -0.007083083 0.27311096
0.16376205 0.3632175 0.16215415 0.35551676 0.24078405 0.20011184 -0.12756906 0.05010926
0.09886917 0.24964893 -0.05383173 -0.011546011 -0.17505738 0.08495838 -0.12769134 0.2543594
-0.040464528 0.07743599 -0.003317239 0.11279533 0.21866569 0.266821 -0.09799068 0.1960432
-0.029611249 0.006988892 -0.14733241 0.03494048 -0.14079997 0.1111571 0.010844932 -0.053298373
0.111346275 -0.1324635 -0.085485704 -0.08465433 0.20237334 0.24499506 0.12204614 0.16457051
-0.16625808 -0.036598794 -0.018766975 0.024185527 -0.25863025 0.16370119 0.075733006 -0.010679584
0.050855435 0.020089576 0.17734532 0.10846579 0.099705204 -0.05347841 0.33271626 -0.1066317
-0.30207032 0.06532208 -0.28593263 -0.44959015 0.029261999 -0.0055924007 -0.2511782 -0.1452224
0.2814528 0.086083844 -0.11521005 0.06513673 -0.06811094 0.12738849 0.04724334 0.18191187
0.16710505 0.08027442 -0.02524631 0.18467376 0.18395124 0.07233314 -0.23710085 -0.014125721
0.0021021625 -0.28155947 -0.03205823 0.44340533 -0.45411748 -0.013237631 0.08919144 0.091427796
-0.088404804 -0.14639874 0.24665794 0.31628317 -0.5216999 0.17449386 0.011931548 0.25579306
0.045365166 0.24608696 0.013271761 -0.28108713 -0.30524945 0.12859912 -0.08022041 -0.08128224
-0.12080377 0.028533418 -0.3823937 -0.18624505 -0.4499791 -0.10724513 -0.28741416 -0.25565034
-0.20312609 -0.07607727 0.0070847003 -0.029789846 -0.319007 -0.028240958 -0.22037706 0.0789517
-0.089213856 -0.1847333 -0.3457767 0.17769612 0.0026069607 0.18283701 0.008987758 0.26627356
-0.019476546 0.3568801 -0.031141449 -0.11693972 0.31747833 -0.27945864 -0.19212483 0.044713423
-0.03402972 0.42724842 -0.18811227 0.15433453 0.3572927 0.027249878 0.2773457 0.25815088
0.1468634 0.097151 0.028307566 0.22029221 0.0066270367 -0.036365278 -0.046606798 0.12647153
0.033504687 0.2595436 0.14708658 0.2913026 0.18597683 -0.16521767 -0.1655523 0.075652815
00000000: 9e33 3abe 6fe3 6ebd 2d6d 2ebe 18c2 64be
00000010: fa16 2bbe ae0d c13d f763 3bbc 4eea 27bd
00000020: 5528 d2bd 59dd c93e f516 64bc be1f c23e
00000030: 94d6 0b3f 8970 0a3e f809 aa3d 4b10 5a3d
00000040: c5a0 50be bcc0 203e fb23 67bd bbd3 81bd
00000050: 135d 97be a5b0 9abe fc10 93be f377 42be
00000060: ceb2 1dbe 5248 86be 4932 503d 55ab ae3d
00000070: adc5 a43d 2bbd 19be 4b0f c43d bbeb 10bd
00000080: 95a9 96be 679e 28bd 09f7 04bf b85d 1bbf
00000090: 1f0b 8dbe 88c9 85bb b435 1cbe 949a bd3d
000000a0: 65c6 e8bd 9f93 d63c 54b7 9cbb 35fc c83d
000000b0: 395b 2dbe cb82 7c3e f73d 9ebe fc51 12be
000000c0: 1df2 06be 1411 9cbd 7ec4 d4be ae47 0fbb
000000d0: 7a38 a1be 5559 9ebc 598a cebc 81b2 e2bc
000000e0: 4f06 a63c e473 873c bc74 4ebd de29 babc
000000f0: 9cbe 273e e9dc 363e c660 7e3d 61e8 a4be
00000100: 1ad3 0e3c e17d 093e a301 b5be 377b b0bd
00000110: 8ac9 9f3e 10c3 77bb a8cc 11be 36f7 c43e
00000120: 33f7 b7bd b902 2d3e a22e 003e 6c11 183e
00000130: 1c7c 32be d858 b33e ac65 8c3c 2958 9c3c
00000140: 6f33 d33d d1b3 a43e 53a1 5b3e f29d 813e
00000150: ab1c c63d 3684 233e b494 193f e19f 093d
00000160: 2998 043f 2e5c cb3e 7341 a33d 2f63 383d
00000170: 93f1 4a3d 2267 ba3d 3519 e8bb 33d5 8b3e
00000180: 3db1 273e a5f7 b93e bd0b 263e 4b06 b63e
00000190: 1890 763e 1eea 4c3e 77a1 02be 5e3f 4d3d
000001a0: eb7b ca3d f8a3 7f3e a97e 5cbd 7b2b 3dbc
000001b0: 3e42 33be a9fe ad3d 85c1 02be 653b 823e
000001c0: 22be 25bd c396 9e3d 0966 59bb 3d01 e73d
000001d0: e6e9 5f3e c39c 883e 56af c8bd 8cbf 483e
000001e0: 4a93 f2bc 1303 e53b 4fde 16be c01d 0f3d
000001f0: de2d 10be 55a6 e33d f1ae 313c 654f 5abd
00000200: 8409 e43d 83a4 07be 2113 afbd 405f adbd
00000210: f53a 4f3e fcdf 7a3e 54f3 f93d 2c85 283e
00000220: 8f3f 2abe 9ee8 15bd 33bd 99bc ba20 c63c
00000230: 2f6b 84be 49a1 273e e819 9b3d 6cf9 2ebc
00000240: ca4d 503d e592 a43c 039a 353e 5023 de3d
00000250: 3e32 cc3d 2d0c 5bbd c959 aa3e b961 dabd
00000260: f6a8 9abe 95c7 853d c365 92be ae30 e6be
00000270: dcb6 ef3c 7540 b7bb 6e9a 80be 2eb5 14be
00000280: 951a 903e ba4c b03d 3ff3 ebbd 6866 853d
00000290: c07d 8bbd 2172 023e 3c82 413d 1b47 3a3e
000002a0: 961d 2b3e ea66 a43d 59d1 cebc 1e1b 3d3e
000002b0: b75d 3c3e 6623 943d 91ca 72be 916f 67bc
000002c0: 6fc4 093b 9028 90be 7e4f 03bd 0606 e33e
000002d0: 1682 e8be a6e2 58bc 00aa b63d 7f3e bb3d
000002e0: 940d b5bd 8de9 15be e693 7c3e deef a13e
000002f0: 208e 05bf 85ae 323e 8a7c 433c 4ff7 823e
00000300: d3d0 393d 38fe 7b3e cd71 593c a7ea 8fbe
00000310: a849 9cbe 7daf 033e 994a a4bd 4e77 a6bd
00000320: f867 f7bd eabe e93c 1bc9 c3be 06b7 3ebe
00000330: a963 e6be 56a3 dbbd f327 93be 9ae4 82be
00000340: 4900 50be 66ce 9bbd c626 e83b d609 f4bc
00000350: e354 a3be 9559 e7bc 86aa 61be 6eb1 a13d
00000360: c1b5 b6bd ba2a 3dbe a509 b1be f9f5 353e
00000370: 8bd9 2a3b a039 3b3e 6441 133c 0255 883e
00000380: 478d 9fbc fdb8 b63e 5a1c ffbc 187e efbd
00000390: 858c a23e 3415 8fbe 5fbc 44be 6c25 373d
000003a0: bf62 0bbd 4ec0 da3e 81a0 40be df09 1e3e
000003b0: 12ef b63e 233b df3c 4100 8e3e 5a2c 843e
000003c0: 5c63 163e 1af7 c63d 45e5 e73c 4894 613e
000003d0: 9d27 d93b c2f3 14bd c5e6 3ebd c181 013e
000003e0: 363c 093d e6e2 843e dd9d 163e 9d25 953e
000003f0: b670 3e3e d22e 29be 8b86 29be ddef 9a3d

conv3.0.bias f4 [8]
-0.0781967 -0.037174556 -0.18579276 -0.017974928 0.78388554 0.46236464 0.13924034 -0.042862546
00000000: 9725 a0bd 5944 18bd 7540 3ebe 2840 93bc
00000010: b9ac 483f 0fbb ec3e 0595 0e3e a390 2fbd

dense1.0.weight f4 [16, 128]
0.089375354 -0.0050547146 0.014365635 0.042855944 0.22575438 -0.00034210226 0.23045203 -0.019747576
0.16645117 -0.31490684 0.07825573 0.40848696 -0.10507915 -0.047606844 0.029202076 -0.19269478
0.058668695 -0.46310496 0.015831307 0.4820383 -0.03196453 0.10234807 -0.10533104 0.26635966
-0.09372526 0.35011518 0.19267416 0.32972905 0.06312114 -0.32205385 -0.086557046 -0.13106401
-0.24857745 0.22423322 0.04797924 0.038104348 0.06326266 -0.033015996 0.08680344 0.046384793
0.36605492 0.2521339 0.17947017 -0.19479549 0.075937845 0.2464861 0.066383675 0.024008593
0.06233715 -0.0694245 0.048167784 0.16075745 0.20522536 0.33581477 0.0006765293 -0.029239375
0.13768885 0.037424058 -0.09466928 -0.035011895 -0.0005902398 -0.16403504 0.06719057 0.26068398
-0.13921954 -0.06619171 -0.0784154 -0.0006247218 0.20183069 -0.005100917 -0.09983213 0.07298488
0.039550066 -0.1773827 0.060401354 0.19020931 -0.35553786 -0.1487664 -0.10411986 -0.22832929
0.1283763 0.16661888 -0.09582224 0.07146457 0.060373113 -0.038596746 0.5388152 0.14068852
0.17757504 -0.033345003 -0.1291423 0.045391098 0.16444084 0.097034425 -0.039872326 0.08064105
-0.2640486 -0.27919945 -0.15771727 -0.101688676 -0.23233843 -0.0820494 -0.1924925 0.06859659
0.10384735 0.43721202 0.20954524 0.16858874 -0.17811221 -0.17176484 0.31214318 -0.12859792
0.16779129 0.0756469 -0.018253695 -0.23638499 0.25182506 0.010687223 0.14947297 0.17115182
-0.34556657 0.043072034 0.17336498 -0.08273241 -0.3847538 -0.08973753 -0.13709214 0.1709446
-0.061946534 -0.37377894 -0.0736282 -0.022945331 0.035640445 -0.22385383 -0.053180628 0.12256028
0.033203363 0.018058024 0.03996942 -0.05256689 0.01113549 0.09792278 0.014667312 0.26778102
0.0074841543 0.10737933 -0.13693339 0.027186504 -0.18006706 0.1139155 0.21877666 0.05146472
-0.033752948 0.08250199 0.08976518 -0.10868515 0.086571306 0.33486226 -0.17606671 0.16268712
0.3432271 -0.068600304 -0.040155258 0.43218058 -0.03981476 0.0056657675 0.12024014 -0.04902449
0.34371325 -0.1350157 -0.123661906 -0.06279256 -0.031713434 0.035270654 0.14463289 0.041297033
-0.14135087 0.13703853 0.039160065 0.19142476 0.1481036 0.27322254 0.25731182 0.115399815
-0.1075027 -0.06314823 0.12036858 0.14223032 0.19872148 -0.06012501 0.053604543 0.04915519
0.2328008 -0.17198126 -0.15594529 0.17869154 -0.15936735 -0.11920116 0.056984503 0.16223274
0.1079686 0.2601456 -0.032018546 -0.1433546 0.02760022 -0.15239806 -0.16557103 0.05721804
0.26476827 -0.38504028 -0.2615599 0.076416664 0.17268997 0.173023 0.031948924 -0.06262257
-0.008130206 0.065396376 0.0056367707 -0.13069116 -0.018240908 -0.20451675 0.022692112 -0.099018745
0.044878766 0.19164704 -0.06988996 0.15336871 -0.23782302 -0.41203943 -0.25812986 -0.066400744
-0.16360481 0.34042248 0.21445642 -0.16879573 -0.3092487 -0.2174991 -0.115972154 -0.19256788
0.18612657 -0.200874 0.06927045 0.053040776 0.03471061 0.38492367 0.18285042 0.32445976
-0.07390297 -0.01932534 0.08822791 0.15932012 -0.15954998 0.4402088 -0.21865869 0.048750743
00000000: 6d0a b73d 05a2 a5bb d75d 6b3c b789 2f3d
00000010: 282c 673e 305c b3b9 9efb 6b3e abc5 a1bc
00000020: 2d72 2a3e 783b a1be 8a44 a03d 3425 d13e
00000030: bd33 d7bd 65ff 42bd 3139 ef3c c851 45be
00000040: 964e 703d 181c edbe a8b0 813c b9cd f63e
00000050: 3ded 02bd dd9b d13d cdb7 d7bd 4b60 883e
00000060: 07f3 bfbd 4c42 b33e 604c 453e 3fd2 a83e
00000070: a845 813d 3ee4 a4be d244 b1bd a535 06be
00000080: 168b 7ebe 659d 653e e185 443d 4e13 1c3d
00000090: da8f 813d c83b 07bd 00c6 b13d fbfd 3d3d
000000a0: 8d6b bb3e b217 813e 07c7 373e 7878 47be
000000b0: 4d85 9b3d da66 7c3e 2af4 873d abad c43c
000000c0: 3d55 7f3d 6f2e 8ebd 954b 453d 9a9d 243e
000000d0: 9926 523e eaef ab3e 1d59 313a 6a87 efbc
000000e0: 4efe 0c3e f849 193d f8e1 c1bd a268 0fbd
000000f0: 53ba 1aba cdf8 27be 369b 893d 5f78 853e
00000100: 918f 0ebe 858f 87bd 4198 a0bd 5fc4 23ba
00000110: b4ac 4e3e 9825 a7bb ca74 ccbd 1979 953d
00000120: 40ff 213d cfa3 35be 6967 773d 3bc6 423e
00000130: 0f09 b6be 3856 18be cb3c d5bd 27cf 69be
00000140: 1475 033e 249e 2a3e 733e c4bd 045c 923d
00000150: cc49 773d 9f17 1ebd cbef 093f a710 103e
00000160: 3bd6 353e c594 08bd e13d 04be 04ec 393d
00000170: 2e63 283e fcb9 c63d 2a51 23bd 2327 a53d
00000180: 6131 87be 3bf3 8ebe a380 21be 2742 d0bd
00000190: 20ea 6dbe 8409 a8bd c11c 45be 5e7c 8c3d
000001a0: ebad d43d 41da df3e 0793 563e 87a2 2c3e
000001b0: 0c63 36be 1fe3 2fbe 3bd1 9f3e 2caf 03be
000001c0: 7bd1 2b3e c3ec 9a3d c688 95bc e80e 72be
000001d0: 37ef 803e 7619 2f3c 710f 193e 6c42 2f3e
000001e0: 1aee b0be 4d6c 303d 9786 313e 9c6f a9bd
000001f0: 73fe c4be 4fc8 b7bd e261 0cbe 1a0c 2f3e
00000200: a6bb 7dbd f45f bfbe 62ca 96bd d9f7 bbbc
00000210: b7fb 113d f039 65be eed3 59bd e200 fb3d
00000220: 4000 083d 6cee 933c f9b6 233d 6150 57bd
00000230: a171 363c bd8b c83d 2a4f 703c 981a 893e
00000240: a33d f53b b2e9 db3d 4438 0cbe 3bb6 de3c
00000250: 8063 38be 884c e93d fd06 603e accc 523d
00000260: 8840 0abd cef6 a83d cfd6 b73d 5296 debd
00000270: 4c4c b13d 1173 ab3e d54a 34be 7497 263e
00000280: 76bb af3e 517e 8cbd d779 24bd c646 dd3e
00000290: cd14 23bd e7a7 b93b 7640 f63d e7cd 48bd
000002a0: 2ffb af3e 8e41 0abe 7442 fdbd 6399 80bd
000002b0: f2e5 01bd f677 103d a51a 143e 1427 293d
000002c0: 48be 10be d453 0c3e 4e66 203d da04 443e
000002d0: 78a8 173e d3e3 8b3e 60be 833e bd56 ec3d
000002e0: 602a dcbd dc53 81bd cd83 f63d d3a4 113e
000002f0: a57d 4b3e a445 76bd 7090 5b3d f456 493d
00000300: 5563 6e3e db1b 30be 1fb0 1fbe eafa 363e
00000310: 3231 23be bd1f f4bd 9568 693d 5720 263e
00000320: a41e dd3d ce31 853e e125 03bd 8ccb 12be
00000330: db19 e23c 3d0e 1cbe 748b 29be 775d 6a3d
00000340: b58f 873e 0024 c5be 2eeb 85be 5780 9c3d
00000350: a4d5 303e f12c 313e e0dc 023d 4340 80bd
00000360: 8e34 05bc 89ee 853d a9b4 b83b e7d3 05be
00000370: f56d 95bc d76c 51be cfe4 b93c 57ca cabd
00000380: ccd2 373d 1f3f 443e 7822 8fbd b00c 1d3e
00000390: e187 73be d5f6 d2be 9929 84be 1dfd 87bd
000003a0: 0588 27be db4b ae3e 779a 5b3e cad8 2cbe
000003b0: d855 9ebe 16b8 5ebe cf82 edbd 8430 45be
000003c0: f797 3e3e eab1 4dbe aadd 8d3d 4941 593d
000003d0: b62c 0e3d b714 c53e 243d 3b3e 971f a63e
000003e0: 715a 97bd 2d50 9ebc d6b0 b43d d024 233e
000003f0: 1261 23be 0c63 e13e 10e8 5fbe dcae 473d

dense1.0.bias f4 [16]
-1.5834811 1.1381024 -0.17379439 0.58517754 0.2182724 -6.75656e-40 0.081655614 1.0543315
-0.37692234 1.3108692 -0.27170607 -0.15143529 1.0841978 -0.15566011 0.8522757 -0.00082980416
00000000: 82af cabf 57ad 913f 28f7 31be 32ce 153f
00000010: cd82 5f3e 745b 0780 0f3b a73d 56f4 863f
00000020: f7fb c0be 90ca a73f 0f1d 8bbe da11 1bbe
00000030: fec6 8a3f 5d65 1fbe be2e 5a3f 3787 59ba

dense2.weight f4 [10, 16]
0.020888261 0.2741214 -0.057795465 0.3107672 -0.13033937 0.00053009245 0.2643308 -0.59479696
0.18801309 -0.0155881755 -0.38376153 0.28069973 0.1564221 -0.2093925 0.42208648 0.0011786888
0.64412916 0.49063188 0.54768825 -0.5007604 0.15380317 0.0011738801 -0.22450578 -0.66418177
-0.24540469 -0.07366305 -0.21828857 -0.27412546 -0.9588651 0.1796882 -0.5702008 -0.0033485598
-0.44623902 0.2797261 -0.17507838 -0.054671112 0.055915702 -0.0004696914 0.20184182 0.17628698
0.11608865 -0.6995723 -0.0890705 0.0061566257 0.29657754 0.0926903 0.5438285 0.0056237504
-0.33042845 0.1655152 -0.40996453 -0.04551013 -0.44265285 -0.00085937855 -0.13877104 -0.19105084
0.039529532 0.2391491 0.23049447 -0.0684759 0.025955996 -0.30140993 -0.07037164 -0.0056749065
-0.16291796 -0.061441727 -0.35793903 0.24740295 -0.31227064 -5.9724425e-05 0.39857772 0.39838865
-0.7080745 0.038546056 0.09739319 -0.55004334 0.26567212 -0.50855744 -0.0899767 -0.0029989518
-0.09920745 -0.07575172 -0.5939221 0.046282098 -0.621896 0.0012495049 -0.0471573 0.10167906
0.30550364 0.21380386 0.0057923584 -0.27850884 -0.39371222 -0.17661604 -0.09655262 0.0040157074
-0.3592923 0.36395013 -0.23387405 -0.88956535 0.58204705 -6.239277e-08 -0.75785786 0.3214583
-0.41767955 -0.41445404 0.26887465 0.38548207 0.02518066 -0.5230682 0.3903604 0.0004249755
0.36685374 -0.49564153 -0.40606284 0.9713455 -0.119952165 -4.194395e-05 0.09521413 -0.05128337
-0.045853972 -0.4299211 0.39102322 -0.4651901 0.06338438 -0.4347902 -0.49985453 -0.0018176504
-0.16333392 -0.09105975 0.67545277 -0.37578171 0.35802355 8.461567e-05 -0.4486169 0.01491998
0.115458824 0.19905835 -0.6038805 -0.33724475 0.5586777 0.546154 -0.41818035 0.0011651205
-0.120330974 -0.12629081 0.30199623 -0.14755061 0.29713678 -0.0013014171 0.21948837 -0.69096506
-0.14970109 -0.22306474 0.064390644 0.46820566 -0.4834433 0.23526895 -0.48418844 0.0007913614
00000000: dc1d ab3c a459 8c3e f0ba 6cbd e11c 9f3e
00000010: af77 05be e7f5 0a3a 5e56 873e 9d44 18bf
00000020: 8186 403e 8c65 7fbc 647c c4be e0b7 8f3e
00000030: 1d2d 203e fd6a 56be b81b d83e 3c7e 9a3a
00000040: a6e5 243f 1a34 fb3e 4c35 0c3f d531 00bf
00000050: 947e 1d3e e1dc 993a d8e4 65be d107 2abf
00000060: 5e4b 7bbe a7dc 96bd 0a87 5fbe 2c5a 8cbe
00000070: 2f78 75bf 2f00 383e aef8 11bf 8373 5bbb
00000080: 7179 e4be 4238 8f3e bf47 33be d1ee 5fbd
00000090: dd07 653d ea40 f6b9 9faf 4e3e 9384 343e
000000a0: e3bf ed3d 2c17 33bf 986a b6bd 85bd c93b
000000b0: 03d9 973e 69d4 bd3d 5838 0b3f 7047 b83b
000000c0: eb2d a9be d17c 293e dfe6 d1be d468 3abd
000000d0: 65a3 e2be eb47 61ba ff19 0ebe d5a2 43be
000000e0: b8e9 213d 80e3 743e be06 6c3e 183d 8cbd
000000f0: aba1 d43c 6752 9abe 021f 90bd 91f4 b9bb
00000100: f7d3 26be 52aa 7bbd c943 b7be 3357 7d3e
00000110: f0e1 9fbe 9d80 7ab8 6112 cc3e 99f9 cb3e
00000120: 5f44 35bf 78e2 1d3d 1576 c73d a4cf 0cbf
00000130: 2d06 883e d230 02bf b445 b8bd 108a 44bb
00000140: 472d cbbd b823 9bbd 470b 18bf 4c92 3d3d
00000150: 9434 1fbf 6dc6 a33a 0328 41bd 1c3d d03d
00000160: f96a 9c3e 66ef 5a3e d3cd bd3b b698 8ebe
00000170: a694 c9be d6da 34be 61bd c5bd 3296 833b
00000180: 29f5 b7be ac57 ba3e ae7c 6fbe 8eba 63bf
00000190: 0901 153f cafc 85b3 f902 42bf 2f96 a43e
000001a0: 18da d5be 5233 d4be f0a9 893e e85d c53e
000001b0: ac47 ce3c cce7 05bf 51dd c73e 3fcf de39
000001c0: 41d4 bb3e bac4 fdbe 78e7 cfbe 19aa 783f
000001d0: 7ba9 f5bd f9ec 2fb8 a0ff c23d 830e 52bd
000001e0: 60d1 3bbd 9e1e dcbe 3234 c83e 662d eebe
000001f0: abcf 813d d29c debe efec ffbe 3a3e eeba
00000200: 0241 27be 897d babd 79ea 2c3f 7666 c0be
00000210: dd4e b73e b173 b138 1db1 e5be ef72 743c
00000220: ad75 ec3d f4d5 4b3e ea97 1abf 58ab acbe
00000230: 8005 0f3f c0d0 0b3f bc1b d6be f5b6 983a
00000240: 1670 f6bd 6152 01be 409f 9a3e 8217 17be
00000250: 5022 983e 5094 aaba 8fc1 603e 16e3 30bf
00000260: 3e4b 19be 156b 64be 3edf 833d a7b8 ef3e
00000270: e185 f7be 58ea 703e 8ce7 f7be 5d73 4f3a

dense2.bias f4 [10]
-0.44254914 -0.35875627 0.37717572 0.039718423 0.117666826 0.4648264 0.7358342 -1.6946796
0.6777157 0.56978387
00000000: cd95 e2be e7ae b7be 2d1d c13e c9af 223d
00000010: 4efb f03d bafd ed3e a15f 3c3f 43eb d8bf
00000020: c77e 2d3f 5bdd 113f
