ResidualLoss/CNN-30/CIFAR_11_6/iter-19.pt (torch, 58431 bytes, 10 tensors)

conv1.0.weight f4 [16, 3, 3, 3]
-0.19921061 -0.367588 0.05457952 0.1720588 -0.41639438 -0.102237724 0.3014368 0.5003591
0.13210937 -0.3376182 -0.015877733 -0.0961747 0.1956266 -0.044138353 -0.20516182 0.18709697
0.19715045 0.19553709 -0.3182826 -0.23031296 0.0072567253 0.26117447 -0.4123127 0.032521337
0.20725277 0.33731362 0.07303193 -0.057771124 0.036342904 0.11738499 -0.39517584 -0.10186615
0.28803185 0.19011933 -0.49501312 0.12165093 -0.039283603 0.15506564 0.071656846 -0.2144529
-0.2005616 0.46716464 -0.06866172 -0.49941123 0.07381686 0.13914207 0.23907271 0.23413678
-0.14262056 -0.15421489 0.17401925 -0.03229365 -0.190084 0.25057718 0.0737968 0.17299178
-0.29652435 0.079461314 0.17101474 -0.34741396 -0.13477533 -0.35278767 0.34876162 0.068223566
-0.006161865 -0.2127983 0.1648217 0.3245875 -0.044232246 -0.042104386 -0.39642417 0.43690202
0.014376661 0.17442699 -0.065379865 -0.17344557 0.09518154 -0.23769394 -0.094019465 -0.31058246
0.49129844 -0.26534304 0.119026884 0.1052665 -0.11972134 0.13027017 0.080239214 0.2272065
0.5252904 0.20546621 -0.616191 -0.2961196 0.21367739 -0.37116924 -0.020032745 0.2406871
-0.46749794 -0.44191644 0.07288672 0.38024482 0.0710798 0.3830929 0.37283444 0.24411486
0.5393658 -0.106405504 -0.089346215 0.20562623 0.39592192 0.46800014 0.23510078 -0.094464384
-0.31464675 -0.5428993 0.0942431 -0.025093382 -0.1310636 0.47567967 0.34376007 -0.11861996
0.26439744 -0.24471208 -0.33531696 -0.13856152 -0.18403278 -0.004956544 0.20451131 0.37189373
0.06279606 0.036783982 -0.3451353 -0.27609858 -0.18386123 -0.28443113 0.30017915 -0.33935127
-0.104437076 0.21151908 0.043514095 -0.25746962 0.216851 0.1649764 -0.081196345 0.041394513
-0.11658788 -0.33850875 0.15065467 0.08504283 -0.4055387 -0.12894882 0.22611825 -0.22471821
-0.3740679 -0.1447537 -0.20701298 0.16633251 0.416854 -0.32684863 -0.15264358 0.39511707
0.3025834 -0.132206 -0.013366207 0.016417703 -0.34271747 0.3363061 0.5606462 0.43071535
-0.39735502 -0.30220643 0.14588055 -0.16526097 0.20356527 0.24892758 -0.25406384 0.23401856
0.27077058 -0.26680776 -0.32769644 -0.15040466 0.12213613 0.08381568 0.0658582 -0.13479744
-0.20737424 -0.04846408 0.17596637 -0.17974538 -0.21345942 -0.066351034 -0.26874155 -0.07761002
-0.21906918 -0.2595972 0.37507614 0.16949345 0.13896623 0.09249884 -0.058544908 -0.49892905
0.021917226 -0.016371595 -0.056875914 0.15696007 -0.0017696978 0.0573786 0.49207616 0.21923606
-0.18547241 0.37762135 -0.13378704 -0.31068063 -0.06585498 -0.089939035 0.025076052 0.22866528
-0.058302652 0.13802111 -0.0107288975 -0.011839101 0.08633107 -0.3800509 0.20850551 0.17196935
-0.17145883 0.08327025 -0.014807648 -0.22753043 0.15533467 0.19422288 -0.26212257 -0.060802206
0.22086915 -0.10291684 0.33606556 -0.10445294 -0.4681204 0.2774661 0.32697147 -0.3476716
0.22399943 0.08910389 -0.24412681 -0.15195613 0.11651325 -0.30247495 -0.34114876 0.07165531
0.34492856 -0.060769483 0.063975416 -0.20643829 -0.053257257 -0.16302112 -0.38534948 -0.11022051
00000000: defd 4bbe 7f34 bcbe c68e 5f3d 2f30 303e
00000010: a531 d5be 0362 d1bd ed55 9a3e 8917 003f
00000020: ae47 073e 4bdc acbe 0512 82bc 3ef7 c4bd
00000030: 5752 483e 6bca 34bd f115 52be 5996 3f3e
00000040: cfe1 493e e03a 483e f0f5 a2be 29d7 6bbe
00000050: d3c9 ed3b a9b8 853e a61a d3be 1835 053d
00000060: 123a 543e 5fb4 ac3e c491 953d 6aa1 6cbd
00000070: 4cdc 143d 8b67 f03d 7d54 cabe 339f d0bd
00000080: e978 933e a4ae 423e 5c72 fdbe 1f24 f93d
00000090: d8e7 20bd 87c9 1e3e d3c0 923d 8b99 5bbe
000000a0: 0560 4dbe 3430 ef3e 849e 8cbd d4b2 ffbe
000000b0: 4b2d 973d 427b 0e3e 7acf 743e 8dc1 6f3e
000000c0: 200b 12be 82ea 1dbe 1a32 323e 5946 04bd
000000d0: 61a5 42be a74b 803e c722 973d c224 313e
000000e0: 0ad2 97be 9dbc a23d 7d1e 2f3e 3ee0 b1be
000000f0: 8b02 0abe 96a0 b4be e290 b23e ccb8 8b3d
00000100: 78e9 c9bb cce7 59be 05c7 283e 5530 a63e
00000110: df2c 35bd a675 2cbd 1cf8 cabe 9fb1 df3e
00000120: 168c 6b3c fd9c 323e e1e5 85bd b79b 31be
00000130: 8aee c23d 0a66 73be 478d c0bd aa04 9fbe
00000140: 788b fb3e 0bdb 87be 5ec4 f33d f695 d73d
00000150: 7630 f5bd 8b65 053e 7554 a43d d2a8 683e
00000160: 6f79 063f bc65 523e b2be 1dbf fd9c 97be
00000170: 3fce 5a3e e509 bebe b61b a4bc ae76 763e
00000180: e45b efbe df42 e2be a245 953d 73af c23e
00000190: 4992 913d c124 c43e 28e4 be3e 3ff9 793e
000001a0: e113 0a3f 21eb d9bd 26fb b6bd af8f 523e
000001b0: 47b6 ca3e b79d ef3e 42be 703e 8b76 c1bd
000001c0: 6119 a1be 73fb 0abf 8702 c13d a390 cdbc
000001d0: 8935 06be 498c f33e 5201 b03e 06ef f2bd
000001e0: 1a5f 873e ce95 7abe aaae abbe 12e3 0dbe
000001f0: 1773 3cbe 816a a2bb 6a6b 513e db68 be3e
00000200: 399b 803d cdaa 163d 93b5 b0be cb5c 8dbe
00000210: 1e46 3cbe f5a0 91be 15b1 993e 73bf adbe
00000220: 1be3 d5bd 7598 583e d63b 323d 0fd3 83be
00000230: 300e 5e3e 93ef 283e 454a a6bd 4b8d 293d
00000240: a0c5 eebd 0551 adbe 3845 1a3e ef2a ae3d
00000250: c5a2 cfbe 290b 04be 8b8b 673e 881c 66be
00000260: d485 bfbe 503a 14be 36fb 53be 1253 2a3e
00000270: e36d d53e b458 a7be 994e 1cbe c94c ca3e
00000280: 36ec 9a3e 0261 07be effd 5abc 6b7e 863c
00000290: aa78 afbe 5030 ac3e 8286 0f3f b986 dc3e
000002a0: 1e72 cbbe cdba 9abe b661 153e 2c3a 29be
000002b0: 6a73 503e dfe6 7e3e a814 82be 90a2 6f3e
000002c0: 71a2 8a3e 079b 88be d4c7 a7be ae03 1abe
000002d0: 8222 fa3d 8ea7 ab3d aae0 863d 5708 0abe
000002e0: ea59 54be 4582 46bd 8730 343e 2c0f 38be
000002f0: 1b95 5abe 0de3 87bd 7e98 89be 01f2 9ebd
00000300: ac53 60be ede9 84be fb09 c03e b18f 2d3e
00000310: 2a4d 0e3e 0870 bd3d c9cc 6fbd a173 ffbe
00000320: c18b b33c b91d 86bc b8f6 68bd 24ba 203e
00000330: 34f5 e7ba d305 6b3d 68f1 fb3e 6b7f 603e
00000340: 7bec 3dbe 9657 c13e 78ff 08be 8811 9fbe
00000350: fade 86bd f531 b8bd 4b6c cd3c 3b27 6a3e
00000360: c3ce 6ebd 6855 0d3e 42c8 2fbc caf8 41bc
00000370: 58ce b03d 0896 c2be 7882 553e bc18 303e
00000380: e792 2fbe 9889 aa3d c79b 72bc bdfd 68be
00000390: 0d10 1f3e 5de2 463e ee34 86be bc0b 79bd
000003a0: 862b 623e 10c6 d2bd c910 ac3e 6ceb d5bd
000003b0: 7aad efbe 0910 8e3e ce68 a73e 0302 b2be
000003c0: 1b60 653e 1a7c b63d 61fc 79be 639a 1bbe
000003d0: 809e ee3d ffdd 9abe 0dab aebe 05c0 923d
000003e0: 7a9a b03e 6ce9 78bd 8b05 833d 8f64 53be
000003f0: 4824 5abd 02ef 26be 874c c5be 4abb e1bd

conv1.0.bias f4 [16]
-0.008053176 0.3416244 0.1431334 -0.2923709 0.19939037 -0.4457145 -0.1891552 0.28177583
0.05797875 -0.733879 0.6813954 0.42815274 0.21205626 0.014995256 0.74267423 0.05103932
00000000: 78f1 03bc 65e9 ae3e 9091 123e a3b1 95be
00000010: fd2c 4c3e b134 e4be e7b1 41be ec44 903e
00000020: 207b 6d3d 7fdf 3bbf ee6f 2e3f d636 db3e
00000030: 4725 593e aaae 753c e61f 3e3f 9b0e 513d

conv2.0.weight f4 [16, 16, 3, 3]
0.049084373 -0.058009434 -0.042278603 -0.05205238 0.101541944 0.09401378 0.33928803 -0.12500553
0.26114038 0.107055165 -0.27209452 0.04491302 -0.3682425 -0.052722093 0.21695977 -0.17092822
0.03541105 0.10339645 0.4073395 0.1714104 -0.296253 0.06537782 -0.2774104 -0.106449865
-0.06050082 0.14672633 0.13795453 0.027206004 -0.12295853 0.0686265 -0.1515738 0.28690162
-0.1697297 0.12357476 -0.13556114 -0.119818255 0.05209883 0.1780575 0.13640852 0.23192877
-0.1097973 0.18209657 0.21568479 -0.16302553 -0.23994313 0.31430244 -0.007982097 0.11101617
-0.15863061 -0.18674952 0.30635494 -0.33338824 -0.08989714 0.012620751 -0.15285945 -0.115061924
0.044723406 -0.1028949 0.1548635 -0.09585163 0.11392199 0.015766473 -0.030872924 -0.15240352
0.14452162 0.10165729 0.036964234 -0.1421909 -0.15524434 -0.13345039 -0.059149012 -0.3466106
-0.017509054 -0.052428875 -0.14499019 -0.04240992 -0.20157242 -0.22143652 -0.38064116 -0.4633149
-0.02714083 -0.08202863 0.1398455 -0.058286328 0.045444075 0.16438608 -0.027804917 -0.11901976
0.07093917 0.015596335 0.05171725 0.109654166 0.006363014 0.14777452 0.14177778 0.12794152
0.37473556 -0.43181968 0.12996626 -0.0071343845 0.10172964 -0.06816594 0.08631406 -0.00025470354
-0.25075552 0.3863696 -0.2076158 0.094658755 -0.14967054 0.031713665 0.19403186 -0.10942238
0.06871176 -0.2895969 -0.069594055 0.049736276 0.25218385 0.18510436 0.019434396 -0.1935184
0.456624 0.05832157 -0.5972183 0.10096409 -0.570877 -0.09953719 0.025414998 0.018044727
-0.13363017 0.09296682 0.005182024 0.005850304 -0.089819245 0.20620479 0.28103632 0.13402706
0.113246314 -0.05197984 -0.29948217 -0.6736305 -0.860777 -0.42413354 -1.6723102 -0.17730834
0.12862284 -0.15907064 -0.024127904 -0.050661314 0.122483276 -0.09841386 -0.03595805 0.018980404
0.03476119 -0.055822294 -0.0038738598 -0.17538923 -0.19985682 -0.08834256 -0.12982233 -0.020065228
-0.009686095 0.02724914 0.050606016 0.18573505 0.28155193 0.26550257 0.16626692 0.1858406
-0.011193745 0.16528942 0.25069457 0.043225024 -0.0062918374 0.06481298 0.09663791 -0.12645364
-0.18847091 0.07153743 -0.31321073 -0.008635831 0.024725163 0.12334996 -0.010264989 0.08027918
0.1793565 0.09664737 0.13682657 0.0248871 -0.047643773 0.035832413 -0.01214119 -0.23617662
-0.02370719 -0.03944269 -0.08064737 0.10312438 -0.10806632 0.026505264 0.016693085 -0.21243887
-0.32732034 -0.30039203 -0.1311591 -0.07571455 -0.13290386 -0.1065018 0.027405582 0.10870606
0.18673281 0.21246281 -0.017461985 0.10392937 0.36036846 0.25121722 0.16811454 0.024090514
0.0031099967 -0.16278847 -0.008297474 -0.020713786 0.18244445 -0.050590385 0.140869 -0.075896025
-0.05200192 -0.033580437 -0.10051628 0.13527535 -0.007816546 -0.04745616 0.15845874 0.1730287
0.017493978 0.106677435 -0.1693363 0.19185054 -0.18602826 -0.002742975 -0.17615952 -0.050962184
0.19383727 0.13015357 -0.15753739 0.32096407 -0.27642843 -0.3594188 -0.059437573 -0.5649861
0.08823971 -0.21089356 -0.45920154 0.2540169 -0.01424485 -0.10567636 -0.055532653 -0.12880585
00000000: b20c 493d 4d9b 6dbd 542c 2dbd e034 55bd
00000010: 39f5 cf3d 4c8a c03d 29b7 ad3e 7301 00be
00000020: 31b4 853e bd3f db3d f94f 8bbe b7f6 373d
00000030: 488a bcbe 1ff3 57bd b42a 5e3e cf07 2fbe
00000040: 2d0b 113d 85c1 d33d ce8e d03e 3586 2f3e
00000050: 79ae 97be cee4 853d bc08 8ebe 6302 dabd
00000060: b5cf 77bd 6d3f 163e f443 0d3e 20df de3c
00000070: afd1 fbbd 0d8c 8c3d 2a36 1bbe c5e4 923e
00000080: 9fcd 2dbe c414 fd3d 8ad0 0abe 4663 f5bd
00000090: 9565 553d b554 363e adae 0b3e bc7e 6d3e
000000a0: 68dd e0bd 8677 3a3e 79dc 5c3e 2af0 26be
000000b0: a7b3 75be 40ec a03e 57c7 02bc 725c e33d
000000c0: 1070 22be 443b 3fbe 8eda 9c3e ddb1 aabe
000000d0: fe1b b8bd 44c7 4e3c 3087 1cbe 96a5 ebbd
000000e0: e42f 373d 90ba d2bd 8a94 1e3e dc4d c4bd
000000f0: ef4f e93d b128 813c 37e9 fcbc ab0f 1cbe
00000100: 7afd 133e b231 d03d cf67 173d 7e9a 11be
00000110: 5ff8 1ebe 38a7 08be 3c46 72bd f276 b1be
00000120: 266f 8fbc a9bf 56bd 4f78 14be 06b6 2dbd
00000130: 0069 4ebe 41c0 62be 66e3 c2be 9c37 edbe
00000140: 7256 debc a0fe a7bd a933 0f3e a5bd 6ebd
00000150: 9123 3a3d d354 283e 23c7 e3bc a2c0 f3bd
00000160: 8e48 913d c587 7f3c 78d5 533d 5d92 e03d
00000170: d580 d03b 3452 173e 322e 113e 1a03 033e
00000180: 57dd bf3e 7817 ddbe e015 053e 8ec7 e9bb
00000190: a157 d03d 969a 8bbd 6dc5 b03d bb89 85b9
000001a0: 0763 80be 3cd2 c53e 3c99 54be 73dc c13d
000001b0: 3c43 19be 30e6 013d 4ab0 463e d718 e0bd
000001c0: c0b8 8c3d 0b46 94be 5487 8ebd 44b8 4b3d
000001d0: 3e1e 813e ff8b 3d3e e234 9f3c b029 46be
000001e0: 9fca e93e 99e2 6e3d 4ce3 18bf 43c6 ce3d
000001f0: ff24 12bf 27da cbbd 1d33 d03c 89d2 933c
00000200: 59d6 08be 6365 be3d f8cd a93b e8b3 bf3b
00000210: 27f3 b7bd 5927 533e fee3 8f3e 643e 093e
00000220: afed e73d d0e8 54bd ba55 99be 0c73 2cbf
00000230: e25b 5cbf 0828 d9be 430e d6bf 5190 35be
00000240: b5b5 033e 6ae3 22be e2a7 c5bc 3d82 4fbd
00000250: 83d8 fa3d 358d c9bd c048 13bd cb7c 9b3c
00000260: c061 0e3d eba5 64bd 95e0 7dbb 3c99 33be
00000270: 44a7 4cbe f2ec b4bd 25f0 04be d55f a4bc
00000280: 6db2 1ebc 9739 df3c 4148 4f3d 5431 3e3e
00000290: 9327 903e f4ef 873e e041 2a3e 004d 3e3e
000002a0: f865 37bc a141 293e 0a5b 803e b90c 313d
000002b0: c22b cebb abbc 843d 19ea c53d 107d 01be
000002c0: 85fe 40be 3782 923d 285d a0be 4d7d 0dbc
000002d0: 6d8c ca3c e79e fc3d 7c2e 28bc 6969 a43d
000002e0: 3ba9 373e 0eef c53d 441c 0c3e 08e0 cb3c
000002f0: 1e26 43bd 02c5 123d d7eb 46bc 49d8 71be
00000300: 9535 c2bc a88e 21bd 732a a5bd e032 d33d
00000310: e051 ddbd 9121 d93c f0bf 883c 9389 59be
00000320: 8896 a7be fccc 99be 924e 06be 3b10 9bbd
00000330: f317 08be 9e1d dabd ac81 e03c 48a1 de3d
00000340: e336 3f3e da8f 593e 700c 8fbc ecd8 d43d
00000350: 3782 b83e 8b9f 803e 3826 2c3e 7859 c53c
00000360: 16d1 4b3b 05b2 26be 21f2 07bc f5af a9bc
00000370: b8d2 3a3e dd37 4fbd f73f 103e 606f 9bbd
00000380: f7ff 54bd a48b 09bd 7bdb cdbd 9f85 0a3e
00000390: f810 00bc 6461 42bd 0243 223e 6f2e 313e
000003a0: 884f 8f3c b379 da3d 7f66 2dbe 7874 443e
000003b0: 317e 3ebe 7cc3 33bb 2963 34be b9bd 50bd
000003c0: 477d 463e fa46 053e 7b51 21be 6755 a43e
000003d0: 0788 8dbe be05 b8be d074 73bd eea2 10bf
000003e0: 05b7 b43d 7bf4 57be 771c ebbe 810e 823e
000003f0: 3b63 69bc d96c d8bd 3576 63bd aee5 03be

conv2.0.bias f4 [16]
0.6062629 0.6364483 0.06825189 0.12195713 0.0044291266 0.14233418 -0.03903142 0.1563306
0.42949548 0.05384173 -0.41281924 -0.36171052 0.074555025 -0.39668027 0.08681111 0.2840398
00000000: 0c34 1b3f 47ee 223f a6c7 8b3d a9c4 f93d
00000010: 3522 913b 0dc0 113e 69df 1fbd 2115 203e
00000020: d5e6 db3e 2589 5c3d 0b5d d3be 1f32 b9be
00000030: 4eb0 983d ad19 cbbe 06ca b13d aa6d 913e

conv3.0.weight f4 [16, 16, 3, 3]
-0.021557843 0.2114064 -0.03676834 -0.2262955 -0.0850915 -0.37281498 -0.36964944 0.071668215
-0.37420353 -0.120264105 0.15662247 0.21639906 0.24240974 0.27296036 0.110655144 -0.082624964
0.11876484 0.1368772 0.043346297 -0.014675244 0.15006655 -0.002937338 -0.038967106 -0.13877086
0.038564265 -0.16248623 -0.10977429 -0.19630726 -0.15075378 -0.27942613 -0.19334567 -0.16935703
-0.09274029 -0.21456216 -0.33964136 0.12583657 -0.021947386 -0.09665102 -0.035672594 0.00070874055
0.13535379 0.080560595 -0.0362028 0.04559477 -0.20812522 0.0123126265 -0.07433003 0.00805903
0.20662907 -0.060957193 -0.22340406 -0.0030376378 -0.22015852 -0.11398775 0.05082687 0.12847725
-0.049678776 0.05858929 0.11965838 0.06370059 0.25747797 0.11337234 0.08106674 -0.19589703
-0.1724181 -0.15203835 -0.044113778 -0.31752923 -0.24055171 -0.14759327 -0.2685997 -0.13071436
-0.07443343 -0.1653679 -0.08798689 0.09019604 -0.074160725 0.18081094 0.106675096 -0.2160681
0.2107211 -0.009584599 -0.052368086 0.006822338 0.011277 -0.040178634 0.035474204 -0.36596557
-0.19873808 -0.16669436 0.109551705 0.03263445 0.11616376 -0.0018407996 0.22151989 0.077278644
-0.008893191 -0.055392887 0.11970693 -0.10236704 -0.002265825 0.060405333 0.094734445 0.0896289
0.019269114 -0.053458016 0.032874707 0.022471352 -0.15512674 0.28104398 -0.21063249 -0.28759775
-0.1375312 0.10582189 -0.14034736 0.0156200295 0.23545542 0.12546432 -0.031822328 0.31211114
0.48896903 0.1701928 0.48616618 0.1223731 0.08744955 0.50815153 0.017762857 0.030813437
0.032010198 -0.028462047 0.103461824 0.14851382 0.20991783 -0.031514727 0.22417346 -0.36188418
-0.06424445 -0.01660378 -0.039763816 -0.009988766 0.12807563 -0.5256729 -0.17624049 0.016315117
-0.21217501 0.44702423 0.052377798 0.18381782 0.22057027 -0.11326344 -0.17328519 -0.061516322
-0.04175916 -0.11956838 0.1623238 0.16212097 -0.08106424 -0.25963357 0.029209193 -0.25808296
-0.024855819 0.012050666 0.048796523 -0.03238158 0.18909861 0.11051591 0.23328792 0.12747674
-0.13018537 0.094631724 0.09202748 0.076901235 -0.19507796 -0.01076249 -0.08353054 -0.094077535
0.028275603 0.06767033 0.02027361 -0.21777156 0.037379332 -0.09718889 0.07541317 0.1805819
0.120561704 -0.1037354 0.28603524 0.058037147 0.18794999 -0.16457269 0.039700665 -0.06725997
-0.025467213 -0.32145575 -0.041576453 -0.22254798 -0.3012347 -0.021114536 -0.09773639 0.1782565
-0.07233746 0.26780346 0.040845286 -0.0381171 0.03865895 -0.2601232 -0.062065706 0.06410773
-0.14350301 -0.07373831 0.13766778 -0.03649811 -0.06630822 -0.12196628 0.16928595 0.106052175
0.22295843 0.28285995 0.043981347 0.24886963 0.33143133 0.021570127 0.42419997 -0.027406268
0.030071327 0.20858786 0.004583016 -0.09780078 -0.0881812 -0.30903924 -0.16734463 0.033061445
-0.18022601 -0.06748713 -0.05713854 -0.1542474 -0.2420662 -0.19077761 -0.2914579 -0.1333069
0.0075640916 -0.12306247 -0.1290627 -0.015828572 -0.033099044 -0.028640907 0.01425204 0.07074494
0.25340024 -0.026931072 0.18352269 0.2483066 0.12076926 -0.17063847 -0.09714891 -0.17109875
00000000: 139a b0bc eb7a 583e 669a 16bd 02ba 67be
00000010: 7444 aebd 9be1 bebe b142 bdbe c9c6 923d
00000020: 9b97 bfbe 074d f6bd a461 203e b797 5d3e
00000030: 423a 783e 76c1 8b3e 2a9f e23d 4737 a9bd
00000040: fb3a f33d 8929 0c3e e38b 313d 6f70 70bc
00000050: 0cab 193e 5b80 40bb f99b 1fbd f319 0ebe
00000060: 90f5 1d3d ca62 26be 58d1 e0bd c504 49be
00000070: 335f 1abe f110 8fbe 68fc 45be ee6b 2dbe
00000080: 9fee bdbd 2fb6 5bbe 79e5 adbe 4ddb 003e
00000090: 01cb b3bc f8f0 c5bd 6d1d 12bd c6ca 393a
000000a0: 2f9a 0a3e f4fc a43d 6349 14bd 95c1 3a3d
000000b0: c71e 55be e6ba 493c 583a 98bd 060a 043c
000000c0: 9296 533e 40ae 79bd 09c4 64be 1b13 47bb
000000d0: 3c71 61be 6972 e9bd d62f 503d 8a8f 033e
000000e0: f97b 4bbd 53fb 6f3d 740f f53d 7475 823d
000000f0: 27d4 833e c22f e83d 5206 a63d 3b99 48be
00000100: 5f8e 30be f1af 1bbe a6b0 34bd 3193 a2be
00000110: 3053 76be b122 17be e685 89be fcd9 05be
00000120: 8e70 98bd 3456 29be 7832 b4bd b4b8 b83d
00000130: 94e1 97bd 8126 393e 7978 da3d f540 5dbe
00000140: 46c7 573e b908 1dbc eb7f 56bd eb8d df3b
00000150: 2bc3 383c 5a92 24bd 664d 113d d75f bbbe
00000160: ff81 4bbe edb1 2abe a55c e03d b3ab 053d
00000170: 44e7 ed3d fc46 f1ba 1cd6 623e 4444 9e3d
00000180: bfb4 11bc a7e3 62bd e828 f53d d0a5 d1bd
00000190: 3c7e 14bb 956b 773d 2204 c23d 5b8f b73d
000001a0: 43da 9d3c cbf6 5abd a1a7 063d d715 b83c
000001b0: 8bd9 1ebe ffe4 8f3e 0bb0 57be 0340 93be
000001c0: fbd4 0cbe 26b9 d83d 38b7 0fbe 27eb 7f3c
000001d0: 3a1b 713e b879 003e 2158 02bd 08cd 9f3e
000001e0: 265a fa3e 0547 2e3e c6ea f83e bf9e fa3d
000001f0: c018 b33d 3816 023f 6983 913c 766c fc3c
00000200: 201d 033d 3d29 e9bc cbe3 d33d 0214 183e
00000210: b3f4 563e 9615 01bd ba8d 653e e248 b9be
00000220: 9892 83bd a704 88bc 62df 22bd eca7 23bc
00000230: 4226 033e 8092 06bf 6378 34be 48a7 853c
00000240: 6844 59be 5ce0 e43e 1a8a 563d bd3a 3c3e
00000250: 2cdd 613e aaf6 e7bd ac71 31be 8af8 7bbd
00000260: a70b 2bbd 44e0 f4bd 3638 263e 0a03 263e
00000270: 0205 a6bd b1ee 84be 1e48 ef3c 7323 84be
00000280: 6e9e cbbc 2870 453c ddde 473d 8ca2 04bd
00000290: 11a3 413e 2a56 e23d 07e3 6e3e 4389 023e
000002a0: 504f 05be 47ce c13d e778 bc3d 657e 9d3d
000002b0: 84c2 47be 2855 30bc 0f12 abbd b9ab c0bd
000002c0: 3da2 e73c be96 8a3d d714 a63c 82ff 5ebe
000002d0: 121b 193d f80a c7bd 3872 9a3d 76ea 383e
000002e0: 0ee9 f63d 3a73 d4bd 3673 923e 5cb8 6d3d
000002f0: f675 403e be85 28be 2a9d 223d 98bf 89bd
00000300: 9ea0 d0bc d995 a4be 124c 2abd 9ee3 63be
00000310: 6f3b 9abe 64f8 acbc 042a c8bd df88 363e
00000320: aa25 94bd 891d 893e 634d 273d ad20 1cbd
00000330: d958 1e3d de2e 85be 9c38 7ebd ea4a 833d
00000340: 74f2 12be 1c04 97bd c8f8 0c3e 0b7f 15bd
00000350: 9bcc 87bd 75c9 f9bd 4c59 2d3e e231 d93d
00000360: 374f 643e 05d3 903e c925 343d aed7 7e3e
00000370: 5eb1 a93e d6b3 b03c bd30 d93e 1c83 e0bc
00000380: 2558 f63c 0e98 553e 202d 963b c64b c8bd
00000390: 5898 b4bd 643a 9ebe 645c 2bbe 706b 073d
000003a0: 2b8d 38be b136 8abd 1a0a 6abd 08f3 1dbe
000003b0: 34e0 77be 355b 43be f839 95be 9b81 08be
000003c0: 33dc f73b 2d08 fcbd 0329 04be ecaa 81bc
000003d0: dd92 07bd 56a0 eabc 6381 693c b9e2 903d
000003e0: adbd 813e 8d9e dcbc 5fed 3b3e 1644 7e3e
000003f0: e055 f73d dabb 2ebe 02f6 c6bd 8334 2fbe

conv3.0.bias f4 [16]
-0.034901235 -0.028964743 -0.2731122 0.0037890445 0.5294262 0.37732247 -0.14847343 -0.68905365
-0.46204826 -0.4282328 -0.32071695 -0.48013178 -0.073427096 -0.08528627 0.70437056 -0.06856908
00000000: 99f4 0ebd 7847 edbc 5dd5 8bbe 9e51 783b
00000010: 7a88 073f 6930 c13e 6b09 18be d265 30bf
00000020: 9791 ecbe 5441 dbbe 0335 a4be d5d3 f5be
00000030: f260 96bd 91aa aebd a151 343f f26d 8cbd

dense.0.weight f4 [32, 256]
-0.22133209 0.11575339 -0.0723171 0.083812915 0.1275028 0.09835841 0.06305698 -0.17558119
-0.10297112 -0.2181076 0.17049326 0.0020859463 -0.08500556 -0.19703844 0.10799981 0.10173254
-0.06678609 -0.19898239 0.021807441 0.113769464 0.07109135 -0.046295717 -0.006600822 0.012882302
0.020086832 0.025747536 0.16669627 0.049478743 -0.097552665 -0.056067005 0.23424637 -0.04388413
-0.029577477 0.04758134 0.114505336 0.034160372 0.12448106 0.04212967 -0.020409152 -0.1797981
-0.028573299 -0.02517762 0.22157998 -0.008795093 0.18053305 0.15581287 0.08040396 -0.075961955
-0.141651 0.05095639 0.12460142 -0.2448361 -0.06019513 0.024349881 -0.036858108 -0.090685904
0.12794645 -0.03456887 0.062187575 0.060553685 -0.2527849 0.008000833 0.10758445 0.05363049
0.06546812 -0.042028118 -0.09315442 0.03154048 0.058265477 0.11445927 -0.059914414 0.0013041268
-0.045982182 0.102518015 0.12359098 0.050816502 0.1452399 -0.011309148 -0.018895332 -0.097953916
0.0125820665 -0.0184709 0.017575484 -0.10699424 -0.10071459 -0.044476815 -0.11523841 0.06476012
0.12395207 0.09856021 0.079769984 0.1514496 0.052449845 -0.018053466 0.09635123 -0.106933326
0.16137508 0.08305345 0.04134942 -0.036281906 0.12765145 -0.0034021134 0.08594617 0.02355243
-0.095129825 -0.14154835 0.11467602 -0.053950533 -0.09122421 -0.104745515 0.0045870454 -0.072918564
-0.07998289 0.0075220102 0.18319736 0.20732786 -0.060003888 0.03703697 0.09048679 0.10444248
-0.063195474 0.025197035 0.08405159 -0.02000969 0.071952365 -0.074673496 0.018708402 -0.043627072
0.06995096 -0.056467548 -0.032438733 -0.12228901 -0.3232603 2.3745264e-05 0.015966924 0.021537775
0.048220783 0.08028604 0.0903439 -0.005013031 -0.046028767 -0.14394917 0.19540253 0.038941488
-0.18118161 0.06970202 0.12620875 0.09652432 0.029996306 0.02137337 0.090831794 0.10301166
-0.047771253 0.03691873 0.041250747 0.012128373 -0.055742364 -0.07119322 0.08254384 -0.21379837
-0.018791089 0.1090373 0.077797815 -0.083635055 -0.0032970565 0.18229933 0.03775742 -0.062419668
0.17553829 -0.07409153 0.08926297 0.047963955 0.019669851 0.14341573 0.04696654 -0.19263737
-0.042099588 -0.13610327 -0.026425166 -0.2007152 -0.2679643 0.18864109 0.09271179 -0.023493523
0.034769855 0.046342224 0.25839993 0.13487777 -0.20627722 0.062670045 -0.029434122 0.07553336
-0.12150439 -0.052667417 -0.18677808 0.011559865 0.07637266 0.20285308 -0.21330664 -0.1672167
0.03163823 -0.080800295 0.13564037 -0.075842336 0.052562155 -0.23411703 0.12026498 0.21398874
0.23306435 -0.024357956 -0.0014456342 0.024270382 0.08450791 -0.21493648 0.092264295 -0.13863
-0.020861862 -0.034167223 -0.12290235 0.0036388482 -0.064408556 -0.09330763 -0.101039894 -0.06300114
0.14976177 0.245037 -0.044558346 0.043799084 -0.04187733 -0.13072897 -0.2748253 0.08736565
0.18015483 -0.16701014 -0.107944794 -0.041370235 0.07207072 0.10779459 -0.07118876 -0.13076776
0.061969243 -0.10489937 0.19915298 -0.00740786 0.29582545 -0.033064436 0.22456817 -0.11084527
0.009001822 0.010870026 -0.17860836 0.065170616 -0.13282202 -0.093020335 -0.11084088 0.022238126
00000000: e1a4 62be 1d10 ed3d fd1a 94bd 1ba6 ab3d
00000010: 1890 023e 2270 c93d 0524 813d 8ecb 33be
00000020: 86e2 d2bd 9957 5fbe c995 2e3e 5fb4 083b
00000030: 6517 aebd 72c4 49be 012f dd3d 2659 d03d
00000040: 25c7 88bd 0ac2 4bbe 85a5 b23c f7ff e83d
00000050: 5798 913d 94a0 3dbd b54b d8bb 4a10 533c
00000060: 248d a43c 7fec d23c 6db2 2a3e 39aa 4a3d
00000070: b1c9 c7bd 84a6 65bd 48de 6f3e d8bf 33bd
00000080: 774c f2bc a7e4 423d c681 ea3d bfeb 0b3d
00000090: edef fe3d 2990 2c3d 1831 a7bc fe1c 38be
000000a0: 8d12 eabc 4c41 cebc dde5 623e 4b19 10bc
000000b0: a8dd 383e 698d 1f3e d5aa a43d f191 9bbd
000000c0: f60c 11be a6b7 503d 072f ff3d 51b6 7abe
000000d0: 2b8f 76bd 6779 c73c 87f8 16bd 88b9 b9bd
000000e0: 6504 033e 1698 0dbd 66b8 7e3d 2407 783d
000000f0: 066d 81be ed15 033c 3c55 dc3d a5ab 5b3d
00000100: 2614 863d ad25 2cbd bfc7 bebd 9730 013d
00000110: c8a7 6e3d 9f69 ea3d d168 75bd 3cef aa3a
00000120: d057 3cbd f7f4 d13d 451d fd3d f724 503d
00000130: c5b9 143e 014a 39bc 62ca 9abc 109c c8bd
00000140: 0325 4e3c 4950 97bc 76fa 8f3c cc1f dbbd
00000150: 7343 cebd 522d 36bd 1e02 ecbd f4a0 843d
00000160: 95da fd3d efd9 c93d 725e a33d 9b15 1b3e
00000170: a6d5 563d dde4 93bc cb53 c53d dcff dabd
00000180: 823f 253e ed17 aa3d 025e 293d 569c 14bd
00000190: 10b7 023e fef5 5ebb 8c04 b03d 07f1 c03c
000001a0: 6dd3 c2bd 0df2 10be 43db ea3d 3cfb 5cbd
000001b0: c2d3 babd d184 d6bd ed4e 963b 5456 95bd
000001c0: 12ce a3bd 327b f63b 1798 3b3e c14d 543e
000001d0: a3c6 75bd 14b4 173d 2351 b93d f0e5 d53d
000001e0: a16c 81bd 036a ce3c 3d23 ac3d 5deb a3bc
000001f0: c35b 933d 6bee 98bd 5d42 993c 4db2 32bd
00000200: 7342 8f3d 844a 67bd 7ade 04bd a972 fabd
00000210: 6082 a5be 9130 c737 11cd 823c fd6f b03c
00000220: 2883 453d 026d a43d 3906 b93d 5a44 a4bb
00000230: a988 3cbd 6967 13be 9a17 483e 1c81 1f3d
00000240: ac87 39be efbf 8e3d de3c 013e 8bae c53d
00000250: d0ba f53c 3517 af3c 0506 ba3d c7f7 d23d
00000260: caab 43bd 1838 173d 8bf6 283d 15b6 463c
00000270: 1b52 64bd c0cd 91bd bf0c a93d f6ed 5abe
00000280: c5ef 99bc f34e df3d 7654 9f3d db48 abbd
00000290: 6e13 58bb adac 3a3e 86a7 1a3d c4ab 7fbd
000002a0: 4fc0 333e 4dbd 97bd 81cf b63d da75 443d
000002b0: ab22 a13c 93db 123e fd5f 403d bb42 45be
000002c0: 9e70 2cbd a85e 0bbe 9779 d8bc 4988 4dbe
000002d0: 9e32 89be 212b 413e aedf bd3d 7d75 c0bc
000002e0: d66a 0e3d 58d1 3d3d ff4c 843e 661d 0a3e
000002f0: 563a 53be 2759 803d d41f f1bc 3cb1 9a3d
00000300: 4bd7 f8bd cab9 57bd c142 3fbe 9765 3d3c
00000310: 4569 9c3d b8b8 4f3e 0e6d 5abe db3a 2bbe
00000320: 1797 013d a07a a5bd 4fe5 0a3e 3a53 9bbd
00000330: 6a4b 573d 60bc 6fbe 7c4d f63d dd1f 5b3e
00000340: 6ca8 6e3e 568a c7bc 6f7b bdba aed2 c63c
00000350: 7c12 ad3d 4f18 5cbe 10f5 bc3d 06f5 0dbe
00000360: 7fe6 aabc eef2 0bbd 3ab4 fbbd be79 6e3b
00000370: a2e8 83bd 1218 bfbd 01ee cebd be06 81bd
00000380: 265b 193e fbea 7a3e d082 36bd ab66 333d
00000390: 9087 2bbd d1dd 05be e7b5 8cbe c3ec b23d
000003a0: 827a 383e b504 2bbe 2912 ddbd d673 29bd
000003b0: d099 933d 69c3 dc3d 6acb 91bd fce7 05be
000003c0: 76d3 7d3d 7bd5 d6bd c2ee 4b3e a2bd f2bb
000003d0: 6f76 973e 936e 07bd 33f5 653e d802 e3bd
000003e0: 617c 133c 3218 323c 1ce5 36be 2c78 853d
000003f0: 7f02 08be 7281 bebd 8b00 e3bd bb2c b63c

dense.0.bias f4 [32]
-0.2592126 2.00707e-40 0.3336396 -0.6336929 0.36887348 -0.49051142 0.056384526 0.3840936
0.019508678 -0.3893621 0.45684 0.08627551 0.6498033 0.08416509 -0.75360715 0.46891835
-0.12911296 0.21877745 0.12550059 -0.23612344 0.55556375 1.3626405 1.2107387 0.45183903
0.21226512 0.11255617 -0.044186167 -0.26216415 -0.14082241 0.3512767 -0.36587784 0.6792869
00000000: 84b7 84be 7d2f 0200 cfd2 aa3e b339 22bf
00000010: fcdc bc3e 5024 fbbe 76f3 663d eba7 c43e
00000020: aad0 9f3c 785a c7be efe6 e93e 37b1 b03d
00000030: 8259 263f bf5e ac3d 66ec 40bf 1116 f03e
00000040: 3036 04be 3207 603e 3a83 003e 58ca 71be
00000050: 6d39 0e3f 016b ae3f 7cf9 9a3f 7257 e73e
00000060: 075c 593e d983 e63d 8efc 34bd 613a 86be
00000070: c033 10be 8ada b33e 5754 bbbe bfe5 2d3f

dense.2.weight f4 [10, 32]
0.14759459 -0.00041832522 0.17469011 0.080812976 0.3974824 -0.10720298 -0.10007215 0.49173117
-0.035090156 -0.3485095 -0.19285733 -0.0198261 -0.23726851 -0.4545932 0.69935507 -0.17863512
-0.14775567 0.17942308 0.2759333 0.011260382 -0.49354216 -0.24840522 -0.35134467 -0.27862734
0.2358074 -0.04228253 0.62005097 0.0775482 0.4683331 0.16197151 0.5444696 0.7544196
0.21245708 0.0007400748 0.28303778 0.2750735 -0.14642061 0.68898666 -0.6913894 -0.764019
0.2743497 0.086965844 0.3668135 -0.8261923 -0.8706787 0.14202413 0.07921843 -0.67630017
0.23885357 0.1809291 0.5030724 -0.62919205 0.17027967 -0.5848744 0.15408245 -1.1811422
0.20721564 0.017598497 0.19070023 0.07269466 0.75924385 -0.22663295 -0.52215284 -0.809971
-0.112252936 0.000108636414 -0.3322837 -0.29807767 0.4016277 0.017269753 -0.06959034 0.109284066
0.2483066 -0.14171022 0.5209956 -0.20310411 0.09545494 0.055534694 -0.21685347 -0.1514143
0.2541728 -0.1649466 -0.041592337 0.29591838 -0.4286646 0.40969518 -0.78464913 0.4068696
-0.5656931 0.20880984 -0.14147367 0.15570597 0.18575083 -0.2846329 0.2044808 -0.12101142
-0.2551809 0.0010655671 -0.040458377 0.22778672 -0.007095058 -0.4486451 0.13021515 0.07681579
0.033577163 0.13437125 0.042870026 0.16874667 0.067845985 0.026879473 -0.13127 0.023769777
-0.26397246 0.39088583 -0.17259751 -0.020430617 0.27364528 0.049444817 -0.17189479 -0.07176689
-0.20977579 0.11186771 -0.035478327 -0.29683828 -0.114676185 0.14826153 -0.16395782 -0.4050192
0.013636468 -8.837942e-05 0.40530488 -0.48819366 0.3439451 -0.3393725 0.2399586 0.07628822
-0.2549417 -0.05623868 0.2450857 -0.34140253 -0.046498552 0.27569482 -0.46580088 -0.3621417
-0.26040128 -0.75992936 -0.3983617 -0.55179 0.4760395 0.3530109 -1.0015305 -0.053384274
0.3029018 0.03577475 0.22903854 -0.37262952 -0.9347304 -0.42792135 0.65443796 0.47309455
0.24757016 -0.000327009 -0.2940488 0.16959971 -0.05716987 -0.48761863 0.25366706 -0.24833852
0.019438084 -0.07328856 0.14779505 0.14002143 -0.03193775 0.0795549 -0.058404025 0.105188206
-0.32973382 0.19712928 0.057022315 -0.31747246 -0.040251847 0.03842571 -0.19696066 -0.059495993
-0.07009341 0.30527928 0.14130975 -0.25196037 -0.20014137 0.49349108 -0.26931223 -0.5689873
-0.036167797 0.0006146237 -0.19102934 -0.3010753 0.27008554 0.25113124 -0.25153363 0.14359893
0.33879933 0.29543975 0.1134394 0.23193786 0.294335 -0.012344083 -0.35534552 0.56151277
-0.3709572 0.1681291 0.49062386 -0.23608367 0.15138328 0.32132837 -0.03589115 -0.053237516
-0.117258586 -0.5727581 -0.43417126 -0.1162897 0.5471227 -0.16473833 0.37468433 -0.56545454
-0.05762638 -0.00012082871 0.18297203 -0.018070037 -0.40779707 -0.52938145 0.22609937 -0.022845587
-0.8076495 0.1346658 -0.4245109 -0.2948299 -0.091369875 0.3138062 0.47198227 -0.037388712
-0.2781045 -0.65750486 -0.72820044 0.38075897 -1.0441129 -0.7599764 -0.50684273 -0.36552352
-0.2202401 -0.29071876 -0.13435815 0.3223884 -0.24229847 0.23682855 -0.2606173 0.87678593
00000000: 0923 173e a952 dbb9 f7e1 323e 4681 a53d
00000010: d082 cb3e 3c8d dbbd a1f2 ccbd 30c4 fb3e
00000020: b2ba 0fbd d66f b2be 647c 45be 586a a2bc
00000030: 84f6 72be 71c0 e8be ef08 333f 20ec 36be
00000040: 434d 17be afba 373e 2147 8d3e 777d 383c
00000050: 8fb1 fcbe f05d 7ebe 73e3 b3be 3ea8 8ebe
00000060: 7f77 713e 7230 2dbd a9bb 1e3f 97d1 9e3d
00000070: 5bc9 ef3e dcdb 253e 5c62 0b3f a521 413f
00000080: 598e 593e 9401 423a 54ea 903e 6fd6 8c3e
00000090: 49ef 15be 6e61 303f e5fe 30bf c096 43bf
000000a0: 9077 8c3e 261b b23d fbce bb3e 5781 53bf
000000b0: cde4 5ebf c66e 113e 463d a23d 0222 2dbf
000000c0: 0896 743e 7a45 393e 5ac9 003f bb12 21bf
000000d0: cb5d 2e3e 54ba 15bf cac7 1d3e ab2f 97bf
000000e0: 5630 543e b92a 903c ec46 433e f0e0 943d
000000f0: ce5d 423f 7812 68be cfab 05bf 425a 4fbf
00000100: dee4 e5bd bbd3 e338 1721 aabe a39d 98be
00000110: 25a2 cd3e 4c79 8d3c 6185 8ebd 53d0 df3d
00000120: 1644 7e3e 7c1c 11be f85f 053f 86fa 4fbe
00000130: e17d c33d 5978 633d d60e 5ebe 5a0c 1bbe
00000140: f022 823e c3e7 28be ba5c 2abd 9d82 973e
00000150: ed79 dbbe 91c3 d13e c4de 48bf 3651 d03e
00000160: 43d1 10bf 3fd2 553e 79de 10be 6371 1f3e
00000170: 7735 3e3e 67bb 91be 6a63 513e d6d4 f7bd
00000180: 12a7 82be 80aa 8b3a afb7 25bd ec40 693e
00000190: a97d e8bb d0b4 e5be 1f57 053e 9951 9d3d
000001a0: 3588 093d 9e98 093e 7b98 2f3d edcb 2c3e
000001b0: d6f2 8a3d 5732 dc3c a56b 06be d6b8 c23c
000001c0: 6627 87be 3022 c83e 67bd 30be 1c5e a7bc
000001d0: 3c1b 8c3e a686 4a3d 3005 30be 85fa 92bd
000001e0: 77cf 56be e61a e53d b951 11bd 30fb 97be
000001f0: 59db eabd dfd1 173e 8fe4 27be ad5e cfbe
00000200: 7e6b 5f3c 5758 b9b8 1f84 cf3e 85f4 f9be
00000210: 9219 b03e 3bc2 adbe b5b7 753e 003d 9c3d
00000220: b887 82be 885a 66bd bff7 7a3e 50cc aebe
00000230: 4475 3ebd df27 8d3e 747d eebe a36a b9be
00000240: 5153 85be bb8a 42bf 11f6 cbbe 1c42 0dbf
00000250: 73bb f33e d8bd b43e 2732 80bf 78a9 5abd
00000260: f215 9b3e 8b88 123d 1489 6a3e 4cc9 bebe
00000270: 7e4a 6fbf 8218 dbbe 3f89 273f 7339 f23e
00000280: 0883 7d3e 6872 abb9 908d 96be 8cab 2d3e
00000290: f42a 6abd 26a9 f9be a6e0 813e 744c 7ebe
000002a0: 9e3c 9f3c 5018 96bd 9657 173e c761 0f3e
000002b0: 28d1 02bd aeed a23d 0f39 6fbd ea6c d73d
000002c0: dfd2 a8be 42dc 493e 3b90 693d c08b a2be
000002d0: 1fdf 24bd 4764 1d3d 0eb0 49be 12b2 73bd
000002e0: 228d 8fbd 914d 9c3e 81b3 103e f300 81be
000002f0: dcf1 4cbe ddaa fc3e 4be3 89be 27a9 11bf
00000300: af24 14bd b31e 213a 329d 43be 8b26 9abe
00000310: a748 8a3e 4694 803e 04c9 80be 990b 133e
00000320: 1b77 ad3e e143 973e eb52 e83d 1e81 6d3e
00000330: 14b3 963e d63e 4abc d9ef b5be 4dbf 0f3f
00000340: 1aee bdbe 092a 2c3e 0d33 fb3e ebbf 71be
00000350: 3804 1b3e 2785 a43e 9902 13bd 950f 5abd
00000360: 4525 f0bd 46a0 12bf b24b debe 4b29 eebd
00000370: 3c10 0c3f 2ab1 28be a0d6 bf3e a1c1 10bf
00000380: a409 6cbd 6b65 fdb8 055d 3b3e 9d07 94bc
00000390: c7ca d0be 8b85 07bf 9886 673e ab26 bbbc
000003a0: 1ec2 4ebf d5e5 093e 7e59 d9be f2f3 96be
000003b0: 2120 bbbd 35ab a03e a9a7 f13e e824 19bd
000003c0: b763 8ebe 3d52 28bf 586b 3abf d7f2 c23e
000003d0: 7ea5 85bf d08d 42bf 72c0 01bf e625 bbbe
000003e0: 9f86 61be 17d9 94be 2f95 09be 1810 a53e
000003f0: 171d 78be 2f83 723e a16f 85be 0b75 603f

dense.2.bias f4 [10]
-0.06025036 -0.32358754 0.27373946 0.018105583 0.9128849 -0.07149273 0.25848353 -0.3909974
0.7719451 -0.35023755
00000000: 15c9 76bd 44ad a5be 9427 8c3e 2952 943c
00000010: d3b2 693f c86a 92bd f457 843e d030 c8be
00000020: 329e 453f 5652 b3be
