ResidualLoss/CNN-l2-30/iter-1.pt (torch, 27135 bytes, 10 tensors)

conv1.0.weight f4 [8, 3, 3, 3]
000000 d7 a3 12 be 40 01 6c bb eb e6 69 be 7e cb c1 be
       -0.14320312 -0.0036011487 -0.22841994 -0.37850565
000010 35 96 4e be a2 25 61 3e 2d 07 03 3f a8 2c 6e 3e
       -0.20174487 0.21987012 0.51182824 0.23259223
000020 61 31 af bd bf f0 66 be 5b 3e 22 3e 19 5b f1 bc
       -0.0855434 -0.22552775 0.15844099 -0.029462384
000030 9d 57 ce be 98 d3 ec 3d ee 0d fc 3e 34 69 6c 3e
       -0.4030122 0.11563796 0.49229378 0.23087007
000040 bf 52 42 bd ff 70 a6 be 74 7a 37 3e 02 26 9d 3d
       -0.047442194 -0.32508084 0.17917806 0.07673265
000050 cb d7 39 be c5 2b a9 be 74 31 18 bd 9b fe 8f 3e
       -0.18148725 -0.33041206 -0.037156537 0.28123936
000060 e2 46 ad 3e b8 28 75 3b 2d fa bf be da 22 b2 be
       0.33843142 0.0037408303 -0.37495556 -0.34792215
000070 af 2f 58 3e 51 d2 24 3e 0e e0 08 3e d3 f8 aa be
       0.2111194 0.16095854 0.1336672 -0.33392963
000080 fb 06 6a 3e 1f 66 e4 3e f5 81 c8 bd c7 19 08 bf
       0.22854225 0.44609162 -0.09790412 -0.53164333
000090 b6 79 28 be 3d 51 fd 3d ed ff 2d 3e 68 89 9a bd
       -0.16452679 0.123690106 0.16992159 -0.075457394
0000a0 10 d5 a4 be b9 36 5d 3e 96 00 68 3e 90 63 32 bd
       -0.32193804 0.21602906 0.22656474 -0.04355198
0000b0 7c af ca bd 07 1a 52 b9 05 34 9a 3d 4b 34 0c be
       -0.09896752 -0.00020036857 0.07529453 -0.13691823
0000c0 27 8e 2e 3e 64 d4 c6 be 09 45 06 3e f2 0e 00 3f
       0.17046414 -0.38833916 0.13112272 0.50022805
0000d0 c8 22 50 bd 91 89 81 be d7 7d 95 3d ac e0 b5 be
       -0.05081442 -0.25300267 0.07299393 -0.35522974
0000e0 3a ef 0d 3e a6 57 c1 be e1 19 15 3e 82 01 b8 3e
       0.13860789 -0.37762183 0.14560653 0.3593865
0000f0 7b 22 a3 bd 80 69 b5 3e f2 8a 1d be e8 14 9b 3e
       -0.07965561 0.35432053 -0.15385035 0.30289388
000100 ad 3d bf be 96 11 1a bd 5e 6b 2d be 9a b1 71 bd
       -0.37351742 -0.037614428 -0.16935489 -0.059007265
000110 31 50 60 3e c2 da 65 be ee 9f 0d 3e da 4e 07 bd
       0.2190559 -0.2244673 0.1383054 -0.033034183
000120 54 6f a7 3c 01 95 6d be 2c da 8d 3e a7 e1 e6 be
       0.020438828 -0.23201372 0.27705514 -0.45094034
000130 f1 51 a7 3b 89 bd 4e 3e a9 70 f4 bd b5 08 91 3e
       0.0051062037 0.2018949 -0.11935551 0.28326955
000140 65 e8 a9 3d 79 78 05 3e 1e ee 36 3e 5f 71 08 3e
       0.08296279 0.13034238 0.17864272 0.13324498
000150 38 a2 c3 be f2 88 b1 be 58 bb 6f 3d d4 1f 72 3e
       -0.382097 -0.34674793 0.058528274 0.23644954
000160 f4 49 16 bc 50 78 9c 3e e0 fc 8e bb bb ce ab 3e
       -0.009172905 0.3056054 -0.004363641 0.3355616
000170 47 c8 f7 bd 4c bd af be 2c 89 0a 3d bc db 74 3d
       -0.12098747 -0.3432411 0.033822224 0.059779868
000180 37 26 d6 3c 89 7b 8a be 47 dc 55 bc 89 9b 5e 3d
       0.02614127 -0.27047375 -0.0130530065 0.05434755
000190 50 76 80 3e a7 47 1d 3e 19 48 c0 be 52 1e e9 3d
       0.25090265 0.15359364 -0.37555006 0.11382736
0001a0 bb 00 9f 3e 67 a5 32 be 17 c5 bc be f6 f6 b7 3d
       0.31055245 -0.17445908 -0.36869118 0.08982651
0001b0 be 95 e3 3e 95 aa 3d 3e d1 dd 1f 3f 2e 61 9a 3d
       0.44450182 0.18522103 0.6244784 0.07538067
0001c0 55 8c 7d be bf 89 cb 3e f9 b9 89 be 25 84 a0 be
       -0.24760564 0.3975353 -0.26899698 -0.31350818
0001d0 cf 0e a6 be 80 ae e4 be ab da a0 be ff d3 30 be
       -0.32433173 -0.44664383 -0.3141683 -0.1726837
0001e0 f9 9a cf bd 79 79 0a bf 4c a8 29 3e f3 d1 19 be
       -0.101369806 -0.540916 0.16568106 -0.15021496
0001f0 67 18 db bd 92 70 2a be 0c d6 1f be 6a 9e a1 3d
       -0.10698014 -0.16644505 -0.15608996 0.07891543
000200 16 bb 8d be 95 6b 2e 3d 8a 79 76 be a1 b0 6f bd
       -0.27681798 0.042583067 -0.24069801 -0.058518056
000210 6b 70 e9 3e 75 df 3a 3e 37 63 d5 3c 78 19 b2 3d
       0.4559358 0.18249305 0.026048286 0.08696264
000220 8b 53 d2 bd ef 10 00 3e d5 50 3f bb e3 d7 41 bf
       -0.10269841 0.1250646 -0.0029192467 -0.7572004
000230 e1 b1 32 bf 92 26 01 3d 96 cd bd bd 3b 46 2d 3e
       -0.6980267 0.031530924 -0.09267728 0.16921322
000240 c9 16 1e be c8 fd b1 3d 4f 27 e3 bc fc 25 af 3c
       -0.1543838 0.08690983 -0.027728705 0.021380417
000250 18 52 b8 bc 09 32 b5 bd 5f 23 f8 3d a2 2b b6 3d
       -0.022500083 -0.08847434 0.121161215 0.08895041
000260 82 32 4f 3e 5c 23 2a be 06 0e ae 3c 3f e0 78 bd
       0.20234111 -0.16615051 0.021246921 -0.060760733
000270 e2 a5 fe 3c 92 db d2 3e 22 05 2a 3f 69 b8 5a bd
       0.031084958 0.41183144 0.6641408 -0.053398523
000280 84 8b 3c 3e c8 bf 73 bd 27 fd 16 3e 38 22 09 3f
       0.18412596 -0.05950907 0.14745007 0.5356784
000290 40 25 f0 3e ea c7 c7 bd 86 a0 98 be 44 6a 08 bf
       0.4690342 -0.097549275 -0.2980997 -0.5328715
0002a0 3b 01 b6 3c 77 10 a2 bd 95 28 93 bd 7a 41 24 be
       0.022217384 -0.07913297 -0.07185475 -0.16040602
0002b0 3e f3 57 3e 37 86 45 3b 93 b2 00 bd 0d 6c 0f 3e
       0.21088883 0.0030139813 -0.0314203 0.14006062
0002c0 21 56 ee be 31 ec 28 3c a6 01 f0 bd 1c d9 6d 3e
       -0.46550086 0.010310219 -0.117190644 0.23227352
0002d0 dd d7 d4 bd ee 4f 57 3e 91 a4 01 bd 55 f2 b2 3d
       -0.10392735 0.21026585 -0.031651083 0.087376274
0002e0 ca 1e 03 be b9 61 42 bd 47 f4 70 3d 8d 0c c6 bd
       -0.12804714 -0.047456477 0.05882671 -0.096703626
0002f0 de c7 f9 3d 60 c5 51 3d d6 9b 33 3e 43 5f 84 bd
       0.12196325 0.051213622 0.17539915 -0.06463482
000300 86 0f 41 be bf a3 27 3e 83 59 f2 bd ab 65 10 be
       -0.18853578 0.16371058 -0.11833479 -0.14101283
000310 d9 a0 e1 3e de 37 ba be 06 39 21 be ca 8a 6a 3e
       0.4406803 -0.36370748 -0.15744409 0.22904506
000320 15 a6 1b be e8 b6 8b be ee 72 dc 3e b4 1e d9 bd
       -0.15200074 -0.27287984 0.43056434 -0.10601559
000330 dd 80 8e be b9 b2 0a 3f 20 01 58 be 55 46 bc bc
       -0.2783269 0.5417896 -0.21094179 -0.022982756
000340 c1 6c 84 3d 23 dd 1c 3c 6f 21 9f bd fa 6d 25 3e
       0.06466056 0.0095742075 -0.07770049 0.16155234
000350 5a 0b 2d be 07 88 37 be e4 04 a6 3e 98 4f 1b be
       -0.16898862 -0.17922984 0.32425606 -0.15167081

conv1.0.bias f4 [8]
000000 08 ef a6 3e c9 0c 70 3d 46 b2 28 bb 00 35 89 3c
       0.3260424 0.058605943 -0.0025741025 0.016748905
000010 dc f1 9c 3e f9 76 02 3f 08 39 90 bd d4 7a ab 3d
       0.30653274 0.5096279 -0.07042128 0.08373037

conv2.0.weight f4 [8, 8, 3, 3]
000000 51 06 1d 3e 91 b2 6e 3e a6 f1 16 3e 66 83 17 3e
       0.15334441 0.23310305 0.14740619 0.14796218
000010 9c 94 9c 3e f2 7f ac 3e 2f ea e3 ba 4e 57 82 bd
       0.3058213 0.33691365 -0.0017388518 -0.06364308
000020 30 0e a4 3e 5f fa cb 3d da be 4e bd 0b 82 97 3e
       0.32042074 0.09959864 -0.05047498 0.29591402
000030 2f 2b eb 3d ff ae 6a bd c9 e6 d3 bd ac d3 5c 3e
       0.11482846 -0.057295796 -0.10346753 0.21565121
000040 70 f5 74 3e 08 39 53 3d 2f 29 82 bd 02 0d bf be
       0.23921752 0.05156806 -0.063555114 -0.37314612
000050 d5 86 dd bd c2 1a 54 be 27 28 c6 bd 67 56 a9 bd
       -0.10816733 -0.20713332 -0.09675627 -0.08268433
000060 de ff 68 bd 35 09 57 be 5a f1 45 bd 5f 9c 9e bb
       -0.05688464 -0.20999606 -0.048325874 -0.004840418
000070 78 49 96 3e fe 0e eb 3d 53 7f 7f 3e e2 ea e6 bc
       0.29352927 0.11477469 0.24950914 -0.028188173
000080 8f 1e 12 bb 19 4c 5e 3e 4d 42 36 3e ab cf 35 be
       -0.0022296046 0.21708716 0.17798729 -0.17755
000090 a2 5f b8 3d 22 e9 d5 bb 38 18 a3 3c 06 35 ef bd
       0.090026155 -0.0065280357 0.01990901 -0.11680035
0000a0 b8 e9 71 3d ba c7 15 3d b1 26 9b 3e b6 7a d4 bd
       0.059060782 0.036567427 0.30302957 -0.10374968
0000b0 50 28 89 be d4 75 3b be 78 e2 ac bd 0b c9 50 3e
       -0.26788568 -0.18306667 -0.08441633 0.20389192
0000c0 aa 7a 53 3e 79 e1 47 be 6e a3 3f be c1 34 ee 3d
       0.20652261 -0.19519605 -0.18714687 0.11631156
0000d0 98 5e da 3d 8c ed ef 3b cb 73 77 3b 01 ca 55 be
       0.106625736 0.007322019 0.0037758227 -0.2087784
0000e0 30 e2 74 bc ba b7 00 be 22 21 02 3e 3a 20 a9 bc
       -0.014946505 -0.12570086 0.12707952 -0.02064525
0000f0 25 60 c9 3c 5b a7 d6 be 9c 6b 37 3e 3b 10 36 be
       0.024581978 -0.41924557 0.17912143 -0.17779629
000100 7c 7a 43 bf eb bb e7 be 9e 01 b2 be 48 e4 05 bf
       -0.7635877 -0.45260558 -0.3476686 -0.52301455
000110 6d 7d ec be e3 c2 b1 3e 08 8e 34 3e e5 0d 20 3c
       -0.46189442 0.34719 0.17632306 0.009768938
000120 76 3a 85 3d 7e 7f 3a 3d f3 38 a8 3e 1c 19 cb 3d
       0.06505291 0.045531742 0.3285595 0.099168986
000130 39 23 d8 3e b3 05 83 bd 43 75 a3 3e 1b 24 4d bd
       0.42214373 -0.063975714 0.319254 -0.05008326
000140 e7 4d 0e 3e 03 91 8c 3e 53 77 8e be 12 60 b5 3d
       0.13896905 0.27454385 -0.27825412 0.088562146
000150 9e 87 b5 be 5e 78 39 3e f0 89 dd 3d 90 2d fd 3d
       -0.3545503 0.18112323 0.10817325 0.12362206
000160 69 00 27 3e 50 c2 7e 3d 87 df 6b 3e 09 95 e8 3e
       0.1630875 0.06219703 0.23034488 0.45426205
000170 62 4e 79 3e 6d 8c d2 3e 63 25 e5 3d 84 e1 35 3e
       0.24346307 0.4112276 0.111887716 0.17761809
000180 84 63 66 3e 6a 94 82 3e d9 50 7b 3e cc c5 6f bd
       0.224989 0.25503856 0.2454256 -0.058538243
000190 ed 16 0d 3e ee 45 e6 bd 79 a0 19 3d ca 52 92 be
       0.13778277 -0.11243807 0.037506554 -0.28578788
0001a0 3a 9e 00 bf ad 1b 83 be 3a d9 8e be 78 f4 ce bd
       -0.50241435 -0.25607052 -0.27900106 -0.101052225
0001b0 fc a7 6b be 4c cf c8 3d 1f 30 91 bd 08 9c 0d 3e
       -0.230133 0.09805164 -0.070892565 0.13829052
0001c0 e5 34 0e be b8 05 33 3d ed d5 d9 bb 39 a7 05 bb
       -0.13887365 0.043706626 -0.0066478164 -0.0020393862
0001d0 52 5b 82 3e d7 fe 79 be 05 fe 12 3d c6 8d c1 bd
       0.25460297 -0.2441362 0.035886783 -0.09450869
0001e0 54 3b 07 3c 56 0a 27 be 53 54 bc 3d 13 cb 93 be
       0.008253891 -0.16312537 0.09195771 -0.2886587
0001f0 fb a1 88 bd 72 6b 80 3e 3f df af 3e d2 6e 9d bb
       -0.0667152 0.25081974 0.3435001 -0.0048044706
000200 a6 6f a3 bd 0e 90 27 3e 8e 3a 22 bd 56 d7 ab 3e
       -0.079802796 0.16363546 -0.039606623 0.33562726
000210 c4 36 a6 be f8 42 1e 3f cf 19 df ba 29 b0 27 3e
       -0.32463658 0.61820936 -0.0017021241 0.16375794
000220 7d ea d3 3d e2 a0 cd bc c6 26 bb ba b7 4b 59 3c
       0.103474595 -0.025101129 -0.0014278523 0.013262681
000230 62 cc ef bb ad 8c a0 be c0 e9 20 bf 3c c3 01 be
       -0.0073180655 -0.31357327 -0.62856674 -0.12672132
000240 44 3b cf bd 7d ff 47 be b4 60 0f be ba e6 2e 3d
       -0.10118726 -0.19531055 -0.14001733 0.042700507
000250 3d 74 6e be 4d 2a 32 be d6 bf 25 3e bc b7 a5 bd
       -0.23286529 -0.17398949 0.16186461 -0.08091685
000260 6a 7a 44 be 12 b8 11 be ee fb 37 be 7a b4 c2 3d
       -0.19187322 -0.14230374 -0.17967197 0.095070794
000270 60 ab d5 be f8 80 37 bd af a8 86 3d 8f ec 62 be
       -0.4173231 -0.04480073 0.065751426 -0.22160552
000280 a3 39 46 bd fa 09 12 3e 3f 51 02 3e 63 3f 86 3e
       -0.04839481 0.14261618 0.12726305 0.26220235
000290 47 95 6d 3e f9 56 21 3e c9 0d 63 3e 9b c7 35 3e
       0.23201476 0.15755834 0.22173227 0.17751925
0002a0 ef 12 54 3e 06 70 19 be e8 92 aa 3b bd d5 a9 3c
       0.20710348 -0.1498414 0.005205501 0.020731801
0002b0 7b 2e f7 3d ee 4e b0 3d b8 c1 09 3d 30 1c a9 bc
       0.12069412 0.08608805 0.03363201 -0.020643324
0002c0 8a 63 66 be fd 62 d1 bd 63 36 28 3e 68 69 02 be
       -0.22498909 -0.10223959 0.16426997 -0.12735522
0002d0 35 79 36 3d d6 60 08 3e e6 2d 07 be 5d c7 69 3e
       0.044549186 0.1331819 -0.13201103 0.22829957
0002e0 94 19 ed bd a8 ab 89 bd 18 65 79 bd ab 1c cb 3d
       -0.11577144 -0.06722194 -0.060887426 0.09917577
0002f0 ed dc 0c 3e 18 18 10 be e0 45 b7 3e d9 bb 25 be
       0.13756151 -0.14071691 0.35795498 -0.1618494
000300 62 37 e1 3c 39 bd 0c 3f 2d 40 1f bc e2 38 93 3e
       0.027492229 0.5497623 -0.009719891 0.28754336
000310 a0 53 9b 3e e2 18 c1 be 00 ad 0e be cb 4c ca be
       0.30337238 -0.37714297 -0.13933182 -0.39511713
000320 7b da bb bd cb 07 24 be 0d 53 7c be 60 2e e9 3d
       -0.09172531 -0.16018598 -0.24641056 0.113857985
000330 a4 69 fe be a3 13 27 3e de eb 6b be 1d ae 0c bd
       -0.49689972 0.16316085 -0.23039195 -0.034345735
000340 53 11 df 3d 16 1f 37 bc cd fd b3 3d 7e 11 e4 bc
       0.10891976 -0.011176845 0.08788643 -0.027840372
000350 41 93 73 3d ab ae 32 be 2d 5b f3 3d fb 3f 37 3b
       0.059466604 -0.17449443 0.11882625 0.002796172
000360 db f0 52 3e ce 77 13 bd d4 c9 92 3d 90 83 42 3e
       0.20599692 -0.036002927 0.07167402 0.189955
000370 cc a8 d8 3d a5 7a 2a bc 9f f3 84 bd e3 1a 16 3d
       0.105790704 -0.010405217 -0.064917795 0.036646735
000380 a3 04 45 bd a6 b2 34 3d af 6f e8 bd f3 ce b0 bd
       -0.048100125 0.044115685 -0.11349427 -0.086332224
000390 34 f9 bd be 8c ae e9 be 0d b8 c3 3d 65 2d 2e be
       -0.3710419 -0.4564098 0.09556589 -0.17009504
0003a0 48 8b 04 bf 8c 1b 43 be 40 66 e9 3c ad 9b 7e 3c
       -0.51775026 -0.19053477 0.02849114 0.015540046
0003b0 67 fd 94 bd 29 22 86 bd 77 5a ac bd 43 ab 1a 3e
       -0.07274895 -0.06549484 -0.08415692 0.15104394
0003c0 8e 62 83 be fa ee cb be 6e 05 e0 bd 00 35 a8 3e
       -0.2566113 -0.39830762 -0.10938536 0.32852936
0003d0 c9 0c 8a 3e 14 7a 84 3e 3d 6a 11 3e 8e 47 8a bd
       0.2696288 0.25874388 0.14200683 -0.06751929
0003e0 33 b5 77 bd 57 31 e3 bd 98 27 0d 3e 1d 6f d2 3d
       -0.06047554 -0.11093395 0.13784635 0.102750994
0003f0 6b ec 68 be a0 f2 28 be 3d 6d a2 3c 7e bd 0b bc
       -0.22746436 -0.16498804 0.01982748 -0.008529065

conv2.0.bias f4 [8]
000000 2d 36 76 3e 5d d0 89 3e ed 48 c0 3e 68 42 a5 3c
       0.24044104 0.2691678 0.37555638 0.020173267
000010 fc fd 8f 3f ff a4 13 3f 89 ee 48 3e b1 ce ac be
       1.1249385 0.5767364 0.19622244 -0.33751443

conv3.0.weight f4 [8, 8, 3, 3]
000000 ce 01 38 be f0 fb fe bc 3b 1f 72 3e 8d 2f 03 3d
       -0.17969438 -0.031125993 0.23644726 0.03202777
000010 27 87 cb be a1 29 10 3e 2e 8b 92 be 6d 36 88 be
       -0.3975155 0.1407838 -0.2862181 -0.26604024
000020 5b 51 41 3e fe 0b 60 3e 40 63 19 3e 7e d1 1b 3d
       0.18878691 0.21879575 0.14979267 0.038041584
000030 81 95 9c 3e c5 dc b1 3e f6 30 ef 3d 5e 4d ac 3d
       0.30582812 0.34738746 0.116792604 0.08413194
000040 9b d4 02 3e b5 6c cb 3d 88 a4 71 3d 60 dc cc 3d
       0.12776415 0.099328436 0.0589948 0.10002971
000050 e3 33 6f 3e 25 2d 94 bd 8a 69 3e bc 3b 53 0b be
       0.23359637 -0.07235173 -0.011621842 -0.13605969
000060 54 6e fc 3c 31 dd 7d be 20 f9 e5 bd 85 fe d4 3e
       0.030814327 -0.24791409 -0.112291574 0.41600433
000070 f9 f4 92 3e 26 53 16 3e 94 82 be 3e 5c fd b0 3e
       0.28702524 0.14680156 0.37208998 0.34568298
000080 f2 1c 90 3c 00 2c 2a 3f 3f 4e 5b 3e 09 e0 15 3c
       0.017591927 0.6647339 0.21416567 0.009147652
000090 c3 77 bb 3c 7f ca 4f be 26 a0 cd be d4 da 30 be
       0.022884255 -0.2029209 -0.40161246 -0.17270976
0000a0 25 0f 1d be 2f 4d 99 bd ad a5 37 be 94 18 a7 bd
       -0.15337808 -0.07485425 -0.17934294 -0.08158985
0000b0 b0 71 1c be 9d 47 af bc 24 f2 9f be 10 5d a3 be
       -0.15277743 -0.021396453 -0.31239426 -0.3190694
0000c0 d3 d2 12 bf d9 fb d6 be df fd 03 be 12 02 52 be
       -0.5735294 -0.4198902 -0.12889813 -0.20508602
0000d0 b6 d0 99 be a7 83 36 be f9 a5 95 bd 3f df ad bd
       -0.30042046 -0.17823659 -0.073070474 -0.084898464
0000e0 3a 9e 4c 3d 3b 63 f9 39 c7 b5 ab 3c 24 85 82 3d
       0.049955584 0.00047566913 0.020960702 0.06373051
0000f0 8f ec 4f 3e 73 f8 82 3d 0f c2 41 3e 82 96 02 3e
       0.20305084 0.06395044 0.18921684 0.12752727
000100 e3 f6 42 bd 4a 56 fb bc aa 51 2f be 0a 96 1b bd
       -0.04759873 -0.030680794 -0.17120996 -0.037984885
000110 d5 17 41 3d 32 8b d3 3d 82 33 05 3d 7e 52 2f be
       0.04714187 0.10329284 0.032519825 -0.17121312
000120 79 d7 20 3e 35 f4 d8 be 1a a1 82 bd 30 98 03 3f
       0.15707196 -0.42373815 -0.06378384 0.51404095
000130 90 83 50 3e aa 16 4a 3c a4 d4 ff 3e b2 90 54 3e
       0.20362687 0.012334505 0.4996692 0.20758322
000140 34 09 20 be 72 48 09 3d 41 51 d1 3a c4 e9 8c 3d
       -0.1562851 0.033516355 0.001596965 0.06880525
000150 fa a0 26 bd 2e b7 9d 3c eb 50 7f 3c c2 34 c9 3c
       -0.040680863 0.019252386 0.015583257 0.02456129
000160 da 17 e3 be f8 4f 2b bd a9 4a 82 bd 30 ff 23 bc
       -0.44354135 -0.04182431 -0.063618965 -0.010009572
000170 b8 bd 93 bd f1 da 57 3d 9a 8e 28 be 61 6d de 3d
       -0.0721392 0.052699033 -0.16460648 0.10860706
000180 fe 88 0e 3e e4 65 b9 be 14 1f 29 3b 23 d7 5b 3e
       0.13919446 -0.3621055 0.0025805878 0.21468787
000190 22 26 3f 3e 37 29 8a 3d 27 2e 5c 3e fc 3f a0 3e
       0.1866689 0.06746142 0.2150198 0.31298816
0001a0 42 b5 e4 bb 92 b6 0f 3e 64 a8 74 3e 97 70 ec 3d
       -0.0069796154 0.14034489 0.23892361 0.11544912
0001b0 1b 43 5d be f3 1f 36 be f7 fe 1e be 9d 53 10 bf
       -0.2160763 -0.17785625 -0.15526949 -0.56377584
0001c0 c3 85 80 be 71 80 9c 3d b8 63 c7 bd 61 e7 7b be
       -0.25102052 0.07641686 -0.09735817 -0.24599983
0001d0 1a 41 40 3e f6 52 54 3e 13 c3 e1 3d 31 2d 6d 3e
       0.18774834 0.20734772 0.110235356 0.2316177
0001e0 79 96 74 3e d4 27 e9 3d 56 a9 ae 3a 77 a7 36 3f
       0.23885526 0.1138455 0.0013325613 0.7134928
0001f0 c2 0a c1 be f2 6c cf 3d 06 05 3d 3e 8f e9 1e 3e
       -0.3770352 0.101282015 0.18458948 0.15518783
000200 ac a9 1e bd e0 f0 7c be 1d 6c 54 be ca f1 9a bd
       -0.03873603 -0.24701262 -0.20744367 -0.07565649
000210 9c ac 9c be 4e 47 6a bd 2b fd 81 3e eb 18 76 3d
       -0.3060044 -0.057196908 0.25388464 0.060082357
000220 f3 c1 36 3d 1b 7d 9e 3d a5 d5 19 3d 67 6a 34 be
       0.04461856 0.07738706 0.037557263 -0.17618714
000230 2e 03 c7 bd 84 34 db 3d be 56 74 bd ff c7 a4 3d
       -0.09717403 0.10703376 -0.059653036 0.08045959
000240 44 2d 35 3e 4c 15 b0 bd 97 9b 38 be 02 82 86 bd
       0.17693049 -0.08597812 -0.18028103 -0.06567766
000250 f9 93 39 be 66 d2 5c be 86 33 9c bd 2f c6 88 bd
       -0.18122853 -0.21564636 -0.07627015 -0.066784255
000260 ad af 88 bc 3a 62 84 3e 38 32 ce 3e 23 cf 60 3e
       -0.016685331 0.2585619 0.4027269 0.21954016
000270 2b 5a 71 3e 21 82 88 3e 07 55 1b 3e f9 87 09 3e
       0.23569553 0.2666178 0.15169154 0.13430776
000280 ee 19 48 3e 0f b0 1e 3e 67 1b 49 be b8 14 a1 bc
       0.19541141 0.15496849 -0.1963936 -0.0196632
000290 f2 8b ab bc 17 e1 9d 3d 7f ba 86 bd 54 42 5a 3d
       -0.020940755 0.07708948 -0.0657854 0.05328591
0002a0 c1 4c 68 be 2d b1 ab bd 20 db 2e bd 45 22 75 3d
       -0.2268553 -0.08383403 -0.042689443 0.059847135
0002b0 2a 82 89 3d b3 8b 48 be 2b 7d 67 3d 18 8b de bd
       0.0671428 -0.19584541 0.056515854 -0.10866374
0002c0 ca 02 58 be a6 b8 c2 bd ea 1a 3d bd db b3 27 be
       -0.21094814 -0.09507875 -0.046168245 -0.16377203
0002d0 aa 15 57 3e fb bf 82 bd 45 69 78 3e 3d b9 9c bd
       0.21004358 -0.063842736 0.24258907 -0.07652519
0002e0 1d 13 90 3d 60 c0 6c be ea ad c4 3e 9b 2c 84 3d
       0.070348956 -0.2312026 0.38413936 0.0645382
0002f0 a2 fc 66 3e 17 9c 81 3e 6d ae 76 3e c1 c0 fa 3d
       0.2255731 0.253144 0.24089976 0.12243796
000300 f7 04 06 3e ef 6e aa 3e 37 61 75 3d d0 db c6 3e
       0.13087831 0.3328776 0.059907164 0.3883958
000310 b7 90 42 bd 02 dd 62 bd 62 0b 50 3b 7d 9e 95 3d
       -0.047501292 -0.05538655 0.0031745066 0.0730562
000320 68 38 ac 39 0f 20 53 3c f9 c3 8d 3d eb 84 54 bc
       0.00032848422 0.012886061 0.069221444 -0.012971143
000330 7c 6f a8 3d 62 89 2c 3d f5 a1 f5 3c 37 48 3d bd
       0.08224389 0.042123206 0.029984454 -0.046211448
000340 d3 f0 90 bd ed 22 84 be 00 5c 5c bd 0c 21 5f be
       -0.070771836 -0.25807896 -0.053798676 -0.2178995
000350 1c 32 1a be af 75 3e bc c4 c5 cc bd 83 7f 0d 3d
       -0.15058178 -0.011624738 -0.09998658 0.034545433
000360 16 1c 85 3d 11 77 d5 bd 4f 94 17 3e 21 fd cb 3e
       0.064994976 -0.10423101 0.14802669 0.3984156
000370 41 c4 ce 3e 93 b6 9c 3e 17 85 24 3f 63 ca 0a 3f
       0.40384105 0.30608043 0.6426558 0.5421507
000380 30 61 b4 3e a4 4d 1f 3e f0 e0 f9 3d 20 de 23 3e
       0.35230398 0.15556961 0.122011065 0.16002703
000390 3d ac dc bd 3c 66 07 be 5f cc 20 3d 29 9e 7a bc
       -0.10775039 -0.13222593 0.039257403 -0.015296497
0003a0 37 2f 64 3d 73 c1 f1 bd 9a 89 e1 be 8b 0d 88 be
       0.05570909 -0.11804476 -0.44050294 -0.26572832
0003b0 44 c6 ab 3d 2e 3a d4 be 81 9e 09 bf c0 05 2c be
       0.083874255 -0.41450638 -0.5375748 -0.16799068
0003c0 ce 1f e4 bd a2 ef 97 be 59 9e 21 be 32 a5 9c bd
       -0.11138879 -0.29675013 -0.15783061 -0.07648696
0003d0 6f 78 03 be 22 34 31 3d 25 20 91 3d 9d 93 68 3e
       -0.1283891 0.04326261 0.07086209 0.2271256
0003e0 81 03 a0 3b 93 5b 16 be 27 44 0f 3e 84 cd 36 be
       0.00488323 -0.1468337 0.13990842 -0.17851835
0003f0 ff 76 fd 3e 32 bd b3 3d 94 ec 4e be 3e 9c a7 3e
       0.4950485 0.087763205 -0.20207435 0.3273639

conv3.0.bias f4 [8]
000000 d2 7b 9f 3e 8c 40 3a 3f 76 5a 38 3f 7e 00 ab bd
       0.31149155 0.7275474 0.7201303 -0.08349703
000010 0b 7a 7d be de f6 3d be 9c 19 c6 be 6b 5b 01 bf
       -0.24753587 -0.18551204 -0.38691413 -0.5053012

dense1.0.weight f4 [32, 128]
000000 8e 42 a5 3c 03 03 26 3d 37 b7 7a bd 04 97 49 3e
       0.020173337 0.040530216 -0.061209884 0.19686514
000010 9f 63 80 3d 1d 8f 0d be 58 ca 59 be 03 70 20 bc
       0.06269001 -0.13824125 -0.21268594 -0.009792331
000020 d4 52 73 bd 80 93 31 3d 59 2a 37 3d 3c 2d bb bd
       -0.059405163 0.043353558 0.04471812 -0.09139487
000030 1e 9f 1e 3d ca ab ec 3d 80 88 06 3e f2 a6 0e bd
       0.038725965 0.11556204 0.13138008 -0.03482718
000040 46 9d 06 bc 6b 6f 55 3d 10 6f af bd ca 63 1d 3d
       -0.008216208 0.05210821 -0.08566105 0.038425244
000050 6b 82 85 3d 56 51 6f be 5b d6 06 3d 43 fd 09 3c
       0.06519016 -0.23370871 0.03291927 0.008422199
000060 7a 63 e0 3d bb 64 f7 bd 40 1f 1d be 7a 1d 21 3d
       0.10956474 -0.1207976 -0.15343952 0.03933475
000070 7e 81 fc bd 53 c2 66 3e f8 53 29 3e e8 9a 86 3d
       -0.12329386 0.22535066 0.16535938 0.06572515
000080 b0 f5 74 bd c6 b9 61 3c 92 6b 41 bd ab 9e 4f 3d
       -0.05980462 0.013777202 -0.047221728 0.050688427
000090 91 0d 93 bd d9 63 86 bd e3 4a 86 bd 9f af 57 3d
       -0.07180322 -0.06562013 -0.06557252 0.05265772
0000a0 f5 15 f1 3d c0 c1 09 3d 34 fc 73 3d d0 bd 9f 3d
       0.11771766 0.03363204 0.05956669 0.07799876
0000b0 87 af b4 bd 3e 84 01 3e 93 cc 18 3e 40 80 1c be
       -0.08822542 0.12648103 0.14921789 -0.15283298
0000c0 45 9d 40 3e aa d1 17 bd 24 52 16 be 66 6a 0f 3e
       0.18809994 -0.037065186 -0.14679772 0.14005432
0000d0 2a 5f fd bc 24 17 08 be d8 08 fd bd 2d ba f1 bd
       -0.030929167 -0.13290077 -0.123552024 -0.11803088
0000e0 0f 40 48 be 88 b6 e1 bd 2a e6 8e 3d 57 24 0b 3e
       -0.19555686 -0.11021143 0.06977494 0.13588081
0000f0 ce 49 12 3e 05 6a aa bc bf 88 ec bd 9f 69 17 be
       0.14285967 -0.020802507 -0.1154952 -0.14786385
000100 6d e1 7f bd f8 73 07 be 87 f7 2f 3e 6e d5 de 3d
       -0.062470842 -0.13227832 0.17184268 0.10880552
000110 ae fd 2e ba 7c c4 3e 3e 8a 74 33 3e 4c 0d 50 3c
       -0.00066753745 0.1862964 0.17524925 0.012698483
000120 7a dd db bd a6 3f c3 bd dd ac 99 be ef 5b 92 bd
       -0.10735603 -0.09533624 -0.30014697 -0.07146441
000130 79 d4 01 3e 34 0c ba be 98 67 19 be f0 ad 9d 3e
       0.12678708 -0.36337435 -0.14980924 0.30796766
000140 96 45 02 be ce e3 51 3e 7f bf a0 bd 1d ee 03 be
       -0.12721857 0.20497057 -0.07849025 -0.12883802
000150 7a 87 4a be f5 de f8 3d 89 17 89 bd 7f 9a ed bd
       -0.19778243 0.12151901 -0.06693942 -0.116017334
000160 32 65 49 3e c1 3a 5c 3d 68 cc 15 be f9 bd ff bd
       0.19667509 0.05376697 -0.14628756 -0.12487406
000170 c0 62 6e 3e 6c 20 a4 3e b3 e7 2c bc 93 8a 99 be
       0.23279858 0.32055986 -0.010553288 -0.29988536
000180 b7 4a 93 3e d9 fc 40 3d f2 bf 56 be bc c2 2a 3b
       0.2876794 0.047116134 -0.20971659 0.0026056012
000190 0d a2 d3 3c 05 b1 67 3d 24 0d 20 bd 53 a4 64 bd
       0.025834108 0.056565303 -0.039075032 -0.055820774
0001a0 64 41 cd 3d 1f a8 22 3e 0a ca 81 3e 75 bb 89 3d
       0.10022238 0.15884446 0.25349456 0.06725208
0001b0 a2 81 19 be 73 f3 49 3d 37 c3 1c 3e 7f c3 3a be
       -0.14990857 0.049304437 0.15308844 -0.18238638
0001c0 04 cb 6a 3b 10 91 84 bc 34 2d f2 3d aa 0a 04 be
       0.0035826573 -0.016182452 0.11825028 -0.12894693
0001d0 40 d9 3a be 3a a5 df bb 77 45 f4 3d 5a e2 9b 3d
       -0.18246937 -0.0068251165 0.11927312 0.076115325
0001e0 b0 04 56 3c 07 0d b5 bc ba 28 84 3e d5 1f 29 be
       0.013062641 -0.022100938 0.25812322 -0.16516049
0001f0 12 ac a2 bd 1f d6 4a bb 8d 38 c8 3d 76 75 94 3d
       -0.07942976 -0.003095038 0.09776411 0.072489664
000200 3d 0e ef 3d 6e a9 51 3a 19 13 17 bd d0 4b 8d 3d
       0.116726376 0.0007997964 -0.036883447 0.06899226
000210 41 6a 60 3d f9 65 5d be 6f 12 98 3d 14 aa f3 3b
       0.05478883 -0.2162093 0.07425391 0.0074360464
000220 54 68 3f 3e a4 45 9b bd 0b 77 cc bc de 63 68 3e
       0.18692142 -0.07581642 -0.024959108 0.22694346
000230 21 8d 30 bd fe fe 16 be 98 9c c5 3d fe 56 5d 3d
       -0.04310334 -0.1474571 0.096490085 0.05403804
000240 c8 75 64 be f9 bf ff 3d 15 01 ca 3d 4d d2 a3 3d
       -0.22310555 0.12487788 0.09863488 0.07999096
000250 53 c4 a1 3d 6b 7c 39 3d ab b9 e0 bd f0 9b 6d be
       0.07898774 0.04528467 -0.10972913 -0.23204017
000260 ae ee ac 3d 6e 2d ca be 88 59 d0 be 8e 7e 81 be
       0.08443962 -0.39487785 -0.40693307 -0.25291866
000270 37 2d 48 ba 5a 02 01 3e a7 e1 94 3d 5d eb 6b 3e
       -0.0007636132 0.12598553 0.07269602 0.23039003
000280 4d 41 ea 3d 7c de b1 bd 10 dc ef 3c 70 29 a2 bd
       0.114382364 -0.08685014 0.029279739 -0.0791806
000290 be c0 30 3d 59 68 49 3c 3e 0d 45 3e cc 2d 7b 3d
       0.043152563 0.012292945 0.19243333 0.061322972
0002a0 57 4c d1 bd ce 19 03 3d e9 0e 92 3c dc fd 5b be
       -0.10219639 0.03200703 0.017829375 -0.21483558
0002b0 77 f9 44 bd c5 32 0b bc be 00 30 3d 5b 9f 24 3d
       -0.04808947 -0.008495991 0.042969458 0.040191036
0002c0 17 ed 04 be b8 96 d5 3a b2 b2 ed 3d 79 dc c9 bb
       -0.12981068 0.0016295528 0.11606349 -0.0061603156
0002d0 1c 23 1e bc 17 4f be 3d 1c 6c 01 bd e4 c6 8d be
       -0.009651925 0.09292429 -0.03159724 -0.27690804
0002e0 01 62 6c be f1 48 e7 3d 37 10 37 3e dd f8 b4 bd
       -0.2308426 0.11293209 0.17877279 -0.088365294
0002f0 9f 81 d3 3d 20 d5 1b 3d 84 5d 32 3e de 5f 25 bc
       0.10327458 0.03804505 0.17418486 -0.010093657
000300 ab ed b9 3c 0c 7a ad bd 85 14 63 be cc 12 63 bd
       0.022696337 -0.08470544 -0.22175796 -0.055437848
000310 15 67 c5 3d 0b e3 2b be 01 c1 c6 bd 47 19 3c 3d
       0.09638802 -0.16785829 -0.09704781 0.045922544
000320 78 ca 1e 3e e1 ef 70 be b0 09 06 be ba ab 1d bd
       0.15506923 -0.23529007 -0.13089633 -0.03849385
000330 92 92 0b bd 65 0e b7 3d 3e 12 84 3d 18 9e 5f be
       -0.034075327 0.089382924 0.06448792 -0.21837652
000340 bb 27 da bd 2e fb ed 3d fc 2a b4 bb 49 9f 9a bd
       -0.10652109 0.11620174 -0.005498288 -0.075499125
000350 92 50 97 3e d4 fa 85 bd c3 ae c3 3c 5a 7e 46 bd
       0.29553658 -0.06541982 0.023887044 -0.048460342
000360 cf a9 01 3d e3 6e 02 be 34 19 05 3e 51 db ae 3c
       0.031656083 -0.12737612 0.12997895 0.021344813
000370 60 78 c2 be 8b 86 85 bd 78 1f 11 3e e0 8c 23 3e
       -0.37982464 -0.06519803 0.1417216 0.15971708
000380 8c 77 1c bb b1 e9 5c 3d 65 5f fc bd 95 22 21 3e
       -0.0023874966 0.053933803 -0.123228826 0.15735848
000390 f0 24 4d be 20 b1 a2 bd 83 4a db 3c 62 f7 42 be
       -0.20033622 -0.0794394 0.026768928 -0.19039682
0003a0 c8 59 97 bc fa bb 14 3d 89 c9 38 3e b2 bf 4b 3d
       -0.018475428 0.03631208 0.1804563 0.04974336
0003b0 1d cf 78 3d 94 f1 a1 3d 85 5d 39 be 90 e0 12 ba
       0.060744394 0.079074055 -0.18102081 -0.00056029204
0003c0 a6 44 d0 3d bf ad 2b 3d 3e 9b 6f bd 38 a5 89 3e
       0.10169344 0.041913744 -0.05849766 0.26883864
0003d0 b1 c6 bd bd de b1 fe bd b2 7f da 3d 2e d4 a3 bd
       -0.09266413 -0.12436269 0.10668887 -0.079994544
0003e0 ce ff 8d 3d d7 ee ca bb f3 bb 6d 3e 83 fb 77 ba
       0.069335565 -0.0061930227 0.23216228 -0.00094597804
0003f0 64 fa df bc ce 3a 80 3e cb 8b 16 3e 50 86 83 bc
       -0.027341075 0.25044864 0.14701764 -0.016055256

dense1.0.bias f4 [32]
000000 37 34 a4 3d 5e c3 5e 3d 17 1a 05 3f 7e 74 78 3e
       0.08017772 0.054385535 0.51992935 0.24263188
000010 77 82 ae be 26 be 8c 3f d9 f5 01 3f b5 5f 54 bf
       -0.34083912 1.0995529 0.5076576 -0.8295854
000020 66 0a 5b 3e 62 9f a0 3e a7 d2 26 3f 0b 04 26 bf
       0.21390685 0.313716 0.6516518 -0.6484992
000030 21 81 2d 3f f7 75 39 bf a9 13 56 bf 4b b1 2b 3f
       0.6777516 -0.72445625 -0.8362375 0.670674
000040 e2 63 7d 3e 91 65 04 00 d5 28 d9 3e e5 79 83 3e
       0.24745134 4.03777e-40 0.42413965 0.25678936
000050 6b af 3d 3f 17 6c ec 3e a9 04 e7 be 27 e5 23 3f
       0.7409579 0.46176216 -0.45120743 0.64021534
000060 c9 e7 3a 3e 5a 1c 01 00 2a ac 31 bf 1e 73 87 bf
       0.18252482 1.02006e-40 -0.69403327 -1.0582006
000070 a8 b5 02 40 a7 69 ac 3e 8a 28 fd bd 54 6b f1 3e
       2.0423374 0.33674356 -0.12361248 0.47152197

dense2.weight f4 [10, 32]
000000 59 02 32 be 18 b1 37 3d 3f 86 89 be 76 ab 18 bf
       -0.17383708 0.044846624 -0.26860234 -0.5963663
000010 34 de ac 3e c7 5c dc be 85 99 3c 3d 35 c4 2a bc
       0.33763278 -0.43039533 0.046044845 -0.010422756
000020 f4 dd 53 3e 38 9b 26 3d 0c 5f 7f 3e a3 38 be 3e
       0.20690137 0.040675372 0.24938601 0.37152585
000030 ad 11 ad 3e d9 10 3a 3c bb ec ab be 3a 64 c2 bd
       0.33802548 0.011356556 -0.3357905 -0.09491773
000040 f6 0e 19 3d a0 d4 0c 3a 30 6c a1 3e c8 8f 61 3e
       0.037367783 0.000537226 0.31527853 0.22027504
000050 8d 4d 56 bd 87 c4 3f 3e ca b0 02 3f 35 23 c9 3e
       -0.052320052 0.18727313 0.5105101 0.39284673
000060 91 0a e1 3c 6a f0 08 2c 12 39 28 3f 58 81 e8 3d
       0.027470859 1.946022e-12 0.6571208 0.11352795
000070 57 69 98 bd df 29 98 3e 37 2d 51 be a8 3b 02 3f
       -0.07441967 0.29719445 -0.20427404 0.5087228
000080 c0 be ce bd 8b 88 81 be 0b 9d 3c be 43 21 31 3e
       -0.100949764 -0.25299487 -0.18419282 0.17297845
000090 7a 8e 3a 3e c9 f4 17 3d fa ee bd 3d 22 e0 db be
       0.18218413 0.03709868 0.09274097 -0.42944437
0000a0 bc 3b 7b be a8 d9 83 3e 17 25 16 bf a9 48 a4 3c
       -0.24534506 0.25751996 -0.58650345 0.020054178
0000b0 5d 66 6f be 30 c4 1a bf 02 24 a8 3e 4a c4 30 3c
       -0.23378892 -0.6045561 0.32839972 0.010788986
0000c0 a3 bf 47 3e a8 56 ef 39 93 97 b6 bd b6 9e ad 3e
       0.19506697 0.00045650196 -0.08915629 0.3391015
0000d0 61 14 1b bf dc 3e 98 be ae 96 99 3e ab 8f 8f bd
       -0.6057797 -0.29735458 0.29997772 -0.07009824
0000e0 f2 d7 40 3e 0f 08 79 b3 da 63 7c be 40 dd 23 3f
       0.18832377 -5.798216e-08 -0.24647465 0.64009476
0000f0 75 3d 4d be fc 1c e4 bd 2b 4f 0a 3f 79 10 82 be
       -0.20042975 -0.11138341 0.5402705 -0.25403193
000100 44 ac 15 bd 1d 8c d5 bb 3d d5 61 3d c0 66 30 be
       -0.03654124 -0.006516947 0.055135 -0.17226696
000110 69 f0 b4 bd 43 3b 8c 3e ca 68 6c be e4 71 93 3d
       -0.08834917 0.27388963 -0.23086849 0.07199457
000120 ca f0 09 3e 26 9d 4d bd 2f 14 3c 3e a1 44 06 3e
       0.1347076 -0.050198697 0.18367074 0.13112117
000130 02 ca ae be 99 3f dc 3e 18 ac 7f 3e 00 cf bf bd
       -0.34138495 0.4301727 0.24967992 -0.09365654
000140 99 00 7e 3c 4d 7d 1c ba 00 5b ec 3e 42 5b a3 be
       0.015503072 -0.0005969599 0.46163177 -0.31905562
000150 0f e2 8a 3e ec ac 3d be 3a 08 00 3f 69 7d 09 bd
       0.27125594 -0.18522996 0.5001255 -0.033566866
000160 09 a2 c5 3e 8a a3 04 36 d3 67 c1 3e 7c 42 1a 3e
       0.38600186 1.9764725e-06 0.37774524 0.15064424
000170 d3 75 fd bd 4c 21 50 3e 4a 41 a7 be 3c 38 d7 bd
       -0.12375989 0.20325202 -0.32667 -0.10508773
000180 0f 17 72 3e 7b fe 24 3e 7d 40 12 3e 26 83 27 be
       0.23641609 0.16112702 0.14282413 -0.16358623
000190 ac 9a 92 bd 3b 31 da bc 61 d1 b3 bd 02 91 80 3e
       -0.071584076 -0.026634803 -0.0878017 0.25110632
0001a0 db 7b 59 be 0a bf 17 be c5 a8 df bc 26 17 ab bd
       -0.21238653 -0.1481897 -0.027302155 -0.083540246
0001b0 1c 72 77 3d 58 50 4d 3e 3c f7 b9 bd 90 d3 15 bd
       0.060411558 0.2005018 -0.09080359 -0.036578715
0001c0 0e 85 70 3e 31 36 b9 39 26 a4 ea bd c1 4a d4 ba
       0.23488256 0.00035326325 -0.1145709 -0.0016196595
0001d0 9f 60 d5 bd 47 6e 00 be 7e c7 4a be a8 20 9b 3c
       -0.1041882 -0.12542067 -0.19802663 0.01893647
0001e0 cf 18 aa 3e 2a 46 e2 b1 37 a6 02 3e 19 b9 c1 be
       0.33222052 -6.5854424e-09 0.12758718 -0.3783653
0001f0 82 13 5b be ec c7 1f be 71 1a a9 be aa 5c 2f bd
       -0.2139416 -0.15603608 -0.33027986 -0.04281298
000200 94 b6 fb bd 92 56 ad be a2 f3 cb 3e ee ca 40 be
       -0.122906834 -0.3385511 0.39834315 -0.18827412
000210 b6 ce 94 be 0a 05 d1 3e 22 e0 46 3e 98 d5 40 be
       -0.29063958 0.40824157 0.19421437 -0.1883148
000220 0b 6e 8a 3e 53 f5 99 be 97 ae 6d 3e 91 d5 f3 be
       0.2703708 -0.3006998 0.23211132 -0.47623876
000230 cf f9 22 be b0 50 37 be c7 d4 be bd 29 ae 2d 3f
       -0.15915607 -0.17901874 -0.09317928 0.6784387
000240 5c ef 0c be b2 01 06 39 d3 b8 62 be 1c a1 81 3d
       -0.13763183 0.00012779867 -0.22140817 0.06329557
000250 9d 60 48 3e cd 30 26 bd e7 25 c6 be 41 26 b0 be
       0.19568105 -0.040573884 -0.38700792 -0.34404185
000260 57 0c e1 bd 9e 26 b2 af 39 b6 54 bf 3a ad e5 be
       -0.10988682 -3.240545e-10 -0.8309055 -0.44858724
000270 86 29 19 bd fd bb a7 3d 87 4e dd be 27 11 c5 3e
       -0.037393115 0.08190153 -0.43223974 0.3848965
000280 31 eb 14 3e e1 db aa bd de 4a 80 bd b5 1d aa bd
       0.14542843 -0.0834272 -0.0626428 -0.083064474
000290 b7 9a b4 be 01 fa d0 bd b3 0c 98 3d 81 d2 98 3e
       -0.35274288 -0.102039345 0.07424297 0.29848102
0002a0 52 b7 76 be 37 53 56 3e 51 d9 49 be 58 f4 46 3e
       -0.24093369 0.20930181 -0.19711806 0.19429147
0002b0 1b 5c 71 be 11 e0 dd 3e eb 74 b8 be 12 79 e4 bd
       -0.23570292 0.43335012 -0.360267 -0.11155905
0002c0 a1 71 ba 3d 9f b4 c3 39 1f 0e 90 be 49 8c a6 3d
       0.09103704 0.00037327872 -0.28135774 0.08132226
0002d0 eb 61 1c 3e 5d 3d e6 3d a2 c7 ee 3c 6d eb 93 3e
       0.15271728 0.11242173 0.029147927 0.28890553
0002e0 ef 78 10 be 5f ae 89 b4 f8 16 c3 bd 41 14 10 bf
       -0.14108633 -2.564511e-07 -0.09525865 -0.56280905
0002f0 de cd 8f be 6e 8b 28 be 3b 98 bc be b5 15 20 3d
       -0.28086752 -0.16459438 -0.36834893 0.0390832
000300 3c 1f 92 3c 0c 12 b1 3e 0c 6c 17 3d 66 b7 2a 3e
       0.01783716 0.3458408 0.036968276 0.16671523
000310 38 37 b4 3e 78 4d 87 3e df ae 38 3e 43 d6 99 3e
       0.3519838 0.2642629 0.18035458 0.3004628
000320 4b e3 b4 3e e2 27 ed 3d 3b 1a 0a 3f 3b 17 88 3c
       0.3532966 0.11579873 0.53946275 0.01661264
000330 e0 31 79 bd 6a 5c c5 be 15 c8 c4 3d b1 8c 12 bf
       -0.06083858 -0.3854707 0.09608475 -0.5724593
000340 61 ab 69 be b2 7d f6 b7 7d a1 fc 3e 2d 09 00 bf
       -0.22819282 -2.9384017e-05 0.49341956 -0.50014
000350 5a f5 83 be 70 f4 aa be 40 eb d7 be 5d de 17 3e
       -0.25773126 -0.33389616 -0.4217167 0.14830919
000360 8a 94 17 3e fc 9e 3f 37 2c 4f 44 3e f7 ef 98 3e
       0.14802757 1.1421504e-05 0.19170827 0.2987058
000370 b1 3e 3d be b3 41 05 bf d3 55 c6 be 1c 31 9e be
       -0.18480946 -0.52053374 -0.38737354 -0.30896842
000380 18 3c 10 bc 9a e1 a5 be 6f 34 34 be ce 82 d9 3d
       -0.00880339 -0.32398683 -0.17598127 0.10620652
000390 8e 76 0e 3c fa 43 2c be fc 53 18 be 3a ff 27 3e
       0.008695258 -0.16822806 -0.14875787 0.16405955
0003a0 6f 8e a9 bd 94 1a 1d bf 9c 9d bf be ea c1 06 be
       -0.0827912 -0.6136868 -0.37424934 -0.1315991
0003b0 22 b5 07 be a8 8c 80 3e 11 0d ce 3e 56 c8 83 be
       -0.1325269 0.25107312 0.40244344 -0.25738782
0003c0 72 df f5 be 02 5d ed b8 e9 39 61 be 63 51 9b 3e
       -0.48022038 -0.00011318365 -0.21994747 0.3033553
0003d0 da 6b 78 3e 08 85 6a 3f da 6f 33 be ae f3 41 bf
       0.24259892 0.9160924 -0.17523137 -0.7576245
0003e0 e0 b5 c6 be a5 01 22 b0 b1 4f 3f bf 7c 82 d1 be
       -0.38810635 -5.8937594e-10 -0.74730974 -0.40919864
0003f0 93 bf b9 be 19 cf ed bd 0d 6c a6 be 1f 91 0e 3e
       -0.36278972 -0.11611766 -0.3250431 0.13922547

dense2.bias f4 [10]
000000 ab 7b 2e 3e a3 a5 3b bf c7 f5 69 bf 36 12 3e 3d
       0.17039363 -0.73299617 -0.9139065 0.046404086
000010 38 73 9c 3f 2a 0a 10 3e f1 47 bd be ce 78 2e bf
       1.2222662 0.14066377 -0.3696895 -0.68153083
000020 e6 f0 41 3f 55 78 90 3e
       0.75758207 0.28216806
