ResidualLoss/CNN-l2-30/iter-13.pt (torch, 27135 bytes, 10 tensors)

conv1.0.weight f4 [8, 3, 3, 3]
00000000: 77e0 823d c719 933e ac56 893e 6734 063e
00000010: 9f2f 393e 4168 15be a512 863e 8719 023e
00000020: 5b7a 60be d6fd 583e 72e5 20bd 43c4 1dbf
00000030: d28c 393e d0a9 1bbe 50cc 0bbf 9a67 31bd
00000040: f66a 95be 79bd 06bf f7ab a93c 10be 58bd
00000050: 5b57 22be c4d2 9f3c f9d5 6b3e f0d3 3fbe
00000060: 0054 903e f75f 823e c0f1 0fbe 5c81 a83d
00000070: 7087 50be 0f1f 703d 28de 3e3e c966 143e
00000080: a8cb dabe 35cd 91be 7740 9a3e 9149 0a3e
00000090: fd05 6f3d 371b a7be 8bde 823e b507 1d3d
000000a0: 7dc2 903e 3416 e6be 1cf5 aebe 3fd0 ef3e
000000b0: 9fa3 d13c daaf ff3d cf12 aebe 9899 ba3c
000000c0: f4b6 8e3e 138f 4f3e 883b ddbe 69b1 f6bd
000000d0: c295 223e a551 e93d 4b3f ba3d 241c 883e
000000e0: 3a7f bbbe ee84 4f3e 17ce 18bf 4051 423e
000000f0: 2de3 dfbd 68d4 c73d b075 203e 955e 0e3e
00000100: 83c1 7d3e ba72 ccbd 02d2 013f 82dc 12bf
00000110: 05ee 283d 517a cdbe b935 42bd e5bd 103e
00000120: 3d54 0fbe 253c 623e 0c28 6abe 1db6 5f3e
00000130: e82f edbe f91f 033e 8fb7 40be 20b3 b6bc
00000140: 0781 e13e 4e98 f8bd bc9a 833e 1794 61bd
00000150: b04f 3bbe b1fc 693d ad75 c2be 6717 4a3d
00000160: 8e35 ac3e 46fa 86bb 6a95 50be b539 d23e
00000170: 44f7 c4be 28f2 aabe 05c3 b43e 27db 8bbe
00000180: b0c6 e7bd 7831 eb3e 3a92 c43c 6522 e4bd
00000190: 3cc9 913e b3b1 69bd 8254 92bd b836 653e
000001a0: f595 3dbe 2496 c3bd fff3 8f3e 6dd9 19be
000001b0: 09bf 04be 07c7 38be ca1b ed3e 619c 04be
000001c0: 5c24 b8be c71a 81be a5b8 4ebe 7f61 c6bd
000001d0: 9211 b5bc 5ea4 17be 96cd acbd e883 2b3d
000001e0: 16a9 f3bd 2fec 0d3e 9ca5 d6bd c28c 1c3d
000001f0: d0d5 0ebd 6e64 693c cc59 66bd 11dd d33d
00000200: 699b 84be 0fa9 ed3e 32a7 da3e ef20 823e
00000210: 52c5 093e b582 153e 4cc2 e3bd d9d5 873e
00000220: dae3 de3c e2df 5e3e aca4 143d be03 213e
00000230: 3e24 45bc 2cbc 2e3d 30c3 93bd 9c8b 6f3e
00000240: 40ca 67be 2893 92bd 74cf 63be e143 e83d
00000250: e6b0 8dbd e5c9 81be d013 48be c6c4 ba3e
00000260: 78bf b63c da39 a23e 2f7f 693e 1bc6 2bbd
00000270: cd2d 3a3e 67ce 893e d2d4 0f3e 5310 973d
00000280: bf2a 983e d661 47be 796d 993e 4d22 dd3c
00000290: d2e0 40bd 9063 ed3e b421 b33e 2272 383d
000002a0: 46df 163e 46cc c1bc 18e8 e4be 7bf2 fcbe
000002b0: 0da3 abbe 2580 1ebe 9b7a cbbe e60d e7be
000002c0: ab92 ae3d f3e1 253e 42e1 733d 2095 cf3e
000002d0: dfdd 4d3e bbc2 a63e c62b 0a3e 4be0 c1bd
000002e0: fbb6 153e 5389 aabd 865a a8be 4d05 37bd
000002f0: 5387 7abb 14e3 c1bd aa22 3dbd e905 91bd
00000300: a9c0 b0be d62c c8be 029d 31be bcda ed3e
00000310: f3d3 b93e 70a6 c33e 910e 73bd 9fbb c0bd
00000320: bffd e1bd 21bb 7abe c700 2c3e 1b53 86be
00000330: 7ad2 573e d10b 6a3e 8455 a93d 518a e03d
00000340: b689 cb3c 88ed 9e3d 4597 79be efe5 cebd
00000350: 7fc0 72bd 9a27 cc3d 24a7 993c 4dcf e83d
0.063904695 0.28730604 0.26823938 0.13105927 0.18084572 -0.14590551 0.261861 0.1270505
-0.21921675 0.2119058 -0.039281316 -0.61627597 0.18120125 -0.15201497 -0.5460863 -0.043311693
-0.29183167 -0.5263286 0.020711882 -0.052915633 -0.15853636 0.01950968 0.23030843 -0.18733191
0.28189087 0.2546384 -0.14057064 0.08227798 -0.20364165 0.05862337 0.18639433 0.14492334
-0.42733502 -0.28476873 0.30127308 0.13504626 0.05835532 -0.3263795 0.25560412 0.038337428
0.28273383 -0.44938815 -0.3417138 0.46838567 0.025590716 0.12484713 -0.33998725 0.022778317
0.27873957 0.20269422 -0.4320948 -0.12045557 0.1587744 0.113925256 0.090941034 0.2658397
-0.36620504 0.20265552 -0.5968947 0.18976307 -0.10932002 0.0975731 0.15669894 0.13903268
0.2478085 -0.0998282 0.5071107 -0.5736772 0.041242618 -0.40132383 -0.047414515 0.14134939
-0.13996978 0.22093256 -0.22866839 0.21846814 -0.46325612 0.12805165 -0.18820022 -0.02230221
0.44043753 -0.12138425 0.2570399 -0.05507287 -0.18292117 0.05712575 -0.37980404 0.049338724
0.3363461 -0.0041191904 -0.20369497 0.41059652 -0.384699 -0.33387876 0.35305038 -0.27315637
-0.113171935 0.4593618 0.023995508 -0.11139373 0.28473842 -0.057054233 -0.07145025 0.22384155
-0.18514235 -0.095501214 0.28115842 -0.15024348 -0.12963499 -0.18044673 0.46310264 -0.12950279
-0.3596524 -0.25215742 -0.20187624 -0.09686565 -0.022103105 -0.14808795 -0.0843765 0.041873842
-0.11897485 0.13859628 -0.10480806 0.038220175 -0.034871876 0.014245136 -0.05623798 0.103448994
-0.2589982 0.46418044 0.42705685 0.2541575 0.13454178 0.14600642 -0.111210436 0.2653034
0.027208257 0.21765092 0.036289856 0.15724084 -0.012032567 0.042659923 -0.072149634 0.233931
-0.22635746 -0.07156974 -0.22247106 0.11341072 -0.06918506 -0.25349346 -0.19538808 0.3647825
0.022308096 0.31684762 0.22802423 -0.041936975 0.18181534 0.26915285 0.14046028 0.073761605
0.29720113 -0.19470915 0.29966334 0.026993895 -0.047089405 0.46365023 0.3498665 0.04503072
0.1473361 -0.023656975 -0.44708323 -0.49403748 -0.33522835 -0.15478571 -0.39741978 -0.4512779
0.085240684 0.16199474 0.059540994 0.4054346 0.20104168 0.32570443 0.1349326 -0.094666086
0.14620583 -0.08326974 -0.32881564 -0.04468279 -0.0038227632 -0.0946714 -0.046175636 -0.070812054
-0.34521988 -0.39096707 -0.1734505 0.46455944 0.36294517 0.3821292 -0.059340063 -0.09410786
-0.11034726 -0.24485447 0.16797172 -0.2623528 0.21076384 0.2285607 0.08268264 0.10963882
0.02484594 0.07760149 -0.24374111 -0.1010245 -0.05926561 0.09968491 0.018756457 0.113676645

conv1.0.bias f4 [8]
00000000: f97e 4f3e 7bea 043e cc4e 2f3e b10c 9b3d
00000010: 1a85 1e3f b4be a53f 4d38 26be f177 8a3d
0.2026328 0.12980072 0.17119902 0.0757078 0.61921847 1.2948823 -0.16232415 0.06761158

conv2.0.weight f4 [8, 8, 3, 3]
00000000: d5be db3d 23dd 913e ec41 0e3e 6a72 583e
00000010: 9e40 353e b033 76be 6bb7 d6bd 0d07 e8be
00000020: bddf d03e e127 cc3d 4762 5dbe a9d1 46be
00000030: c24c bdbe 140a 06bf a785 c0be f94f 49be
00000040: 0190 83be c0f0 b6be ef6b a93e e196 a63e
00000050: a6b9 023f a4e5 1b3f 4e3d 263f eca7 c63e
00000060: 49f3 473e d89d bb3e 0bc7 833d 8d9b 62bd
00000070: fc06 03be a9f2 e4bd b8d3 bbbe f63f acbe
00000080: 27c1 10be 6dea 87be bfe7 80be 6539 c0bd
00000090: f5b8 973e 7546 a03c e7ee 533c 75ac a0bd
000000a0: e664 5cbe fd6d 923d 58f7 61bd 41f9 a5bc
000000b0: f5b9 113e 83cf 08be 22b7 aabd 14ba cc3d
000000c0: fb90 b63d e04a ef3c ef6b 173d ccd1 273e
000000d0: cd5c d03d 9f04 a0bd 5446 1eba 5910 cd3e
000000e0: 127f a83d 2762 c0bc b5b1 e5bd 180d 2dbe
000000f0: 3bc4 a93c 260e c7be f470 cdbd 0ed5 223e
00000100: 8cd0 6bbe d87d 0c3e a602 d63d a47f b03e
00000110: d9c1 8fbc 7a16 683e ed03 683e 9fe5 e6bd
00000120: f1ee 94bd fc7c b63c 8c5f bf3c 2f88 6cbe
00000130: acf1 203a 25c5 ef3c fd71 1f3d 0b11 39be
00000140: 1098 b1bd 6daa 4cbd aa18 a6bc d619 43bc
00000150: 07fe 053b 8a31 dbbd 05a7 c03d 4500 883e
00000160: b550 983d 17a8 693d 564a 013e afea 783e
00000170: 2d9c 123e ee6c 383e c0be 17be c3ee e7bd
00000180: 3731 8c3d 0482 95be a500 d23d b060 42bd
00000190: af9e 213e a233 493e e69b debc 131f 8dbd
000001a0: 4e1b e43c a1c2 e9bd 21d1 413e a852 9b3d
000001b0: ed91 143c 4d5a fdbd cb5c e8ba fb79 96bd
000001c0: f7ff 04bd fdd3 3b3d ddd4 3e3e 00f4 99bd
000001d0: 2af5 cc3d e9a9 013e 4e4c 2e3e ca2c 283e
000001e0: c083 d13c d708 64be 5e3d acbe f9af 923c
000001f0: bc4f 8ebd d0d6 72bd 7efa 643e cfad 58be
00000200: dc8e ee3e 0430 ad3e 76b4 ffbe 224a 213d
00000210: 0a2d 7a3e 14d8 9c3a f306 85bd b975 d13e
00000220: 1810 a43e a2d6 3a3e bff9 9c3d 5391 debd
00000230: 39dc 573d e114 a53e 3aa4 243e e124 073e
00000240: ca97 733d 717b 813e 6014 813c 24f4 483c
00000250: 5cc7 dd3d 7c4a 4a3e ac01 2a3d 21fb 95bd
00000260: 859c 233e cb1a bb3e 68ce 873e e2cc 2ebe
00000270: a1dc a1be 042a 043e 0373 c23e 353c 0ebf
00000280: 22d4 7ebd 818e 5f3e 07bc 06be 598f 41be
00000290: 8153 fdbd 5538 46be 0778 05bf 9c36 0dbf
000002a0: d0c0 cf3d 96ef 65be 8157 adbe d64d 50be
000002b0: 1090 0fbe 9ed3 3ebe 5ab9 99be 8f10 eabe
000002c0: c589 03bf 590c 643d 6b60 8abe c654 39be
000002d0: e88d fd3c 91a1 d4bc 6807 523e 7228 0fbd
000002e0: e8fd efbd 8287 273e a807 7b3e a18c eebd
000002f0: a915 253c 05ea d239 19d2 2f3d dc8c ef3c
00000300: d5b2 eb3d d27e 34be 9b70 98be 5fe4 733c
00000310: 68cb 1b3e 21b1 d63d 0d2e 82bc 5b5c f5be
00000320: f8c7 30bd 2e8b 063d 1aae 8dbe 1e42 88be
00000330: 2af0 6c3e d7b5 93be 459d e8bc 6d01 f33d
00000340: 44ca 003f f016 89bd 6c6a 99bd 91d3 933e
00000350: b696 213e d654 5e3e 8c31 15be 3f91 c43d
00000360: d908 edbc 9f66 ef3d a695 713c 6987 003d
00000370: 2a37 8abd 6fbd 133d 71c8 a03d cabb 1cbe
00000380: 702b 54bd 51b7 e53b 22f6 963e c9c1 073e
00000390: 02b9 213e 8de5 813e bc7c 443e c984 863e
000003a0: 70fb 8c3e 13d8 733e 0b48 1b3e 05b2 aa3c
000003b0: 2583 093e 6b8b 9a3d f577 d93d 2682 0fbc
000003c0: e737 70bd e0e7 433d 243a f33d 8c80 903c
000003d0: 19d1 e43c 2c46 5abe a8a9 8dbd fe5f 8abe
000003e0: 74d0 81bc c3f9 51bd feab b03d e312 54be
000003f0: d11a d83d 87ec 5fbe b654 043e 0cc7 563e
0.10729758 0.28489026 0.13892335 0.21137396 0.17700431 -0.24043155 -0.10484203 -0.4531788
0.407957 0.09968544 -0.21619521 -0.19415917 -0.36972624 -0.5235913 -0.3760197 -0.19659413
-0.25695804 -0.35730553 0.3309016 0.32536986 0.5106453 0.6089728 0.64937294 0.3879999
0.195264 0.36643863 0.06434449 -0.055324126 -0.12795633 -0.11179096 -0.36684966 -0.33642548
-0.14136182 -0.2654604 -0.25176808 -0.09385947 0.296333 0.019564847 0.012935377 -0.078453936
-0.21522865 0.07149885 -0.055167526 -0.020260455 0.14231093 -0.1336041 -0.08335711 0.09996429
0.089143716 0.029210508 0.036968168 0.16388625 0.1017395 -0.078133814 -0.00060377014 0.40051535
0.08227362 -0.023484303 -0.112155356 -0.16899526 0.020723453 -0.38877982 -0.1003131 0.15901586
-0.23028773 0.1371988 0.10449724 0.34472382 -0.017548488 0.22664824 0.22657748 -0.112742655
-0.07272137 0.022276394 0.02336099 -0.23098825 0.00061395275 0.02926881 0.038927067 -0.18072908
-0.08671582 -0.04996722 -0.020275433 -0.011908015 0.0020445602 -0.10702808 0.094068564 0.26562706
0.07437269 0.05704507 0.12626013 0.24308275 0.14317389 0.18010303 -0.14818859 -0.11324837
0.068453245 -0.29200757 0.10254029 -0.04745549 0.15783189 0.19648603 -0.027173948 -0.068906926
0.027845051 -0.11414076 0.18927433 0.07584125 0.009067995 -0.12370739 -0.001772785 -0.07347485
-0.03247067 0.045856465 0.18635888 -0.075172424 0.10007699 0.12662472 0.17021295 0.16423336
0.025575519 -0.22268997 -0.3364057 0.017906176 -0.06948802 -0.059286892 0.2236118 -0.21160053
0.46593368 0.33825696 -0.49942368 0.03937734 0.24431244 0.0011966252 -0.06495466 0.40910128
0.3204353 0.18245938 0.07664823 -0.10867562 0.052700255 0.32242492 0.16078272 0.13197662
0.05947093 0.2528949 0.015756786 0.012265239 0.108290404 0.19754976 0.0415055 -0.0732329
0.15977676 0.3654388 0.26524663 -0.17070344 -0.3161364 0.12906653 0.37978372 -0.5556062
-0.062214024 0.21831705 -0.13157664 -0.18902339 -0.12369443 -0.19357426 -0.5213627 -0.5516145
0.10144198 -0.22454676 -0.33855823 -0.20342192 -0.14019799 -0.18635413 -0.30024225 -0.45715758
-0.51382095 0.05567584 -0.27026686 -0.18098745 0.030951455 -0.025955947 0.20510638 -0.03495068
-0.11718351 0.16360286 0.2451464 -0.116479166 0.010075965 0.0004022868 0.042924974 0.029241972
0.11508719 -0.17626503 -0.2977341 0.014885991 0.15214312 0.104830034 -0.0158911 -0.47922024
-0.043159455 0.032847576 -0.2767189 -0.26612943 0.2313849 -0.2884967 -0.028395304 0.11865506
0.5030863 -0.06693828 -0.074910015 0.2887235 0.15780148 0.2171205 -0.14569682 0.09598016
-0.028934883 0.11689495 0.014745152 0.031379137 -0.06748803 0.03606933 0.07850731 -0.15306011
-0.051799238 0.0070103784 0.2948466 0.13257517 0.15793231 0.25370446 0.19188207 0.26273182
0.27535582 0.23812895 0.15164201 0.02083684 0.13428934 0.07546123 0.10618583 -0.008759057
-0.058647063 0.047828555 0.11876324 0.01763942 0.027931737 -0.21315831 -0.06917125 -0.2702636
-0.015846469 -0.051263582 0.08626555 -0.2071033 0.1055199 -0.21867572 0.1292294 0.20974368

conv2.0.bias f4 [8]
00000000: a75b 533e 0419 7e3e 539d 563f a030 773e
00000010: ae03 52bd 28c9 78bd 6ff5 22be 49a8 573f
0.20640431 0.2481423 0.8383381 0.24139643 -0.05127304 -0.060738713 -0.15913938 0.8424116

conv3.0.weight f4 [8, 8, 3, 3]
00000000: 62eb 133e a7ba e73d 20aa 723e 6625 9f3e
00000010: a77e 143e b23f 053e 9f23 133d d4ff 863e
00000020: 2747 513e 59b3 debd 8140 babd 7b90 153e
00000030: e7ec e1bd 5c5f e63d 4f70 213e 8be2 803c
00000040: aeee 7c3e aa81 0d3e 15fc 673d 1dbc 8fbd
00000050: 32c3 9abe 3063 923d 67c8 063e fd10 c8bc
00000060: b811 76be 41a5 203e 37a7 3e3e 46f2 7a3d
00000070: a2e8 7abe b8ac a1be c3df 9dbe 3255 dfbe
00000080: 3a37 b6be 161e 3abd 519d f6be 4f48 5dbe
00000090: 0dfd c9bd 829f 8fbe df69 6dbe 9ab9 19bf
000000a0: 15a5 e8be d51f aebe 1db1 093d d492 7a3e
000000b0: a8c4 4e3e 6dd1 603e c52a 6b3d 20be 693c
000000c0: d427 853e 30f4 68bd b1fa 783b e6fd 4a3b
000000d0: 1cc7 9b3e a18b bf3e 6930 ac3e f6f9 03bd
000000e0: 5018 75be d8b5 853e ff81 4bbd 16b4 adbe
000000f0: 4741 6e3e b5a5 123d 2342 3bbe 607c 163e
00000100: 095b abbd 44cc 343e 6a28 063e 99b3 38be
00000110: e049 3fbe 4c47 93bc 4d7a 1ebe a941 83bd
00000120: 7fae 753a 09d0 5ebc cae1 7a3d 5206 27bd
00000130: 081d 4dbd 3a8a 1b3e 92f3 443d 545d 32be
00000140: 24be fd3d bdee 47bd a7e2 38bd d141 a2bc
00000150: cde6 d1bc a738 953d 80e5 f4bd 87df 73bd
00000160: 4f51 833d 25b2 a53e ee63 193e 3457 933e
00000170: 1073 4bbd 1041 a4bc 29ca 3f3e 3f39 ff3e
00000180: 4478 c6ba fdad ef3d b59d 243e fbbd 8c3e
00000190: fef5 fa3e 7944 033f d5d0 823e 158e 4f3e
000001a0: 7e1b ba3e 0ac5 a43e 4c86 333e 9231 523e
000001b0: 4389 15bc c788 5c3e 4958 1f3d 8628 4f3c
000001c0: a464 fd3d d64c 913e e07a dd3d 1044 993e
000001d0: b325 bf3e dbbe b7bd 3ad4 623c 0a3b 0b3d
000001e0: b79d ddbd c55d 15ba 4d29 173e ac97 023d
000001f0: 762f 2c3e d2df 863e b538 ddbd ddbd 91be
00000200: 8afc bdbd acfb 3cbd 1a05 0bbe e0c0 9abe
00000210: ff48 163d b968 fe3c 1f17 d6bd 2b25 c4bd
00000220: 1b2d 793d a645 dc3d 2c40 0b3e 30dd e83d
00000230: 5b04 eabd 8e50 683e 03d8 e93d a076 b03e
00000240: e410 1abe 2af0 533d ee9e 9bbc 8b31 843d
00000250: 1dcb 7bbd b133 d13d 6afc bd3d 551d 0dbe
00000260: ec53 69bc 40e3 463e 9779 ce3d e323 3dbd
00000270: 3300 123e 51b4 9d3e cdcf 7c3d d95c 813e
00000280: 6d4e 833e 20ec 083e d5f0 dcbc 7406 c7bd
00000290: d312 fbbd 8eca c03d 230b 363e 6544 363d
000002a0: 0ddd c73e 359b 603e fcbd 3e3e 0b48 4dbe
000002b0: 50d7 8bbe 5bcf cb3d a265 c83c 0ee8 16be
000002c0: 11b1 013e bbd8 0fbf 7dcb 00be 2d12 f2be
000002d0: 2bab a6bd 2a55 973e 7288 e83d 2584 d6be
000002e0: 007c 7bbd cda7 57bd d006 363e 1e38 2dbc
000002f0: 2752 abbd 16c0 f7bc 3f97 25be e2fd 12be
00000300: e1dd 4e3c 44ba 5d3d abae 8a3e 95b0 9b3d
00000310: 993d e3bd 3e90 e83c 2b7d 1b3e 68a0 073c
00000320: 9561 78bc b8cb 4a3e 9d07 4a3e 90e2 193f
00000330: 9446 523e c42e b73d 15fe 5f3e 69c4 0bbe
00000340: ebf5 ccba 6533 903b 2653 88be 4175 a0be
00000350: 1d1d 973e c4f0 07be 3134 bfbe 8c0b 07be
00000360: 129f 323e 4279 2dbe 4f73 a5bd acb9 c5bc
00000370: 5fcd 993c c1d2 d0bd 8ad0 d4bb 20be ff3d
00000380: adcf 293e eeee 4a3d e34c fe3d ff5b af3d
00000390: 6c7f 5abe 94ce 803d 6425 673e eeba 8e3d
000003a0: 331f ae3d 8051 823d ae8d 11be 4224 cebd
000003b0: 9757 d9bd 9fe0 a43d afd5 98bd aff0 8dbe
000003c0: 7297 ba3d a4f7 9d3e 6c5f 9a3d 2269 bebd
000003d0: 665a babd 3bae d9bd 8f07 233d 6dc7 0abe
000003e0: 9443 8a3c fce3 013e 0239 c0bd ad31 18be
000003f0: 6656 a13d 2acc f43b 01fd 583e 6509 bf3e
0.1444526 0.11314898 0.2369771 0.3108322 0.14501439 0.13012579 0.035922643 0.26367056
0.20437299 -0.108740516 -0.090943344 0.14605896 -0.11031514 0.11248657 0.15765499 0.015733024
0.24700424 0.13818994 0.05663689 -0.07018302 -0.30227047 0.07147825 0.13162385 -0.024422163
-0.24030197 0.1568804 0.18618475 0.061266206 -0.24502805 -0.31577086 -0.3083478 -0.43619686
-0.3558901 -0.04543885 -0.48166898 -0.21609615 -0.09862719 -0.28051382 -0.23184918 -0.6004883
-0.45438448 -0.3400866 0.033616174 0.24470073 0.20192206 0.2195489 0.057413835 0.014266521
0.2600695 -0.0568735 0.003799122 0.003097409 0.30425346 0.37411216 0.33630684 -0.032220803
-0.23935056 0.26115298 -0.04968452 -0.33926457 0.23267089 0.03580256 -0.18286948 0.14695883
-0.08366973 0.17656046 0.13101354 -0.18037261 -0.18680525 -0.017978333 -0.15476342 -0.06409008
0.000937201 -0.013599404 0.061250485 -0.040777512 -0.050076514 0.15189448 0.04808385 -0.17418414
0.12389782 -0.048811663 -0.045138028 -0.019806774 -0.02562275 0.07286196 -0.11957836 -0.059539344
0.06411993 0.32362476 0.14979526 0.28777468 -0.04967028 -0.020050555 0.18729462 0.49848363
-0.0015142043 0.117031075 0.16075785 0.27488694 0.49015802 0.51276356 0.2554995 0.20269044
0.363491 0.3218158 0.17531699 0.20526722 -0.009126964 0.21536551 0.038902555 0.012643939
0.12372711 0.28378934 0.10814452 0.2993474 0.3733345 -0.0897195 0.013844544 0.03399185
-0.10821097 -0.00056978717 0.14761849 0.031882927 0.1681498 0.26342636 -0.10801832 -0.28465167
-0.09276684 -0.04613845 -0.13576165 -0.30225277 0.03669071 0.031055795 -0.10453629 -0.09577402
0.06083403 0.10755472 0.13598698 0.11370313 -0.11426612 0.22686979 0.11418154 0.34465504
-0.15045506 0.05174271 -0.018996682 0.06454762 -0.061473 0.102149375 0.0927666 -0.1378072
-0.0142412 0.19422626 0.10081785 -0.046176802 0.14257888 0.30801633 0.06172161 0.2526615
0.25645772 0.13371325 -0.026970306 -0.09718028 -0.1225945 0.09413634 0.17777686 0.04449882
0.39035836 0.21934207 0.18627161 -0.20047013 -0.27312708 0.09951659 0.024462525 -0.1473696
0.12665202 -0.5619008 -0.12577625 -0.47279492 -0.081381164 0.29557163 0.1135415 -0.41897693
-0.061397552 -0.05265026 0.17776036 -0.010572461 -0.08365279 -0.03024296 -0.16170977 -0.14354661
0.012626142 0.054132715 0.27086386 0.0760204 -0.11095733 0.028389093 0.15184467 0.00827799
-0.015159984 0.19804275 0.19729467 0.6011133 0.20534736 0.08944467 0.21874268 -0.13649143
-0.0015637254 0.004400658 -0.26625937 -0.31339458 0.295144 -0.13275439 -0.37344506 -0.13187999
0.17443493 -0.16940787 -0.08078634 -0.024136387 0.018774686 -0.10196448 -0.0064945864 0.12487435
0.16583128 0.049544267 0.12417009 0.08562469 -0.2133767 0.06289402 0.22572857 0.06969248
0.085020445 0.06363201 -0.14214203 -0.100655094 -0.106124096 0.080506556 -0.07462632 -0.2772269
0.09110917 0.30852997 0.075377315 -0.09297396 -0.090992734 -0.10628935 0.03980213 -0.13552637
0.016877927 0.12684625 -0.093858734 -0.148627 0.07877807 0.0074706273 0.21190263 0.37311855

conv3.0.bias f4 [8]
00000000: 90a9 a93f 7646 133f 63ec aabe 6e3a 67bf
00000010: 5819 3fbe a8fb 3dbf 3bd3 20be eae8 17bf
1.3254871 0.5752939 -0.33383474 -0.9032353 -0.18662012 -0.7421212 -0.15705578 -0.59339774

dense1.0.weight f4 [32, 128]
00000000: 1656 513d 81c0 373d 9417 c4bd f671 d4bd
00000010: ea1c 603e dd2b ae3d 38f5 613d f009 483e
00000020: 6fab 84bd 52dd 9f3c e8aa 633d ef6d 00be
00000030: 9f35 dcbd 9121 fd3d 7112 343e f056 413e
00000040: 9bab da3d fc06 9f3d 11ef 5a3d 89c7 6b3c
00000050: 67b2 5d3e f187 47be 7a08 45bd 6825 f1bd
00000060: 421e c33c 9489 11be 10ee f1bd 0818 98bd
00000070: 7687 283e 8159 913c 2575 3abe 81a5 c6bd
00000080: 384b 223b 5c94 ea3d 71c3 e9bd 8f08 4bbd
00000090: 82fc 1cbe 0f88 acbe 4e97 00bc 9ddd 87be
000000a0: 2b33 a53c bebc 82be d159 423e 0c45 d9bb
000000b0: bd0f 8dbe f22d ed3d ba59 8dbd 6093 7f3c
000000c0: c716 7bbd 6680 9fbd 2ccb 03be 42c4 45bd
000000d0: d81b c5bd 02d3 4b3e f5aa c2bc 361f d0bd
000000e0: 295f 3e3e 68fd 7c3e 2ba2 913e 955f 7c3e
000000f0: a734 c13d 828c fa3d 11d8 5d3e 4cdb b83d
00000100: 14b8 12be 628d 013e d5ac 333b 5550 313e
00000110: 583c 7c3d a583 afbd fb90 a6bd a997 34bb
00000120: db83 99bd 3eac b3be 1e46 5abd fe7e d63d
00000130: edd0 923d 2fe1 0d3d 9542 6b3d 6bef e9bd
00000140: c433 54bd fda4 96be c1f9 31bd d23f 91bd
00000150: a096 8bbc 9091 7dbe 1e03 193d b15e 4a3e
00000160: a515 6ebd 6cdc d4bc 70c3 ffbd cd8b 443e
00000170: 3425 51bd da37 9cbd dd77 753e 6155 75bd
00000180: c0d4 8a3e f5b2 fb3d e29c 383d 7768 2ebc
00000190: a2e5 b13c f82c 05bd e4fe 343e aba6 1f3e
000001a0: dafe 4dbd 9ff2 eb3a e8ff a03d 77ff bb3d
000001b0: 98f8 91bd 0b36 7cbd 261d 543d 4210 65bd
000001c0: b758 04bd 981f 45be 344c 50bd f389 183e
000001d0: a554 a03c 4cb8 51be eee9 ccbd ebf6 013d
000001e0: 391a a1bc b7c6 0f3e e723 063e 1a3a 5bbe
000001f0: e380 cdbe 7bd3 c5bc 4ce7 ec3c ef54 b53d
00000200: 1678 e3bc 33d4 9a3d ea8c 94bd 1626 293d
00000210: c3ab 26be 6428 7cbe 23ea 9abb c4da 7f3e
00000220: 1ec3 a4bd 0fb0 2ebe fc3d 3cbd b0a5 c1bd
00000230: f367 12be 52dd f8bd 9a05 dcbd cc75 5b3d
00000240: 4cf5 823e 3e59 753e f7cc 39bd 7a3c b83b
00000250: 5f16 08bd 1991 383e 05ec 56ba 3d73 6bbd
00000260: 4df8 f0bb 73af db3e 449e 953e a265 81bd
00000270: 508c d83d f441 6e3e 5bcd 6cbd f428 fc3d
00000280: b096 1e3e 3457 d73d 0c20 19be 5a51 babd
00000290: ca08 4dbe 103a 13be 3795 8abe 25a4 87be
000002a0: df8e 8abe f9c4 393d 7205 eabd a69d 70be
000002b0: f56b 42bb 5ccf 4bbd ee5c 053d f3e8 5f3d
000002c0: efd4 863e 38d9 e43d c012 193e c5b9 b43d
000002d0: 35e1 3ebd 170a bfbd ef1a 30be 2b13 2b3e
000002e0: 3add 9fbd d6c9 14be 1923 023d 6bb7 36be
000002f0: 1b87 d9bd ee2f 65be 9f22 f7bd abde 29be
00000300: 2388 86bd 3af1 5b3d ed92 933d 0209 f03d
00000310: 4e53 c33d 4d31 cc3e 5e39 6e3d ada0 8a3e
00000320: a369 a13d 1781 833d 975a f53d 2cd2 a3bc
00000330: 5f83 c1bc d819 ea3d a6c3 023e f6e0 093d
00000340: 23a7 cf3d e95d 74be bc99 323e 3e78 983e
00000350: 1319 36bd 46f9 41be ec4e 35bd e09c d2bc
00000360: 0a19 fdbd 2cdb 4a3d ac54 d7ba 5af5 0fbd
00000370: f116 81be 944a 99be 5c45 1c3e afb7 70bc
00000380: 3741 bd3d 0796 6cbd 6c16 1d3e 4d9a 593d
00000390: 3abf b03d a0a9 c13d 7bb4 133d 4a69 bd3d
000003a0: 5274 043e c562 073e c56c 423e 7172 1dbe
000003b0: 7a9b 5bbd 3844 103e 9121 24be ce6d 6c3d
000003c0: 292a 11bd 3224 513d 95a3 1c3e 4259 963d
000003d0: 7eca 37bc 28cf 393e 9b10 14be 9459 68be
000003e0: 3ec2 5d3e 7563 fe3c 5bd0 5b3d 5583 163c
000003f0: a9c3 403d cb09 4b3e 94e6 0fbe 40ff bb3d
0.05110749 0.04486132 -0.0957481 -0.10373299 0.2188603 0.0850446 0.0551655 0.19535041
-0.06478011 0.019514713 0.05558291 -0.12541936 -0.10752415 0.12359918 0.1758516 0.1888082
0.106772624 0.07765004 0.053450648 0.014390835 0.21650086 -0.19485451 -0.048103787 -0.11774713
0.023818139 -0.14212638 -0.11812985 -0.074264586 0.16457924 0.017742874 -0.1820875 -0.09699536
0.0024764072 0.114540786 -0.114142306 -0.04956871 -0.15330699 -0.33697554 -0.007848574 -0.26536265
0.020166 -0.25534624 0.18979575 -0.0066305455 -0.2755107 0.11581029 -0.069018796 0.015599102
-0.06130102 -0.07788162 -0.12870473 -0.04828287 -0.096244514 0.19904712 -0.02376316 -0.10162203
0.18590988 0.24706042 0.28444037 0.24645837 0.09433871 0.12233831 0.21664454 0.090262026
-0.14328033 0.1265159 0.0027416248 0.173158 0.061580986 -0.08570031 -0.081331216 -0.0027556217
-0.074958526 -0.35092348 -0.053289525 0.104734406 0.07168756 0.03463858 0.057436544 -0.114226185
-0.05180718 -0.2942275 -0.043451075 -0.07092251 -0.017039597 -0.24762559 0.03735649 0.19762684
-0.05812611 -0.025984012 -0.124884486 0.19193955 -0.05106087 -0.0762784 0.23971505 -0.059895877
0.2711544 0.12289993 0.04507149 -0.010645024 0.021715943 -0.03251359 0.17675358 0.15590923
-0.050291874 0.0018001384 0.0786131 0.091795854 -0.071274936 -0.061574977 0.05178561 -0.055923708
-0.032311168 -0.19250333 -0.050853923 0.14896373 0.019571612 -0.2048046 -0.10005556 0.03172962
-0.019665824 0.14040647 0.13099633 -0.21408883 -0.40137395 -0.024148693 0.028918885 0.088540904
-0.027767222 0.07560005 -0.0725344 0.041296087 -0.1627646 -0.24624783 -0.0047276183 0.24985796
-0.08045028 -0.17059349 -0.04595755 -0.094554305 -0.14297466 -0.121515885 -0.10743256 0.053579137
0.25577772 0.23959824 -0.045361485 0.0056224437 -0.03322446 0.180241 -0.0008198622 -0.057482947
-0.0073538185 0.42907295 0.2922231 -0.06318213 0.105736375 0.23267347 -0.05781303 0.12312499
0.1548717 0.105146796 -0.14953631 -0.09097548 -0.20022884 -0.14377618 -0.27066967 -0.2649242
-0.27062127 0.045353863 -0.1142682 -0.23497638 -0.0029666398 -0.0497583 0.032559328 0.054665517
0.2633433 0.11174244 0.14948559 0.08824495 -0.046601493 -0.09328096 -0.17197774 0.16706531
-0.078058675 -0.1453012 0.031771753 -0.17843406 -0.106214724 -0.22381565 -0.1206715 -0.16588847
-0.06568935 0.05369685 0.07205758 0.11720468 0.095373735 0.39881364 0.05816018 0.2707571
0.07881477 0.06421106 0.11980169 -0.019997679 -0.023622213 0.114307106 0.12769946 0.033661805
0.10139301 -0.23863949 0.17441458 0.29779238 -0.044457506 -0.18942747 -0.04426472 -0.02570957
-0.123582914 0.049525425 -0.0016428432 -0.035146095 -0.25212815 -0.2993971 0.15260834 -0.014692231
0.09240954 -0.057760265 0.15340585 0.05312567 0.086302236 0.094561815 0.03606079 0.09248598
0.12934998 0.13221271 0.18986805 -0.15375687 -0.05361507 0.14088523 -0.1602843 0.057721905
-0.035440598 0.05105991 0.15296777 0.07341243 -0.0112177115 0.1814543 -0.1445946 -0.22690421
0.21656129 0.031053284 0.0536655 0.009186585 0.047061596 0.19827954 -0.14052802 0.091795444

dense1.0.bias f4 [32]
00000000: 2b82 7d3f 09b8 c73e e787 aa3f ad51 553f
00000010: a94c 29bf 709f 29bf 8048 bb3e 0b7a 693f
00000020: 5f5d 12bb fba0 babe 2a1d e0be 32a8 76bf
00000030: 1610 87be 0e86 003f 0236 0680 2a48 5d3f
00000040: b00a 67bf 2c0e 83be a402 64be 1973 f7be
00000050: c322 133d 09ac b0b9 e3dd 9a3f d952 e93e
00000060: 87e5 a23f 65eb 653e db8e 9ebe f091 c8a6
00000070: b8a2 653f ff8d 3bbf 261f 0c3f 5c92 ff3f
0.99026746 0.39007595 1.3322724 0.8332775 -0.661326 -0.6625891 0.3657875 0.9120185
-0.0022333486 -0.36450943 -0.4377225 -0.96350396 -0.2637946 0.5020455 -5.70387e-40 0.8643824
-0.9025068 -0.2559675 -0.22266632 -0.4833 0.035921823 -0.00033697512 1.2098964 0.4557102
1.2726296 0.22453077 -0.30968365 -1.3917344e-15 0.89701414 -0.73263544 0.5473503 1.996654

dense2.weight f4 [10, 32]
00000000: 5eaf 7ebc fe4b 58be a430 a73e 9202 1e3d
00000010: 2e70 ff3e 8150 97bd bbcb 0fba 29cd a63e
00000020: c1cd 3e3c a882 31bc 5769 6d3d 3060 47be
00000030: 1941 a93d 75a5 1f3e 1c1c 602f a093 2abf
00000040: efc0 363e a37e 1cbc df09 cfbe 7e74 88be
00000050: f5d3 f5be 5d2b b139 acf6 5ebe 7574 403e
00000060: 4bbf 1b3e 1ca5 ad3e e693 173f 7fab 0cbb
00000070: f8a9 ad3e 3130 34bc cd26 813e a1ad 86be
00000080: b56c 173e e476 d8be 061d 58be 9f36 ee3e
00000090: 49f9 ab3e 96c4 ebbe dbc3 33bd 9291 17be
000000a0: 1fa8 1b3e 326f 0f3f 9806 60be 38ff 0c3f
000000b0: b535 133e 8730 03bf e07f 95ae 638c 753d
000000c0: 8647 89bb 47d5 18be b266 9bbd 2d9b e8be
000000d0: 2cc8 b43e 1ce2 883b 9e2b 39bd 252a cbbe
000000e0: 66c6 723e eca9 013e c2a3 cc3d a04e 383a
000000f0: d850 51be f661 283e 9268 c8be df80 813d
00000100: 6f48 17be 3928 05be f891 3b3e 014a c73e
00000110: 0eae cbbd 71e8 513c 7b82 68be 40b9 473d
00000120: 77ef 163f 6945 f4bd 3293 0d3f d6cb c6be
00000130: be2f a33e 0f4d f13d def7 a532 a716 61bd
00000140: 3b03 bf3e 585f a83e 5f4a c1be 2c5a a43e
00000150: 6d27 6b3d 73ef 07ba 2d5c 5b3e 60eb 10be
00000160: 2ad6 a8be 398b c13e 1afc 183e f4e1 9e3b
00000170: 1bef 4abe 50b3 c9be cf4b db3e 42b4 aabe
00000180: 7023 80be 3cd7 1b3e e7d4 97bd 0053 e5be
00000190: f860 31bc b379 41bd f723 39bd 456d 4cbe
000001a0: a2d5 1fbe ca92 00bd 4cb2 f23d e758 81be
000001b0: fd14 eabd 07a0 bdbe aab2 0f36 79e7 80be
000001c0: ac37 0c3e 67fe ce3c 4941 233e 510d 0abc
000001d0: 2058 833e b466 7abb dacc 5fbe 04ad 7c3d
000001e0: 6f76 27be efbb fdbd ae0e d2bc cfd8 943b
000001f0: 86b6 3cbe 7536 a53e 39dd 3abe 6c36 ebbd
00000200: 734e 13be 2e91 933e fd8c 063f 1b08 c2be
00000210: f6dd cfbe 5418 24bd 6e9a a2be efd2 09be
00000220: 4db8 e9bd 00b9 adbe 5812 cbbe 2cc7 c3bd
00000230: 7190 08bd 0b38 2a3f cb57 9db0 d918 dc3e
00000240: a594 9bbe 38cf 3e3e bbe9 23be 485d 09bf
00000250: 2651 e8bd cc76 193b 2dd5 943e 01c5 f3bd
00000260: 430c 9bbd caea 76be bbe1 a1be fc1e bb3a
00000270: dec6 103d 744c ddbe e2e3 d6be 4e9c 4c3e
00000280: 4520 a1be ef72 c1bc 3a1d 56be 2898 10bf
00000290: 2a6a 00be 12e2 a23e 301e 5abd d952 67be
000002a0: 4f1c 213d 372d 42be 8a62 9e3e 052f f0bd
000002b0: ef67 1fbe 77f9 5b3d 0f5a aeb5 aadb ecbd
000002c0: 1ddd 39be 64d1 98be 5110 3f3e 65df a33e
000002d0: 5e51 6e3e cce1 ca3a e442 9bbe 4cbc 943e
000002e0: 6c51 92be 0f86 e9be 3f72 fdbd 4de5 05bb
000002f0: 3af1 613c 0409 ce3e 219d 89be b4f3 a1be
00000300: edc0 993e 79cd 8b3e 560c 15bf 70cb 90be
00000310: 8dd4 b7be be8b 04be fdf2 87bd c443 5d3e
00000320: 8d19 063e 68af 1dbe e83e 0abf 3f2e eebc
00000330: 390a 19bf a3eb 763c 613d 1ab4 541e 98be
00000340: 1112 8c3d a871 273f 12e2 20bd 53ad 97be
00000350: 2f48 243d 3deb 483b 9516 ef3e 5daa ef3d
00000360: b077 103f c648 5abe 346f 20bf 5da3 c8bb
00000370: 18e0 88be 6a79 14be ea08 a83e b30f 81bf
00000380: 8c96 26bf 50fe cf3d bbaa b5bd 9a4e c4be
00000390: 87b9 92be 63b4 ee3c 09ec 423d 126a fcbe
000003a0: 577b 1bbe 6bd8 68be 77f4 91bd c7ec 8c3d
000003b0: a941 a33d 128a d4be ec83 2fb2 8188 983e
000003c0: d201 913e 8ab6 39be fa77 3cbe 96a5 a13d
000003d0: 1cb9 29be 53cb 1f39 49a4 14bf 4627 0c3f
000003e0: bd07 bd3c bc7c 1cbd 381a 7f3e 2c50 4c38
000003f0: 6d6f 143f a95b 8fbe 30e5 35bf 08a0 bf3e
-0.0155447405 -0.21122739 0.32654297 0.03857667 0.49890274 -0.07388402 -0.00054853753 0.325784
0.011645735 -0.0108343735 0.057961788 -0.19470286 0.082643695 0.1559046 2.0382668e-10 -0.6663151
0.17847036 -0.009551677 -0.4043722 -0.26651376 -0.48013273 0.0003379238 -0.21773785 0.18794425
0.15209691 0.3391503 0.5921005 -0.0021464524 0.33918738 -0.010997818 0.25224915 -0.26304343
0.14787562 -0.42278206 -0.21104822 0.46526048 0.33588627 -0.4604842 -0.043887954 -0.14801624
0.15200852 0.56029046 -0.21877515 0.5507693 0.14375956 -0.5124592 -6.798451e-11 0.059948336
-0.0041894345 -0.14925109 -0.07587947 -0.4543089 0.3530897 0.004177345 -0.045207612 -0.3968059
0.23708495 0.12662476 0.09992172 0.0007030759 -0.20440996 0.16443619 -0.3914228 0.06323408
-0.14773725 -0.13003625 0.18317401 0.38923648 -0.09945308 0.012811766 -0.22706024 0.048760653
0.58959144 -0.119273014 0.5530273 -0.3882739 0.31872362 0.11782276 1.9321245e-08 -0.054953244
0.37307152 0.32885242 -0.37752053 0.32100046 0.057410646 -0.0005185522 0.21421881 -0.14152288
-0.32975894 0.3780153 0.14939919 0.004848713 -0.19817774 -0.39394617 0.42831275 -0.3334065
-0.25027037 0.15218824 -0.07413655 -0.44789886 -0.010826342 -0.047235202 -0.045200314 -0.19963558
-0.15608838 -0.03138999 0.11850414 -0.2526314 -0.114297844 -0.37036154 2.1412657e-06 -0.251766
0.13693112 0.025267793 0.15942873 -0.008426026 0.25653172 -0.0038208188 -0.21855488 0.061688438
-0.16353773 -0.12389361 -0.025641765 0.004542447 -0.18429002 0.3226811 -0.18248452 -0.114849895
-0.14385395 0.288217 0.5255888 -0.3789681 -0.4059903 -0.040062264 -0.31758446 -0.13459371
-0.11412106 -0.33930206 -0.39662433 -0.095594734 -0.033340875 0.66491765 -1.1448206e-09 0.42987707
-0.30386844 0.18633735 -0.1600713 -0.5365796 -0.11343603 0.0023416756 0.2906889 -0.1190281
-0.07570698 -0.24113002 -0.3161753 0.0014276202 0.035345905 -0.43222392 -0.41970736 0.199815
-0.31469932 -0.023614375 -0.20909587 -0.5648217 -0.12540498 0.31813103 -0.053251445 -0.22590198
0.039333638 -0.1896256 0.30934554 -0.11727718 -0.15566991 0.053704705 -1.2990221e-06 -0.11565335
-0.18150754 -0.29847252 0.18658568 0.32006374 0.23273227 0.001547867 -0.3032447 0.2904991
-0.28577745 -0.4561009 -0.12375306 -0.0020430863 0.013790423 0.40241253 -0.26877692 -0.31631243
0.30030003 0.273052 -0.5822195 -0.2828021 -0.3590435 -0.12943932 -0.06638143 0.21607882
0.13095684 -0.15398943 -0.5400224 -0.029074786 -0.59781224 0.015070829 -1.4364697e-07 -0.2971064
0.068393834 0.654078 -0.039278097 -0.29624423 0.040107902 0.003065779 0.46696916 0.11702416
0.5643263 -0.21316823 -0.6266968 -0.00612299 -0.2673347 -0.14499441 0.328193 -1.0082916
-0.65073466 0.10155928 -0.08870455 -0.38341218 -0.2865717 0.02913875 0.047588382 -0.49299675
-0.15183769 -0.22738807 -0.07126706 0.06881099 0.07971508 -0.4151159 -1.0216336e-08 0.29791644
0.283217 -0.1813604 -0.18405142 0.07892911 -0.1657452 0.00015239166 -0.5806318 0.54747427
0.023074979 -0.038204893 0.24912345 4.8712056e-05 0.5798252 -0.2799962 -0.7105284 0.37426782

dense2.bias f4 [10]
00000000: 8aa9 d0be a67a 7dbf aa2b a0bc 0f4d 463e
00000010: 5599 c63f 739f 3abf f9e9 eebe 1b80 7dbf
00000020: a543 b33f 208f 683e
-0.40754348 -0.9901527 -0.01955207 0.19365333 1.5515543 -0.7289955 -0.46662882 -0.990236
1.4005018 0.22710848
