ResidualLoss/CNN-l2-upperbound/not-freeze-re-init.pt (torch, 27135 bytes, 10 tensors)

conv1.0.weight f4 [8, 3, 3, 3]
00000000: 36ec 103f fea5 273f f8e8 7d3e a8ca 323f
00000010: 430d 5b3e 310e a83d a8e4 453f 956a 033e
00000020: 8039 ec3e 07f6 f2ba e7dc d23d 6200 323e
00000030: 737f 2a3e 700a 4cbe 74cf 623e a2b4 073e
00000040: 213c 71be c9c4 883d 19f5 873e d9ee b73e
00000050: 605f ec3e f037 a13e afd3 303e 38ec 723e
00000060: c603 a03d abcf c23d 84f8 a83e af9c 45bd
00000070: f784 14be 1c97 333d ea61 dfbe e93e debe
00000080: b1e2 c0be f1b6 6b3d 3d4e b13d 6b81 fabd
00000090: a115 d03d 3ab2 94bc c32e 153d d7fe 17bd
000000a0: 8f93 a03d 5e74 973e 88d7 d23e faa4 363e
000000b0: 4787 023f 5974 adbe 87f6 ebbe ec57 90be
000000c0: 261d afbe 6124 c4be 1aab e13d 5b7c 6e3e
000000d0: 1f90 ce3d 4e9e 193f 8b54 33be f981 c7bd
000000e0: 1da4 4c3e 2246 26be a9eb ffbd 2fe6 933e
000000f0: b60f 14be c5aa 8d3d fad4 403e 9134 ae3b
00000100: 6a44 05be 26a8 803e 7842 0cbe 810b 23be
00000110: 6565 d33e 8c28 58bd 8d12 853d 7a85 a83e
00000120: 9df5 10be 9e7d d0be 7eb7 ab3e f7d1 27be
00000130: aeb7 aebe 0a53 0a3f f2fa 81be aedb 3abe
00000140: 2b48 b43e 1d0e 65bc 9cd8 493e 053e cf3c
00000150: 995c 1ebe de11 c13e dfd7 b03d 4e96 233e
00000160: 819e a83e ef92 1b3e dbce 74be 3be1 2b3e
00000170: 677e 7abe ff49 dbbd 06ea 203e 2702 083e
00000180: 1cf8 b53e 1893 613e 6281 563e b329 eebe
00000190: e67e beb9 72c7 fdbe 13bb b7be 047a 1b3c
000001a0: 6914 83be e684 d23d f4cc 2bbe c7b6 69be
000001b0: 8670 963d f9ae 933d e356 6fbe ee93 323e
000001c0: 70c5 60bc 6c0c aabe d5b4 8f3d 4323 1b3c
000001d0: dd6e 16be bec9 9b3d bca6 66bd 153d 383d
000001e0: 31b9 9e3d 20fe 5d3d f6eb 11be 048c e5bc
000001f0: 0304 aa3e 5883 24be 8861 163e 5c89 973d
00000200: e009 9abe ea44 863d a647 163d cd70 8dbe
00000210: 5b52 c83c 4fbb 64bd e203 78be 425d 693e
00000220: 90e1 133e 88ee 86bd ceea 2a3f be64 3f3e
00000230: c9b3 5a3d 4eb4 b13e b0d7 893d 9881 3c3e
00000240: e758 8abe 371d 9cbe f9a9 0bbf 24e2 88be
00000250: 8e2b e0be eb61 0abf d6db 62be f9c2 19bf
00000260: f36c 0abf 3c09 b83d 4f10 1abd 829b 29be
00000270: 7610 9b3d f48f cb3d d635 713d 229c e53d
00000280: 4fef 1dbb b38e df3d ac12 903c a8b3 ae3d
00000290: a1fe 973e c8f8 c3be 21ea 6dbe a59d 9bbd
000002a0: de67 acbe 91f7 8bbe fe93 9b3c 02ef 4cbb
000002b0: f3b1 86bd 1f03 783e 0924 63be 3ddb 6c3e
000002c0: 695f c83d 834b 32be 957e ae3b 0c26 a7bd
000002d0: a060 7f3e 1286 74be 50d3 98bd 5d9b 56be
000002e0: efd4 87be 1a81 84be e591 b03d 6cfc 98be
000002f0: 0255 06be 052f eb3e 8ebe 82be 8453 603e
00000300: 582d c4be 89c2 05bf c4f2 fdbe bc4d 92be
00000310: 50cb d9bb ffe6 70be ff96 973e b182 c63c
00000320: e8cc b23e be1a 91be e02a 3cbe b302 d7be
00000330: 3da1 1cbe 189a 3b3d 1dc8 0cbe 0ab6 113f
00000340: e2fc 793e 2df1 143f 22ee b83d f6f5 41be
00000350: f87f 6e3e 6723 813e 31dd df3a c372 af3e
0.5661043 0.6548766 0.24795902 0.6984048 0.21391778 0.08205832 0.77302027 0.12833627
0.4613762 -0.0018536457 0.1029604 0.17382959 0.1665018 -0.19925857 0.2214945 0.132525
-0.23558094 0.06678159 0.26554182 0.35924414 0.46166515 0.3148799 0.17268251 0.23722923
0.0781322 0.09512266 0.33002102 -0.04824513 -0.14503847 0.04384528 -0.4362939 -0.43407372
-0.37672952 0.057547513 0.08657501 -0.12231716 0.101603754 -0.018151391 0.03642155 -0.03710827
0.078406446 0.2958097 0.41180062 0.17836371 0.50987667 -0.3387783 -0.46086523 -0.2819208
-0.34201926 -0.38309005 0.11018963 0.23289625 0.10086083 0.6000718 -0.1751272 -0.09741587
0.19984479 -0.16237691 -0.124961205 0.28886554 -0.14459118 0.06917337 0.18831244 0.005316325
-0.13014379 0.25128287 -0.13697231 -0.15922357 0.41288295 -0.052773044 0.06497679 0.32914335
-0.14156194 -0.40720838 0.3353843 -0.16388689 -0.3412451 0.5403296 -0.2538677 -0.18247864
0.3521131 -0.013980416 0.19711536 0.025298128 -0.1546501 0.37708944 0.08634924 0.15975305
0.3293343 0.1519277 -0.23907034 0.16785137 -0.24462281 -0.10707473 0.15714273 0.13282071
0.35540855 0.22028768 0.20947793 -0.4651619 -0.0003633417 -0.49566227 -0.35884914 0.00948954
-0.2560151 0.102792546 -0.16777402 -0.2282363 0.07345681 0.07211108 -0.23372988 0.17439243
-0.013718948 -0.33212602 0.07016913 0.009468856 -0.14690728 0.07606839 -0.056311354 0.044980127
0.07750166 0.05419743 -0.14250168 -0.028020866 0.33206186 -0.16065729 0.14685643 0.07399246
-0.3008566 0.06556113 0.036689423 -0.27625123 0.024453333 -0.055842694 -0.24220231 0.22789481
0.14441514 -0.06588465 0.66764534 0.18690774 0.053394113 0.34707874 0.06730592 0.18408811
-0.27020952 -0.3049104 -0.5455623 -0.26735032 -0.4378323 -0.5405566 -0.22154173 -0.6006313
-0.54072493 0.08986136 -0.03761321 -0.16563228 0.07571499 0.09939566 0.058889233 0.112114206
-0.0024098938 0.109158896 0.017587028 0.085303605 0.29686454 -0.38275743 -0.23233844 -0.07598428
-0.33672994 -0.27337316 0.018991467 -0.003127039 -0.0657691 0.2421994 -0.22181715 0.23130508
0.09783823 -0.17411618 0.0053251483 -0.08161554 0.24939203 -0.23879269 -0.0746218 -0.20957704
-0.26529643 -0.25879747 0.08621577 -0.29880083 -0.13118365 0.4593431 -0.25536007 0.21906859
-0.38315845 -0.5224996 -0.49599278 -0.28574932 -0.006646551 -0.23525618 0.29607388 0.02423224
0.34921956 -0.28340715 -0.1837573 -0.41994247 -0.15295883 0.045801252 -0.13748212 0.56918395
0.24412873 0.58180505 0.09029795 -0.18941483 0.23291004 0.25222322 0.001707947 0.34267244

conv1.0.bias f4 [8]
00000000: ba1e 1b40 89af a93d 15fc 703f c9e6 853f
00000010: 2c66 dc3f cea0 2e3f 017a 1c40 87ca 233e
2.4237504 0.08285434 0.94134647 1.0461055 1.721868 0.6821412 2.4449465 0.15995227

conv2.0.weight f4 [8, 8, 3, 3]
00000000: 756a 26be 800a 49be b127 57be 5714 f33d
00000010: 26dd 693d 751a d03d 100c 793e a081 8abd
00000020: ecea f13a 8e04 293e db52 29be 14ed 603c
00000030: 2ad7 2e3e f7eb 943d ef0a a0be c2ae 34bc
00000040: e074 95be 6c5c 60bf e4b4 243e add6 963e
00000050: 1b96 503e 0c59 cd3d 4ef2 2c3e 1058 093e
00000060: 0679 243e 7dd3 903e 2103 c93e a87e 003e
00000070: cee9 623d 81d6 0c3e 77e4 cc3e c877 07bd
00000080: 32e8 05be 75ab e73e 782e bbbd 87e9 0dbd
00000090: 4841 563e 0315 3dbe 20cc 06be 919e 453e
000000a0: b8c6 903d a8b2 783c ae2e 013f 3d10 fc3d
000000b0: 445e 1f3e 69f8 f73d 14db ec3d 3123 44bd
000000c0: 9f9e c23e a9a4 423e 88bf ad3d ac72 f93e
000000d0: dd24 173e 6479 733e 8ad0 263c 85c7 bf3d
000000e0: b096 24be 418b cebc da0f 703e 6276 df3d
000000f0: 99fb ab3d b4b4 443e 5a7f 453e 0224 94bd
00000100: 4093 2c3e 1bc6 1bbf cb7b 8b3e 78ba 913d
00000110: a932 c33c 8cae b5be bba3 3ebd bce2 c1be
00000120: db7c 373e b4ab 6e3e b1d8 b03c 9603 343d
00000130: c12d 443d ec3f 3f3e 9170 103e 9b71 ab3d
00000140: 674a 3c3e 61cf 893e 4913 953e 70e5 873e
00000150: c35b 823e 0e7b fa3e c6fe 1dbd affc 073f
00000160: 5762 243e da8f a2be 3dd8 793e 72fa ddbd
00000170: f0b3 c63d 886b 01bb 13e7 623e 5aa3 133e
00000180: dba2 7abe 2218 ca3e c826 5f3e c32e 563e
00000190: 43c8 b23d ecf3 223e 4af6 84bd e417 8bbd
000001a0: 3461 e3bd f6dc 1e3d 5602 cbbe ae6d 863d
000001b0: 0e1f 03be 9fdf 633e 8089 aa3d 66cb b5bd
000001c0: 430a c53d a870 91be 366d 0f3c 5b96 56be
000001d0: 953c ccbe bd8f 043c 8c06 6a3e 3312 b43e
000001e0: a2ca 993c 528c 1a3e 7434 323d f09c 003e
000001f0: 5b2e e8bb 98d8 2d3e 5cb9 9e3d 7fd1 c03d
00000200: a14c 383e 7b3b 033d 4e81 10bd d70f 1f3e
00000210: 0e7c 1e3e 6062 753c 93eb 7bbe effd 6e3d
00000220: f189 7f3e 923c 60be 1781 9dbd 8e08 1dbe
00000230: 99bf f5be 473f 9e3e f910 bf3e f1f4 12be
00000240: 5f35 833b a51a 0b3e 7125 553e 3c16 0fb9
00000250: c944 dfbd 0cee 51be fc12 a33d 4340 753d
00000260: 3135 263d 9466 873e 8493 a0bd dfdd 80be
00000270: 3cc9 943c d39c 083f 6308 e93e 73c9 88be
00000280: c4db c9bc 60a9 3e3e 0d87 953d 4730 c43e
00000290: 32b3 4c3e 17c8 68be d93c 13bf a9f6 133e
000002a0: 4ad5 8b3d 75fa 3b3b df66 823d 7df1 e93d
000002b0: 26f6 14be 11d9 a3bc 15da bdbc afdc 2f3e
000002c0: 53be 4d3e 2660 24be 90f3 803d ded1 663e
000002d0: 0e43 1c3e 71c5 0e3e cb34 5fbd ddb2 6c3e
000002e0: e9ca d63e e5df 2a3e 5966 ff3d 4114 8a3e
000002f0: e39e c23e 1b12 8a3e 1023 54be b6c8 8fbe
00000300: 7980 013e b9de fb3d 9191 4e3c e95d 873d
00000310: bb81 5cbe aab2 773e d419 a23e 3b8f 963e
00000320: 5f66 663e f9a5 a53c 9030 133e 5d0a a23e
00000330: d871 433e 2e18 47be f068 553c b832 37bf
00000340: 975d e1be b9d8 e7be 07d7 25bf bd96 68bf
00000350: 5dac 92be bb6a 43be f616 05bf bea6 31bf
00000360: 6c8b aabd c41c 8b3d 128a 9bbe c412 483e
00000370: 5d57 7cbc 7be2 1cbd 6aa7 ec3b 2238 f23d
00000380: 6875 bebe 7b21 12be 721e fa3c cf64 39be
00000390: 1f7d a0be f65c 033e 34bf e1be 4170 87be
000003a0: c8cc 9c39 2f58 cbbe 7b3a 353e 7abf b83e
000003b0: 4db3 2ebf 198c 0a3e 88b2 fd3e 3df2 07bf
000003c0: 9e4e 923e caa3 b23e a251 9abe 3b6e 593e
000003d0: ba81 a23d 29fd 9ebe 3b2b a23d 1a07 123e
000003e0: 8c42 ffbe b749 863e f949 653e a2d8 a6be
000003f0: 1577 5c3e 0622 1e3f a078 0abf c000 a33e
-0.16251548 -0.19632912 -0.21011235 0.11869114 0.05709567 0.10161296 0.24321008 -0.06763005
0.0018456853 0.16505644 -0.16535513 0.013728399 0.17074266 0.07271569 -0.31258342 -0.011027994
-0.2919073 -0.87641025 0.1608463 0.2946066 0.2036976 0.1002675 0.16889307 0.134125
0.16061792 0.28286353 0.392602 0.12548316 0.055398755 0.13753702 0.40018055 -0.033073217
-0.13076857 0.45248 -0.091397226 -0.034646537 0.2092334 -0.18465047 -0.13163805 0.1929877
0.070691526 0.015179314 0.5046185 0.12307785 0.15563303 0.12107927 0.11565223 -0.047885124
0.38011643 0.19008125 0.08483797 0.487203 0.14760156 0.23776776 0.0101815555 0.09364227
-0.16073108 -0.025212886 0.23443547 0.109112516 0.08397598 0.19209558 0.19286862 -0.072334304
0.16853046 -0.6084916 0.27242884 0.07115644 0.023827868 -0.3548473 -0.046542864 -0.37868297
0.17918722 0.23307687 0.021587702 0.043948732 0.047895197 0.18676728 0.1410544 0.08371278
0.18387757 0.2691603 0.29116276 0.26542234 0.25460634 0.48922008 -0.03857305 0.5311994
0.16053139 -0.31750375 0.24398895 -0.10838784 0.09702289 -0.0019747932 0.2215846 0.14417782
-0.24476187 0.39471537 0.21792138 0.20916276 0.08729603 0.15913361 -0.064922884 -0.06791666
-0.111025244 0.038784944 -0.3965022 0.065638885 -0.12804815 0.22253273 0.08327007 -0.08876686
0.09621098 -0.28406262 0.008754065 -0.20955794 -0.3988997 0.0080909105 0.2285406 0.35170135
0.01877338 0.1509259 0.043507054 0.12559867 -0.007085604 0.16977155 0.07750198 0.09414958
0.17997982 0.032039147 -0.035279565 0.15533386 0.1547701 0.014977068 -0.24601583 0.05834764
0.24954964 -0.21898106 -0.076906376 -0.15335295 -0.4799774 0.30907652 0.37317637 -0.1435125
0.004004165 0.13584383 0.20815064 -0.00013645826 -0.109017916 -0.20500964 0.07962605 0.059875738
0.04057807 0.26445448 -0.078406364 -0.25169274 0.018162362 0.53364295 0.4551421 -0.26716194
-0.024640925 0.18619299 0.073011495 0.38318083 0.19990233 -0.22732578 -0.5751472 0.14449562
0.06827791 0.002868322 0.06367277 0.11423013 -0.14547023 -0.020000966 -0.023175279 0.17174028
0.20092134 -0.16052303 0.06296456 0.22540995 0.15259954 0.13942505 -0.054493707 0.23115106
0.41951683 0.16686971 0.12470693 0.26968578 0.38011846 0.26966938 -0.207165 -0.28082818
0.12646665 0.1229834 0.012607948 0.06609709 -0.21533863 0.24189249 0.3166033 0.2940615
0.22499989 0.020220743 0.14373994 0.31648532 0.19086397 -0.19442818 0.013025507 -0.71561766
-0.44016716 -0.45282534 -0.6478123 -0.9085501 -0.28647128 -0.19083683 -0.5198816 -0.69395053
-0.08327374 0.06792596 -0.30378777 0.19538409 -0.015401688 -0.038301926 0.0072221057 0.11827113
-0.3719895 -0.14270584 0.030532096 -0.18104862 -0.3134546 0.1282843 -0.4409119 -0.2645283
0.00029907213 -0.39715716 0.1769809 0.36083585 -0.6824234 0.13530006 0.4955027 -0.53104
0.28575605 0.34890586 -0.30140406 0.21233456 0.079349 -0.3105252 0.07918402 0.14260522
-0.4985546 0.26228115 0.223915 -0.32587153 0.21529801 0.61770666 -0.5409031 0.3183651

conv2.0.bias f4 [8]
00000000: 8c53 b6bd 1972 0c3e 2661 a63e 8396 2c3f
00000010: 7e26 9a3f d947 8a3f 874d be3e 0c22 f33e
-0.08902654 0.137154 0.32495993 0.6741716 1.2042997 1.0803176 0.37168524 0.47486913

conv3.0.weight f4 [8, 8, 3, 3]
00000000: fdd2 64be 2651 ccbd 586e 42bd 4244 123c
00000010: 140e a23c aadb 603e 29f8 e2be 9eb4 d8bd
00000020: c3fb 59bd 4b0c 22bd e3a6 11bc 311f 803d
00000030: 4d12 953b e0eb 82bd 38f7 343c 208b c2be
00000040: 4345 043e ab3f e83c 829a 7fbe a213 3b3e
00000050: cfe7 86bc 8ce4 67bd ef24 a13d b3f1 2ebe
00000060: 51dd 05bf 13f2 0abe b9b9 733e 828c 1d3f
00000070: a868 263c 7c13 ab3e bdbf 483f ab88 053f
00000080: 6424 da3d d142 023c 0ed1 023c 67f4 913e
00000090: 021f f7bd 142d 623d a1c1 ac3c fc51 31be
000000a0: 4880 7f39 f23b 763d 2153 d3be c79d a7be
000000b0: 6576 9dbe e8ad 89bc a783 0c3e f324 bebd
000000c0: d497 6d3d 7707 ae3b 4db2 433e 5199 fcbe
000000d0: cc57 4abd d311 a8bd 2658 b73e 5816 cf3d
000000e0: ddd9 0cbc 9335 a63c 21ed a7bd 7702 873d
000000f0: f150 63be 87a2 2b3e e4bd 9d3e 231a 6f3e
00000100: 19d4 863e 77ee 033f 0251 143e c082 953e
00000110: 2dd3 a73e 273c eabe b06f 343e f717 893d
00000120: 1f06 663b 4cfd c5bc 4e04 3c3e 5a5f d83c
00000130: 335e 4f3e 5404 94bc c060 253e 7273 57bc
00000140: 04e3 473e 0c23 0ebd ea30 a7bb 6e93 35bd
00000150: c830 023e 692d 94bd cbef a2bc 6086 ea3c
00000160: 6225 083d 9902 ecbc b53a d53d 1c49 52be
00000170: 2a6b 163e 0d61 8b3e 1591 1dbe a654 3c3e
00000180: dffd bebd 2c6a 523d 680a 1abc 3bea 05be
00000190: 5fe7 58be 6df7 40bc 4523 9fbd 3a64 b13b
000001a0: 8895 1bbf 183c 313c fc56 6fbe 01de fcbe
000001b0: 65d5 95be 93ef f5bd 2d78 6e3c f62d 113d
000001c0: d135 24be 258d d13d ab10 a63e 5843 6fbd
000001d0: f352 3a3e db47 0dbe 57ae 1c3d bbcb c1be
000001e0: 9518 1d3e 7f80 043e 4a61 bbbc bbf8 803e
000001f0: c4c8 333d 7c6e da3c a806 adbe 5e9a b7bd
00000200: f078 35bf 461b 0cbf eda6 283d cbc3 273d
00000210: 3688 0dbf 798a 41be c316 aebe e4dc 1b3e
00000220: 4780 07be 6d52 0dbd 90b9 993d c86e 523e
00000230: 88ad d43d 7f9f 173e 9286 41be 9c58 ae3e
00000240: 0b99 bcbd 5d9e 4dbe ced2 ebbd eaa7 2fbe
00000250: ba9d 25bd 36e0 c0bd f83a 533d 44fe b1bd
00000260: b52f 39be 8d5b bf3d 279a 093d a334 35be
00000270: cd6a 763d ae33 85bd 35d2 aa3d 4cee 86be
00000280: 4eb7 30be ed12 10bd efa9 943e 1aa5 90bd
00000290: ce8d c13d 5307 d8bd 4adc 753d c181 c7bd
000002a0: 1194 edbd dcb8 433d c9bf 0d3e b520 2abf
000002b0: c02d b2bf 9beb 46bf c741 65be b95b 3e3e
000002c0: f46f 96bf b4a2 9f3e aa55 a73e 447d adbc
000002d0: 374d 91bd d042 543c fab0 0f3e d390 113e
000002e0: d15f 27bd c5b2 ab3d e911 07bc 21cd 3e3e
000002f0: b916 563e e168 d1bb 722e 613d 2d41 7e3e
00000300: a866 cc3d 7c86 e03d ed1c 023e 3022 afbd
00000310: bc39 60be efa8 5bbe 78b9 7ebe a41d dfbe
00000320: 2924 cbbd 5f4c 933d 7e35 0e3e 198e c4bd
00000330: 2f07 53bd 94f8 14bf 366c 6abf 31c2 9e3e
00000340: e34a 9e3e 1a73 ef3e 1241 983e 24dc 253e
00000350: 471b 183e f32e 5a3d ec00 1e3e 5444 e33e
00000360: 9bf8 d1bc 374a 28bb 6c6f afbe 1dce e53d
00000370: 66d5 29bd a5e2 0fbe 8989 c8be 9148 2ebe
00000380: 024b 30be b855 40be 0c56 ce3d 636e 60be
00000390: f7c9 70be bc7d 6b3d dd3b 1cbe 4703 603d
000003a0: ffdd 8a3d 0259 bdbc 70a8 c93d f6bf 833e
000003b0: 370c 283d 23c0 0cbe fff0 d83d 23fc 64bc
000003c0: be63 1a3d 3579 243e fa48 49bd 4ddb 7f3e
000003d0: 76a1 e8bd 8b98 13be 79ab b73d 7ef1 5f3d
000003e0: 942e 35be ecd5 a73e 72c3 1d3e ed7a c83d
000003f0: c78d b83b 6ad9 4c3e 5a8f 653e 778d 9dbe
-0.2234611 -0.09976415 -0.047468513 0.008927407 0.019782104 0.21958795 -0.44329956 -0.10581325
-0.053218614 -0.039562505 -0.008889887 0.06255949 0.0045493008 -0.06392646 0.01104527 -0.3799677
0.12917046 0.028350672 -0.24961284 0.18269208 -0.016467957 -0.056614444 0.07868373 -0.17084388
-0.5229083 -0.13568906 0.23801316 0.6154252 0.010156788 0.33413303 0.7841757 0.52161664
0.10651472 0.007950501 0.007984413 0.28506777 -0.12066461 0.05521877 0.021088423 -0.17316431
0.00024366484 0.060115762 -0.4127436 -0.32737562 -0.3075439 -0.016806558 0.13722096 -0.09284391
0.058006123 0.0053109485 0.19110985 -0.4933572 -0.049400136 -0.08206525 0.3580944 0.101116836
-0.0085968645 0.020289218 -0.081995256 0.06592267 -0.22198845 0.16761218 0.30808938 0.23349814
0.26333693 0.51535743 0.14484027 0.29201317 0.32778302 -0.45749018 0.1762073 0.06694024
0.0035098863 -0.024168633 0.18361017 0.026412655 0.20250778 -0.01806847 0.16150188 -0.013150083
0.19520193 -0.034701392 -0.0051022666 -0.044330053 0.12713921 -0.07235224 -0.019889733 0.028628528
0.033238776 -0.028809832 0.10411588 -0.20535702 0.14689317 0.2722248 -0.15387376 0.18391666
-0.09325766 0.051370785 -0.009401895 -0.13077633 -0.21182011 -0.011777741 -0.07770399 0.0054135593
-0.6077504 0.01081755 -0.23373026 -0.49388126 -0.2926437 -0.12008586 0.014555019 0.035444222
-0.16036154 0.10231999 0.32434592 -0.058413833 0.18195705 -0.13796942 0.0382522 -0.37850747
0.15341409 0.12939642 -0.02287354 0.25189766 0.043892637 0.026664011 -0.3379414 -0.0896499
-0.7088766 -0.54729116 0.041174818 0.040958207 -0.55285966 -0.1890048 -0.3400174 0.15220982
-0.13232528 -0.034502435 0.07506096 0.20550072 0.10384661 0.14806937 -0.18898991 0.3405198
-0.09208878 -0.20079942 -0.11514817 -0.17153898 -0.040433623 -0.09417765 0.05156991 -0.086910754
-0.18084605 0.09343634 0.033594277 -0.1769586 0.060160447 -0.06503998 0.08340875 -0.2635368
-0.17257425 -0.0351743 0.290359 -0.070627406 0.09450875 -0.10548272 0.060024537 -0.097415455
-0.11600507 0.047783718 0.13842691 -0.66456157 -1.3920212 -0.77703255 -0.22388373 0.18589677
-1.1752915 0.3117882 0.32682544 -0.021177895 -0.07094806 0.0129553825 0.14032355 0.14215402
-0.040862862 0.08383707 -0.008244016 0.18632938 0.20907106 -0.0063906764 0.054975934 0.2482955
0.099805176 0.10963151 0.12706347 -0.085514426 -0.21897024 -0.21451162 -0.24875438 -0.43577302
-0.099190064 0.07192301 0.13887593 -0.095974155 -0.051520523 -0.581918 -0.91571367 0.3100753
0.3091651 0.46767503 0.29737145 0.16197258 0.14854155 0.05326743 0.15430039 0.44388068
-0.02563124 -0.0025679 -0.34264696 0.112209536 -0.04146328 -0.14051302 -0.3916743 -0.1701987
-0.17216113 -0.18782699 0.10075006 -0.21917109 -0.23514543 0.057492957 -0.15257211 0.054690626
0.06780624 -0.023113731 0.0984658 0.25732392 0.041027274 -0.1374517 0.10592841 -0.01397613
0.037692778 0.16061862 -0.04914186 0.24986 -0.11358921 -0.1441366 0.08968253 0.054673664
-0.1769355 0.32780397 0.15406588 0.09789071 0.0056321356 0.20004812 0.22417966 -0.30771992

conv3.0.bias f4 [8]
00000000: 9ef6 3e3e 4384 573e 2f84 d63e 1686 b03e
00000010: 31b9 fc3d d264 c73d 6e33 b6bd 2578 18be
0.18648764 0.21046548 0.41897723 0.344773 0.1234001 0.09736027 -0.08896528 -0.14889582

dense1.0.weight f4 [32, 128]
00000000: 030b ac3d 03ae 66bd 80bd 71bd a0fd 543c
00000010: 36cd 093d 6014 9cbb d036 f6bc 5e68 97bd
00000020: 1d1b 4cbd 409c 44bb 1a83 87bd ca62 a3bd
00000030: 0e32 afbd 528e afbd aa19 103d abfc 843d
00000040: a2f2 60bd 8e26 7c3d 202f 2abb 20ff 67bc
00000050: f2f1 3d3d f2a4 a4bd 1f24 9dbd 3029 b3bd
00000060: cbb7 1ebd 60e7 e43c f176 89bd 7817 c53c
00000070: c044 b2bb 642a b0bd 0e29 593d 2bf1 ac3d
00000080: d7a3 863d 4896 2e3c 0160 56bd c293 473d
00000090: b0af 8abd 105d edbc 4031 243c 4fd9 5abd
000000a0: 083e 3cbc f175 adbd c6fa 0abd 1060 c9bb
000000b0: 1e38 313d 291a a03d 2b18 b03d 8085 573c
000000c0: 0c5d acbd 66d0 67bd 7cf7 ef3c 0990 8b3d
000000d0: 0689 4e3d 56df 2e3d 2eb8 1a3d 5e53 463d
000000e0: 5151 09bd 81b6 38bd 8098 79ba 494c 4dbd
000000f0: d2d8 6b3d 09a4 51bd 3075 053d 5609 5b3d
00000100: b0f2 21bc 5cde 8d3c 7008 a53c 422e adbd
00000110: eb08 81bd 32e2 3e3d a9e6 9fbd 0014 ba39
00000120: 2636 6abd 29fd 803d d5e1 35bd e0b3 d9bb
00000130: 5c52 0a3d 40f4 9f3a 39cf a43d 01d7 b1bd
00000140: 9246 363d 4088 223b 8053 e1bb 7d96 aa3d
00000150: cdb1 b13d 10e4 05bd 0e70 193d cacf 413d
00000160: 7463 ae3c 8c54 b0bd 0a4c 7e3d 71dc 903d
00000170: f864 64bc f173 9c3d afb4 a2bd c546 9e3d
00000180: 2289 5fbd d076 1abc d803 253c 1c33 fc3c
00000190: d647 3f3d 98bd 363c 995c 13bd 6926 a03d
000001a0: 7854 5e3c f4eb d2bc bcbe b5bc e6d4 5c3d
000001b0: 49f5 8d3d 5c29 e8bc 9e6e f9bc 6817 61bc
000001c0: 8630 99bd 8ff5 73bd 00af ca39 80f4 8a3a
000001d0: 6a2c 773d 02a4 173d ff72 b4bd 9cf6 9fbd
000001e0: 34b2 f93c 722d 523d c1c9 803d 468d 773d
000001f0: 77cc ac3d 18ce 8b3c b7e6 b3bd 00fe 873a
00000200: 8b29 823d 0018 0639 5577 40bd a033 13bc
00000210: 7a97 733d 2f95 973d 5e5b 80bd dd13 a13d
00000220: 5fb8 923d 40d7 653c 608f 9e3b 1ebb f8bc
00000230: b023 bcbc 20ae 833c 73a7 a03d 387d 9dbc
00000240: 574c a43d 4056 87bd d8e1 b2bd bb87 b1bd
00000250: de70 613d 8833 06bc ca3f 693d 6596 52bd
00000260: ea54 693d a9c3 843d 66bb 163d 7c92 ad3c
00000270: 8406 2dbd ca8e 1b3d 3dbe 923d 8d7e 923d
00000280: 6051 163c 34c7 a8bd 00b2 07bc 1e7c 3d3d
00000290: 70b7 e4bb c896 0a3d 0e00 633d 43a3 6cbd
000002a0: bc13 ff3c 55de 82bd e6cb 623d 1ac1 96bd
000002b0: 70fa 3ebc e512 02bd e0aa 513b e8b2 09bc
000002c0: b230 0cbd a097 88bc 70af 7cbc 6292 783d
000002d0: 3bc9 843d fc37 fe3c 3464 853c 2725 98bd
000002e0: fc3c 80bc fe67 553d cbdd 6dbd 31e9 af3d
000002f0: c6c3 423d 4982 a13d 3688 703d 60d8 40bc
00000300: 8000 d4bc a978 8bbd 362c 363d 60f1 2a3b
00000310: 4d31 a13d 5a2f a8bd 9c55 3cbd d801 a1bd
00000320: b2ca 5dbd f463 a63c 8c72 973c c054 aabd
00000330: 14e6 e33c bc20 963c 2cfa eebc c45d 98bd
00000340: 479d 26bd f1a3 84bd 989f 14bc 460a 35bd
00000350: 360e 263d d06e c2bb c808 103d f8c2 66bc
00000360: 7625 9fbd c03f 78bc 1475 bb3c 3270 4a3d
00000370: 1c42 d23c 20b6 e03c cad6 473d a1f6 a0bd
00000380: 4e2d 783d 3f54 24bd 80f2 84bd 28ce 893c
00000390: 3ab0 26bd 0788 acbd 6950 b2bd 9ee0 24bd
000003a0: a5d6 0ebd 5ae8 1f3d f985 82bd f03e eabc
000003b0: bf2b 9c3d a6d8 ffbc aec6 6dbd e8ff 763c
000003c0: 5e00 9bbd d429 b1bc 3418 bf3c e076 20bc
000003d0: 6307 1fbd 07cf 863d 69b3 983d 924a febc
000003e0: 8e13 09bd ebe5 8e3d bae3 71bd 38bd dfbc
000003f0: a87f 5cbc 7013 113d c099 acbd 7a80 82bd
0.08400538 -0.056318294 -0.059018612 0.012999922 0.03364297 -0.004763171 -0.030055434 -0.07392953
-0.049830545 -0.0030000359 -0.066168025 -0.07977827 -0.08554469 -0.08572067 0.035180725 0.06493505
-0.054918893 0.061560206 -0.002596803 -0.014159948 0.046373315 -0.08039273 -0.07672905 -0.0874809
-0.038749497 0.02794236 -0.067121394 0.024059042 -0.0054403245 -0.08601835 0.05301767 0.08444437
0.06574219 0.010655947 -0.05233765 0.048724897 -0.06771791 -0.02897504 0.010021508 -0.053429898
-0.011489399 -0.08469761 -0.033930562 -0.0061454847 0.04326641 0.0781749 0.0859836 0.0131543875
-0.08416185 -0.05659523 0.029292814 0.06814582 0.050423644 0.04269346 0.037773304 0.04841935
-0.033524815 -0.045095924 -0.00095213205 -0.05012158 0.057579823 -0.051181827 0.03258246 0.0534757
-0.009884521 0.017317943 0.020145625 -0.084560886 -0.06300529 0.046602435 -0.07807667 0.00035491586
-0.057180546 0.062982865 -0.044404823 -0.006643757 0.03376995 0.001220353 0.08047337 -0.08683587
0.044500895 0.002480045 -0.006876409 0.083294846 0.08676491 -0.0326882 0.03746038 0.047317304
0.021287657 -0.08609876 0.062084235 0.07073296 -0.013940088 0.076393016 -0.07944619 0.07728342
-0.05457414 -0.009427741 0.010071717 0.03078609 0.046699367 0.011153601 -0.03597698 0.07819826
0.013569944 -0.025747277 -0.022185676 0.053913973 0.0693155 -0.028340034 -0.030448254 -0.013738491
-0.07479958 -0.059560355 0.00038658828 0.0010601431 0.06034509 0.037021644 -0.08810996 -0.07810709
0.030480482 0.05131287 0.062884815 0.060437463 0.08437436 0.017066047 -0.0878424 0.001037538
0.0635558 0.00012788177 -0.046988804 -0.008984476 0.05947063 0.074015014 -0.06267427 0.07865117
0.07164072 0.01402837 0.004838869 -0.030362662 -0.022966236 0.01607424 0.078444384 -0.019224748
0.08022373 -0.06608248 -0.087344825 -0.08668467 0.05503928 -0.008190997 0.0569456 -0.05141296
0.056965746 0.06482632 0.03679981 0.021188013 -0.042242542 0.03797797 0.07165191 0.07153044
0.009174675 -0.0824112 -0.008282185 0.046260945 -0.0069798753 0.033835202 0.055419974 -0.057772886
0.03113734 -0.06390063 0.055370234 -0.0736105 -0.011656389 -0.0317563 0.0031992719 -0.008404471
-0.034226127 -0.016673863 -0.015422687 0.060686477 0.06483694 0.031032555 0.016283132 -0.07428961
-0.01565408 0.052101128 -0.058072846 0.085893996 0.047549985 0.07886178 0.05872365 -0.011770338
-0.025879145 -0.068101235 0.044475757 0.0026083812 0.078707315 -0.082121566 -0.04598008 -0.0786168
-0.054148383 0.020311333 0.018487237 -0.08316946 0.02781967 0.018326156 -0.029172026 -0.074397594
-0.040677335 -0.06476582 -0.009071253 -0.04419925 0.040540896 -0.00593362 0.035164624 -0.01408457
-0.07770817 -0.015151918 0.022882976 0.049423404 0.025666289 0.027430594 0.048788823 -0.07859541
0.06059008 -0.040119406 -0.06491566 0.016821936 -0.040695406 -0.08424383 -0.08706743 -0.040253274
-0.03487267 0.039039947 -0.063732095 -0.028594464 0.076255314 -0.031231236 -0.058050804 0.015075661
-0.075684294 -0.02162639 0.02332697 -0.009793967 -0.038825404 0.06582456 0.07456095 -0.031041417
-0.033465914 0.06977447 -0.059055068 -0.027311906 -0.01345817 0.035418928 -0.08427763 -0.06372161

dense1.0.bias f4 [32]
00000000: d320 933d 7f31 8bbd e911 5bbd c04e 7ebb
00000010: 9a00 583d e47a 933c dcbe 8fbc 0198 31bd
00000020: 28f4 88bd 5af8 683d 22ec 5a3d dba5 963d
00000030: 4088 c03b 6431 f93c 42f7 65bd dc80 b73c
00000040: 7c7c b83c a2ee 89bd 0283 243d 846e e63c
00000050: 8a43 a6bd 84ad 81bd a0d8 e03b 2815 b0bd
00000060: 389b 81bd 7e81 7e3d de78 553d e753 a6bd
00000070: 330c 873d af44 8a3d 1e2e f0bc 0079 21ba
0.07183995 -0.0679655 -0.053483877 -0.0038804263 0.05273495 0.018002935 -0.017547064 -0.043357853
-0.06687194 0.05687747 0.05344785 0.07355853 0.0058756173 0.03041906 -0.056144007 0.022400312
0.022520296 -0.06734969 0.040164 0.02812887 -0.08118351 -0.063319236 0.006861761 -0.08597785
-0.06328434 0.062135212 0.05211722 -0.08121472 0.06594124 0.067513816 -0.029318865 -0.0006159693

dense2.weight f4 [10, 32]
00000000: 9238 be3d 2e4c 9d3d b225 c8bd 008d 08bc
00000010: 0085 f83c a0ee 1bbd 6429 0e3d a08a 6e3c
00000020: ac77 2f3d 0a03 fa3d 636a 063e 04f6 e8bd
00000030: cadd cb3d 2aed 71bd 5020 a9bc 1083 08bc
00000040: b8bf da3c e869 b3bc 0dd4 0a3e 6628 73bd
00000050: b8df cebc c9d3 183e 90f9 5d3c 000a b53c
00000060: cf3a 2bbe 59b6 2d3e 7e6f 0bbe 40e9 debd
00000070: 1721 d0bd 2688 f7bd eec4 883d 304f 2b3c
00000080: cc79 01be 6080 3abc 8093 81bb e03e 48bd
00000090: 86dc e53d 9f3b d2bd d832 f23c 45fc 133e
000000a0: abb0 03be 4ae2 da3d a933 30be 51b7 043e
000000b0: 5028 e8bc 4e4c 9c3d d242 a0bd 5f77 30be
000000c0: ea4b 89bd 4879 19bd 1e10 2ebe 8346 8fbd
000000d0: f0b3 1bbd 5837 3f3d df62 283e 10a3 c0bd
000000e0: ec57 643d aec9 ccbd 402a 5fbd 4e17 b0bd
000000f0: 2562 063e d0fa 0c3c 78ea 13bd b0d6 efbd
00000100: 3c1a 463d ca25 df3d 1251 abbd 329d ac3d
00000110: 5442 463d 588e adbc ed52 1d3e 4fe2 b9bd
00000120: c87c e0bc fcc3 0b3d a22a cdbd 9449 cfbd
00000130: 8048 e93c 60e8 933d 509e d3bc 8ab4 d03d
00000140: 9366 123e 4023 38bb e069 82bc 7df5 cabd
00000150: b81c 10bd ad9e 17be 58e6 9dbd 4035 603c
00000160: d8d1 1dbd 400a 3abd 7870 3abd ae77 1abe
00000170: 8069 7e3d f809 cf3c ff5e 13be 0054 dbbc
00000180: 6d7b 0b3e 6c74 19be 0237 77bd 1bac 12be
00000190: 1ce9 6a3d fdc6 86bd a99d 063e 34dc 0cbe
000001a0: 7358 1ebe af5a c4bd 8942 16be 281d b7bd
000001b0: f049 d2bc 3e21 9b3d 1abf fd3d 304e 5abc
000001c0: 00ea d4bc 5267 ec3d 3774 e4bd e51f 0b3e
000001d0: 86ac 8fbd ca1d 8a3d da59 1bbe 0069 053a
000001e0: c01d 71bb 20c5 bb3b e010 b23b fc22 05bd
000001f0: 40c7 2dbb 1759 043e 40f5 693b 98a8 803c
00000200: 8065 19bb e74f 293e dca8 553d b2d3 cc3d
00000210: 1b29 2d3e d0b8 c73c 59dd 163e cd8d c7bd
00000220: d4e9 23be bce5 04be 7e68 27be 6fe0 a1bd
00000230: 9c34 5a3d 700c 503c f9e2 1c3e 3b34 2c3e
00000240: f0b0 8ebd 78de fe3c a4eb 75bd 7e3a bfbd
00000250: 23a1 f3bd 2e38 de3d 50cc 48bd 744b 48bd
00000260: 66f5 d83d f824 36bd ccb9 55bd f178 b8bd
00000270: 405c 1c3c f01a 20bc 8d6c 0a3e 2077 7f3c
00000280: f087 0cbd df92 173e 803d 73bc d274 cb3d
00000290: 3c60 e3bd 3810 17bd b002 2ebe 29ac c3bd
000002a0: 710a 14be 481a e33c 0f20 1c3e 9826 f4bc
000002b0: 28c7 babd 54a3 733d d665 d63d 56f3 0dbe
000002c0: a484 37bd 657d 123e 445f 573d ce5a 96bd
000002d0: ca0c 9e3d 0e42 7fbd e906 cbbd 1e0c b33d
000002e0: 9d75 22be aa36 17be a46c 95bd 70fc 183d
000002f0: ec28 3f3d 7196 b2bd 1c35 32be c777 26be
00000300: 41fa e2bd 3094 aabc 6d9e 053e c059 fcbb
00000310: 0e8c 77bd 4a40 b33d ccb1 033d 832c 18be
00000320: e273 d3bd 5714 a6bd 6c7b 303d 52c1 e43d
00000330: d5e4 a9bd d448 0f3d 8894 c0bc 6f9d 1ebe
00000340: 73bc babd 4804 893c c3b9 1dbe cba6 b8bd
00000350: ee17 903d 18c0 e83c 791a 8dbd 9020 4f3d
00000360: 5e9a 9ebd cd4c 223e 0003 a63a 9392 d8bd
00000370: f650 893d 0c57 5d3d 4ab3 c23d f6ac 943d
00000380: daa1 a6bd 5860 d53c c2c0 c9bd b445 43bd
00000390: 4825 2b3d 961e e7bd 1e4a d53d 73c9 263e
000003a0: 3bc1 2bbe 6801 f7bc e54b 243e a89f 1abd
000003b0: 52eb ecbd b876 c93c 97fd 073e 97ba f8bd
000003c0: 169f ee3d d008 8e3c 6ced fcbd e6c3 10be
000003d0: 426d c83d 32f4 a33d e0c0 b43c 20e9 473d
000003e0: 4659 b23d 1254 26be 2305 203e 0161 223e
000003f0: ce6b ff3d 5070 2fbe 2246 12be be74 db3d
0.09288134 0.07680546 -0.09772815 -0.008334398 0.030336857 -0.038069367 0.034707442 0.014559418
0.042838737 0.12207611 0.13126521 -0.11375049 0.09954412 -0.059064068 -0.02064529 -0.008332029
0.026702747 -0.021901086 0.13557453 -0.0593647 -0.025253162 0.1492454 0.01354827 0.022099495
-0.16721652 0.16964091 -0.1361675 -0.10884333 -0.101625614 -0.12086515 0.06678186 0.0104558915
-0.12644118 -0.011383146 -0.003954351 -0.048888087 0.11223702 -0.10265278 0.02956526 0.14451702
-0.12860362 0.106876925 -0.17207207 0.12960555 -0.028339535 0.076317415 -0.07825245 -0.17233036
-0.067039326 -0.03746918 -0.16998336 -0.06995871 -0.0380134 0.04668364 0.16443966 -0.09406102
0.05574791 -0.09999405 -0.054483652 -0.08598195 0.13123377 0.00860472 -0.03611228 -0.1171087
0.048364863 0.108958796 -0.08365072 0.0842842 0.0484031 -0.021186039 0.15363665 -0.09076368
-0.02740325 0.034122452 -0.10017897 -0.10121456 0.028476954 0.072220564 -0.025832325 0.10190685
0.14296941 -0.0028097183 -0.015919626 -0.099101044 -0.03518364 -0.14806624 -0.0770995 0.013684571
-0.0385302 -0.04541993 -0.045517415 -0.15084717 0.06211233 0.025273308 -0.14391707 -0.026773453
0.13621302 -0.14985818 -0.060355194 -0.14323466 0.057351217 -0.06580923 0.1314608 -0.13755876
-0.15463428 -0.09587609 -0.14673819 -0.08941108 -0.025670022 0.075747 0.12389965 -0.013324305
-0.025990486 0.11543144 -0.11154979 0.13586386 -0.07015328 0.06743963 -0.15170994 0.00050891936
-0.0036791414 0.0057302862 0.0054341406 -0.032504067 -0.0026516467 0.1292461 0.003569916 0.015705392
-0.0023406446 0.16534387 0.05216299 0.10001315 0.16910212 0.024380118 0.14732875 -0.09743843
-0.16007167 -0.12978262 -0.16348454 -0.079041354 0.05327283 0.012698278 0.15320958 0.168168
-0.06967342 0.03111194 -0.060039178 -0.093373284 -0.11895969 0.10850559 -0.049022973 -0.048900083
0.10593681 -0.04446885 -0.052179143 -0.09007443 0.0095434785 -0.009772047 0.13517971 0.015592366
-0.034309328 0.1480212 -0.014846206 0.09934391 -0.111023396 -0.0368807 -0.16993213 -0.09554321
-0.14457108 0.027722493 0.15246604 -0.02980356 -0.09120017 0.059481934 0.104686424 -0.13862357
-0.04480423 0.14305647 0.052581087 -0.07341538 0.07717283 -0.062318854 -0.099134274 0.087425455
-0.15865178 -0.14766946 -0.07296112 0.03735012 0.046669886 -0.08720101 -0.17403072 -0.16256629
-0.110828884 -0.020822614 0.13048716 -0.0077011287 -0.0604363 0.087524965 0.032151982 -0.1486073
-0.10324837 -0.08109348 0.043086454 0.111696854 -0.08295599 0.034981564 -0.023508325 -0.15489744
-0.09117975 0.016725674 -0.15402894 -0.09016188 0.07035814 0.02841191 -0.06889815 0.050568163
-0.07744287 0.1584961 0.0012665689 -0.10574832 0.06704895 0.054038092 0.09506853 0.07259552
-0.081363395 0.026046917 -0.09851219 -0.047673896 0.0417836 -0.11285131 0.10414527 0.16287784
-0.1677293 -0.030152038 0.16044576 -0.037749916 -0.11568321 0.024592742 0.1328033 -0.12144964
0.11651437 0.017338187 -0.12349972 -0.1413723 0.09786464 0.08005561 0.022064626 0.04880631
0.08708434 -0.16243008 0.1562696 0.15857317 0.12471734 -0.17132688 -0.14284566 0.10715626

dense2.bias f4 [10]
00000000: 6a38 32be d1d4 e1bd 4f12 2f3e 8870 643d
00000010: b084 a1bc 50e6 0cbd 9d91 2c3e 58c6 493d
00000020: bc73 853d 74ea 493d
-0.17404333 -0.1102692 0.17096828 0.05577138 -0.01971659 -0.03439933 0.16852422 0.04926142
0.06516215 0.049295858
