ResidualLoss/CNN-30/CIFAR_17/500-iter-19.pt (torch, 27145 bytes, 10 tensors)

conv1.0.weight f4 [8, 3, 3, 3]
000000 c8 6c fd bd f3 8c f7 bd 3e 33 da 3b f9 d8 38 3e
       -0.12374264 -0.12087431 0.0066589406 0.18051518
000010 4a c3 46 3e ba 1e ec 3d 04 2d 2e 3e ca 3a 24 3e
       0.19410434 0.11529298 0.1700936 0.16038051
000020 42 ab 0f 3e 27 20 0b 3c 9d c7 22 be 07 fc d0 3d
       0.14030173 0.008491552 -0.15896459 0.102043204
000030 83 ec 01 be 30 c6 33 3e ad e9 64 be c0 48 ae bd
       -0.12687878 0.17556071 -0.22354765 -0.0850997
000040 6f 84 23 be 3b a1 28 be e8 00 05 3e a6 21 38 3c
       -0.15968488 -0.16467755 0.12988627 0.011238491
000050 cb 03 03 3e 65 6f 54 3e 6f e3 b1 3d 59 98 8a be
       0.12794416 0.20745619 0.08685958 -0.27069357
000060 60 f5 57 3e d9 a9 6d 3e 1e 76 f3 3c d7 88 85 be
       0.21089697 0.23209323 0.029719409 -0.26080963
000070 83 34 5b be 36 6d c7 3d a5 83 f3 be 93 0d bb 3e
       -0.2140675 0.09737627 -0.47561374 0.36533794
000080 b3 55 3b 3e d5 d3 13 3d a3 1b 33 3e 58 fc c4 bb
       0.1829441 0.03609069 0.17491011 -0.006011527
000090 63 ea 67 be 13 0f 1b be b6 0c b3 3c ff 1b 34 be
       -0.22648005 -0.15142469 0.021856647 -0.17588805
0000a0 31 a4 c3 3e 66 f0 fa 3d 5c 03 23 bd 4a bb ad 3e
       0.38211206 0.122528836 -0.039798126 0.33931953
0000b0 61 0c 9a be fa 9b c2 bd 9b 71 14 bc 61 6b e6 3d
       -0.3008757 -0.095024064 -0.009060289 0.1125095
0000c0 55 7c 36 be 88 09 7c 3e b3 4d a5 3c bf 7e fa bd
       -0.17820866 0.24613011 0.020178651 -0.12231206
0000d0 81 f5 8e 3e aa 5c 29 be 1b 80 81 bd a5 c2 e8 bd
       0.2792168 -0.16539255 -0.06323262 -0.113652505
0000e0 35 66 8d bd 45 e2 71 be c5 a9 bf bd c5 2a 4c be
       -0.0690426 -0.23621471 -0.09358553 -0.1993819
0000f0 a5 c6 cb be 72 c8 e2 3c 85 45 1d 3d 25 9f 7a 3e
       -0.3979999 0.02768347 0.038396377 0.24474771
000100 8e 1a 41 3d 07 cd 35 be 88 76 04 3e cb 1a a6 bb
       0.047144465 -0.17753993 0.12935841 -0.005069112
000110 a4 20 59 be 11 09 36 be ed f9 2b be d5 44 3b 3e
       -0.21203858 -0.17776896 -0.16794558 0.18287976
000120 23 4b 91 3e af 70 98 3e 5c 83 30 bc 2a 5e ab 3e
       0.28377637 0.2977347 -0.010773506 0.3347028
000130 ee 9a 4d 3c 91 c8 22 3e 94 62 b0 bd bf 48 03 3e
       0.012549145 0.15896823 -0.08612552 0.12820719
000140 d6 01 09 3e dc e2 a6 be a4 24 7f be 2e aa a8 be
       0.13379607 -0.32594955 -0.24916321 -0.32942337
000150 7e 75 39 bc ea 9c 94 3e 62 8e 5d 3d f7 39 97 3d
       -0.011319516 0.29025966 0.054090865 0.07384103
000160 d9 84 8e 3e ca 31 97 3e 90 6f 56 be 6b 82 a1 be
       0.2783573 0.29530174 -0.20940995 -0.31544814
000170 a2 fb 9c be dc d7 25 bd d0 a4 80 3e 83 9b 84 3e
       -0.3066073 -0.040489063 0.25125742 0.25899896
000180 cb 7f 33 be e7 e5 c9 3d ba a0 39 3e 83 09 e2 bc
       -0.17529218 0.098583035 0.18127719 -0.027592426
000190 45 51 a3 3c 94 60 b7 be 41 47 2d 3e a4 4d a7 3e
       0.019936213 -0.3581587 0.16921712 0.32676423
0001a0 a1 b2 9a 3d ba 3f 04 be 16 f3 22 3e 0c c8 0d be
       0.07553602 -0.12914935 0.15913042 -0.13845843
0001b0 d6 5c d1 be e4 f3 e3 bd 60 dc 1b 3d b6 62 98 bd
       -0.4089114 -0.11130503 0.038051963 -0.074407026
0001c0 dc 19 be 3e 28 97 e8 3e f7 3d 05 bd 30 8b 46 3e
       0.37129104 0.45427823 -0.032529797 0.19389033
0001d0 4d 61 b2 bc 17 45 ae 3d 86 38 b5 3d be a7 96 3d
       -0.021774912 0.085092716 0.088486716 0.07356213
0001e0 36 d2 27 bc ef 31 9e be 60 24 1e be 39 cb cf bd
       -0.010242989 -0.3089747 -0.15443563 -0.101461835
0001f0 7f fd 9a 3c 90 90 ca bd 9f f1 dd 3e 40 f8 0b be
       0.018919704 -0.09890854 0.43348405 -0.13668919
000200 cb 84 6c bd f0 36 a6 3d 2c 43 0f be 17 a8 a1 be
       -0.05774383 0.08115947 -0.13990468 -0.31573555
000210 1c 99 fe 3d 41 1e 86 be 8e f3 27 3e 13 f1 56 3e
       0.12431547 -0.26194957 0.16401502 0.209904
000220 a6 61 43 3d da 95 60 be 07 e4 12 bd b8 c7 95 be
       0.047700547 -0.21932164 -0.035861995 -0.29253936
000230 be 4c 08 3e e2 74 46 3e 3b 50 14 3e a5 14 c6 3d
       0.13310525 0.19380525 0.1448373 0.096719064
000240 99 c9 1d 3d 04 51 7f be b4 2f a8 be 7f 8a e2 bd
       0.038522337 -0.24933249 -0.32848895 -0.11061572
000250 a7 bb 65 be 9f 97 17 be fb ec 83 be ce 31 89 be
       -0.22434865 -0.14803933 -0.2576674 -0.2679581
000260 a7 d2 79 be 40 aa 6f 3e 34 44 15 3d ad 84 6a be
       -0.24396764 0.23404789 0.036441997 -0.22902174
000270 1f a3 5f 3d 43 0a d9 bd 5d e5 ee bd 16 aa 6a bd
       0.054598924 -0.105976604 -0.11664841 -0.057291113
000280 a3 ca cf 3b f5 26 07 3e 95 6c 5d bd 6a 73 ea bd
       0.006341295 0.13198455 -0.05405863 -0.11447795
000290 3d 31 84 3e 9c 8e 53 3e 7d 10 aa be 75 90 10 3d
       0.25818816 0.2065987 -0.33215705 0.035294015
0002a0 7a 58 18 bc 64 54 81 3d 3c 19 99 3d 9e e1 be 3d
       -0.009298438 0.06314924 0.07475516 0.09320377
0002b0 85 32 f0 be 4a 0f 2b 3e c9 dd 90 3e f1 fd 78 be
       -0.46913543 0.16705051 0.2829421 -0.24315621
0002c0 49 00 eb 3c 16 14 30 3e ec c1 df bd 0e e1 92 bd
       0.02868666 0.17195162 -0.109256595 -0.07171832
0002d0 a1 87 d4 3d f3 ed 7a be f0 e8 1f 3e 11 cc 81 3e
       0.10377432 -0.24504833 0.15616202 0.25351003
0002e0 b3 29 3a be 69 c5 48 be b1 73 a7 3d 98 ed 61 3e
       -0.1817997 -0.19606556 0.08176363 0.22063291
0002f0 28 13 09 be 0a 8d 3b bd 8d 63 e9 3b 01 6f c5 3d
       -0.13386214 -0.045788802 0.007122463 0.09640313
000300 bc f0 b0 3e df fc d2 bc 7a 6b b0 be 4b 45 a2 be
       0.34558666 -0.025755344 -0.34456998 -0.3169349
000310 7c 69 40 3c ec 0f 84 3e ab b7 a9 3d 4c 42 28 3e
       0.011743899 0.25793397 0.08286985 0.1643154
000320 52 f8 15 be ca f5 32 3e 95 ea 24 be b6 05 6c bd
       -0.14645508 0.17476574 -0.16105111 -0.057622634
000330 74 52 aa be 2e 55 fc 3d f9 19 32 3e 5d ee d8 bd
       -0.33266032 0.12320934 0.1739272 -0.10592339
000340 72 55 8e bd 0e a7 be ba c4 b7 ab 3e 96 e5 69 bd
       -0.06949891 -0.0014545636 0.3353864 -0.057103716
000350 29 64 8a be c6 5d 62 be 2f ee f4 bc c7 7c a2 3e
       -0.2702954 -0.22106084 -0.029898731 0.31735823

conv1.0.bias f4 [8]
000000 09 e4 4c 3f 06 25 b1 3e a8 5f ae 3e 7f 6f a0 3e
       0.80035454 0.3459856 0.34057355 0.31335065
000010 b6 9e 68 be 1d 07 ed 3c 0f 46 9a 3d a7 29 a0 3d
       -0.22716793 0.028934056 0.07532894 0.078204446

conv2.0.weight f4 [8, 8, 3, 3]
000000 07 0c 13 3e 69 30 1d be f5 58 3a bd 4c d6 01 3e
       0.14360057 -0.15350498 -0.045494992 0.12679404
000010 eb 75 0a 3e 56 2d 91 be aa 1c d5 bb 4f b8 7c 3e
       0.13521545 -0.283549 -0.006503661 0.24679683
000020 e9 31 90 bd 77 aa 77 be 32 bd 02 be e9 8d 99 3c
       -0.070407696 -0.24186121 -0.12767485 0.018744426
000030 29 f1 15 be b3 c8 06 bf a9 1b 93 be b0 1c f5 3d
       -0.14642777 -0.5264999 -0.2873204 0.11968362
000040 ab b9 af be f5 29 f0 be 97 18 21 be 51 77 0c be
       -0.3432134 -0.4690701 -0.15732037 -0.1371739
000050 38 f0 4c 3e 2d 14 a8 3e 47 f5 e8 bd 4b 02 b8 be
       0.20013511 0.32827893 -0.11374908 -0.3593925
000060 9d ef 69 3e d8 82 e7 3d 9b 08 dc be 8c 54 73 3e
       0.22845311 0.11304253 -0.42975315 0.23762721
000070 16 b1 06 be f9 8a d3 3d 2a f6 36 3e a4 50 1b 3e
       -0.1315349 0.10329241 0.17867342 0.1516748
000080 f6 0d 9d 3c 9e f2 9b be 1b ec 80 3e 12 54 f4 3d
       0.019171696 -0.3045854 0.25180134 0.11930098
000090 e8 41 34 be 19 04 e6 bc 52 84 47 3d ac 36 9e be
       -0.17603266 -0.028078126 0.048710175 -0.30901086
0000a0 e3 a7 91 be d5 d2 bd bd 39 38 b4 be 61 03 95 be
       -0.284484 -0.09268729 -0.35199144 -0.2910414
0000b0 de 0f e5 bd 62 30 c3 3d 66 b7 df 3d 84 49 3c be
       -0.11184667 0.09530713 0.10923652 -0.18387419
0000c0 ba 74 09 bd 8b f4 12 3e c9 b8 26 3e 48 da 88 3c
       -0.033558585 0.14351098 0.16281427 0.016705647
0000d0 ba 54 33 bd 95 1c 20 3e ec 13 83 3e 2c 64 43 3e
       -0.043781973 0.15635903 0.25601137 0.19081181
0000e0 ba a3 34 bd 4e 34 f3 3b 9a cd 37 3e bd 57 77 3e
       -0.044101454 0.0074220067 0.17949525 0.24154563
0000f0 51 2f 68 3d 3c 55 5c 3c 5a be aa 3e 89 6b bd bc
       0.05668575 0.013448056 0.33348352 -0.023122566
000100 b3 b3 e5 3d c8 4c 55 3e 63 e8 c8 bd 2a 10 bb bd
       0.112159155 0.20830071 -0.09809949 -0.091339424
000110 2d 6b e9 3d ec 12 bf 3d 70 25 05 3c c5 d9 c1 3c
       0.11397395 0.09329781 0.008126602 0.02366341
000120 a6 e0 6c 3d 01 4f b3 bc 3b ab bc bd 3f 3c 3e 3e
       0.05783143 -0.021888258 -0.09212347 0.1857767
000130 80 5f 50 be 82 45 42 bb ae 3a 55 3e 5e a1 17 3e
       -0.2034893 -0.002964348 0.20823166 0.1480765
000140 3b 6f 73 3d 4d d9 a4 3d e1 c9 61 3d 4f 78 eb 3d
       0.05943225 0.08049259 0.055124167 0.114975564
000150 96 a6 00 be c5 09 72 3d 4b 4b 86 3e 09 21 51 bd
       -0.12563547 0.05909135 0.2622932 -0.051056895
000160 07 73 49 3e 61 f5 14 be 05 e6 0b be 8b 76 74 3d
       0.19672786 -0.1454673 -0.13661964 0.059683364
000170 1c eb b2 bd bd 07 00 3e 9d 2f 2a be 9b 7a 8a bc
       -0.0873625 0.12502952 -0.16619726 -0.016904166
000180 f0 57 62 3d 97 d6 b2 be c2 44 1b 3e 98 16 e2 3d
       0.055259645 -0.34929344 0.15162948 0.11039466
000190 44 d2 0a 3d 5b 08 e7 3d 02 b8 c1 bc 81 5c 2f 3e
       0.03389193 0.112808906 -0.023647312 0.17125131
0001a0 c5 84 4f bd ec f9 6b 3e e5 25 c3 3d 86 11 ee bc
       -0.05066373 0.23044556 0.09528712 -0.02906109
0001b0 54 02 28 be 37 d5 ce 3a 8f 4e a6 3d 15 26 97 be
       -0.16407138 0.0015780096 0.081204526 -0.29521242
0001c0 5e 9f 52 3d 45 3b 05 3e e5 43 30 3d aa 6f 47 3d
       0.051421516 0.13010891 0.0430335 0.048690476
0001d0 43 63 6a bd ab 02 95 be 88 e3 0b 3e 94 89 61 3e
       -0.05722357 -0.29103598 0.13661015 0.22025138
0001e0 f7 4b bf 3d 32 88 3f 3e 79 e3 a9 3d a6 a3 86 3d
       0.09340661 0.18704298 0.0829534 0.06574182
0001f0 9f d4 77 bc 32 82 99 bd 39 f6 d8 bd 8e cf 18 be
       -0.015126376 -0.07495536 -0.10593838 -0.14922926
000200 4f cd fb bd 63 5a 24 bd b6 61 84 be 8f 0b 88 be
       -0.12295019 -0.040125262 -0.25855798 -0.26571319
000210 ea f3 36 be 9f bc 58 be 47 c7 d2 bd 63 0c 48 3e
       -0.17866483 -0.21165703 -0.102919154 0.19535975
000220 ba 80 ba 3e f5 43 9a 3e 9a ac d3 3e 9c 7a e9 3e
       0.36426336 0.30129972 0.41342622 0.45601356
000230 30 31 13 bd 8b 52 60 3e 42 c2 15 bd 6b 0b ef 3d
       -0.03593558 0.21906488 -0.03656221 0.116721
000240 4f 21 8e 3d 06 0e 9f bd 58 b7 b1 3c 1a e5 34 be
       0.06939947 -0.07766347 0.02169387 -0.1766552
000250 6b 82 a9 3c 39 0e 4d bc c4 5d 30 bd fc e9 b4 3d
       0.020692071 -0.012515598 -0.043058172 0.088336915
000260 76 b0 e6 3d aa 27 ff 3d 37 96 ec bd 34 e9 5d ba
       0.11264126 0.12458737 -0.11552089 -0.0008465231
000270 c5 af f9 3d cb 7a b6 3d c3 b6 d8 bc 1e 60 18 3e
       0.121917285 0.0891014 -0.026454335 0.14880416
000280 f9 90 98 3d e8 23 4d 3e 66 5a 49 be 15 ab 8c be
       0.07449526 0.20033228 -0.1966339 -0.27474275
000290 32 97 cc 3c c0 7d bf bc 11 76 ce be cd e8 97 3d
       0.02497444 -0.023375392 -0.40324453 0.0741745
0002a0 31 c9 0b 3e a7 19 a9 be 39 68 e1 bd 7d 79 09 bd
       0.13650967 -0.33027384 -0.11006207 -0.033563126
0002b0 56 d5 c4 bb ef 32 8a 3d 75 3a 84 bb 53 bb 20 3b
       -0.006006877 0.06747996 -0.004035289 0.0024525716
0002c0 cd 2d 4e bd eb 1f d2 bd b6 37 12 be b2 46 8c bd
       -0.050336648 -0.10259994 -0.14279065 -0.068494216
0002d0 10 12 64 3e d4 46 ca bd 47 2f 32 3d 3c e5 16 3e
       0.22272515 -0.09876791 0.04350212 0.14735883
0002e0 8a 14 21 be 69 51 18 bd bf d5 2a 3e 5d e4 e4 bb
       -0.15730491 -0.037187014 0.166831 -0.006985231
0002f0 76 aa 11 3e 0f bc d0 bd d9 b9 68 bc b6 2b 06 be
       0.14225182 -0.10192119 -0.014204466 -0.13102612
000300 a2 62 f3 3d 89 d6 00 bb 06 2a 69 3e 20 93 41 3b
       0.11884047 -0.0019659123 0.22769937 0.0029537156
000310 58 29 38 be 18 c3 cb 3c 25 96 94 bc 1a 05 8e 3e
       -0.17984521 0.024873301 -0.018138 0.27738267
000320 a2 af 3b bd e3 1c 9a 3c 57 07 7e 3e 69 ab 8b 3e
       -0.045821793 0.018812602 0.24807487 0.27279213
000330 de af 71 3e b8 a2 a6 3e 78 41 13 3e 70 0e c1 bc
       0.23602244 0.3254602 0.14380443 -0.023566455
000340 0a 6f 1b 3e 5d ad 16 bd 1b a7 8f bc b8 f7 af 3e
       0.15179077 -0.036786426 -0.017535737 0.34368682
000350 a7 94 32 3e 81 c2 81 bd 27 2a a2 3e 15 95 ce 3d
       0.17439519 -0.06335927 0.31672785 0.10087029
000360 3f 6d b0 3d 13 21 06 3e ec f9 b6 3d 4c 48 51 be
       0.08614587 0.13098554 0.089343876 -0.20437735
000370 18 0c 0f be 5b 79 81 bd 70 24 fe bc 47 80 31 3c
       -0.13969457 -0.06321975 -0.031023234 0.010833806
000380 a2 55 0f be 79 c5 3b 3d 58 99 68 be 0b 60 99 3d
       -0.1399751 0.04584262 -0.22714746 0.07489022
000390 df 80 9d bd 74 b9 bb be 5f 40 37 be e6 66 be bc
       -0.07690596 -0.36664927 -0.1789565 -0.023242425
0003a0 78 60 10 be 13 3f 4a be c7 14 99 bd e9 56 99 bd
       -0.140993 -0.19750623 -0.07474666 -0.0748728
0003b0 ad 60 01 be fe 5f 2b 3d 4e 9c 08 3e 28 ba 02 3e
       -0.12634535 0.041839592 0.13340876 0.12766325
0003c0 b0 b7 22 3d b1 ab 2f 3d b6 24 be bd ff 37 e7 3d
       0.03972596 0.042888347 -0.09284346 0.11289977
0003d0 9c 4b 02 3e 8d 3f 1c 3e 93 81 43 3e 38 80 19 3d
       0.12724155 0.15258618 0.19092397 0.037475795
0003e0 8f d1 7d 3d f7 67 92 3e 71 61 89 3e 59 6d ae 3d
       0.06196743 0.28594944 0.26832154 0.0851695
0003f0 32 3c 83 3e ba b9 29 3e 2f ea e7 3e a4 76 a4 be
       0.25631863 0.16574755 0.45295855 -0.32121766

conv2.0.bias f4 [8]
000000 f3 75 e1 3e 2b 34 ba be 21 9c 28 3f f7 2c 04 3e
       0.440353 -0.36367926 0.65863234 0.12907778
000010 f1 25 a0 3e 7e 4d 1e be 09 92 93 3e b9 63 ca bc
       0.31278947 -0.15459248 0.28822353 -0.024705755

conv3.0.weight f4 [8, 8, 3, 3]
000000 de 75 a5 3d 71 b3 82 3d a3 e2 b7 bc 4a 78 1a be
       0.08079122 0.06381882 -0.022446936 -0.15084949
000010 1f 4c 12 3d 3d 3f a7 bd c6 51 ff bc 65 47 a8 bc
       0.035717126 -0.081663586 -0.031166922 -0.020541856
000020 04 fe 01 3e b6 81 d3 bd dc 4e 2c be e1 4d 1b be
       0.12694556 -0.10327475 -0.16826957 -0.15166427
000030 e5 69 cb 3c 5e a5 b7 be 4a f8 66 be a9 21 db bd
       0.024830768 -0.35868353 -0.22555652 -0.106997795
000040 da b7 1e be 5b b7 8a bd a6 71 10 be 49 53 dc bd
       -0.15499821 -0.067732535 -0.14105853 -0.10758073
000050 93 ce 76 bd d2 31 5d 3e 9a b5 a5 be dd 85 d0 bd
       -0.0602556 0.21601036 -0.32365113 -0.101817824
000060 96 d5 8c 3e 74 f8 9b 3d 04 67 0f 3e c0 b0 97 3d
       0.27506703 0.07615748 0.14004141 0.07406759
000070 83 4e b4 bb e5 38 8a 3e 93 ac b0 3d 7a 85 dd 3d
       -0.0055025234 0.26996532 0.08626666 0.10816474
000080 4e ad b4 3c 8e c8 ce 3d d6 49 06 3e 9a d8 6d 3e
       0.022055294 0.100968465 0.13114104 0.23227158
000090 09 08 38 3d 3e 28 0b bd aa 4b 7b 3c ad cc dd 3e
       0.044929538 -0.033973925 0.015337864 0.43320218
0000a0 5b c3 f4 3d 6c 27 3f be fe bc b9 3e c3 8e fc 3d
       0.119513236 -0.18667382 0.36277002 0.12331917
0000b0 b7 9b 5e 3d 1c 8c e5 3d 69 fb 1e 3d 57 d4 9c 3b
       0.05434772 0.11208364 0.038813982 0.004786055
0000c0 ab 36 df 3e 4c 8b 19 3c 36 b8 3b be 35 9b bf 3e
       0.43596396 0.00937159 -0.1833199 0.374231
0000d0 c3 40 b0 3e 1f 78 76 3d f3 32 c9 bd 42 f2 0c 39
       0.3442441 0.06017315 -0.09824171 0.00013441688
0000e0 ed 60 88 3d 00 8f 20 3c f9 1e 58 3d fb a8 00 bd
       0.06659112 0.009799719 0.052763913 -0.031411152
0000f0 cf 58 e2 bd d8 5f 2e 3d 89 c4 fd 3d 06 63 2d 3e
       -0.11052095 0.042571872 0.12391002 0.16932306
000100 35 be 78 bc 7f dc 1c be 73 7f 71 3e f4 32 59 3e
       -0.015182068 -0.15318488 0.23583774 0.21210843
000110 27 4e 44 3d f1 f0 fb 3d 1f 14 88 3e 6b c8 51 bd
       0.047926094 0.12301815 0.2657785 -0.051216524
000120 99 e5 42 3e 21 46 a2 3d ba 56 03 bd cb 9b 59 3c
       0.19032897 0.07923532 -0.03206513 0.013281773
000130 9e 5e b2 bc 52 fa c6 bd 63 fe 54 3e 24 ac 1b bd
       -0.021773633 -0.097157136 0.20800166 -0.038005963
000140 84 4d 14 3e 88 61 eb 3d 6d 2e 25 3d ee b0 f1 3b
       0.14482695 0.11493212 0.04032748 0.007375828
000150 45 50 6d 3e de f4 a9 bd 23 14 9e bd 2a 76 d8 bb
       0.23175152 -0.08298658 -0.077186845 -0.006605883
000160 54 0c 1b be 5a a6 9f be ca c6 4a be 98 0e 29 be
       -0.15141422 -0.31181604 -0.19802395 -0.16509473
000170 7f 0c 7b bd 75 ad 78 3d e1 d1 8c 3b 1a 4f a5 bd
       -0.061291214 0.060712297 0.0042974805 -0.08071728
000180 e8 3f e2 3d 82 dd 12 3e 49 97 60 bd 58 c4 90 3d
       0.110473454 0.14342311 -0.054831777 0.070686996
000190 d4 13 b5 bc 9d d4 e0 3c 2e 55 3e 3e 1e f3 19 bd
       -0.022104181 0.027445132 0.18587181 -0.03758537
0001a0 cf 23 29 bd 83 0d 42 3d ea 41 8e bc c7 fc 13 be
       -0.041293915 0.047376167 -0.017365415 -0.14451896
0001b0 95 d8 80 be 3e ea fb 3d ce 5a fb 3d 5a 05 9e be
       -0.2516524 0.123005375 0.12273179 -0.30863458
0001c0 86 b7 0a be 9c e3 8d bd 70 94 95 be b1 bf 3a be
       -0.13546571 -0.06928179 -0.2921481 -0.18237187
0001d0 7e a0 80 3d 64 1a 46 bd 2e 65 48 bd f1 bc f7 bd
       0.062806115 -0.04836501 -0.048924617 -0.120965846
0001e0 26 3c 34 3e 03 9b c8 bd 1c 16 5a 3d 1f 46 65 3e
       0.1760107 -0.09795191 0.05324374 0.2239003
0001f0 81 e3 d0 bd 76 7f 0d bd bc 4a 89 be 06 47 74 3e
       -0.10199643 -0.034545384 -0.2681483 0.23855218
000200 8c d9 80 3e 25 ad 84 3d 3a 47 30 3e 73 30 60 3e
       0.25165975 0.06478337 0.17214671 0.21893482
000210 af c1 db bd b2 96 b2 3e 02 cb d6 3d 4b 73 b7 be
       -0.107303016 0.34880596 0.104879394 -0.3583015
000220 27 31 e9 bd f4 2d 3c be 9b e6 cc be e0 ff 67 be
       -0.11386328 -0.18376905 -0.40019688 -0.22656202
000230 6c 37 5d be 1d 32 7a be 7f 02 51 be b9 46 a5 bd
       -0.21603173 -0.24433179 -0.20411108 -0.0807013
000240 85 87 6c 3c 1f 22 1e bd e7 78 9e bd b9 70 33 be
       0.014436607 -0.03860676 -0.07737904 -0.17523469
000250 cd 1b 10 be 61 4b 8d bd e7 00 14 be e2 40 35 bd
       -0.14073105 -0.06899143 -0.14453469 -0.04425133
000260 47 84 6d 3d 7a 27 2f be 49 57 78 bd 2d 7b 5c be
       0.057987478 -0.17104903 -0.060630117 -0.21531363
000270 fd b4 e0 3d 68 48 05 bd 14 ed a5 bc ba 20 8e 3d
       0.10972021 -0.032539755 -0.02025465 0.06939836
000280 8b 82 64 bd dd 99 0d 3d 34 16 67 3d f7 ef 68 bc
       -0.055788558 0.034570564 0.05641766 -0.014217368
000290 ec 82 47 3d bd 22 04 be 1b 4e 0f be 5a dc e6 3c
       0.04870884 -0.12903877 -0.13994639 0.028181244
0002a0 ad b2 9b bb 0f cf dd 3c 59 87 23 3e 53 b1 26 bc
       -0.0047515244 0.027076272 0.159696 -0.010174113
0002b0 d6 cd 62 3e 4b bc e7 3d e8 7d 1c 3e 6c de b8 3e
       0.22148833 0.11315211 0.15282404 0.36107194
0002c0 a1 64 44 3e a7 bf 9d 3d 34 f2 9d 3e e9 a1 e0 3d
       0.19179012 0.077025704 0.3084885 0.10968382
0002d0 28 76 4c bd e8 8c 96 bd 72 28 80 3d ff bb 5b bc
       -0.04991737 -0.073510945 0.06257714 -0.013411521
0002e0 74 08 44 bd a0 a6 98 be da 4d 10 be 28 ed 03 3e
       -0.047859624 -0.29814625 -0.14092198 0.12883437
0002f0 72 d9 36 3d 5a df 12 3e 4b 65 40 3d d5 7b cf bd
       0.044640966 0.14343014 0.0469716 -0.10131041
000300 dd 45 b4 bd 4d d1 73 be 73 e8 03 be dd 6e b7 3c
       -0.08802388 -0.2381031 -0.12881641 0.02239173
000310 d6 02 38 be ac 1b ab bd e0 16 6c 3d 62 c4 cd 3d
       -0.17969832 -0.08354887 0.057639003 0.10047223
000320 ae 6e 9e bd 75 0d 78 be 68 0e 34 bd a5 01 a3 bd
       -0.07735954 -0.24223883 -0.04395905 -0.07959298
000330 17 1f b5 3d b5 8a be 3d b2 6b 49 3e 53 74 83 3e
       0.088438205 0.093038 0.19669989 0.25674686
000340 f6 2f 09 3e 43 10 88 bd e8 ea 6b be c9 0d 66 bd
       0.13397202 -0.06643727 -0.23038828 -0.05616549
000350 a6 af bf bd 35 08 0e 3e 0e 99 06 3e 37 03 b8 3e
       -0.09359674 0.13870318 0.13144323 0.35939953
000360 a1 d2 5d 3c 55 70 9a 3c a2 a7 db bc 89 be c1 3d
       0.013538987 0.018852392 -0.026813332 0.0946017
000370 60 c8 cd 3d 50 2b d7 bd 90 32 88 3d 14 a5 d4 3b
       0.10047984 -0.10506308 0.06650269 0.0064894054
000380 91 ef e4 bd 58 8f 39 3e 85 25 45 3e 66 cd da 3c
       -0.11178506 0.18121088 0.19252594 0.02670927
000390 e4 41 ff bc 09 23 2b 3c 1e 07 47 3e c7 7f 03 be
       -0.031159349 0.010445365 0.19436309 -0.12841712
0003a0 b4 01 18 bd 29 69 82 3c 32 02 0a 3e 2d 53 95 3e
       -0.037111 0.015919285 0.134774 0.2916502
0003b0 95 fc e4 3e de 12 ed 3d 96 98 f7 bc 31 78 fc 3d
       0.44723955 0.11575864 -0.030224126 0.12327612
0003c0 38 cd 98 3e d9 70 72 3e 78 51 8a 3e d4 58 31 bd
       0.2984407 0.2367586 0.2701528 -0.043297604
0003d0 bc f2 2d be 12 15 66 3e b7 41 52 be 37 42 e4 bd
       -0.16987127 0.22468975 -0.2053288 -0.11145442
0003e0 16 63 90 3d a5 34 b6 bd 19 ba e9 bb 4e ce 3b 3d
       0.07050149 -0.0889676 -0.0071327803 0.045851044
0003f0 e7 d6 09 be ab 19 d4 bd 42 ac c3 bd 93 06 43 be
       -0.13460885 -0.10356458 -0.0955434 -0.19045477

conv3.0.bias f4 [8]
000000 54 28 6a be 7d e3 ab 3e 84 75 de 3e f3 3f 17 bc
       -0.22866946 0.33571997 0.43449032 -0.009231555
000010 f7 f2 84 3e 9f 4a 57 3e 46 fa 6f bf 77 fa 5f be
       0.25966617 0.2102456 -0.9374126 -0.21872889

dense1.0.weight f4 [32, 128]
000000 8a bf a8 3d 4e 42 dd bc 19 f8 d2 bd da 88 6a bd
       0.08239658 -0.027009156 -0.10301227 -0.057259418
000010 d7 eb 00 3e ca 71 44 3d 73 45 65 be f9 9c 01 3e
       0.12589966 0.04796008 -0.22389774 0.12657537
000020 64 7a ed 3d 52 1f 14 bc dd 33 83 bd fe 48 cb bd
       0.1159561 -0.0090406705 -0.064063765 -0.099260315
000030 92 ff c5 3d fe e6 90 bc 6a 32 88 bd 32 62 63 bd
       0.09667887 -0.01768827 -0.06650241 -0.05551357
000040 e9 3a 2d be b9 9a 0f be 6c 9d 9f 3d 76 ab b0 bc
       -0.16917004 -0.14023866 0.07793698 -0.021566134
000050 0b 4f 62 3d 2d 9f b2 3e 46 61 30 3e 8f 7f e4 3c
       0.055251162 0.34887066 0.17224607 0.027892856
000060 b4 38 98 3d 2e 65 ab 3d 88 e1 0e 3b a4 c8 e6 bd
       0.0743269 0.08368908 0.0021801908 -0.11268738
000070 d3 47 90 bd 4b 44 04 be 6c 0c dc 3c 95 49 c7 bd
       -0.070449494 -0.12916677 0.026861392 -0.097308315
000080 24 10 b6 bd 1e 7b 0f be fb 01 35 be ed 42 3c be
       -0.08889797 -0.14011809 -0.17676537 -0.18384905
000090 d6 92 9f bc e7 a1 43 be f6 57 4e bd 2a ca 6c be
       -0.019479197 -0.1910473 -0.050376855 -0.23123994
0000a0 07 21 ad bb 93 80 c7 bd 5b 23 a5 bc 12 4c 81 3d
       -0.005283478 -0.097413205 -0.02015846 0.063133374
0000b0 ac d0 2f be bf 8f 1f 3e 35 61 4b be 03 1c d0 bd
       -0.17169446 0.15582179 -0.198613 -0.10161593
0000c0 a7 fe 3d 3e f7 06 93 3d 94 3c 4e bd 7e 15 fc 3d
       0.18554173 0.07179063 -0.05035074 0.12308787
0000d0 b9 b0 1f 3c ba 3a 91 3c 1b 9a 43 3b 87 23 82 3d
       0.009746724 0.017728198 0.0029846493 0.063544326
0000e0 d5 0b b7 bb 68 fd 24 bd 33 5b bc bc f3 20 56 3d
       -0.0055861273 -0.04028073 -0.022992706 0.052277517
0000f0 a4 ee bc 3c 86 42 14 3e 2f 10 22 3e bd 84 15 3e
       0.023063011 0.14478502 0.15826486 0.14601417
000100 c3 d6 65 3d 58 55 16 3e a5 2e 55 bd 14 9a b9 3d
       0.056113016 0.14680994 -0.052046437 0.09062591
000110 3a 02 a6 3d a9 5f 70 bc d9 36 bb 3d 4b 57 41 3e
       0.081058934 -0.014671245 0.09141321 0.18880956
000120 bb ae bb 3d 84 87 e3 bc 63 9c 95 3d 3f ce e0 bd
       0.091641866 -0.02777458 0.07305219 -0.10976838
000130 5f c2 32 3e 43 c7 02 bc 4a c3 bd 3c 86 a7 59 3e
       0.17456959 -0.007982078 0.02316441 0.21255311
000140 24 29 8b bb 56 6f 85 3d 40 e5 d7 bd 29 95 ff bd
       -0.0042468477 0.06515376 -0.10541773 -0.12479622
000150 58 7f 73 3c b7 af 9e bd 47 5e e5 3d 24 62 ce 3d
       0.014861904 -0.07748359 0.111996226 0.100773126
000160 2b fc 01 be 9b 5e 46 be c8 de 7b bd 61 c5 54 3d
       -0.1269385 -0.19372027 -0.061491758 0.051946048
000170 a1 75 66 bd 51 51 8a bc fc f2 19 bc 0b ee ac bd
       -0.056264523 -0.016884478 -0.009396311 -0.084438406
000180 e8 05 ab bc d3 08 4c bd c4 c6 c0 bc 2e b0 c0 3d
       -0.02087684 -0.049813103 -0.023532279 0.094086036
000190 0f e9 d0 bd 3c 05 d9 3d 63 3c a8 3d c5 e0 14 3e
       -0.102007024 0.105967015 0.08214643 0.14538868
0001a0 44 6c 12 3e 97 63 a5 3d c6 1e cd 3c c8 ac a5 3d
       0.14299113 0.08075636 0.025039088 0.08089596
0001b0 23 12 b3 bc 83 97 bf bc 8a 29 82 bd 54 bb c7 3c
       -0.021859234 -0.023387676 -0.06355579 0.024381317
0001c0 af 89 22 3c 0a 29 9f bd 55 35 9f 3d 57 ff d7 bd
       0.009920522 -0.077714995 0.07773844 -0.10546749
0001d0 48 89 30 3e 59 7a af bd 61 a3 28 bd c9 41 b3 3d
       0.17239869 -0.08568258 -0.041171435 0.08752782
0001e0 7c 5e 40 bc 3c 6c 13 3c c3 fc 9d 3d 8b 13 3b 3d
       -0.011741277 0.008997973 0.07714226 0.045672935
0001f0 6c 3f c2 bd 3e 55 57 be 15 4f 2e 3d 19 91 af 3d
       -0.09484753 -0.21028611 0.042555887 0.08572597
000200 cc 5c 01 bd 77 2e 87 bd c2 41 c7 bc 83 aa 43 bd
       -0.03158264 -0.06600659 -0.024323348 -0.047770035
000210 ff 18 1d be 88 af 86 3d e0 38 2b 3e 31 fa 2b 3d
       -0.15341567 0.06576449 0.16720915 0.041986648
000220 78 7c 04 3d f9 85 01 ba 05 f9 86 3d 03 3e b1 3d
       0.032345265 -0.0004940923 0.065904655 0.08654406
000230 c8 35 ce bd 69 09 bf bd 09 b5 b6 ba af 57 29 bd
       -0.10068852 -0.09327967 -0.0013939451 -0.041343387
000240 93 91 81 3e e7 49 ae 3d ac 81 34 be ee 3f 09 3e
       0.25306377 0.085101895 -0.17627591 0.13403293
000250 1f 8f 0f 3d 7b df 7c be da 58 5f be 59 ab 35 bd
       0.0350486 -0.24694626 -0.21811238 -0.044352863
000260 58 97 d1 3c 12 07 a8 be c3 b7 84 be 7b 6f 97 bc
       0.025584862 -0.32817894 -0.2592145 -0.018485775
000270 79 49 45 3e 48 fe 51 bd 3e 38 df 3c b0 27 09 3e
       0.19266309 -0.051267892 0.027248498 0.13394046
000280 ec 99 86 bd 88 0b 3f 3e 4b 00 cf 3d ed 58 08 3e
       -0.06572327 0.18656743 0.10107478 0.13315172
000290 ea 03 e7 3d 58 49 ac 3d f8 0d 38 bc 11 f9 22 3e
       0.112800434 0.08412427 -0.011233799 0.15915324
0002a0 66 35 ec bd 1d ff 0a be 8e 37 5a be b7 8b 26 3d
       -0.115336224 -0.1357388 -0.21310255 0.040660586
0002b0 ed 6a 16 3e 5a 34 cb bd 8e 0c 50 3d 25 40 02 bd
       0.14689226 -0.09922095 0.050793223 -0.031799454
0002c0 ef e4 80 3d 9b 20 38 bd 32 02 26 3c 17 69 d5 bb
       0.062936656 -0.04495297 0.010132359 -0.006512772
0002d0 f3 4b 15 3e 2c b1 2d 3d 06 17 d9 3d 6c 5e 0b 3d
       0.14579754 0.042405292 0.106000945 0.034025595
0002e0 82 6e 53 3c b1 8d 81 3d cc 51 ea bd e7 a1 4f 3d
       0.012904765 0.063258536 -0.11441383 0.05069151
0002f0 04 d7 fa 3d 3b 54 92 3c c5 1b 07 bd 98 c3 96 bc
       0.12248042 0.01786243 -0.032985467 -0.018403813
000300 55 e1 e0 bd 9d 47 5c bb c2 70 5b 3e c3 c4 76 3d
       -0.10980479 -0.003361202 0.21429732 0.06024624
000310 47 5d 9c bd e0 16 6a bd ed ac a0 bd f8 b6 02 bd
       -0.07634979 -0.05715072 -0.07845483 -0.031912774
000320 ef 6b b0 bc 17 f7 de bc 60 1f 1a be 2c 41 01 3e
       -0.021535842 -0.027217431 -0.15051031 0.12622517
000330 65 99 eb bd 9b 1f c3 39 a4 ee f7 bc 38 c4 a3 bd
       -0.11503867 0.00037216846 -0.03026516 -0.0799641
000340 a0 2d 4c 3d 8f 10 7a bd dc f7 53 3e 3c a0 22 3e
       0.0498482 -0.061050948 0.2070002 0.15881437
000350 27 60 1b be 21 e3 96 bd 35 16 40 be 08 00 06 bd
       -0.15173398 -0.0736754 -0.18758471 -0.032714874
000360 28 5e b0 3c 66 16 02 be d0 87 a6 bd cb 5b 02 3b
       0.021529272 -0.12703857 -0.08131373 0.0019891139
000370 60 40 9d 3c 70 f0 a0 3d 09 32 7b 3c 07 89 8e 3d
       0.019195735 0.0785836 0.0153317535 0.0695973
000380 17 c1 c4 3d 9c 84 45 3d cc 01 37 bd 8b 66 5d bd
       0.096071415 0.04822217 -0.044679448 -0.05405287
000390 41 d3 ae bd a9 e1 a6 bc 14 f7 86 3d 85 e1 97 3c
       -0.08536387 -0.020371275 0.06590095 0.018540153
0003a0 88 62 8f 3d f1 3e 72 3c 77 33 37 3d 66 79 03 3e
       0.07001215 0.014785514 0.044726815 0.12839279
0003b0 ab 3d 1d bc 1f 45 56 bc d0 8f 92 ba 3f 47 7c 3d
       -0.009597222 -0.013078003 -0.0011181775 0.061591383
0003c0 80 e1 a4 bd 82 45 0b be 9f f7 1d be 1b 77 10 3e
       -0.08050823 -0.13600734 -0.15426491 0.14107935
0003d0 b8 b0 90 bd 48 2e ec 3d cc 83 4d bd ca fc ec bc
       -0.070649564 0.11532265 -0.05017452 -0.028929133
0003e0 ee 37 c2 bc e9 ec 45 3c 91 8f 07 be eb 0e bb bd
       -0.02370831 0.01208041 -0.1323836 -0.09133705
0003f0 23 3e d5 3d 54 de 11 3e 6e e2 80 3b 43 71 ab bc
       0.10412242 0.14244968 0.0039332425 -0.02092803

dense1.0.bias f4 [32]
000000 e3 83 3a 3d 59 22 03 3f dd bf 73 be fc 1e cd be
       0.045535933 0.51224285 -0.23803659 -0.40062702
000010 80 73 fc 3d fd c2 c5 3c a7 e0 e3 be e5 0d 80 3f
       0.123267174 0.02414083 -0.44507334 1.000424
000020 78 4e a9 be 1d 39 43 3f 51 43 fc 3d 93 67 40 3f
       -0.3306768 0.7625902 0.12317527 0.7515804
000030 36 05 9b b1 e5 d3 0c be e8 2a f7 be d0 aa 07 bd
       -4.511686e-09 -0.13752706 -0.48274922 -0.033121884
000040 19 be c1 3e e9 bf b9 3d 44 95 59 3e d2 19 90 b9
       0.37840346 0.09069807 0.21248347 -0.00027485058
000050 60 91 62 be b8 e8 02 bf 6c db 8c 3f c8 01 b4 be
       -0.22125769 -0.5113635 1.1004462 -0.3515761
000060 3e 5c c6 be 78 b2 9d 3e 65 ff 1f 3f c8 e0 a4 3e
       -0.3874225 0.30800223 0.62499076 0.32202744
000070 07 c5 fa bd 27 07 43 be 5e 0c 51 3e 75 4e 36 be
       -0.12244611 -0.19045697 0.20414874 -0.17803366

dense2.weight f4 [10, 32]
000000 ef 83 64 3e 86 ad 6c be c1 d8 84 bd 57 90 a1 be
       0.22315954 -0.23113069 -0.06486655 -0.31555435
000010 d0 90 ba 3d 04 17 84 3d 33 66 d6 3d 77 df 26 3e
       0.09109652 0.064497024 0.10468712 0.16296183
000020 bc d7 1a 3f 5e 3b 45 3e 0d bf 77 be 8c 99 ba be
       0.60485435 0.19260928 -0.24193974 -0.36445272
000030 c9 97 7f ba 1b c5 ee 3e 8e 1d 83 3e d8 51 3b 3e
       -0.0009750096 0.46634755 0.25608486 0.1829294
000040 19 af 2b 3e 39 24 f9 bd 36 06 80 3e fd d8 a1 3a
       0.16766013 -0.12165112 0.2500474 0.0012347993
000050 e5 ab 37 3f e1 58 7a 3e da e7 7a be e4 6e 82 bc
       0.71746665 0.24447967 -0.24502507 -0.015922017
000060 7f 95 5e be aa 04 45 be 44 16 bd bc aa 9e 59 be
       -0.21736716 -0.1924006 -0.023081906 -0.21251932
000070 86 2c 7b 3d 71 37 3f 3e f1 1d bd 3e a9 1d b4 bd
       0.061321758 0.18673493 0.36936906 -0.0879472
000080 9f f3 a3 3d 05 12 59 be 19 00 90 3e 3f 18 b8 bd
       0.080054514 -0.2119828 0.28125075 -0.089889996
000090 d6 29 b4 bd a8 b6 9c be 5f 67 3e be 0c d0 9f be
       -0.08797042 -0.30608106 -0.1859412 -0.31213415
0000a0 6d 75 e3 be 49 c1 9f be b2 a0 1e 3e 62 96 c6 bd
       -0.44425526 -0.31202152 0.15490988 -0.09696652
0000b0 e3 69 6c 3a 05 04 35 3e c1 db aa 3e 67 30 d3 3d
       0.0009018464 0.17677315 0.33370784 0.103119664
0000c0 54 9d 9b be 52 c1 ea 3c 97 d1 42 be 57 f9 07 39
       -0.3039347 0.028656635 -0.19025265 0.0001296749
0000d0 4d d9 00 3e 0a ef 25 be 6c dc aa be cb 3b 41 3d
       0.12582894 -0.16204467 -0.33371294 0.047176164
0000e0 6c d4 f2 3e 4a 26 87 3e 20 65 0f 3f c2 fb ad 3e
       0.4742769 0.263964 0.5601368 0.33981138
0000f0 6d 44 ee 3e f2 6b 93 be 7a 7a cb 3e 6b a8 4b be
       0.4653658 -0.28793293 0.3974188 -0.19888465
000100 31 cc e2 3d 14 c8 3f be c6 eb e9 3d 14 bb 91 bd
       0.11074103 -0.18728667 0.11421923 -0.071157604
000110 ea 4e e1 bd 25 5d 9e 3d 1e f9 a1 3e 4f 70 c2 bd
       -0.1100138 0.0773261 0.31635374 -0.094940774
000120 8b 4c 60 be aa be 0f 3e e4 8c cb be 3c 4d 5c be
       -0.21904199 0.14037576 -0.3975593 -0.21513838
000130 bc 8f 83 38 a0 48 ef 3e 6b ba 60 be e5 c9 eb bd
       6.2733394e-05 0.46735096 -0.21946113 -0.11513118
000140 f6 be ba 3e b7 eb 9d 3e 86 ca 47 3f d0 7c 25 3b
       0.36473817 0.308439 0.780434 0.0025251396
000150 59 50 87 3e a8 a6 54 be ba c8 24 3e dd 6a 7d be
       0.26428488 -0.207667 0.16092196 -0.24747796
000160 a1 5c f5 3e c8 0b 89 3d 02 2d 04 bf b4 8b 61 bb
       0.47922233 0.066917 -0.51631176 -0.0034415545
000170 08 03 93 3d ae e6 74 3e 12 fa fb 3e 94 9c 34 3e
       0.071783125 0.23916122 0.49214226 0.17637855
000180 b2 3b bf bb 74 50 aa be 72 b6 4f 3d 7e 9e b5 3d
       -0.0058359737 -0.33264506 0.050711103 0.088681206
000190 9e 14 40 be b9 d7 b2 3d 23 b6 66 bb 11 85 1e 3e
       -0.18757865 0.08732552 -0.0035203777 0.15480448
0001a0 50 ba 88 3e c3 3a c5 bd 7d a3 87 3d f2 f2 3e 3e
       0.26704645 -0.096303485 0.0662298 0.18647364
0001b0 64 75 46 b9 95 09 05 be 0f c4 5c be ca 9b 54 3e
       -0.00018926483 -0.12991937 -0.21559165 0.20762554
0001c0 bc 95 05 bd a0 4c 84 3e 0f bd b4 bd b9 99 1b bb
       -0.0326135 0.2583971 -0.088251226 -0.002374275
0001d0 2c 09 99 be b1 4c c9 be 07 ff 39 3e 08 7c 79 3e
       -0.2988981 -0.39316323 0.18163691 0.2436372
0001e0 3c 4d da bd 08 23 5e be 62 1e 98 3d e1 51 50 bd
       -0.106592625 -0.21693051 0.0742767 -0.050859336
0001f0 f6 4b 9f be eb 89 80 3e 9e cb 75 bd 5f 9c 4a be
       -0.3111264 0.25105223 -0.060008638 -0.19786213
000200 9c 35 5e 3e e8 8a 30 3c 27 8b fd be b2 ac 51 3d
       0.21700138 0.010775305 -0.49520227 0.051190086
000210 53 21 db bd ab 8b 6a be 98 b3 ad be 09 cd d9 3b
       -0.106997155 -0.22904842 -0.33926082 0.0066467565
000220 b2 83 e3 be a7 4d 67 3e a7 03 80 be 96 91 41 3e
       -0.44436413 0.22588216 -0.25002787 0.18903193
000230 4a 17 56 3b 0f 07 76 be 66 f6 91 ba 4c 4f 0a be
       0.003266769 -0.2402613 -0.0011136055 -0.13506812
000240 bc ea 07 3e 91 be bc be f1 57 1e be bd 86 07 3b
       0.13273138 -0.3686414 -0.15463234 0.0020679676
000250 08 c8 f3 bd 60 6c 0a 3f 2f cb c2 3e 81 40 76 be
       -0.11903387 0.5407162 0.38045642 -0.24048044
000260 98 ca c9 bd 95 96 7f be 04 3b 0b 3e db 1b 52 3c
       -0.09853095 -0.24959786 0.13596731 0.012824024
000270 a3 da b4 be 59 5c 2c bf f8 0a 9e bd 55 a4 b8 be
       -0.35323057 -0.6732841 -0.07716936 -0.36062875
000280 64 78 2f be 5d 52 99 3d a2 99 90 3e 10 d5 36 3e
       -0.17135769 0.07486413 0.28242213 0.17854714
000290 fa 72 8f be 52 a2 a6 3d f2 de 93 3d 54 19 22 be
       -0.28017408 0.08136429 0.07220258 -0.15829974
0002a0 07 9e c8 3d a0 a6 3d 3d 49 47 85 be 0b ae 42 3e
       0.09795766 0.046301484 -0.2603095 0.19011705
0002b0 aa b1 83 bb d4 d5 70 3d 40 d1 ba bc 86 77 8a 3d
       -0.004018982 0.058797672 -0.022804856 0.067610785
0002c0 b7 7e 4a be 1e 43 a2 3e 6b 21 8a bd a1 45 10 3b
       -0.197749 0.3169183 -0.06744655 0.0022014158
0002d0 6f 0d 02 be bb b1 9b be f0 94 18 bd 09 f6 83 3d
       -0.12700437 -0.30409035 -0.037251413 0.06443412
0002e0 e2 10 46 be 40 fa 8e be 74 6c a6 3e af 0e 31 be
       -0.19342378 -0.279253 0.32504618 -0.17290758
0002f0 b3 7f 24 bf b9 73 dc 3e 52 f6 ff bd 96 6b 9a be
       -0.64257354 0.4305704 -0.12498154 -0.30160207
000300 ce bc 1f 3e b4 1c 1d 3d d2 1f fa bd 39 1c c2 3c
       0.15599367 0.03835745 -0.122131005 0.023695098
000310 8f 07 c8 be 60 7b a1 3e 2f b7 39 be b5 62 e4 3d
       -0.39068267 0.3153944 -0.18136285 0.11151639
000320 1b c7 53 be 1b 21 b0 3d 3e 9c 07 3e f6 73 06 bf
       -0.20681421 0.08600064 0.13243195 -0.5252069
000330 e9 e7 75 bb bc ce 5f be a9 07 8d bd 5f 92 f0 be
       -0.0037522262 -0.21856207 -0.06886227 -0.46986672
000340 cd 91 08 3f 52 12 a3 3e 11 23 e8 be 50 2c f3 ba
       0.53347474 0.31849915 -0.45339254 -0.0018552635
000350 50 a3 02 3e 30 e0 53 bd d7 2b 15 bd c7 56 8b 3e
       0.12757611 -0.051727474 -0.036418762 0.27214643
000360 73 9e 3e bd cd 16 25 bf 6f 63 8c be c8 fb 01 3e
       -0.046537828 -0.64487916 -0.27419612 0.12693703
000370 87 ad b0 3d b4 60 bd bd 23 b4 49 be a4 92 89 3e
       0.08626848 -0.0924696 -0.19697623 0.2686969
000380 69 d9 12 be eb d6 1a be 08 9b b6 be 96 4e 52 3e
       -0.14340748 -0.15121047 -0.35665154 0.2053779
000390 e3 0d b7 3d 2f 39 7f be c6 63 e2 bd b5 b5 f2 be
       0.089381956 -0.24924158 -0.110541865 -0.47404256
0003a0 59 de 8c 3d bd 9e 3a 3d ab e7 95 be 51 86 c5 3d
       0.06878347 0.04556154 -0.2927831 0.096447594
0003b0 64 73 82 3a 7c 45 54 be 8e d9 d3 3c e6 13 72 3e
       0.0009952602 -0.20729631 0.025860574 0.23640403
0003c0 c3 a8 b2 be 13 f3 1e bf ef dd 8f 3d 09 c4 1a bb
       -0.3489438 -0.6208965 0.07024752 -0.0023615381
0003d0 e5 f4 0c be 37 3f ef 3e 28 f1 79 3d 4a 70 b2 3c
       -0.13765295 0.46727917 0.061021 0.02178206
0003e0 06 f9 40 be 2a 31 e5 3e 71 26 93 be c8 77 fd be
       -0.18844995 0.44764072 -0.28740266 -0.49505448
0003f0 35 af 60 be 0a e3 94 3e f0 cb f5 be 98 96 19 3e
       -0.21941836 0.29079467 -0.48007154 0.14998853

dense2.bias f4 [10]
000000 f9 39 09 be 25 2d 3e bf 0e 44 27 be 53 2b 95 3e
       -0.13401021 -0.74287635 -0.16334555 0.29134616
000010 48 56 84 3f 9b 9e 64 3e 16 3a 16 be a0 f6 e2 be
       1.0338831 0.22326128 -0.14670596 -0.44328785
000020 24 8c 1d 3f c0 91 bd be
       0.6154196 -0.3702526
