ResidualLoss/CNN-l2-30/lower_10_back/1.pt (torch, 27135 bytes, 10 tensors)

conv1.0.weight f4 [8, 3, 3, 3]
0	0xbf52099a	-0.820459
1	0xbf0a408d	-0.54004747
2	0xbf8e551a	-1.1119721
3	0xbf459334	-0.7717774
4	0xbe818519	-0.25296858
5	0xbee6ad70	-0.45054197
6	0x3db6c008	0.08923346
7	0x3da289e5	0.079364575
8	0xbec9dc5a	-0.39425927
9	0xbec70c83	-0.38876733
10	0xbcb4fc67	-0.022093011
11	0xbede2d67	-0.43394014
12	0xbe5eb421	-0.21748401
13	0x3ebb5e48	0.36595368
14	0x3e009423	0.1255651
15	0x3d61be17	0.055112924
16	0xbe47fc6d	-0.19529887
17	0xbed44279	-0.41456965
18	0xbf616b71	-0.8805457
19	0xbf0637b3	-0.5242874
20	0xbf435a8f	-0.76310056
21	0xbef6040b	-0.4804996
22	0xbe86d79d	-0.26336375
23	0xbe7bbb25	-0.24583109
24	0xbf173ef1	-0.59080416
25	0xbec443cb	-0.38332972
26	0xbf0f96ec	-0.56089664
27	0x3ef3198e	0.47480434
28	0x3ed49b3d	0.41524687
29	0x3f411f6f	0.7543859
30	0x3f563b59	0.8368431
31	0x3eeb8ba8	0.46004987
32	0x3e5a35db	0.21309607
33	0x3f20494e	0.62611854
34	0x3f12df86	0.5737232
35	0xbf25e93a	-0.64809
36	0x3f198076	0.5996164
37	0x3f4b41ef	0.7939748
38	0x3f8fd73d	1.123756
39	0x3dd155fb	0.102214776
40	0x3ee11312	0.43959862
41	0x3ef39be4	0.47579873
42	0xbee832e6	-0.45351332
43	0xbe0c92be	-0.13727853
44	0xbf3e28ac	-0.7428081
45	0x3ef5d655	0.48015085
46	0x3e5d5fde	0.21618602
47	0xbd6ca023	-0.057769906
48	0x3f17c172	0.5927955
49	0xbdda370f	-0.10655033
50	0xbe3989f8	-0.18119037
51	0x3ec3ce72	0.38243443
52	0x3c9f2376	0.019426089
53	0xbf401b4c	-0.7504165
54	0xbe9db896	-0.3080489
55	0xbde8c334	-0.11365357
56	0x3ea791eb	0.32728514
57	0xbf418504	-0.7559359
58	0xbdcc6dba	-0.09981866
59	0x3eb494ac	0.35269678
60	0xba56bfbd	-0.00081920234
61	0xbe5a6677	-0.2132815
62	0x3f190e3f	0.5978736
63	0x3cecec61	0.028921308
64	0x3e23898c	0.15970439
65	0x3ee6c19f	0.45069596
66	0xbe83f7d3	-0.25775012
67	0x3e6a28fc	0.22867197
68	0x3f28312c	0.6570003
69	0xbdac315a	-0.084078506
70	0xbe351ec2	-0.17687514
71	0x3eccf1fc	0.4002837
72	0xbef7e974	-0.48420298
73	0xbe41febe	-0.18944833
74	0x3e74ccd8	0.23906267
75	0xbf58bff4	-0.846679
76	0xbe0e28af	-0.13882707
77	0x3d5b4c97	0.05353984
78	0xbcaebf61	-0.021331491
79	0xbd567933	-0.05236168
80	0x3e8e3aa6	0.2777912
81	0x3e2f37be	0.17111108
82	0x3f2a2035	0.66455394
83	0x3e8e4ad8	0.27791476
84	0xbf03f099	-0.51539
85	0xbe069484	-0.13142592
86	0x3f1244f3	0.5713646
87	0xbf2ed388	-0.6829152
88	0xbd627a5e	-0.05529248
89	0x3daf729d	0.085667826
90	0xbec52df2	-0.38511616
91	0x3f2c7681	0.6736832
92	0xbdf2ff84	-0.11865142
93	0xbf1ee6c0	-0.62070847
94	0xbd9cbfb2	-0.076537505
95	0x3eda2561	0.42606643
96	0xbe9b7499	-0.30362394
97	0x3e36a562	0.17836526
98	0x3efbe0be	0.49194902
99	0x3db5e33b	0.088812314
100	0x3fa4fe13	1.2890037
101	0x3f812d30	1.0091915
102	0xbeae0933	-0.33991393
103	0x3f04bd7d	0.51851636
104	0x3f52c41c	0.8233049
105	0x3e9adfbd	0.30248824
106	0x3e767ecf	0.24071811
107	0x3f05df31	0.5229369
108	0x3f72e89b	0.9488618
109	0x3d4e4026	0.050354145
110	0x3e9da6d6	0.30791348
111	0x3e6772ef	0.22602437
112	0x3d172ac5	0.036906023
113	0xbe0d3120	-0.13788271
114	0x3eb252b0	0.3482871
115	0xbe52f2c6	-0.20600423
116	0xbe866982	-0.2625237
117	0xbf02ee3c	-0.51144767
118	0xbed80ab8	-0.42195678
119	0xbf38c341	-0.72172934
120	0xbf836565	-1.0265318
121	0xbf15901b	-0.5842301
122	0xbf730899	-0.94934994
123	0xbe91061f	-0.28324983
124	0x3e4bfd4f	0.19920848
125	0xbe45c0ee	-0.19311878
126	0x3e938398	0.28811336
127	0xbf0e2c3a	-0.55536234
128	0xbe8a9818	-0.27069163
129	0xbecd3e52	-0.4008661
130	0xbf074fe2	-0.52856266
131	0xbf2d8217	-0.67776626
132	0xbdd9b34e	-0.10629903
133	0xbef877f8	-0.4852903
134	0xbf0e3e4a	-0.55563796
135	0xbeeffd63	-0.46873006
136	0xbe254a31	-0.16141583
137	0x3e1c55e7	0.15267144
138	0xbe343bbb	-0.1760091
139	0xbf2634be	-0.6492423
140	0xbeab4788	-0.33453012
141	0xbeb26ca5	-0.34848514
142	0xbdba1d57	-0.090876274
143	0x3dbc1f69	0.091856785
144	0xbe38ca55	-0.18045934
145	0xbed98118	-0.42481303
146	0x3cc67a4e	0.024228241
147	0xbd7c52c3	-0.061602365
148	0xbf090e99	-0.535379
149	0xbd198a53	-0.037485432
150	0x3d96c159	0.07361097
151	0x3d6aec7b	0.05735443
152	0x3f2d187f	0.67615503
153	0x3ea6d6f8	0.32585883
154	0xbd175176	-0.03694292
155	0x3ea902f4	0.33010066
156	0xbe1b5a20	-0.15171099
157	0xbe479a25	-0.19492395
158	0x3ee2ec79	0.4432104
159	0x3ed55091	0.4166303
160	0x3f4e0e44	0.8049052
161	0x3f46e1fd	0.7768858
162	0x3cef67f1	0.029224368
163	0x3e83f1c5	0.25770393
164	0x3f2ec7bb	0.68273515
165	0xbe9c59cc	-0.3053726
166	0xbe6af24e	-0.22943994
167	0xbeaceb94	-0.33773482
168	0xbe86ace7	-0.2630379
169	0xbeb0f43f	-0.34561345
170	0x3cc780ae	0.024353351
171	0x3eb3a6fa	0.3508833
172	0xbe8efcc7	-0.2792723
173	0x3ed549bb	0.41657814
174	0x3e90651d	0.28202143
175	0xbdb97487	-0.09055429
176	0xbe9120fc	-0.28345478
177	0x3ef148df	0.4712591
178	0xbeb1a58e	-0.3469662
179	0x3e8a1eb6	0.26976556
180	0xbdfce3ea	-0.12348159
181	0xbdae373b	-0.08506628
182	0xbcf45025	-0.029823372
183	0xbd26ca99	-0.040720556
184	0xbe97a11e	-0.2961511
185	0xbe2618e6	-0.16220436
186	0x3eb48be4	0.35262978
187	0xbd8f4298	-0.069951236
188	0x3e209af0	0.15684104
189	0x3c28d040	0.010303557
190	0xbbf11f21	-0.007358447
191	0x3ec86e8f	0.3914685
192	0xbf315888	-0.6927571
193	0x3c958fcf	0.01825705
194	0x3e97d38b	0.29653582
195	0xbebce3f1	-0.36892655
196	0x3eb38221	0.35060218
197	0xbe42647c	-0.18983644
198	0x3ea39c0d	0.31954995
199	0x3d90424e	0.070438966
200	0xbe4428aa	-0.19156137
201	0xbe9e6860	-0.30939007
202	0x3d46c624	0.048528805
203	0xbe829e6a	-0.25511485
204	0xbe63d4f9	-0.22249211
205	0x3edf8501	0.4365616
206	0xbdbb10d4	-0.09134069
207	0xbe4ebd21	-0.20189334
208	0x3de6f864	0.112778455
209	0x3ed07c71	0.4071994
210	0xbeda1a84	-0.42598355
211	0xbbe50ef1	-0.0069903065
212	0x3de35c0c	0.11101541
213	0xbf08d6a0	-0.5345249
214	0x3ed89201	0.42298892
215	0x3f38ef07	0.72239727

conv1.0.bias f4 [8]
0	0x3f040ec5	0.51585037
1	0x3e462c82	0.19352916
2	0x3e87ebdc	0.26547134
3	0xbcca67cf	-0.024707703
4	0xbdbd4f69	-0.09243662
5	0x3ce39f81	0.027786018
6	0xbe88d451	-0.26724485
7	0x3f278447	0.65436214

conv2.0.weight f4 [8, 8, 3, 3]
0	0x3dbc631d	0.09198592
1	0xbc85aba4	-0.016317196
2	0x3e30a065	0.17248686
3	0x3e0374f9	0.1283759
4	0x3e616f13	0.22015028
5	0xbdf790f8	-0.120881975
6	0x3d23cb30	0.039988697
7	0xbe107607	-0.14107524
8	0x3e060c96	0.13090739
9	0xbec98294	-0.39357436
10	0xbe290347	-0.16505156
11	0xbe3be145	-0.18347652
12	0x3e133dfe	0.14379117
13	0xbdb2c2e2	-0.08728577
14	0xbe3c047b	-0.18361084
15	0x3eafde9b	0.34349522
16	0xbd808d98	-0.06277007
17	0x3c24ccbf	0.010058581
18	0x3e6e3e09	0.23265852
19	0xbeffcb85	-0.4995996
20	0xbe45d6ac	-0.19320172
21	0x3d0dfc2b	0.034664314
22	0xbed71440	-0.42007637
23	0xbe25f782	-0.16207698
24	0x3c099800	0.008398056
25	0x3e7e3405	0.24824531
26	0x3eed2066	0.4631378
27	0xbcc41f03	-0.023940569
28	0x3df4fe0f	0.1196252
29	0x3e08f819	0.13375892
30	0x3e81e0ef	0.25366923
31	0x3e454f6a	0.19268575
32	0xbdce4bf2	-0.10073079
33	0xbde55a9b	-0.11198922
34	0x3dbbcd64	0.091700345
35	0xbdf7b1b3	-0.1209444
36	0x3d348403	0.04407121
37	0x3e3d7f87	0.18505679
38	0xbcf14b05	-0.029454717
39	0xbece715e	-0.40320867
40	0x3da57877	0.080796175
41	0xbdae32fc	-0.08505818
42	0x3e2d85b0	0.16945529
43	0x3e00da17	0.12583195
44	0x3dac0612	0.08399595
45	0xbe3c0e63	-0.18364863
46	0xbe274342	-0.1633425
47	0x3e298aad	0.16556807
48	0xbda2b8bc	-0.079453915
49	0xbecd8a29	-0.4014447
50	0xbdddbb85	-0.10826782
51	0xbe3302b2	-0.17481497
52	0x3ea5b1a5	0.32362095
53	0x3f39c3c8	0.72564363
54	0x3e7a29fc	0.24430078
55	0x3f2e711f	0.6814136
56	0x3f055508	0.5208287
57	0x3e3d9908	0.18515408
58	0x3f337603	0.70101947
59	0x3f68efa2	0.9099065
60	0xbf096a82	-0.53678143
61	0x3e480720	0.19533968
62	0xbdb593d3	-0.08866086
63	0xbe3aac49	-0.18229784
64	0x3d9ebafb	0.077505074
65	0xbd255813	-0.040367197
66	0x3e35509c	0.17706531
67	0xbbaf428a	-0.0053485082
68	0xbda6f928	-0.081529915
69	0x3e4579ea	0.19284788
70	0x3ecaddef	0.39622447
71	0xbe4beb2c	-0.1991393
72	0x3eac375f	0.33635995
73	0x3ed6c29f	0.4194536
74	0x3e01dee7	0.12682687
75	0xbdb53260	-0.08847499
76	0xbd95f29d	-0.073216654
77	0x3e43681b	0.19082682
78	0xbcf46769	-0.029834466
79	0xbd54a3f4	-0.05191417
80	0xbd1c32f0	-0.038134515
81	0x3e8ea2b6	0.27858514
82	0xbe94fd5e	-0.29099554
83	0x3ebe9c17	0.37228462
84	0xbd9a8f18	-0.07546824
85	0x3ea476d0	0.32121897
86	0x3e3a46ec	0.18191117
87	0x3d9b890d	0.075945
88	0x3ea196a4	0.31560242
89	0x3e266467	0.16249238
90	0x3e937c78	0.288059
91	0x3e6f4a6f	0.23368238
92	0x3f3dfa64	0.7421019
93	0x3ef01305	0.4688951
94	0x3d943029	0.07235748
95	0x3efbaba7	0.49154398
96	0x3eb5adea	0.35484248
97	0x3ecf9844	0.40545857
98	0xbe6f90f9	-0.23395146
99	0xbf077437	-0.52911705
100	0xbe925cf2	-0.28586537
101	0xbe5f1cec	-0.21788377
102	0xbe82a53b	-0.25516686
103	0xbe52f18f	-0.2059996
104	0x3cc33850	0.023830563
105	0x3db0e4a8	0.08637363
106	0x3d832670	0.06403816
107	0xbe53ec9c	-0.20695728
108	0x3ecbef05	0.39830795
109	0xbbbf6741	-0.0058411662
110	0x3eb55de0	0.35423183
111	0x3f0be2e7	0.546431
112	0xbe06d139	-0.1316575
113	0xbf22f3cb	-0.6365325
114	0xbe842a86	-0.25813693
115	0xbd79e04d	-0.061004926
116	0x3e96f353	0.29482517
117	0x3f194993	0.5987789
118	0x3f17706b	0.5915591
119	0xbe4a20c3	-0.1973906
120	0x3d61a57d	0.055089463
121	0x3ed56cda	0.4168461
122	0x3e256def	0.16155218
123	0xbe57584f	-0.21029781
124	0x3daee314	0.085394055
125	0xbe7e76c9	-0.2485
126	0x3ef5f30d	0.48036996
127	0x3f017831	0.5057402
128	0x3fa6415b	1.2988695
129	0x3e1f18b8	0.15536773
130	0xbf451f8d	-0.7700127
131	0xbf26ea84	-0.6520159
132	0xbf52459f	-0.82137483
133	0xbeb215dd	-0.34782305
134	0xbe2db5e4	-0.16963917
135	0x3d9b50e5	0.07583789
136	0x3c81368d	0.015773082
137	0xbd9967a0	-0.07490468
138	0xbddf822e	-0.10913502
139	0xbc51e27b	-0.012810345
140	0x3e195c77	0.14976679
141	0x3ef97ab2	0.48726422
142	0x3e265aca	0.16245571
143	0x3ab23697	0.0013596591
144	0xbd30ecb9	-0.043194506
145	0x3de1dc92	0.110283986
146	0xbe906aa3	-0.28206357
147	0x3daebf44	0.08532575
148	0xbd32d1f5	-0.043657262
149	0x3ef26b70	0.47347593
150	0xbd3dff0d	-0.046385814
151	0xbdb32d63	-0.08748891
152	0x3e4dff5b	0.20116942
153	0xbc27b8ae	-0.010236902
154	0x3ea5d111	0.32386068
155	0xbaeb2676	-0.0017940539
156	0xbde9b1e8	-0.11410886
157	0x3e150a23	0.14554648
158	0xbe9e3d01	-0.30905917
159	0xbe8e5321	-0.27797797
160	0xbd623544	-0.05522658
161	0x3ed7ebe6	0.42172164
162	0x3ebd4cb1	0.36972573
163	0x3e852963	0.26008138
164	0x3e6fa786	0.23403749
165	0x3edc9744	0.43084157
166	0xbc017a52	-0.007902699
167	0xbda8fd32	-0.08251418
168	0xbde733f3	-0.112892054
169	0x3d74b43a	0.05974219
170	0x3f2fde97	0.6869902
171	0x3e3533e8	0.17695582
172	0x3e07500e	0.13214132
173	0x3e80ef97	0.25182793
174	0x3ea91480	0.33023453
175	0xbdef909a	-0.116975024
176	0x3dd6de23	0.10491588
177	0x3c1fa68a	0.009744296
178	0x3eb9b957	0.36274216
179	0xbe68ca19	-0.22733344
180	0x3ddb697b	0.10713478
181	0xbe37b584	-0.17940336
182	0xbe4193ec	-0.18904084
183	0xbea92c49	-0.330416
184	0xbe503627	-0.20333157
185	0x3dbc21c9	0.091861315
186	0x3d9260e9	0.071473904
187	0xbe0fb133	-0.1403244
188	0xbeaaeff4	-0.33386195
189	0x3f39f8ec	0.7264545
190	0x3ef59961	0.4796858
191	0x3ea8e8c1	0.32990077
192	0x3e3487ae	0.17629883
193	0x3e73cc0f	0.23808311
194	0xbd130c83	-0.035900604
195	0x3ef4951e	0.47770017
196	0xbdd9e899	-0.106400676
197	0xbe802d75	-0.2503468
198	0xbf83ad0e	-1.0287187
199	0x3ed8ea9c	0.42366493
200	0xbf5e6726	-0.8687614
201	0x3f58236c	0.8442905
202	0xbf70c997	-0.940576
203	0xbf25ab92	-0.6471492
204	0x3ee7a9a6	0.4524662
205	0xbf9aa5f0	-1.208189
206	0xbe541a59	-0.20713176
207	0x3ea6c699	0.32573393
208	0xbe830cae	-0.2559561
209	0xbc9154e1	-0.017740669
210	0xbd0d3ab0	-0.034479797
211	0xbcf5900b	-0.029975912
212	0xbeacc65c	-0.33745086
213	0x3f7b66e6	0.98203886
214	0x3db89f39	0.09014744
215	0x3f1fce64	0.624243
216	0xbe8255eb	-0.25456175
217	0xbdb70f6f	-0.089384906
218	0xbd500635	-0.05078717
219	0xbd72ea69	-0.059305582
220	0xbd5b0dc4	-0.053479925
221	0xbe93fbff	-0.28903195
222	0x3d49436a	0.049136557
223	0xbe3f9663	-0.18709712
224	0x3e9babb6	0.30404443
225	0x3d2e1509	0.04250053
226	0x3e8671f4	0.26258814
227	0x3ca3d948	0.020001069
228	0x3e27f2e5	0.1640125
229	0xbe1765ad	-0.1478488
230	0x3e9eab70	0.3099017
231	0x3e31923d	0.17340942
232	0xbe8749ba	-0.26423436
233	0x3cbe730a	0.023248214
234	0x3e89b8f3	0.26898918
235	0x3ea40a68	0.3203919
236	0xbd97a3c8	-0.07404286
237	0x3d5d6dd1	0.054059807
238	0x3e357231	0.17719342
239	0x3ee821e1	0.45338348
240	0xbe0a68af	-0.13516496
241	0x3d5be4c7	0.053684976
242	0x3e6053e2	0.21906999
243	0x3e667f72	0.22509554
244	0x3e1299fb	0.14316551
245	0x3df951ec	0.121738285
246	0x3eb395b8	0.35075164
247	0xbe1eeaf5	-0.15519316
248	0x3e7b76c3	0.24557023
249	0xbc836873	-0.016041016
250	0xbe281b8c	-0.16416758
251	0x3e6de639	0.23232354
252	0xbd2b2d0f	-0.041791018
253	0xbe392343	-0.18079858
254	0x3de64208	0.11243063
255	0xbe8cca78	-0.2749822

conv2.0.bias f4 [8]
0	0xbee15987	-0.44013616
1	0x3d63db2d	0.055628944
2	0x3f0f13bc	0.5588949
3	0xbeef036c	-0.46682298
4	0xbc3086bd	-0.010774312
5	0x3f0da019	0.55322415
6	0x3e8f6e06	0.2801363
7	0xbf7b270c	-0.98106456

conv3.0.weight f4 [8, 8, 3, 3]
0	0xbb98d9af	-0.004664622
1	0x3da04bd0	0.0782696
2	0x3e1cf73b	0.15328686
3	0x3e5a5598	0.21321714
4	0x3ad38933	0.0016138911
5	0x3e6f2ce1	0.23356964
6	0xbe5dba18	-0.2165302
7	0xbe708965	-0.23489912
8	0x3de8ba6c	0.11363682
9	0x3db714ad	0.089394905
10	0xbebf478c	-0.37359273
11	0x3df6e61a	0.12055607
12	0x3e022827	0.1271063
13	0xbdf1a63b	-0.11799284
14	0xbe485681	-0.19564249
15	0xbe86bee9	-0.26317528
16	0x3e0763d7	0.1322168
17	0xbcdc21b1	-0.026871534
18	0xbac47762	-0.0014989192
19	0x3e8e95b8	0.278486
20	0x3dcef6d9	0.10105676
21	0x3dae7f39	0.085203595
22	0x3e922ab9	0.2854822
23	0x3e45b649	0.19307818
24	0xbe0ae6e6	-0.13564643
25	0xbe1bd338	-0.15217292
26	0x3d36fee6	0.044676684
27	0xbdba051f	-0.09083008
28	0x3e1a0f9e	0.1504502
29	0x3e73347e	0.23750493
30	0x3e0fc74a	0.14040866
31	0xbd756265	-0.05990829
32	0xbdbb5626	-0.09147291
33	0xbe702c11	-0.2345431
34	0xbe8cc40b	-0.2749332
35	0x3e1f333c	0.15546888
36	0xbe5727b4	-0.2101124
37	0xbed18f64	-0.4092971
38	0x3e1b5850	0.15170407
39	0x3e19c656	0.15017065
40	0x3db6b1b9	0.08920617
41	0x3eb89054	0.36047614
42	0x3d95eed8	0.073209465
43	0x3e839f5f	0.25707528
44	0xbe7e285f	-0.24820088
45	0xbe3c9d43	-0.18419366
46	0xbec05030	-0.37561178
47	0xbec5670b	-0.38555178
48	0xbbd88471	-0.006607585
49	0x3d87c344	0.06629041
50	0xbe1041cc	-0.140876
51	0x3e2322ea	0.15931287
52	0x3e9000c7	0.28125593
53	0x3e9b0852	0.30279785
54	0x3d791b86	0.060817264
55	0xbe95c4a6	-0.29251593
56	0xbd908735	-0.07057039
57	0xbd4a421c	-0.049379453
58	0x3d0910bc	0.033463225
59	0x3e4e9c66	0.20176849
60	0xbe71f364	-0.23628002
61	0x3e34a12c	0.17639607
62	0xbe8a221e	-0.26979154
63	0xbe81be33	-0.25340423
64	0xbe100b5e	-0.14066836
65	0xbe8a84e0	-0.270545
66	0xbf03c30e	-0.51469505
67	0x3e64aaec	0.22330827
68	0x3d787c20	0.06066525
69	0xbe53473e	-0.20632645
70	0x3dd5ca45	0.104389705
71	0x3d46d282	0.0485406
72	0xbd86ba2a	-0.06578477
73	0x3bedeeca	0.007261132
74	0x3d184f90	0.03718525
75	0xbe959964	-0.2921859
76	0xbf1107bb	-0.5665242
77	0xbe8abaad	-0.27095547
78	0xbe8881f4	-0.26661646
79	0x3e8f97f1	0.2804561
80	0x3e472859	0.19448985
81	0xbb9542a8	-0.004555065
82	0x3d806b6e	0.062704906
83	0xbca50233	-0.02014265
84	0x3e0474b8	0.1293515
85	0xbde67eef	-0.112546794
86	0x3d43208d	0.047638465
87	0xbd8cb52b	-0.068704925
88	0xbe3cb8d8	-0.18429887
89	0x3d03c440	0.03216958
90	0x3d57200d	0.0525208
91	0x3ca05bfc	0.019575112
92	0x3ebc64a7	0.36795542
93	0x3e8539af	0.26020572
94	0xbddacea3	-0.10683944
95	0xbdf4fceb	-0.11962303
96	0x3dda0f94	0.106475025
97	0x3d376cdb	0.044781547
98	0xbe08a59e	-0.13344428
99	0xbe4661d1	-0.19373251
100	0x3cb7f650	0.022456318
101	0xbd41d433	-0.04732151
102	0x3dc7003a	0.0971684
103	0xbe3288df	-0.17435025
104	0xbc9c7c65	-0.019102285
105	0xbe02ebc9	-0.12785257
106	0xbd89a371	-0.06720627
107	0x3e5ac642	0.21364692
108	0x3e72ad15	0.23698838
109	0x3e14f07a	0.1454486
110	0xbd3ddb6b	-0.04635183
111	0xbda603da	-0.081062034
112	0xbe6eae99	-0.23308791
113	0xbd70d23b	-0.05879424
114	0xbc2342da	-0.009964669
115	0x3e9a4b9f	0.3013582
116	0xbe48771d	-0.19576688
117	0x3d212efb	0.039351445
118	0xbdaf438d	-0.08557806
119	0x3ebd3854	0.36957037
120	0x3db7f6e2	0.08982636
121	0x3e7b34b0	0.24531817
122	0xbe174013	-0.14770536
123	0x3e82a724	0.25518143
124	0xbdb48500	-0.0881443
125	0x3ec7bd7c	0.39011753
126	0x3c40cb19	0.011767172
127	0x3ddacf8e	0.10684119
128	0x3cad2f7a	0.021140803
129	0x3ca03745	0.019557605
130	0xbc5645ac	-0.0130781345
131	0xbd8a104f	-0.06741392
132	0x3d91d8a6	0.071214005
133	0x3e9a2ff4	0.3011471
134	0x3eaa5cd4	0.33273947
135	0x3e5c1737	0.21493231
136	0xbe3512b8	-0.17682922
137	0xbc271dc1	-0.010199965
138	0x3cd1c5f7	0.025607092
139	0xbe5d945a	-0.21638623
140	0xbe635f56	-0.22204337
141	0xbed09a19	-0.40742567
142	0xbe95dc1f	-0.29269502
143	0xbd39d127	-0.04536548
144	0xbe903a42	-0.28169447
145	0xbe59f6d5	-0.21285565
146	0x3cb3ebe9	0.021963077
147	0xbe0c6a6f	-0.13712476
148	0xbe93462a	-0.28764468
149	0xbe46b671	-0.19405533
150	0xbe859b51	-0.2609506
151	0x3e6a1040	0.22857761
152	0xbd52218b	-0.05130152
153	0xbd40a3b6	-0.047031127
154	0x3eb29e57	0.3488643
155	0xbe22f29e	-0.15912864
156	0x3c2fc7c0	0.010728776
157	0x3e01434b	0.12623326
158	0x3e588df7	0.21147905
159	0x3ccac5c5	0.024752507
160	0x3c05d738	0.008168988
161	0xbd907025	-0.0705264
162	0xbe651247	-0.22370254
163	0x3c943700	0.018092632
164	0x3e19535d	0.14973207
165	0x3ddd9cd6	0.1082093
166	0xbe8925c8	-0.26786637
167	0xbdf2b2e1	-0.11850525
168	0x3e13885b	0.14407484
169	0x3d8ec8e5	0.06971911
170	0x3e8de042	0.27710158
171	0x3d851c6c	0.06499562
172	0xbe95f6c2	-0.29289824
173	0xbddd108d	-0.107941724
174	0xbe585454	-0.21125919
175	0x3e599534	0.21248323
176	0xbdd26998	-0.10274047
177	0xbe94b9a9	-0.29047897
178	0xbe4997be	-0.19686791
179	0xbe9b5b8c	-0.30343282
180	0x3ea8be73	0.329578
181	0x3e212f30	0.15740657
182	0x3e918ca0	0.284276
183	0x3e2134dc	0.1574282
184	0x3ea34bec	0.3189386
185	0x3ca08f7e	0.019599672
186	0x3e824b99	0.254483
187	0x3f21ff95	0.6328061
188	0x3eb3e43c	0.35135067
189	0x3e137ca4	0.14403015
190	0xbe0faa78	-0.14029872
191	0xbd1b52f3	-0.037920903
192	0x3ebd6948	0.36994386
193	0x3e85eaf6	0.26155823
194	0xbd72a1ec	-0.059236452
195	0x3e93b2e0	0.28847408
196	0xbc219e93	-0.009864467
197	0x3e00d445	0.12580974
198	0x3e9aa2b9	0.30202273
199	0x3cd70797	0.026248736
200	0xbbb8cfaf	-0.005639992
201	0xbe0bbe83	-0.13646893
202	0xbda1e883	-0.07905676
203	0x3ce97c1c	0.028501563
204	0x3e8902de	0.2676
205	0x3c6500af	0.013977214
206	0x3ba1f582	0.004942597
207	0xbe9ea848	-0.30987763
208	0xbe23f807	-0.16012584
209	0xbdbd36f5	-0.09238998
210	0xbe48ccf1	-0.19609429
211	0xbdd99ec5	-0.10625986
212	0xbe4c3192	-0.19940785
213	0x3c2920d1	0.010322765
214	0x3d9da52d	0.076975204
215	0x3c299616	0.010350725
216	0x3ef7b5e8	0.4838097
217	0x3c20fa84	0.009825353
218	0xbea1b1de	-0.31581014
219	0xbd0de76b	-0.034644525
220	0xbe1115fb	-0.14168541
221	0xbebd5f7b	-0.36986908
222	0xbe11963e	-0.14217469
223	0x3e2061e1	0.15662338
224	0xbdc69c10	-0.09697735
225	0x3d81e70a	0.06342895
226	0xbe794ac4	-0.24344927
227	0xbdb2a377	-0.08722585
228	0x3ec43820	0.3832407
229	0x3d229f37	0.03970262
230	0x3dd42a9c	0.103596896
231	0x3e6f7a08	0.23386395
232	0x3d40b76c	0.047049925
233	0xbe537776	-0.2065104
234	0xbd20576e	-0.03914588
235	0x3cc5f148	0.024162903
236	0x3e4d8dbb	0.20073597
237	0x3cd63a0f	0.026150731
238	0xbe504765	-0.20339735
239	0x3dc31b06	0.09526639
240	0xbe092af0	-0.13395286
241	0x3e8820e7	0.26587602
242	0xbe1b8925	-0.15189035
243	0xbdb6bddc	-0.089229316
244	0xbe23cc68	-0.15995944
245	0x3e689bf5	0.22715743
246	0xbbb3313a	-0.0054685147
247	0x3e4d4adb	0.20048086
248	0x3d8b50da	0.068025306
249	0xbdbfb233	-0.09360161
250	0x3e0a56c2	0.13509658
251	0x3e3bf755	0.18356068
252	0xbe486935	-0.19571383
253	0x3d13ce60	0.036085486
254	0xbd7c00a7	-0.06152406
255	0xbd51be60	-0.051206946

conv3.0.bias f4 [8]
0	0x3f8d6d03	1.1048893
1	0x3f185366	0.59502256
2	0xbe4c351b	-0.19942133
3	0x3e4877ad	0.19576903
4	0xbf556a43	-0.8336527
5	0xbea7029f	-0.32619187
6	0xbe6596ed	-0.22420855
7	0xbf0a024f	-0.5390977

dense1.0.weight f4 [32, 128]
0	0xbe47706f	-0.19476484
1	0x3d9f9488	0.07792002
2	0x3d6097fd	0.054832447
3	0xbd4d6937	-0.05014917
4	0x3d9dfce4	0.07714251
5	0xbb1a61e7	-0.002355689
6	0x3d567aaf	0.052363094
7	0x3c812aa6	0.015767407
8	0xbb873db6	-0.0041272296
9	0x3d805906	0.0626698
10	0x3e356389	0.17713751
11	0xba8bc338	-0.0010663038
12	0x3d82e672	0.0639161
13	0xbd003959	-0.03130469
14	0xbe6756ec	-0.22591752
15	0x3e52c587	0.20583163
16	0xbe1175b8	-0.14205062
17	0x3dd8ed1f	0.10592102
18	0x3e1283ad	0.14308043
19	0xbdc42a0a	-0.09578331
20	0x3cd35b1e	0.025800284
21	0xbd79395c	-0.060845718
22	0x3b8f4e15	0.004373322
23	0xbe4a5b59	-0.19761409
24	0xbda9d40b	-0.08292397
25	0x3d063526	0.03276553
26	0x3dd3c1c1	0.1033969
27	0xbdd15801	-0.102218635
28	0x3e83e17c	0.25757968
29	0x3e6d7e49	0.23192705
30	0xbe0bbbbd	-0.13645835
31	0xbe67ad5b	-0.22624724
32	0xbe3afdc8	-0.18260872
33	0x3decf0c4	0.1156936
34	0x3c6aa79d	0.014322189
35	0x3dbee686	0.093213126
36	0xbe24be19	-0.16088142
37	0x3df20759	0.11817808
38	0x3e17df81	0.14831354
39	0x3dfa68b2	0.12227
40	0x3e071fe3	0.13195758
41	0xbda9aeab	-0.082852684
42	0xbdbd9597	-0.092570476
43	0xbe92e4ca	-0.28690177
44	0x3cd29242	0.025704507
45	0x3cb72a04	0.022358902
46	0xbdfe8a19	-0.12428684
47	0x3c191e40	0.009345591
48	0x3ddc1a81	0.10747243
49	0xbde7866d	-0.113049366
50	0x3e32f6e8	0.17477
51	0x3b862141	0.0040933196
52	0xbe08c6a0	-0.1335702
53	0xbe0bfeae	-0.13671371
54	0x3de10047	0.10986381
55	0xbd1918d6	-0.0373772
56	0x3e0f005c	0.13964981
57	0x3d8d91d9	0.06912584
58	0x3e852d8c	0.26011312
59	0xbc87123b	-0.016488185
60	0xbcdcd580	-0.026957273
61	0xbdddec70	-0.108361125
62	0x3cb51745	0.022105822
63	0xbe37cf65	-0.17950208
64	0xbc0908e9	-0.008363941
65	0x3e0aeb4b	0.1356632
66	0x3db3d1fa	0.08780284
67	0x3e2528cd	0.16128846
68	0x3d7b278c	0.06131701
69	0x3d56d00a	0.052444495
70	0xbdc34fe6	-0.09536724
71	0x3dac2323	0.08405139
72	0x3d42de68	0.047575384
73	0x3d37fc57	0.044918384
74	0xbd402c8f	-0.046917494
75	0xbc50f32e	-0.012753291
76	0x3d5e4242	0.054262407
77	0xbe285f2c	-0.16442555
78	0xbe100be7	-0.1406704
79	0x3ba26667	0.004956055
80	0xbcfc98f6	-0.030834656
81	0xbce01978	-0.027355894
82	0xbdd324e1	-0.103097685
83	0x3d030b56	0.031993233
84	0xbcc8cae1	-0.024510803
85	0x3cb66ee2	0.02226967
86	0x3d6e9f6f	0.058257516
87	0xbcc674fd	-0.024225706
88	0x3cbbf4ed	0.022943938
89	0xbdc3e348	-0.09564835
90	0x3d3bb40a	0.045825996
91	0xbd455eaf	-0.048186
92	0xbe17b5d7	-0.1481546
93	0x3e8bd432	0.2731033
94	0x3c698714	0.014253397
95	0x3e091045	0.13385113
96	0x3e49127f	0.19635962
97	0xbdae66ab	-0.08515676
98	0x3d9014e5	0.07035235
99	0xbda3c8ff	-0.07997321
100	0x3d815753	0.06315484
101	0xbd47ca57	-0.04877695
102	0xbdb7d803	-0.08976748
103	0x3d1fe5d9	0.03903756
104	0x3e0c9035	0.13726886
105	0xbddf4317	-0.10901468
106	0xbd8919fb	-0.066944085
107	0x3ea42799	0.3206146
108	0xbe5e2801	-0.21694948
109	0x3dbbda26	0.09172468
110	0x3df713a7	0.12064295
111	0x3dd57b14	0.10423866
112	0xbd66d946	-0.05635955
113	0xbdcdc6a9	-0.10047657
114	0x3e0fefe0	0.14056349
115	0xbd5e4d41	-0.054272894
116	0x3d8fabb6	0.07015173
117	0x3d060da2	0.032727845
118	0xbddea769	-0.10871775
119	0xbd3e935b	-0.046527248
120	0x3d548f24	0.051894322
121	0xbe820785	-0.25396362
122	0x3d990fb5	0.07473699
123	0x3d9cd8a5	0.07658509
124	0x3dda387a	0.10655303
125	0xbddfa9e6	-0.109210774
126	0x3d0284ea	0.031865038
127	0x3d169ebc	0.036772475
128	0xbdef82c7	-0.11694866
129	0x3d4a95f8	0.049459428
130	0xba934f95	-0.0011238927
131	0x3e3c80a6	0.1840845
132	0x3e3439f3	0.17600231
133	0x3d54c12b	0.05194203
134	0xbda79538	-0.08182758
135	0xbe0fe20a	-0.14051071
136	0x3e5a37b9	0.21310319
137	0xbd9ae7d6	-0.075637504
138	0x3e0bbf0e	0.136471
139	0xbddd58f0	-0.10807979
140	0xbd00ab2f	-0.031413253
141	0x3db5b797	0.088729076
142	0xbce55627	-0.027995182
143	0x3e16350f	0.14668678
144	0xbe90e320	-0.28298283
145	0xbe0e06f6	-0.13869843
146	0x3bb0ca3a	0.005395201
147	0x3e9acad4	0.3023287
148	0xbd666752	-0.056250878
149	0xbca36441	-0.019945266
150	0x3d0401ac	0.032228157
151	0xbe289290	-0.16462159
152	0xbda3ac8a	-0.079918936
153	0xbecddcb7	-0.40207455
154	0x3d6762be	0.056490652
155	0x3c8f3b0d	0.017484212
156	0x3d509548	0.050923616
157	0x3d5ad379	0.053424332
158	0x3b982b8f	0.0046438645
159	0xbd2eee58	-0.04270777
160	0xbdaa9e12	-0.08330931
161	0xbde7e1ce	-0.11322366
162	0x3e1f6469	0.15565647
163	0xbdc74521	-0.09729982
164	0x3db85844	0.0900121
165	0x3e6b1919	0.22958793
166	0xbc914c4a	-0.017736573
167	0xbd668ea5	-0.05628838
168	0x3e327211	0.17426325
169	0x3dc41374	0.09574023
170	0x3c8206da	0.015872408
171	0xbe4f10de	-0.20221278
172	0xbe5c4f02	-0.21514514
173	0xbad47b93	-0.0016211144
174	0xbeb58115	-0.35450044
175	0x3e2c3396	0.16816553
176	0xbde50db0	-0.11184251
177	0x3cc34aec	0.023839436
178	0xbdccc344	-0.099981815
179	0xbc9f41c8	-0.019440547
180	0x3d21a60f	0.039465006
181	0x3d11b6bc	0.03557466
182	0x3d5d0bac	0.05396621
183	0xbc0ce627	-0.0085997945
184	0xbd51ba3c	-0.051202998
185	0x3d30b7b6	0.04314395
186	0x3e094a13	0.13407163
187	0xbdd2dbe8	-0.1029585
188	0xbdd4ff1e	-0.10400222
189	0x3d1bec52	0.03806717
190	0x3d4be163	0.049775492
191	0x3dbd3d3c	0.09240195
192	0x3d74374a	0.05962304
193	0x3d83de83	0.06438925
194	0x3e11f1bc	0.1425237
195	0xbe8947c5	-0.26812568
196	0x3dd5532d	0.10416255
197	0x3d68119e	0.056657426
198	0x3e063898	0.13107526
199	0xbcdb6e05	-0.02678586
200	0x3c139da4	0.009009752
201	0x3e0b0e44	0.1357966
202	0xbe4926f3	-0.19643764
203	0x3ce1a5df	0.027544914
204	0xbc207009	-0.009792336
205	0xbd5bf662	-0.053701766
206	0xbe2f03d5	-0.17091306
207	0x3d2f9594	0.04286726
208	0xbcfa119c	-0.030525975
209	0x3d002ac1	0.031290773
210	0x3c2b3dcf	0.010451748
211	0x3e392a71	0.18082596
212	0x3d0ca6bb	0.034338694
213	0x3cc02f75	0.02346013
214	0xbe06b21c	-0.13153881
215	0x3d3543a5	0.044253964
216	0x3d004ddb	0.03132425
217	0xbce64a25	-0.028111527
218	0xbe7a3cf5	-0.24437316
219	0x3c865107	0.016396059
220	0x3dc1ad03	0.094568275
221	0x3d91bbe0	0.071159124
222	0xbd1b075a	-0.037848808
223	0xbcb9606c	-0.022628985
224	0xbe10ae92	-0.14129093
225	0xbe14d4c4	-0.14534289
226	0x3d40e65b	0.047094684
227	0x3b45c546	0.0030177399
228	0x3e9e5e89	0.309315
229	0xbdff6662	-0.124707
230	0xbeaceab2	-0.33772808
231	0xbe02d108	-0.12775052
232	0xbde6b2a4	-0.11264542
233	0x3daad7c4	0.08341935
234	0x3dbe2462	0.09284283
235	0x3e64d815	0.22348054
236	0x3dcec19b	0.10095521
237	0x3e6af894	0.22946388
238	0x3d1f947b	0.03895996
239	0xbe6dd40e	-0.23225424
240	0xbc14a5d8	-0.009072743
241	0xbd1544e0	-0.036442637
242	0x3dca01d7	0.09863632
243	0x3dc5bd80	0.09655285
244	0xbdb57cff	-0.08861732
245	0xbd9176a5	-0.07102708
246	0x3dcc6647	0.09980445
247	0x3d2a5b2e	0.041590862
248	0xbbe93d25	-0.0071178847
249	0xbde9e2b8	-0.11420196
250	0xbb21c7cf	-0.0024685746
251	0x3e49b2c5	0.19697101
252	0xbd503907	-0.050835636
253	0xbce53c3e	-0.027982827
254	0x3dda3401	0.1065445
255	0xbd3b0059	-0.04565463

dense1.0.bias f4 [32]
0	0xbf05c3dc	-0.5225198
1	0x3f25884f	0.64661115
2	0x3e23bb67	0.15989457
3	0x3c44e53e	0.012017546
4	0x3f4a0b34	0.78923345
5	0x3ef0dbab	0.47042593
6	0x3f5652d6	0.8372015
7	0x3e8e50de	0.27796072
8	0xbeb5cca2	-0.35507685
9	0xbd1eb8c1	-0.038750414
10	0x3f366128	0.71242
11	0xbedb523a	-0.4283617
12	0x3f92ca66	1.1468017
13	0xbe91c0ef	-0.2846751
14	0xbea6f1d1	-0.32606366
15	0x3ef1fd6b	0.47263655
16	0xbd3cb140	-0.046067476
17	0x3e50dbc8	0.2039634
18	0x3ec5b60b	0.3861545
19	0xbf31d924	-0.69471955
20	0xbdbd65ea	-0.09247954
21	0xbe14ed6e	-0.14543697
22	0x3f32489f	0.6964206
23	0x3dc8293a	0.09773488
24	0x3efb2100	0.49048615
25	0x3e3cd3e4	0.18440205
26	0xbf1e0527	-0.6172661
27	0xbf04bd11	-0.5185099
28	0x3eb97384	0.36220944
29	0x3cc1e3ef	0.023668258
30	0xbd76689e	-0.060158364
31	0x3e2084c8	0.15675652

dense2.weight f4 [10, 32]
0	0xbf0de9a2	-0.5543462
1	0x3e8bb460	0.27286053
2	0xbf219228	-0.6311364
3	0xbee06ef5	-0.43834653
4	0x3ed1c006	0.40966815
5	0xbed53394	-0.41640913
6	0x3e98c3c2	0.2983685
7	0xbe5088b8	-0.20364654
8	0xbdfcabdc	-0.12337467
9	0xbe74859f	-0.23879097
10	0x3e829cde	0.25510305
11	0xbeff1f93	-0.49828777
12	0x3eae110a	0.33997375
13	0x3e9dfbfd	0.30856314
14	0xbe6e71da	-0.23285618
15	0x3e0e4d4c	0.13896674
16	0xbdba541f	-0.09098076
17	0xbece4d63	-0.40293416
18	0x3eb9a1d4	0.36256278
19	0x3e067c6c	0.131334
20	0x3cad17e1	0.02112955
21	0x3e34209d	0.17590566
22	0x3dc648b1	0.096818335
23	0x3e68c7a6	0.2273241
24	0x3ed81cfc	0.42209613
25	0x3e8f059c	0.27933967
26	0x3e1194e0	0.14216948
27	0x3cef19d7	0.029187126
28	0x3ea0e4f0	0.31424665
29	0x3d0f4624	0.034979
30	0xbd57b74a	-0.052665032
31	0x3e58fd36	0.21190342
32	0x3ea2d916	0.31806248
33	0xbe470f8d	-0.19439526
34	0xbe34601f	-0.17614792
35	0xbe0a0186	-0.13477144
36	0x3e074459	0.13209666
37	0x3f1243e0	0.5713482
38	0x3e4bc543	0.19899468
39	0xbf195052	-0.59888184
40	0xbb489625	-0.0030607071
41	0x3edde3ac	0.43337762
42	0xbf99d2ea	-1.2017491
43	0x3eacccbf	0.3374996
44	0x3e0f3c56	0.1398786
45	0xbe6ab9f6	-0.22922501
46	0xbda1787c	-0.07884309
47	0x3ea3c4d6	0.3198611
48	0x3eabcf7d	0.33556738
49	0x3fa5a346	1.2940452
50	0xbf3a9fb8	-0.7289996
51	0x3e799ffd	0.24377437
52	0xbdb8863b	-0.090099774
53	0x3eebad17	0.46030495
54	0xbe6ffef3	-0.23437099
55	0xbf2ff185	-0.68727905
56	0x3e6e0323	0.23243384
57	0xc083bbcb	-4.116674
58	0x3ec24c88	0.37949014
59	0x3f2d6dfe	0.6774596
60	0xbf2c2d7c	-0.67256904
61	0x3d4622b8	0.048372954
62	0xbccdea17	-0.025136037
63	0xbe9408b8	-0.28912902
64	0xbe01fd98	-0.12694395
65	0xbd9ef7f5	-0.07762138
66	0x3eaa7841	0.3329487
67	0x3e8062e0	0.25075436
68	0xbeb70205	-0.35743728
69	0x3ebd75ea	0.37004024
70	0xbf3f4ca3	-0.74726313
71	0xbd25cb59	-0.04047713
72	0x3eab8dd0	0.33506632
73	0x3ea138ef	0.3148875
74	0x3e90f7da	0.28314096
75	0xbea5c3bb	-0.32375893
76	0xbf400431	-0.75006396
77	0x3e2b1719	0.1670803
78	0x3f377bc5	0.7167323
79	0xbd6f6d2c	-0.058453724
80	0xbdbc2d53	-0.091883324
81	0xbfb7b8d9	-1.4353286
82	0xbd5304a0	-0.051518083
83	0xbf3062fb	-0.6890103
84	0x3de96e57	0.11397999
85	0x3d00c05b	0.031433444
86	0x3e84276c	0.25811327
87	0x3e70ee32	0.23528364
88	0xbe3fea92	-0.18741825
89	0x3cde781f	0.027156888
90	0xbf089fa7	-0.5336861
91	0x3d8731fc	0.06601331
92	0xbcb460fe	-0.022018906
93	0xbd8a7e15	-0.067623295
94	0x3d963ee9	0.07336218
95	0xbeae5cfb	-0.34055313
96	0x3e810bee	0.25204414
97	0xbd9f126e	-0.07767187
98	0x3c9ebc00	0.019376755
99	0x3e30f500	0.1728096
100	0x3ba52ce5	0.0050407522
101	0xbe1fad73	-0.1559351
102	0xbecda96c	-0.4016832
103	0x3ed6ed30	0.41977835
104	0xbeed5c04	-0.46359265
105	0xbe7b3b03	-0.2453423
106	0xbd04c2fc	-0.032412514
107	0x3e205492	0.15657261
108	0x3e70395a	0.23459378
109	0x3e812463	0.25223073
110	0xbf1a9338	-0.6038089
111	0xbe3b4022	-0.18286183
112	0x3eb168e4	0.34650338
113	0x3edf303a	0.4359148
114	0x3c69efe1	0.014278383
115	0x3ecdd11a	0.40198594
116	0xbd6914ec	-0.05690472
117	0xbec00de1	-0.3751059
118	0xbe1f41a5	-0.15552385
119	0x3c52fc35	0.012877514
120	0x3f104b55	0.5636495
121	0x3ea99f90	0.3312955
122	0x3e786668	0.24257815
123	0x3d705c7b	0.058681946
124	0xbd0e52ba	-0.034746863
125	0x3d9518c2	0.07280113
126	0xbf411ba4	-0.754328
127	0xbd486153	-0.04892094
128	0x3e25ad1d	0.16179319
129	0xbcc68015	-0.024230996
130	0x3ea29ee2	0.31761843
131	0x3d8daa43	0.069172405
132	0xbed98252	-0.4248224
133	0x3e382f3a	0.17986766
134	0x3cba28c0	0.02272451
135	0xbc81774b	-0.015803954
136	0x3ea06f5b	0.31334957
137	0x3d1e1c5a	0.038601257
138	0x3e484a27	0.19559537
139	0xbe160857	-0.14651619
140	0xbead69b3	-0.33869705
141	0xbda52375	-0.080634035
142	0x3eb74ccf	0.35800788
143	0x3cf79e6d	0.03022691
144	0xbea01669	-0.31267098
145	0xbf2c9329	-0.6741205
146	0xbd57899d	-0.052621473
147	0xbf0bd3a8	-0.54619837
148	0x3e70ce63	0.2351623
149	0xbec96dc1	-0.39341548
150	0xbc801b57	-0.015638037
151	0xbe2db304	-0.1696282
152	0xbe3f357b	-0.18672745
153	0xbe953344	-0.29140675
154	0xbe2e93df	-0.17048596
155	0x3d319396	0.04335364
156	0x3e6a78dd	0.22897668
157	0xbd815217	-0.063144855
158	0x3e43015c	0.19043487
159	0x3d19aadb	0.037516456
160	0x3ec33796	0.38128346
161	0xbec9ce01	-0.3941498
162	0xbe752697	-0.23940502
163	0x3d58084c	0.052742288
164	0x3e127185	0.14301117
165	0xbe01f8e0	-0.12692595
166	0x3cea1f8a	0.028579492
167	0x3e9d8937	0.3076875
168	0xbeccee3a	-0.40025502
169	0x3e6c79ca	0.23093334
170	0xbd9cee2a	-0.07662614
171	0x3ecccb9c	0.39999092
172	0xbf7006f9	-0.9376064
173	0xbc961447	-0.018320216
174	0xbecc6e1f	-0.39927766
175	0xbec9c219	-0.39405897
176	0x3e986182	0.29761893
177	0x3ecc756b	0.39933333
178	0x3ec6599f	0.3874025
179	0x3ec359dc	0.38154495
180	0xbf08e2eb	-0.5347125
181	0x3e8b7122	0.2723475
182	0x3e6bd97f	0.23032187
183	0x3e4246d8	0.18972337
184	0x3daae83b	0.08345076
185	0x3f046f40	0.51732254
186	0x3e4da8e9	0.20083965
187	0xbed04094	-0.4067427
188	0x3d52e0f3	0.05148406
189	0x3e740e0a	0.2383348
190	0xbec1fe7f	-0.37889478
191	0x3e4db9f6	0.2009047
192	0x3cd210b5	0.025642732
193	0x3e9ebf9d	0.31005564
194	0xbcd378f2	-0.025814507
195	0x3cf3169a	0.029673863
196	0x3ed0100e	0.4063725
197	0x3ee82392	0.45339638
198	0xbdcd7408	-0.10031897
199	0x3e0b037a	0.13575545
200	0xbe3f750c	-0.18696994
201	0xbe442436	-0.19154438
202	0x3ed612dd	0.41811267
203	0xbe341078	-0.17584407
204	0x3d42a473	0.047520112
205	0xbeb2e369	-0.34939125
206	0xbe8c3d6f	-0.2739062
207	0x3e2a349c	0.16621631
208	0xbe7af296	-0.24506602
209	0xbc793154	-0.015209515
210	0x3ebb4181	0.36573413
211	0xc07fdf86	-3.9980178
212	0x3e8adf02	0.27123266
213	0x3d467c90	0.048458636
214	0xbea6a0a2	-0.32544428
215	0xbf31aaaf	-0.6940107
216	0xbd31ad63	-0.043378245
217	0xbe81c901	-0.25348666
218	0x3e5de0b8	0.21667755
219	0xbd6eec7d	-0.058331
220	0x3e9cc136	0.30616158
221	0xbfac1ae4	-1.3445706
222	0x3e52f5f9	0.20601644
223	0x3e62b4d5	0.22139294
224	0x3dbabbfe	0.09117888
225	0xbe935da8	-0.28782392
226	0xbd104df6	-0.0352306
227	0x3e419964	0.1890617
228	0x3dcf039c	0.1010811
229	0xbe180922	-0.14847234
230	0x3d874d10	0.066064954
231	0x3d55a991	0.052163664
232	0xbea5c8e0	-0.32379818
233	0xbca3c283	-0.019990211
234	0xbe085a26	-0.13315639
235	0xbd0cf00c	-0.034408614
236	0xbd6bb6cc	-0.057547376
237	0x3d8d832c	0.06909785
238	0xbc8eed8b	-0.017447254
239	0xbe879305	-0.26479355
240	0xbdea078e	-0.11427222
241	0x3ed67c57	0.4189174
242	0x3eb27bf7	0.34860203
243	0x3e4427bb	0.19155781
244	0x3dbaeaf9	0.09126849
245	0x3d8a8547	0.06763702
246	0x3e486ee5	0.19573553
247	0x3dd7f4f8	0.10544771
248	0x3d1aeaf2	0.037821718
249	0x3e0eea65	0.13956602
250	0xbd26de1f	-0.040739175
251	0x3dfef801	0.12449647
252	0x3e307fa5	0.17236193
253	0x3e84d479	0.25943354
254	0xbd876a94	-0.06612125
255	0x3e96374e	0.2933907

dense2.bias f4 [10]
0	0x3f2b13e6	0.6682724
1	0xbf270985	-0.652489
2	0x3e00354c	0.12520331
3	0xbf5f5f39	-0.87254673
4	0xbf250983	-0.6446764
5	0x3d974d43	0.073877834
6	0x3faf5108	1.3696604
7	0xbe7b245b	-0.24525587
8	0x3ea74b2b	0.32674536
9	0x3e4ae26a	0.19812933
