ResidualLoss/CNN-Train/CIFAR_17_X/18-17-18-epoch-5000.pt (torch, 66303 bytes, 10 tensors)

conv1.0.weight f4 [18, 3, 3, 3]
0	0xbe0650ca	-0.13116756
1	0xbe94de93	-0.2907606
2	0x3d22dbfb	0.03976057
3	0xbf155ed6	-0.58347833
4	0x3e82fd44	0.2558385
5	0x3e78bc1e	0.24290511
6	0x3eaf658d	0.34257165
7	0x3eca37b1	0.39495614
8	0xbd55909d	-0.052139867
9	0xbe67c9f2	-0.2263563
10	0xbe808c53	-0.2510706
11	0xbe24497c	-0.16043657
12	0xbea39e13	-0.3195654
13	0x3e5fd3b9	0.2185811
14	0x3ee8ae0e	0.45445293
15	0xbebe14e5	-0.37125316
16	0x3ed97554	0.42472327
17	0x3cfa4cc2	0.03055418
18	0x3cdf278c	0.027240537
19	0xbe549047	-0.20758162
20	0x3d4816b7	0.048849788
21	0xbeca763e	-0.39543337
22	0xbe038ca4	-0.12846619
23	0x3e2fcc06	0.17167673
24	0xbe382348	-0.17982209
25	0x3f008ba6	0.50213087
26	0x3dfc0d29	0.123071976
27	0xbe36cb02	-0.17850879
28	0xbeafa2b8	-0.34303832
29	0xbe480816	-0.19534335
30	0xbebb0cb7	-0.36533138
31	0xbd99d88f	-0.075120084
32	0xbd676cc6	-0.05650022
33	0x3e855e65	0.2604858
34	0xbe80d20c	-0.25160253
35	0x3e96759d	0.29386607
36	0x3db2e80a	0.08735664
37	0x3ebbee44	0.3670522
38	0xbef9afb3	-0.4876686
39	0x3cbb1ff2	0.022842381
40	0x3de1065f	0.10987543
41	0xbeb58551	-0.35453275
42	0x3e35f7b3	0.17770271
43	0xbeb79245	-0.35853782
44	0xbeff345e	-0.4984464
45	0xbd532e82	-0.051558025
46	0x3f240659	0.64072186
47	0xbd2a1aae	-0.04152935
48	0x3f00bf0b	0.5029151
49	0x3ed720fc	0.42017353
50	0xbeefa5d1	-0.46806195
51	0x3f011e50	0.5043688
52	0x3e499588	0.19685948
53	0x3e4c7186	0.19965181
54	0x3f0fc985	0.5616687
55	0x3f257491	0.6463099
56	0x3ed60532	0.4180084
57	0x3e047c4f	0.12938045
58	0xbefe99e4	-0.49726784
59	0xbe480dcc	-0.19536513
60	0xbde52e96	-0.11190526
61	0xbec26e5b	-0.3797482
62	0x3db6c330	0.08923948
63	0xbc2f049f	-0.010682254
64	0x3e32f150	0.17474866
65	0x3e370b66	0.17875442
66	0xbe21a430	-0.15785289
67	0xbeae4859	-0.34039572
68	0x3d259b22	0.04043115
69	0xbee479d3	-0.44624195
70	0xbe8d807b	-0.27637085
71	0xbe13e42a	-0.14442506
72	0x3e27580d	0.16342182
73	0xbd19e605	-0.03757288
74	0x3df17249	0.11789376
75	0x3ed80922	0.42194468
76	0xbd9715e4	-0.07377222
77	0x3dbf5f11	0.09344304
78	0xbda54052	-0.08068909
79	0xbc35e090	-0.011100903
80	0xbd1e63be	-0.03866934
81	0xbc892794	-0.016742505
82	0x3c373885	0.011182909
83	0xbe04a462	-0.12953332
84	0x3df2c92a	0.11854775
85	0xbf2ccbfd	-0.6749876
86	0x3eb70d23	0.3575221
87	0xbd5eeb3e	-0.054423563
88	0x3bcce8e9	0.006253351
89	0x3eb6756c	0.3563646
90	0x3ef1f882	0.4725991
91	0xbd6f9203	-0.058488857
92	0x3cd1f1f5	0.02562807
93	0x3ea1258c	0.31473958
94	0xbf26e731	-0.6519652
95	0x3d2ae985	0.041726608
96	0x3e3f76a0	0.18697596
97	0xbe734bb4	-0.23759347
98	0x3ec8e12d	0.39234295
99	0x3e0d1565	0.13777693
100	0xbd64e566	-0.055882834
101	0xbe8e3918	-0.27777934
102	0x3de385e9	0.11109526
103	0xbef198fc	-0.4718703
104	0x3e24b4a8	0.1608454
105	0xbdaa8fdf	-0.083282225
106	0xbdc466ab	-0.09589895
107	0x3e3a3b3a	0.18186656
108	0xbed97efb	-0.4247969
109	0x3edbec31	0.42953637
110	0x3c9ffea6	0.019530606
111	0xbe077aea	-0.13230482
112	0xbe137601	-0.14400484
113	0x3e738ea1	0.23784877
114	0xbe268615	-0.16262086
115	0x3e15c363	0.14625315
116	0x3e998091	0.299809
117	0x3d026460	0.031834006
118	0x3f0adef1	0.5424643
119	0xbdc8ca59	-0.0980422
120	0xbe677e85	-0.22606857
121	0xbf25773a	-0.6463505
122	0x3ced179d	0.028941924
123	0x3e5e5c19	0.2171482
124	0x3de93dba	0.113887265
125	0xbe01697b	-0.12637894
126	0x3cdf851a	0.027285147
127	0x3e8c871e	0.27446836
128	0x3c343da0	0.011001021
129	0xbe1f7b8c	-0.15574473
130	0xbf0aeda8	-0.54268885
131	0xbe80c0e6	-0.2514717
132	0x3eeea57b	0.46610627
133	0xbcee6aff	-0.029103754
134	0x3d7562f3	0.05990882
135	0x3ea6730e	0.32509655
136	0xbe047273	-0.12934284
137	0x3f0c772d	0.5486935
138	0x3ea37148	0.31922364
139	0xbe958487	-0.29202673
140	0xbdbe42de	-0.09290098
141	0x3dbcb7ae	0.092147216
142	0xbe3e1ab7	-0.18564878
143	0xbe9db6ca	-0.3080352
144	0x3e0a233e	0.13490006
145	0x3f14c5cb	0.5811431
146	0x3e84e622	0.25956827
147	0xbeafeb04	-0.3435899
148	0xbe40861e	-0.18801162
149	0x3dba4b1f	0.090963595
150	0xbe81165d	-0.25212374
151	0xbe825308	-0.25453973
152	0xbe1a237a	-0.15052596
153	0xbe8ea234	-0.27858126
154	0xbdfcf093	-0.123505734
155	0xbe52d474	-0.20588857
156	0xbd31affd	-0.043380726
157	0xbe536f95	-0.20648034
158	0x3d87c410	0.06629193
159	0xbd4ab194	-0.049485758
160	0xbea7f830	-0.3280654
161	0xbec15400	-0.377594
162	0x3e0658f8	0.13119876
163	0xbef4b856	-0.47796887
164	0xbe14cecc	-0.14532012
165	0xbece58ad	-0.4030203
166	0xbedd8ff2	-0.43273884
167	0xbf3a6921	-0.72816664
168	0xbe2dfe1c	-0.16991466
169	0xbe2845c1	-0.16432859
170	0x3da0186b	0.07817157
171	0xbe51f4dc	-0.20503563
172	0xbcb9cff1	-0.022682162
173	0xbe253369	-0.16132893
174	0xbd6dcaa2	-0.058054574
175	0x3dc02c1c	0.09383413
176	0xbe902359	-0.28151968
177	0xbeed8494	-0.46390212
178	0xbe394329	-0.18092026
179	0xbdccd1e9	-0.10000975
180	0x3c91e21d	0.017808015
181	0x3dd6dd03	0.104913734
182	0x3dc49c60	0.09600139
183	0x3d70a54e	0.058751397
184	0x3e8e798f	0.27827117
185	0x3d9881ad	0.07446609
186	0xbc32abeb	-0.010905246
187	0xbda5d87e	-0.08097933
188	0x3ef082dc	0.46974838
189	0xbd995d7d	-0.074885346
190	0xbc98bd2e	-0.018644895
191	0xbed7bf5f	-0.42138192
192	0xbe9e9d1c	-0.3097924
193	0xbe701097	-0.23443829
194	0xbe80b0a8	-0.25134778
195	0x3e885df7	0.2663419
196	0x3ea1abe8	0.31576467
197	0x3f3f4a99	0.747232
198	0x3da13bc6	0.07872729
199	0xbdee77fd	-0.1164398
200	0xbe89148c	-0.2677349
201	0xbdf0d063	-0.117584966
202	0x3ec95ba4	0.3932773
203	0xbeb83c02	-0.35983282
204	0xbe669714	-0.22518569
205	0x3da51887	0.08061319
206	0x3f240ece	0.6408509
207	0xbdc1c1e4	-0.0946081
208	0xbecc1620	-0.3986063
209	0xbe600d2a	-0.21880022
210	0x3d099f64	0.033599272
211	0x3ea3f6e9	0.32024315
212	0xbe15d4b1	-0.14631917
213	0xbc8885e7	-0.016665412
214	0x3e51c604	0.20485693
215	0x3eae4ed3	0.34044513
216	0x3ee5c2f0	0.44875288
217	0x3f349394	0.70537686
218	0x3e9d0678	0.30668998
219	0x3ee20288	0.44142556
220	0x3e891bf3	0.26779136
221	0xbe7e8a2b	-0.24857394
222	0xbe7c2ef9	-0.24627294
223	0xbe1f0dea	-0.15532652
224	0xbf1a22e2	-0.60209477
225	0xbed01760	-0.40642834
226	0xbe6664e5	-0.22499426
227	0xbe8f556d	-0.27994862
228	0xbf1d9130	-0.61549664
229	0xbe78398a	-0.242407
230	0xbe70b66f	-0.23507093
231	0xbd2ab6ba	-0.041678168
232	0x3ef129c9	0.47102192
233	0x3e2c7ae8	0.1684376
234	0x3d65ccd5	0.056103546
235	0xbe3a242f	-0.18177865
236	0xbea07ba7	-0.3134434
237	0xbea37e7b	-0.31932434
238	0xbdf8de49	-0.121517725
239	0xbd9ae1ec	-0.075626224
240	0x3d3e29ed	0.046426702
241	0x3ec7ff33	0.3906189
242	0x3db1229d	0.0864918
243	0xbe7bf318	-0.24604452
244	0xbde03a1f	-0.10948586
245	0xbc8030c4	-0.015648253
246	0x3dda5b40	0.10661936
247	0xbe778b96	-0.24174342
248	0xbe00838f	-0.12550186
249	0xbe328903	-0.17435078
250	0x3e5c7da1	0.21532299
251	0x3ea26352	0.317164
252	0xbe184d05	-0.1487313
253	0x3e4faba8	0.20280325
254	0x3d89460f	0.06702816
255	0xbda2470f	-0.079237096

conv1.0.bias f4 [18]
0	0x3d7f19c4	0.06228043
1	0xbda88fce	-0.082305536
2	0xbd6816e8	-0.05666247
3	0x3e9729cd	0.2952408
4	0xbd29f540	-0.041493654
5	0x3e80b58a	0.25138503
6	0xbefbd7ed	-0.49188176
7	0x3d77c6e7	0.060492422
8	0xbf060dd8	-0.52364874
9	0x3f89aa99	1.0755187
10	0x3e8dfd1f	0.2773218
11	0xbda31e80	-0.07964802
12	0xbf40a069	-0.75244766
13	0x3e02b113	0.12762861
14	0xbc69ddec	-0.014274102
15	0x3f1e28b0	0.61780834
16	0xbbc01d04	-0.005862834
17	0x3e7b5b91	0.24546649

conv2.0.weight f4 [17, 18, 3, 3]
0	0x3dab5c26	0.08367185
1	0xbe1d71c3	-0.15375428
2	0xbd10d18d	-0.035356093
3	0x3ecb2a9e	0.39680952
4	0xbe504801	-0.20339967
5	0xbedb8609	-0.42875698
6	0x3dc56a17	0.09639376
7	0xbe933c20	-0.2875681
8	0xbc2b25d2	-0.010446029
9	0x3e82e414	0.25564635
10	0xbe17418e	-0.14771101
11	0x3ea2cc8a	0.31796676
12	0xbeaa1407	-0.33218405
13	0x3eb3d19d	0.3512086
14	0xbea10703	-0.31450662
15	0x3e8579b7	0.26069424
16	0xbe5a8475	-0.21339591
17	0x3e2899fd	0.16464992
18	0xbcb32798	-0.021869466
19	0xbd7d9ab6	-0.061915122
20	0xbc5f267c	-0.013620015
21	0x3d147979	0.036248658
22	0x3de575ad	0.112040855
23	0x3d2ddbed	0.042446066
24	0xbe209bd9	-0.15684451
25	0x3b8f8635	0.0043800124
26	0x3dcacd7e	0.09902476
27	0x3e8a4f1b	0.27013478
28	0xbe47a514	-0.19496566
29	0x3cc2f076	0.023796301
30	0xbd934374	-0.071906
31	0xbe78644e	-0.24257013
32	0xbd9aa285	-0.075505294
33	0xbf006702	-0.5015718
34	0xbcbde9a4	-0.023182698
35	0xbe7918a4	-0.24325806
36	0x3e8d3a28	0.27583432
37	0x3e1ca9ab	0.15299098
38	0xbe34b880	-0.17648506
39	0xbd88835a	-0.06665678
40	0x39587425	0.00020642632
41	0xbe05df18	-0.13073385
42	0xbf426437	-0.75934166
43	0xbdc651c7	-0.096835665
44	0xbead050b	-0.3379291
45	0x3db86a97	0.090047054
46	0x3de8f274	0.11374369
47	0xbc4ff3aa	-0.012692371
48	0xbdda9898	-0.10673636
49	0xbd024641	-0.03180528
50	0xbe571ad2	-0.21006325
51	0x3e899f54	0.2687937
52	0xbdfbb8b7	-0.12291091
53	0xbe0bbe7d	-0.13646884
54	0xbd1460c0	-0.03622508
55	0x3df6319c	0.12021181
56	0x3c813235	0.01577101
57	0x3da36e52	0.07980026
58	0xbc2aae9c	-0.010417607
59	0x3e588396	0.21143946
60	0xbdcb5e9d	-0.099301554
61	0xbde26196	-0.11053769
62	0x3e1c242b	0.15248172
63	0x3dd1d3d4	0.10245481
64	0x3e962960	0.29328442
65	0x3ec651b3	0.38734207
66	0xbb8d5a29	-0.0043137264
67	0x3db90638	0.09034389
68	0x3eec9095	0.46204057
69	0xbeee311e	-0.46521848
70	0xbecfa69a	-0.40556794
71	0x3d5267c9	0.05136851
72	0xbdff0391	-0.12451852
73	0x3c86d56a	0.016459186
74	0x3dc790dd	0.09744427
75	0xbdf5a123	-0.11993625
76	0xbe6c999b	-0.23105471
77	0x3e66c17f	0.2253475
78	0xbdacf289	-0.084446974
79	0xbe964591	-0.2934995
80	0xbe2c9766	-0.16854629
81	0x3e091ffe	0.1339111
82	0x3e2105f2	0.15724924
83	0x3e575964	0.21030194
84	0x3e8dbb26	0.27681845
85	0xbdf898a4	-0.12138489
86	0xbd518648	-0.05115345
87	0xbe6d828a	-0.23194328
88	0xbe76807e	-0.24072453
89	0xbe1477e2	-0.14498857
90	0x3d95bb9b	0.073111735
91	0xbe324f14	-0.17412978
92	0x3e21db44	0.158063
93	0x3cd05248	0.02542986
94	0xbe6a65c0	-0.22890377
95	0x3db9fd7f	0.09081554
96	0xbea143f6	-0.31497163
97	0x3e89a609	0.26884487
98	0xbe6fb3f0	-0.23408484
99	0x3d122dcd	0.03568821
100	0xbe00876a	-0.12551656
101	0xbd90c596	-0.070689365
102	0x3e7f715d	0.24945588
103	0xbe0437b4	-0.12911874
104	0xbd5c0d3c	-0.05372356
105	0x3dd01bf5	0.101615824
106	0x3e3d8e30	0.18511271
107	0x3ea766fb	0.32695755
108	0x3e2b6bb0	0.16740298
109	0x3e32655d	0.1742148
110	0xbe2a31f4	-0.16620618
111	0xbe445765	-0.19173963
112	0xbd27bd2a	-0.040951885
113	0xbe263432	-0.16230848
114	0x3d54b1d4	0.051927403
115	0xbdff39c0	-0.12462187
116	0xbcedf1d9	-0.029045986
117	0xbd627c26	-0.05529418
118	0xbea572e2	-0.3231421
119	0xbeb88d9b	-0.36045536
120	0xbde0de4e	-0.10979901
121	0xbec4f6c0	-0.38469505
122	0x3e10d245	0.14142711
123	0xbc5c56d9	-0.0134484405
124	0x3e5e40f7	0.2170447
125	0x3e2e282d	0.17007513
126	0xbe7dacf7	-0.24773012
127	0x3c8e87d8	0.01739876
128	0xbe1a40f1	-0.15063836
129	0xbe4f421f	-0.20240067
130	0xbe8532f8	-0.2601545
131	0x3e925115	0.28577486
132	0xbdd3e36d	-0.103461124
133	0x3e06315c	0.13104767
134	0x3e29eca9	0.16594185
135	0x3d62689b	0.05527554
136	0x3e33163b	0.17488949
137	0x3d7585b7	0.059941974
138	0xbc0a446a	-0.008439163
139	0xbdaeaac9	-0.085286684
140	0x3e578e8d	0.21050473
141	0xbd8b4860	-0.06800914
142	0x3eae1fae	0.34008545
143	0x3b0f4413	0.0021860644
144	0x3e0ca382	0.13734248
145	0x3d16d53d	0.036824454
146	0x3e85ffb8	0.2617166
147	0x3eb31749	0.34978703
148	0x3e312219	0.17298163
149	0xbe3a4050	-0.18188596
150	0xbe7e1bc7	-0.24815284
151	0xbef66e82	-0.48131186
152	0xbe3b4e62	-0.1829162
153	0xbd858c15	-0.06520859
154	0x3c67ac3a	0.014140183
155	0x3d853a77	0.06505292
156	0x3d8e707f	0.06955051
157	0x3e082e9c	0.1329903
158	0x3e26e93f	0.16299914
159	0xbd403dbd	-0.04693388
160	0x3d81d0e6	0.06338672
161	0xbe9e2c88	-0.3089335
162	0x3c121790	0.008916751
163	0xbda1c06e	-0.07898031
164	0xbd9f343f	-0.07773637
165	0x3dec9c1b	0.11553212
166	0x3e277cd9	0.1635622
167	0xbe23345b	-0.15937941
168	0xbd4cf8b2	-0.05004186
169	0x3d2596ee	0.04042714
170	0xbe31fc99	-0.17381515
171	0xbe694239	-0.22779168
172	0xbe337537	-0.17525183
173	0x3c203e44	0.00978047
174	0xbd7564c1	-0.05991054
175	0xbe2daf59	-0.16961421
176	0xbd5a1796	-0.05324515
177	0xbea1a3a1	-0.3157015
178	0xbe25ddb0	-0.16197848
179	0xbe89c374	-0.2690693
180	0x3e4afd32	0.19823149
181	0x3e282743	0.16421227
182	0x3d9fddf1	0.07806004
183	0x3e9e91d8	0.30970645
184	0x3de88b0c	0.11354646
185	0x3d5aa1ad	0.053376842
186	0x3e7d6a3b	0.24747555
187	0x3c5d8a35	0.013521721
188	0x3e92b0a0	0.2865038
189	0x3e4ec8b6	0.20193753
190	0x3ec84669	0.3911622
191	0x3e51139c	0.20417637
192	0xbe62550d	-0.22102757
193	0x3d020a21	0.03174794
194	0x3e8f1669	0.27946785
195	0x3e6812f9	0.22663487
196	0x3d9128ac	0.07087836
197	0xbec41819	-0.38299635
198	0x3e2aaac2	0.16666701
199	0xbdd8b163	-0.10580709
200	0xbe63e848	-0.22256577
201	0x3e03ffd8	0.12890565
202	0x3d2125d6	0.039342724
203	0x3e20a9ff	0.15689848
204	0x3e3e90c1	0.18609907
205	0x3da3e377	0.0800237
206	0xbe1056c6	-0.14095601
207	0x3e30aea5	0.17254122
208	0x3e39422c	0.18091649
209	0xbd4fef80	-0.050765514
210	0x3e8eeaca	0.27913505
211	0x3eaa6f28	0.3328793
212	0x3e5c1790	0.21493363
213	0xbc11d3c0	-0.008900583
214	0x3e82af4c	0.25524366
215	0x3dc58d2d	0.09646068
216	0x3c75b331	0.014996336
217	0x3e8cea64	0.27522576
218	0x3c1b27c8	0.009469934
219	0x3d860e3e	0.06545685
220	0x3df316a9	0.118695565
221	0x3e1e2624	0.15444237
222	0x3ebc2054	0.36743414
223	0xbc017df9	-0.007903569
224	0x3e992256	0.2990901
225	0x3cc70010	0.024292022
226	0x3cd73f3b	0.026275268
227	0xbdb42afa	-0.0879726
228	0x3d4210ae	0.04737919
229	0xbe39416b	-0.18091361
230	0x3df994da	0.12186594
231	0x3e1cae03	0.15300755
232	0x3a4d5551	0.00078328425
233	0x3ba64e29	0.0050752354
234	0xbcdffee7	-0.027343227
235	0x3dcce73e	0.100050434
236	0x3f105c16	0.5639051
237	0xbe6f42e0	-0.23365355
238	0xbee02800	-0.43780518
239	0x3d9ed8be	0.07756184
240	0x3e5f8a17	0.21830021
241	0xbe217146	-0.15765867
242	0xbe18a6db	-0.149074
243	0x3ec101c1	0.3769665
244	0x3d7fb7b5	0.062431056
245	0x3db621c0	0.08893156
246	0x3d7a2b2d	0.061076332
247	0xbd13e24c	-0.036104485
248	0x3c4cc89c	0.012499001
249	0x3e98361d	0.29728785
250	0xbc922cb6	-0.017843585
251	0xbe0826ec	-0.13296098
252	0xbd8acbbb	-0.0677714
253	0xbc6e067d	-0.014527914
254	0x3e11b155	0.14227803
255	0xbd875818	-0.066085994

conv2.0.bias f4 [17]
0	0x3f3b6c25	0.7321189
1	0x3f2f0adc	0.68375945
2	0xbd8fbaa7	-0.07018023
3	0xbd7b70f8	-0.061387032
4	0xbef24ce1	-0.4732428
5	0x3d517e0b	0.051145595
6	0xbf373837	-0.7157015
7	0x3db72479	0.089425035
8	0xbf132d6e	-0.57491195
9	0xbe57cd5f	-0.21074437
10	0x3f19932c	0.5999019
11	0x3ed0bd5e	0.40769476
12	0x3f212964	0.6295378
13	0x3f1a42ed	0.6025837
14	0xbd4b59c2	-0.049646147
15	0xbe62809b	-0.22119372
16	0x3f5d6a71	0.8649054

conv3.0.weight f4 [18, 17, 3, 3]
0	0xbc903523	-0.017603463
1	0xbea2766f	-0.31730983
2	0xbd363a08	-0.044488937
3	0x3ca69bf5	0.020338038
4	0xbd0bdf6c	-0.03414862
5	0x3d09770b	0.033560794
6	0xbd5242d8	-0.05133328
7	0xbe79f634	-0.24410325
8	0x3e4ce4d7	0.2000917
9	0x3e3e6ae7	0.18595468
10	0x3d0719b6	0.032983504
11	0xbd8bcdd0	-0.06826365
12	0x3e470abf	0.19437693
13	0xbd023295	-0.03178652
14	0x3c4de290	0.012566224
15	0xbe55c413	-0.20875578
16	0x3d2b44bc	0.041813597
17	0x3d2dc485	0.042423744
18	0x3e115ef1	0.14196374
19	0xbe116433	-0.14198379
20	0xbd4768ec	-0.048684046
21	0xbca1caf0	-0.019750088
22	0xbe1204c2	-0.14259627
23	0x3eb08b32	0.34481198
24	0xbe43a5ca	-0.19106212
25	0xbe26b7fc	-0.16281122
26	0xbe1e5732	-0.1546295
27	0x3defc75c	0.11707947
28	0x3d93077d	0.07179163
29	0xbd068d9c	-0.032849893
30	0xbc43477d	-0.0119189
31	0xbd17b631	-0.037038986
32	0x3d15c896	0.036568247
33	0x3db95c45	0.09050802
34	0xbf051b6d	-0.51994973
35	0xbea6267a	-0.3245123
36	0xbe09f9a6	-0.1347414
37	0xbe391b23	-0.18076758
38	0xbe01d80e	-0.12680075
39	0x3bc7b8ef	0.006095044
40	0x3e180aad	0.14847822
41	0x3d2d0c66	0.042248152
42	0x3e225870	0.15854049
43	0xbd387332	-0.045031734
44	0x3e2aaac6	0.16666707
45	0x3e9b22da	0.30300027
46	0xbe1b7e33	-0.1518486
47	0xbe70aded	-0.23503847
48	0xbe9fe081	-0.3122597
49	0xbe3fc292	-0.18726566
50	0x3e5a8fc2	0.21343902
51	0x3e588687	0.21145068
52	0xbd6d3114	-0.057908133
53	0x3e1fd05b	0.15606825
54	0x3e9c5554	0.3053385
55	0xbdffd18a	-0.12491138
56	0x3e40628e	0.18787596
57	0xbd817f11	-0.06323064
58	0x3e8fb871	0.28070405
59	0x3e54898c	0.20755595
60	0x3d910b0b	0.070821844
61	0x3e16c9f8	0.14725482
62	0x3dd68064	0.10473707
63	0xbcd2daaf	-0.025739042
64	0x3e770cbf	0.24125956
65	0x3e525d73	0.2054346
66	0x3e4d88b8	0.20071685
67	0x3e23f519	0.16011466
68	0x3ecff09a	0.40613252
69	0x3ddf3f69	0.109007664
70	0x3e584bde	0.21122691
71	0x3e139c83	0.14415173
72	0xbd1c336c	-0.038134977
73	0x3d40af6a	0.047042288
74	0xbc13a1c3	-0.009010735
75	0x3e2fe1ea	0.17176023
76	0x3e8b7cf3	0.27243766
77	0x3d516d53	0.05112965
78	0x3dc84854	0.097794205
79	0x3ecbc68f	0.39799926
80	0xbdf02cfe	-0.117273316
81	0x3e2df45b	0.16987745
82	0xbe93a0eb	-0.28833708
83	0x3b7b5993	0.003835295
84	0xbc088065	-0.008331393
85	0x3c2c4775	0.010515084
86	0x3d8243a2	0.06360556
87	0x3dd7741b	0.10520192
88	0x3e07780a	0.13229385
89	0x3c5f206a	0.013618568
90	0xbd9a2993	-0.07527461
91	0x3dbe1ca5	0.09282807
92	0x3e759b3c	0.23984998
93	0x3e9f50f0	0.31116438
94	0xbe9221e9	-0.28541496
95	0xbe95472d	-0.29155865
96	0xbde24ae0	-0.110494375
97	0x3e08bad8	0.13352525
98	0x3de797db	0.11308261
99	0xbe7f8792	-0.2495406
100	0xbd59e141	-0.053193334
101	0xbe5b4ba9	-0.21415581
102	0x3d512d41	0.051068548
103	0xbe340579	-0.17580213
104	0xbe534be4	-0.20634419
105	0xbac2f5fb	-0.0014874333
106	0xbdd56dcc	-0.10421333
107	0xbeaea209	-0.34107998
108	0x3d1fc5e8	0.039007097
109	0xbf0f1524	-0.55891633
110	0xbe1fe3f0	-0.15614295
111	0x3dd37b44	0.103262454
112	0xbe5680fd	-0.20947643
113	0xbee15ae9	-0.4401467
114	0xbde7c289	-0.113164015
115	0xbe4a7eac	-0.19774884
116	0xbe93a56e	-0.2883715
117	0x3da36793	0.079787396
118	0x3dcdb981	0.10045148
119	0xbdc46bf2	-0.095909014
120	0x3d0bbbf7	0.034114804
121	0xbe28c0e3	-0.1647983
122	0xbe6aba2a	-0.22922578
123	0x3e97937f	0.29604718
124	0xbe6ad1b1	-0.22931553
125	0xb9e216fd	-0.00043123207
126	0x3e5936ed	0.21212359
127	0xbe0b827d	-0.13623996
128	0x3d531c70	0.051540792
129	0x3e0b9744	0.13631922
130	0xbe8cc103	-0.27491006
131	0xbe2504ed	-0.1611516
132	0x3d95478d	0.07289038
133	0xbc5600e0	-0.013061732
134	0x3e0fe4ae	0.14052078
135	0xbe739d3a	-0.23790446
136	0x3dd782ab	0.1052297
137	0x3e0b04ee	0.135761
138	0xbdcc061f	-0.09962105
139	0x3de02a6a	0.1094559
140	0x3e6a3774	0.22872716
141	0x3e87ca88	0.26521707
142	0x3d903b95	0.07042614
143	0x3e3114ab	0.1729304
144	0x3e316c9b	0.17326586
145	0x3da665c9	0.08124883
146	0x3d23b722	0.03996957
147	0xbdae3af1	-0.08507336
148	0xbdaa6dbf	-0.08321714
149	0x3c66fbf9	0.014098161
150	0xbe168adc	-0.14701408
151	0xbecdb4d3	-0.4017702
152	0xbe306818	-0.17227209
153	0x3d8fd8d8	0.070237815
154	0x3dc275cb	0.094951235
155	0xbdc7375a	-0.09727354
156	0x3cf60d6f	0.030035703
157	0xbddbdaeb	-0.10735115
158	0x3ea9bc86	0.33151644
159	0x3db840f3	0.08996763
160	0x3cf088d1	0.029362114
161	0xbe0818ef	-0.13290761
162	0x3e0251fe	0.1272659
163	0xbdf49ba6	-0.1194375
164	0x3c89cf62	0.01682252
165	0xbea4312d	-0.32068768
166	0xbe68972a	-0.22713915
167	0xbd611693	-0.05495317
168	0x3ea8075b	0.32818112
169	0xbe5ad6a5	-0.21370943
170	0x3ef5fc8d	0.48044243
171	0xbeafadcd	-0.34312287
172	0xbcac4311	-0.021028074
173	0x3efcb96c	0.49360216
174	0xbee1f8d0	-0.4413514
175	0x3e1198a7	0.14218388
176	0x3e36420b	0.17798631
177	0xbe1c188d	-0.1524374
178	0x3e6a2098	0.22863996
179	0x3e87feaa	0.2656148
180	0xbe1b29ea	-0.15152708
181	0xbdf4e861	-0.11958385
182	0xbdd807f1	-0.1054839
183	0xbdcd4216	-0.100223705
184	0xbe5973d9	-0.21235599
185	0xbea567c5	-0.32305732
186	0xbe826642	-0.25468642
187	0x3f0f7f5a	0.560537
188	0xbe704ae7	-0.23466073
189	0x3c213077	0.009838215
190	0x3c497d1f	0.012297898
191	0x3c9609d1	0.018315228
192	0x3e8f873b	0.2803286
193	0x3e87bb5a	0.26510125
194	0x3e47b624	0.19503075
195	0xbca5dc08	-0.02024652
196	0x3e24dd14	0.1609996
197	0xbed11d21	-0.40842536
198	0x3e94916d	0.290172
199	0x3dc61f55	0.09673945
200	0xbbf2ca97	-0.0074094045
201	0x3de3173d	0.11088417
202	0xbdcbcc1c	-0.0995104
203	0xbf0d2fc8	-0.55151033
204	0x3e5d6f93	0.21624593
205	0xbe87c563	-0.26517782
206	0x3dd60e71	0.10451973
207	0x3e6e7a8a	0.23288932
208	0x3d221302	0.03956891
209	0xbdb791ff	-0.089633934
210	0x3d3d3fe2	0.0462035
211	0x3e94a636	0.2903306
212	0xbe516257	-0.2044767
213	0x3edcf905	0.43158737
214	0xbe590ed9	-0.2119707
215	0xbe230f16	-0.15923724
216	0x3d70df48	0.058806688
217	0x3e964aab	0.29353842
218	0xbde0571a	-0.10954113
219	0xbec51d52	-0.38498932
220	0xbf6e2083	-0.9301836
221	0x3d833fc3	0.06408646
222	0xbf0241c8	-0.50881624
223	0xbe408b95	-0.18803246
224	0xbde136ce	-0.10996781
225	0x3db083ca	0.08618887
226	0xbc300f5e	-0.010745851
227	0x3ea658e7	0.32489702
228	0x3dbbdfa2	0.09173514
229	0xbe973b02	-0.29537207
230	0xbe168de9	-0.14702572
231	0xbe8e84ee	-0.27835792
232	0xbe9693eb	-0.29409727
233	0xbe87ba56	-0.2650935
234	0x3eea9bb7	0.45821926
235	0x3ee01882	0.43768698
236	0xbd931c0b	-0.07183083
237	0x3dacd33c	0.08438727
238	0xbf06ddf2	-0.5268241
239	0xbeba61a7	-0.36402628
240	0x3d31add6	0.043378673
241	0xbe1f7488	-0.15571797
242	0xbdc9514f	-0.098299615
243	0xbd0bead1	-0.034159485
244	0xbd5bc586	-0.05365517
245	0x3e04d50a	0.12971893
246	0xbdceba0d	-0.1009408
247	0x3de3a2e7	0.111150555
248	0xbd1a7856	-0.037712418
249	0x3dc882a2	0.09790541
250	0xbe4d870f	-0.20071052
251	0x3f09197b	0.53554505
252	0xbe20d5f7	-0.15706621
253	0xbeeea478	-0.46609855
254	0xbd93c1bc	-0.07214686
255	0x3e2c1dd9	0.16808261

conv3.0.bias f4 [18]
0	0x3db999fc	0.09062573
1	0xbb829ad9	-0.0039857444
2	0x3e371f33	0.17882995
3	0xbe4be67e	-0.19912145
4	0xbf896b90	-1.073595
5	0xbf080d43	-0.53145236
6	0xbdaee2e2	-0.08539368
7	0x3e63ce4d	0.22246666
8	0xbedcb1ab	-0.431043
9	0x3ee235fb	0.4418181
10	0xbe9bc30a	-0.3042224
11	0x3d1a62a7	0.03769174
12	0xbeabdfb7	-0.33569118
13	0xbe55a369	-0.20863117
14	0xbfb034b9	-1.376609
15	0xbf62bb0c	-0.8856666
16	0xbd9bcfce	-0.07607995
17	0x3f8723c4	1.055779

dense1.0.weight f4 [32, 288]
0	0x3dd95b23	0.10613086
1	0xbe41f8ea	-0.1894261
2	0xbe623c79	-0.22093381
3	0x3e6c42da	0.23072377
4	0x3d3fa760	0.04679048
5	0x3e39d4e3	0.18147616
6	0x3d8896b8	0.06669372
7	0x3ca3410c	0.019928478
8	0xbe07c28c	-0.13257807
9	0x3d99b7cc	0.075057596
10	0x3d7764ad	0.060398746
11	0xbe634d35	-0.22197421
12	0xbdec10cf	-0.115266435
13	0xbe91c94d	-0.28473893
14	0xbd901bca	-0.0703655
15	0x3e60a02b	0.21936099
16	0x3e16c2d0	0.14722753
17	0x3d9ebaf7	0.077505045
18	0x3d5ed921	0.05440629
19	0xbeda51cb	-0.42640528
20	0x3dfffd27	0.12499457
21	0x3c04e2e4	0.008110736
22	0x3d855fa7	0.06512385
23	0x3de35bb4	0.11101475
24	0x3eb46c5a	0.35238916
25	0x3d3e826b	0.046511095
26	0xbd681d2a	-0.056668438
27	0xbe289f5e	-0.16467044
28	0x3e4f1f8f	0.20226882
29	0xbe01c70f	-0.12673591
30	0xbd28045f	-0.041019794
31	0x3dc640df	0.09680342
32	0xbda7d1ed	-0.08194337
33	0x3e3f3065	0.18670805
34	0xbd499e49	-0.049223218
35	0x3dda225d	0.106510855
36	0x3ba6f69e	0.005095317
37	0xbe807213	-0.25087032
38	0x3e40ce4a	0.18828693
39	0xbd6c1c3b	-0.05764411
40	0x3e6686aa	0.22512308
41	0xbe1b4cd8	-0.15166032
42	0x3de0ff70	0.10986221
43	0xbd169643	-0.036764394
44	0x3d3cba65	0.046076197
45	0x3e8f0e03	0.27940378
46	0x3d85308a	0.06503399
47	0xbd49c2a1	-0.04925788
48	0x3b97c573	0.004631692
49	0xbdbbeef4	-0.09176436
50	0xbd911976	-0.070849344
51	0x3e6a31df	0.22870587
52	0xbc1b64a4	-0.009484444
53	0xbd88f5a3	-0.066874765
54	0x3d8f52ae	0.06998192
55	0xbe254132	-0.16138151
56	0xbdb82147	-0.08990722
57	0x3e5cecf8	0.21574771
58	0x3d4c219b	0.049836736
59	0xbd07515b	-0.03303657
60	0xbe1bddab	-0.15221278
61	0x3c762c7d	0.015025255
62	0x3e1bd292	0.15217045
63	0xbe0d909a	-0.13824692
64	0xbe351b08	-0.17686093
65	0x3e3bcbd9	0.1833948
66	0xbb496b4e	-0.0030734125
67	0xbe06381c	-0.13107342
68	0xbd9a5bb8	-0.07537025
69	0x3d6ac7ac	0.05731933
70	0xbe1824af	-0.14857744
71	0x3dbe8e9c	0.09304544
72	0x3db6cd79	0.089259095
73	0x3bb44cde	0.0055023273
74	0x3cb62f87	0.02223946
75	0xbc3ec3c0	-0.01164335
76	0x3c026998	0.007959746
77	0x3e13f50e	0.1444895
78	0x3d7db39a	0.06193886
79	0xbe4e6010	-0.20153832
80	0x3dd0c595	0.10193936
81	0xbe9130ff	-0.28357694
82	0xbc98007e	-0.018554922
83	0x3d9a9d4f	0.075495355
84	0xbdec7a3b	-0.11546751
85	0xbb83a13c	-0.0040170234
86	0x3e0408ce	0.12893984
87	0x3dd623c2	0.10456039
88	0x3df67969	0.12034876
89	0xbe1323b6	-0.14369091
90	0xbe692c27	-0.22770749
91	0x3e9188c6	0.28424662
92	0xbddd91b9	-0.1081881
93	0x3dbed759	0.09318418
94	0xbe02bafa	-0.12766638
95	0x3c9be666	0.019030761
96	0xbcb9e3ab	-0.022691568
97	0xbd77b94e	-0.060479455
98	0x3b8484a6	0.0040441332
99	0xbd69826c	-0.057009146
100	0x3ce167ce	0.027515318
101	0xbe919ace	-0.2843842
102	0xbd44b103	-0.048020374
103	0x3d8011c5	0.06253389
104	0xbd827203	-0.06369402
105	0xbe29d766	-0.16586074
106	0x3e05caca	0.13065639
107	0xbddedc82	-0.10881902
108	0x3e41a601	0.18910982
109	0xbdb81587	-0.08988481
110	0xbe3e1738	-0.18563545
111	0x3e7453da	0.23860112
112	0x3dce01a0	0.10058904
113	0x3dc263e9	0.094917126
114	0xbd44083f	-0.047859427
115	0xbd243c97	-0.040096845
116	0x3e3763c0	0.17909145
117	0x3de77e6f	0.11303412
118	0xbddb1e1f	-0.106991045
119	0x3cb10076	0.021606665
120	0x3dae49db	0.085101806
121	0xbd70c41f	-0.058780786
122	0x3d1b0e60	0.037855506
123	0xbd821125	-0.06350926
124	0x3e8d60b4	0.2761284
125	0xbc834c03	-0.016027456
126	0xbdfdaa44	-0.12385991
127	0x3d4342ba	0.047671057
128	0x3dab1d27	0.0835517
129	0xbe6a22b1	-0.22864796
130	0x3dd057ec	0.1017302
131	0x3d914e75	0.070950426
132	0xbe1df5b0	-0.15425754
133	0x3d8a28ee	0.06746088
134	0xbe3b926e	-0.18317577
135	0xbe0447d7	-0.1291803
136	0x3d895566	0.067057416
137	0xbda316a4	-0.07963303
138	0x3e47afa4	0.19500595
139	0xbdc3b9c6	-0.09556918
140	0xbcd0ae00	-0.025473595
141	0xbd93ce62	-0.07217099
142	0x3e12f578	0.14351451
143	0x3d385c62	0.045009978
144	0x3e852810	0.26007128
145	0xbdcf39fd	-0.10118482
146	0xbd956f35	-0.07296602
147	0x3d92b5ea	0.071636036
148	0x3e5e3121	0.21698429
149	0x3ed9eded	0.42564335
150	0x3d32f127	0.043687012
151	0xbe639c64	-0.22227627
152	0xbe055356	-0.13020071
153	0x3d596a23	0.053079735
154	0xbd4bc1f8	-0.04974553
155	0x3e2e364f	0.17012905
156	0xbdeeb18c	-0.11654958
157	0xbe2dea2e	-0.16983864
158	0xbe914126	-0.28370017
159	0x3ddc602a	0.10760529
160	0x3dec27b8	0.11531013
161	0xbca249db	-0.019810608
162	0x3dd3ca79	0.10341353
163	0xbe18839e	-0.14893958
164	0x3d8234f0	0.06357753
165	0xbd9f8022	-0.07788111
166	0xbdf34d9b	-0.118800364
167	0x3eaf14eb	0.34195647
168	0xbdf9c777	-0.12196248
169	0x3dd8b5b3	0.105815314
170	0x3dd66faf	0.10470521
171	0xbd40d18b	-0.047074836
172	0xbea14c57	-0.31503555
173	0x3e5fed8c	0.2186796
174	0xbcb6d512	-0.022318397
175	0xbcbc0351	-0.0229508
176	0x3e2d9e89	0.16955008
177	0x3e873455	0.26407114
178	0x3aaf41c8	0.0013371045
179	0x3e730dfa	0.237358
180	0x3d9cfb4a	0.07665117
181	0xbe2240c4	-0.15845019
182	0xbd8fc00a	-0.070190504
183	0xbd8f853f	-0.070078366
184	0xbce0d349	-0.027444499
185	0x3d944d46	0.07241301
186	0x3eb1904a	0.34680396
187	0xbe416059	-0.1888441
188	0xbdbcd063	-0.09219434
189	0xbe53b518	-0.2067455
190	0xbd10ade0	-0.03532207
191	0x3e5b94fb	0.2144355
192	0xbe3f805e	-0.18701312
193	0xbe0a7e82	-0.13524821
194	0x3da84212	0.08215727
195	0x3d8778d5	0.06614844
196	0xbe0b81f7	-0.13623796
197	0x3e4a1d0a	0.1973764
198	0xbd3135e5	-0.04326429
199	0xbeb56f03	-0.35436258
200	0xbd928d70	-0.07155883
201	0xbd8c3a37	-0.06847041
202	0x3d213d62	0.03936518
203	0x3e127c5d	0.14305253
204	0x3dd52afb	0.104085885
205	0xbdfac9fd	-0.122455575
206	0x3d101913	0.035180163
207	0xbd1c7016	-0.03819283
208	0xbe32c5fc	-0.17458338
209	0xbd101144	-0.035172716
210	0xbe1f50c1	-0.15558149
211	0x3e2e8bf0	0.1704557
212	0xbd349826	-0.044090413
213	0xbe087fe7	-0.13330041
214	0x3e2bf3ae	0.16792175
215	0x3ddb353f	0.10703515
216	0x3d92b676	0.07163708
217	0x3dba2be8	0.09090406
218	0x3be4a92c	0.0069781747
219	0x3ca09746	0.019603383
220	0xbe6036de	-0.2189593
221	0x3e322a10	0.17398858
222	0x3b83e916	0.0040255887
223	0xbe7c53e2	-0.24641374
224	0x3e12cf85	0.14336975
225	0x3c6b78c0	0.014372051
226	0xbd43fe7e	-0.047850125
227	0xbe4ad87d	-0.19809146
228	0x3c8fcc8a	0.017553587
229	0x3d59fe33	0.05322094
230	0x3dbaa253	0.09112992
231	0xbc7331f6	-0.014843455
232	0x3dddcf61	0.1083057
233	0xbd5ab2fa	-0.05339334
234	0xbdaabb71	-0.08336533
235	0x3df3f452	0.11911835
236	0x3df81595	0.121134914
237	0x3deaae03	0.11458971
238	0xbddd9811	-0.1082002
239	0xbde5af6c	-0.112151
240	0xbd046b67	-0.03232899
241	0x3db510f4	0.08841124
242	0x3e3fd5ef	0.18733953
243	0xbe9912c9	-0.29897144
244	0x3e52a08f	0.2056906
245	0xbe0eadb9	-0.13933457
246	0x3db7f65a	0.08982535
247	0x3dbba2dc	0.09161922
248	0xbd764b5a	-0.060130455
249	0x3d5e02ab	0.054201763
250	0xbd08ffca	-0.033447064
251	0xbdd37903	-0.103258155
252	0xbe394e26	-0.18096218
253	0xbeab346f	-0.3343844
254	0xbc2259bc	-0.00990909
255	0xbdf6047f	-0.12012576

dense1.0.bias f4 [32]
0	0x3d88887c	0.06666657
1	0x3e91e1b3	0.28492507
2	0x3f84fd0d	1.0389725
3	0x3eb4db3e	0.3532352
4	0x3e75bdb6	0.2399815
5	0xbe0fed67	-0.14055406
6	0x3ef3b343	0.47597703
7	0x3ef93de1	0.48680022
8	0x8000608f	-3.4639e-41
9	0xbd951ae9	-0.07280523
10	0xbecfe913	-0.4060751
11	0xbe824d75	-0.2544972
12	0x3f8e0cea	1.1097691
13	0x3ea7c793	0.3276945
14	0x3f5fb217	0.8738112
15	0xbebdd6f5	-0.37078062
16	0x3f2d07a6	0.67589796
17	0x3e25419b	0.16138308
18	0xbf99c42c	-1.2012992
19	0xbf7a930e	-0.9788064
20	0xbf82ad6a	-1.0209172
21	0xbee0021b	-0.43751606
22	0xbe98669b	-0.29765782
23	0xbf0ae880	-0.54261017
24	0xbfab796e	-1.3396432
25	0x3e8b5054	0.27209723
26	0xbdb2d241	-0.08731509
27	0xbda9ce61	-0.08291317
28	0x3e86b279	0.2630804
29	0x3ebff2c0	0.3748989
30	0xbec6c78e	-0.38824123
31	0x3e4fbb62	0.20286325

dense2.weight f4 [10, 32]
0	0x3f4b1ff9	0.7934566
1	0xbec43d3e	-0.38327974
2	0xbf1875a7	-0.59554523
3	0xbed39f80	-0.41332626
4	0xbe4b393d	-0.19846053
5	0xbd7fd68d	-0.06246047
6	0x3e09d026	0.13458309
7	0xbe54a3e0	-0.20765638
8	0x800691de	-6.0334e-40
9	0x3eaf3cf2	0.34226185
10	0xbe6b25cc	-0.22963637
11	0x3f0b4669	0.5440431
12	0xbe85e461	-0.26150802
13	0xbf2f189a	-0.68396914
14	0x3efdc261	0.49562362
15	0xbf183d36	-0.594684
16	0x3e9cc80a	0.30621368
17	0x3e8dc135	0.27686468
18	0xbe542830	-0.20718455
19	0xbdfaca98	-0.12245673
20	0xbcede1f0	-0.0290384
21	0xbced946b	-0.029001435
22	0x3f3728a0	0.71546364
23	0xbf5eedc5	-0.8708156
24	0x3e4ddbf8	0.20103443
25	0x3f129d8f	0.57271665
26	0x3e77e4ef	0.24208425
27	0x3d125c8b	0.035732787
28	0x3ea0c5c8	0.31400895
29	0x3eda3072	0.42615086
30	0xbdce7964	-0.10081747
31	0x3ef9d5e7	0.48796007
32	0x3e35db70	0.1775949
33	0x3e6d2f3e	0.23162553
34	0xbdf88a2e	-0.12135731
35	0xbd2c44f2	-0.04205794
36	0x3f33f467	0.70294803
37	0xbe7382a7	-0.23780309
38	0xbfe5690b	-1.7922682
39	0xbf58cec2	-0.8469049
40	0x8001969b	-1.45863e-40
41	0x3e199532	0.1499832
42	0x3f0711de	0.5276164
43	0xbf7c6d86	-0.9860462
44	0xbf6791ff	-0.9045715
45	0xbd3cd67b	-0.046102982
46	0x3f12998b	0.5726554
47	0x3e9f522e	0.31117386
48	0xbf646633	-0.89218444
49	0x3eb5301e	0.35388273
50	0x3e0304b9	0.1279477
51	0x3ef83ae5	0.48482433
52	0xbd7b6c33	-0.061382484
53	0x3eb40c2c	0.35165536
54	0xbedd46db	-0.4321812
55	0x3f90ca6c	1.1311774
56	0x3e363627	0.17794095
57	0xbf085b7c	-0.53264594
58	0x3e7df853	0.2480176
59	0x3ec66a6f	0.38753077
60	0xbf184db3	-0.5949356
61	0xbe96e95a	-0.29474908
62	0x3ef3376b	0.47503218
63	0xbf0a070f	-0.5391702
64	0xbf32630b	-0.6968238
65	0x3ec13026	0.37732047
66	0xbeadcda9	-0.3394597
67	0xbeb70b7b	-0.35750946
68	0x3e8e583b	0.2780169
69	0xbd3817e2	-0.04494465
70	0x3ee5f061	0.44909957
71	0x3de9cb81	0.114157684
72	0x00069bd2	6.06911e-40
73	0xbe493634	-0.19649583
74	0x3da18c68	0.078881085
75	0x3e84726c	0.25868547
76	0x3de924b0	0.11383951
77	0xbed15cc8	-0.408911
78	0xbea3d349	-0.31997135
79	0xbe34a7ec	-0.17642182
80	0x3e9213c4	0.28530705
81	0x3eb1774e	0.34661335
82	0x3d682f49	0.05668572
83	0xbe947974	-0.2899891
84	0x3e939693	0.28825817
85	0xbd577ca7	-0.052609112
86	0x3e14722b	0.14496677
87	0x3e9618cf	0.29315802
88	0x3f082b56	0.53191125
89	0x3e48cb2d	0.19608755
90	0xbf14db97	-0.5814757
91	0x3d0742ec	0.033022806
92	0x3e5fbd6d	0.21849604
93	0x3ec109db	0.37702832
94	0xbe366dbd	-0.178153
95	0xbedb72f5	-0.42861143
96	0xbe5f15b5	-0.21785624
97	0xbe74cc39	-0.2390603
98	0x3cdbead2	0.02684537
99	0x3e07bd8d	0.13255902
100	0xbe0b88ca	-0.136264
101	0xbb4171c4	-0.0029517272
102	0x3e2bc006	0.1677247
103	0xbd040c4b	-0.032238286
104	0x00058a91	5.08886e-40
105	0xbea4aad7	-0.3216159
106	0xbe85a520	-0.26102543
107	0x3e0ae801	0.13565065
108	0x3e158377	0.14600931
109	0x3e9aa79a	0.30205995
110	0xbdd7af57	-0.1053149
111	0xbdf62f9c	-0.120207995
112	0x3c96befc	0.018401615
113	0xbdf724c3	-0.120675586
114	0x3e632616	0.22182497
115	0xbdd23152	-0.10263313
116	0xbd9dc331	-0.077032454
117	0x3e85a936	0.2610566
118	0xbe0a6aaf	-0.13517259
119	0xbd7ab971	-0.061212007
120	0xbe2cb043	-0.16864114
121	0x3e99eebc	0.30064952
122	0x3da7ba39	0.08189816
123	0xbe9e7fda	-0.30956918
124	0x3d535e79	0.051603768
125	0x3ddf06e1	0.10889984
126	0xbdab4115	-0.08362023
127	0xbe121c41	-0.1426859
128	0x3e26ea8c	0.1630041
129	0xbe1efb37	-0.15525518
130	0xbf0bf563	-0.54671305
131	0x3ebac34c	0.36477125
132	0x3d36bc94	0.044613436
133	0xbcca0595	-0.024660865
134	0x3e0a153d	0.13484664
135	0x3e8b6e78	0.27232718
136	0x000041c8	2.3598e-41
137	0x3e617b7f	0.22019766
138	0xbefc528d	-0.4928173
139	0x3df4f53c	0.11960837
140	0x3e1872b6	0.14887509
141	0x3e8bd7b3	0.27313003
142	0x3eeebc12	0.4662786
143	0xbe35736c	-0.17719811
144	0x3d820846	0.06349234
145	0xbdca2ba0	-0.09871602
146	0xbdb670c9	-0.08908231
147	0xbef81565	-0.48453823
148	0xbf708ccc	-0.9396484
149	0x3e8c0fbc	0.27355754
150	0x3dabf990	0.0839721
151	0x3dbd8d35	0.09255449
152	0xbec09019	-0.37609938
153	0x3e835757	0.25652573
154	0xbe1c1718	-0.15243185
155	0x3dd24f13	0.102689885
156	0x3ce60c15	0.028081933
157	0x3d3ab5a5	0.045583386
158	0xbee574e5	-0.44815746
159	0x3b32f035	0.002730382
160	0xbd18258c	-0.037145182
161	0xbeef61b2	-0.46754223
162	0xbde2dc23	-0.11077144
163	0x3e7b9e7d	0.24572177
164	0xbe15eb34	-0.14640504
165	0xbdcc23dc	-0.09967777
166	0x3e6231c1	0.22089292
167	0xbacac30b	-0.0015469504
168	0x8005d298	-5.34724e-40
169	0xbf03fdb1	-0.5155898
170	0xbdf83a8e	-0.121205434
171	0x3e81264f	0.2522454
172	0x3d9f82dc	0.07788631
173	0x3e72e377	0.23719583
174	0xbe3e0893	-0.18557958
175	0xbafa651f	-0.0019103623
176	0x3e36a3ce	0.17835924
177	0xbe488c9a	-0.19584885
178	0x3db86d45	0.090052165
179	0x3cad5af4	0.021161534
180	0xbe41f111	-0.18939616
181	0x3dd75c76	0.105156824
182	0xbc5028da	-0.012705052
183	0x3d851345	0.06497816
184	0xbe8e0fe1	-0.2774649
185	0x3e526799	0.20547332
186	0xbd71c16a	-0.059022345
187	0xbe4ab95a	-0.19797269
188	0xbda0442a	-0.07825501
189	0x3e27a2e6	0.16370735
190	0xbe06443f	-0.13111971
191	0xbe30672f	-0.17226861
192	0xbdedea55	-0.11616961
193	0xbd280f8a	-0.041030444
194	0xbe5365b3	-0.20644264
195	0xbda5ba47	-0.0809217
196	0x3e13eea6	0.14446506
197	0x3e0e2ea2	0.13884977
198	0x3eae2af2	0.3401714
199	0x3d50af24	0.050948277
200	0x8006108a	-5.56946e-40
201	0x3e016f71	0.12640168
202	0x3ecfa12c	0.40552652
203	0x3cc0a86e	0.023517814
204	0x3db60412	0.08887495
205	0x3e3521af	0.1768863
206	0x3db93945	0.090441264
207	0x3eb25973	0.3483387
208	0x3e3602f4	0.17774564
209	0x3ecf5905	0.40497604
210	0x3e1aa009	0.15100111
211	0xbea56194	-0.3230101
212	0x3ecbf661	0.3983641
213	0xbea29e02	-0.31761175
214	0x3c31511e	0.0108225625
215	0x3e27e366	0.1639534
216	0xbe8ad575	-0.2711598
217	0xbe9ee0e4	-0.31030953
218	0x3bfe0f11	0.007753261
219	0xbe13c747	-0.14431487
220	0xbedd6b4e	-0.4324593
221	0x3e4a1eb4	0.19738275
222	0xbe3ee41a	-0.18641701
223	0x3c8d32ca	0.017236132
224	0xbd83b39a	-0.06430741
225	0x3c92b9e2	0.017910901
226	0xbe0bb739	-0.13644113
227	0xbd03400d	-0.032043505
228	0xbf22af41	-0.63548666
229	0xbea708f4	-0.32624018
230	0xbf353b98	-0.7079406
231	0x3ec6aa96	0.38802022
232	0x00046372	4.03016e-40
233	0x3be94a03	0.0071194186
234	0xbb8b54b1	-0.0042520394
235	0x3bda19a3	0.006655888
236	0xbd657dcb	-0.05602817
237	0x3ea25034	0.31701815
238	0xbe62936f	-0.22126554
239	0x3e1668a5	0.14688356
240	0xbeea9f86	-0.45824832
241	0x3a6381a5	0.00086786813
242	0x3e2fd037	0.17169271
243	0xbcd3cfd9	-0.025855945
244	0xbf173e68	-0.590796
245	0xbf56c56a	-0.8389498
246	0x3f0fad4c	0.56123805
247	0x3e0d77d2	0.13815239
248	0xbd006686	-0.031347774
249	0xbca8f492	-0.020624433
250	0xbecb68c5	-0.3972837
251	0x3dc72793	0.09724345
252	0x3f0722b0	0.52787304
253	0xbf291258	-0.66043615
254	0xbf235c13	-0.6381237
255	0x3e6e7d67	0.23290025

dense2.bias f4 [10]
0	0x3f0483a6	0.5176338
1	0xbfc17291	-1.5113088
2	0x3e75b2ac	0.23993939
3	0xbf80c0b5	-1.005881
4	0x3f783046	0.9694866
5	0xbe2e14e0	-0.1700015
6	0x3ef48993	0.4776121
7	0x3e0236a5	0.12716158
8	0x3f216b61	0.6305447
9	0x3d1c24ff	0.03812122
